6_ConvolutionalNeuralNetwork/LeNet/weight/model0.pth (torch, 250410 bytes, 10 tensors)

conv1.0.weight f4 [6, 1, 5, 5]
0.63163966 0.4625025 0.31565192 0.2983943 0.5635705 0.16331896 -0.17653838 -0.17324327
0.0015493626 0.18929604 -0.10474672 -0.13387196 -0.44719973 -0.30143252 0.048080314 -0.334615
-0.4837053 -0.50830984 -0.25792646 -0.18004261 -0.09242963 -0.42192245 -0.40841314 -0.29582268
0.19121015 -0.26245108 0.09594368 0.0399388 0.09533337 0.22490208 0.15674932 0.23077613
0.4562406 0.25781712 0.4440516 0.3230345 0.45301542 0.8871631 0.5775724 0.35370478
-0.068546675 0.41234052 0.54529315 0.03947804 -0.15471773 -0.58106375 -0.18020502 -0.296734
-0.5368224 -0.8538176 -0.494134 -0.2608318 -0.24614525 -0.47578582 -0.33553153 -0.2628825
0.09660753 -0.08612521 -0.06055606 0.10843262 0.60706055 0.69557184 0.23157315 0.5104532
0.7278876 0.45974717 0.7748966 0.61861396 0.74743885 0.43296126 0.10090739 -0.12214694
0.38906908 0.16819797 0.17311741 -0.7045358 -0.5737934 -0.35375738 -0.32559586 -0.43756533
-0.38921943 0.17911436 0.24277574 0.06957285 0.05044129 0.091266654 0.46827498 0.29775292
0.72117275 0.5916311 0.21257426 0.57552177 0.58033055 0.34437236 0.4176813 -0.026590671
-0.09874417 0.24267866 0.019283516 -0.19043602 -0.4697008 -0.3038348 -0.13791831 -0.38949567
-0.2861593 -0.07093555 0.009584358 0.08614145 0.23046617 0.4084378 0.30579045 0.87451726
0.3154592 0.58535194 0.8331272 0.35376996 0.6247319 0.69298863 0.68730503 0.33740595
-0.27379516 0.04826021 0.35102746 0.13540636 -0.25128007 -0.5278471 -0.08271602 -0.29256406
0.005454455 -0.09799853 0.06083655 0.34937415 0.044368014 0.37523755 0.62572896 0.34140533
0.6482066 0.82632786 0.7930692 0.46510795 -0.07043756 0.23618881 0.71747595 0.626565
0.07070869 -0.35405493 0.11075051 0.31344774 -0.22463612 -0.64575464
00000000: 23b3 213f 21cd ec3e 219d a13e 23c7 983e
00000010: 2846 103f 163d 273e 7ac6 34be af66 31be
00000020: fb13 cb3a d2d6 413e 7385 d6bd bb15 09be
00000030: 5df7 e4be 5d55 9abe ddef 443d a852 abbe
00000040: 39a8 f7be 9820 02bf f00e 84be 175d 38be
00000050: bf4b bdbd 3806 d8be 871b d1be 1276 97be
00000060: 98cc 433e fd5f 86be 1f7e c43d de96 233d
00000070: 243e c33d bb4c 663e e582 203e 9450 6c3e
00000080: 5e98 e93e 9b00 843e bb5a e33e c764 a53e
00000090: a3f1 e73e 1f1d 633f c9db 133f cb18 b53e
000000a0: 3362 8cbd 4c1e d33e 5598 0b3f bab3 213d
000000b0: 536e 1ebe 98c0 14bf aa87 38be 85ed 97be
000000c0: 316d 09bf ca93 5abf 22ff fcbe bf8b 85be
000000d0: 800d 7cbe 339a f3be caca abbe 8998 86be
000000e0: 2bda c53d 6a62 b0bd a209 78bd ec11 de3d
000000f0: 5268 1b3f ff10 323f 8321 6d3e 10ad 023f
00000100: d756 3a3f fb63 eb3e a05f 463f 7c5d 1e3f
00000110: 2758 3f3f 19ad dd3e 89a8 ce3d 2d28 fabd
00000120: 1034 c73e 173c 2c3e b145 313e 755c 34bf
00000130: 20e4 12bf b01f b5be 80b4 a6be 9008 e0be
00000140: c547 c7be c169 373e 349a 783e 367c 8e3d
00000150: 879b 4e3d 03ea ba3d bdc1 ef3e 1273 983e
00000160: c79e 383f 2375 173f 11ad 593e 6555 133f
00000170: 8b90 143f 9351 b03e 53da d53e aed4 d9bc
00000180: 623a cabd c180 783e 77f8 9d3c a901 43be
00000190: a07c f0be 3c90 9bbe 753a 0dbe fa6b c7be
000001a0: 7983 92be a846 91bd b607 1d3c ee6a b03d
000001b0: 53ff 6b3e c21e d13e 9190 9c3e 5de0 5f3f
000001c0: de83 a13e a0d9 153f d347 553f 5621 b53e
000001d0: 6eee 1f3f b467 313f 39f3 2f3f 79c0 ac3e
000001e0: e12e 8cbe 7fac 453d dfb9 b33e f7a7 0a3e
000001f0: c8a7 80be fd20 07bf 0467 a9bd f5ca 95be
00000200: 49bb b23b 74b3 c8bd bf2f 793d 2be1 b23e
00000210: 3cbb 353d 231f c03e c62f 203f aecc ae3e
00000220: def0 253f 398a 533f 9506 4b3f a122 ee3e
00000230: 9141 90bd 7bdb 713e 81ac 373f 9066 203f
00000240: b8cf 903d b046 b5be 2ad1 e23d 397c a03e
00000250: 0307 66be 2d50 25bf

conv1.0.bias f4 [6]
0.2929867 -0.7264266 -0.36916903 -0.6317214 -0.48424083 -0.6846639
00000000: 5a02 963e 18f7 39bf b903 bdbe 7eb8 21bf
00000010: 6aee f7be 2246 2fbf

conv2.0.weight f4 [16, 6, 5, 5]
-0.022742087 -0.026905105 0.14089344 0.25041178 0.016166037 -0.12817104 -0.08418652 0.1603113
0.21496025 0.01579124 -0.19436245 0.05366905 0.22322416 0.13038509 -0.16654368 -0.032959145
0.19133297 0.2839253 -0.00017112505 -0.069931075 -0.02863338 0.14362057 0.20208454 -0.03633381
-0.05571511 0.111940525 0.19549309 -0.13188098 -0.17729557 -0.07368242 0.08668119 -0.036924176
-0.19963363 -0.4880655 -0.10684461 0.11933588 0.04838463 -0.5370567 -0.35897383 0.16517577
0.19615345 -0.10731099 -0.8016772 -0.18624222 0.19758694 0.15417509 -0.23980732 -0.68541205
-0.031951476 0.2220716 0.22261328 0.06440973 -0.074976176 -0.24556664 -0.05196288 0.17681664
0.09369901 -0.26183215 -0.3064212 0.031282853 0.31101164 0.09218244 -0.46782017 -0.08883998
0.31127197 0.28030506 -0.18247704 -0.39858574 0.032590624 0.3199872 0.13255833 -0.18952441
-0.18697229 0.058423672 0.31636477 0.22246963 0.12431115 -0.15486282 -0.26404336 -0.031915344
0.14827035 -0.025800912 -0.46028286 -0.39104664 0.028316138 0.15375763 0.08742592 -0.61595565
-0.17622852 0.30388185 0.23564596 -0.27535233 -0.6857354 0.08852508 0.25306752 0.16165762
-0.43843505 -0.31979182 0.10668526 0.1921896 0.09925473 0.08921406 -0.1298678 -0.26012084
0.06397307 0.10549585 -0.010301212 -0.32221934 -0.37417412 0.1372959 0.20142834 0.042158067
-0.47033978 -0.099703155 0.16669081 0.2734088 -0.2263833 -0.6157997 0.005518423 0.27935886
0.05650233 -0.3331933 -0.37292454 0.027346395 0.24595475 0.13851415 0.16823396 -0.03706993
-0.17538731 -0.023992587 0.14494862 0.027199514 -0.28485045 -0.4473064 0.06219081 0.13353473
-0.035792135 -0.62415004 -0.30010056 0.2463362 0.19228522 -0.13586895 -0.73650986 -0.058062732
0.15860571 0.09444816 -0.31718215 -0.48890084 0.072582096 0.30772957 0.11548716 -0.038605817
-0.2033285 -0.40181124 -0.4207516 0.1354366 0.3359967 0.05183144 -0.3570002 -0.49805057
0.117209375 0.40336114 0.5028424 0.08341155 -0.2311995 -0.2474216 0.18217285 0.31024364
-0.013161357 -0.025650838 -0.23645239 -0.12089416 -0.030659085 -0.04494524 -0.02479997 -0.008382726
0.15675722 0.18751092 0.36066675 0.37254396 -0.26766774 -0.015129286 0.22191834 0.40505797
0.35604042 -0.38791212 -0.410134 -0.12520623 0.09286748 0.35279617 -0.14662814 -0.40690133
-0.3758283 -0.031323753 0.164221 0.17987832 -0.1873895 -0.24103399 -0.080129325 -0.0069072703
-0.032196242 0.010770851 0.20210351 0.23747857 0.25853902 -0.2435252 -0.3096689 -0.0028149416
0.2649597 0.4144422 -0.24375008 -0.453675 -0.16088933 0.06960686 0.336839 -0.027598698
-0.38648266 -0.27834558 0.00033500182 0.058161456 0.074083105 -0.04773307 -0.08089161 0.016478123
0.0012527566 -0.0248414 0.09995046 0.25596 0.28141776 0.32364053 -0.25832245 -0.26175678
0.020055633 0.25292012 0.36327076 -0.23519865 -0.43566787 -0.26803106 0.0773616 0.29570153
0.022750147 -0.38698494 -0.3676736 -0.0013410656 -0.01365139 0.14438194 -0.17761648 -0.15278398
-0.03982224 0.024250144 -0.13165744 0.006686045 0.2777639 0.29088297 0.3530789 -0.24816659
00000000: 9d4d babc 1868 dcbc 5f46 103e f935 803e
00000010: a36e 843c 453f 03be fb69 acbd a528 243e
00000020: 8a1e 5c3e a15c 813c f306 47be 14d4 5b3d
00000030: e094 643e ab83 053e 6d8a 2abe 2b00 07bd
00000040: caec 433e a85e 913e 0870 33b9 0638 8fbd
00000050: 8d90 eabc 4511 133e 40ef 4e3e c3d2 14bd
00000060: 8735 64bd 1341 e53d 572f 483e cf0b 07be
00000070: f88c 35be cfe6 96bd e885 b13d ce3d 17bd
00000080: c26c 4cbe b9e3 f9be 59d1 dabd 5f66 f43d
00000090: f62e 463d 8c7c 09bf 6bcb b7be d623 293e
000000a0: 73dc 483e ddc5 dbbd b83a 4dbf 48b6 3ebe
000000b0: 3b54 4a3e 13e0 1d3e 0d90 75be 2a77 2fbf
000000c0: 8ddf 02bd bd66 633e bcf4 633e 40e9 833d
000000d0: 1c8d 99bd d275 7bbe 07d7 54bd 6c0f 353e
000000e0: 44e5 bf3d dd0e 86be 3de3 9cbe 7322 003d
000000f0: eb3c 9f3e 26ca bc3d 2086 efbe bcf1 b5bd
00000100: 0a5f 9f3e 2584 8f3e 43db 3abe 6e13 ccbe
00000110: bf7d 053d 5dd5 a33e 5fbd 073e b012 42be
00000120: aa75 3fbe a94d 6f3d 90fa a13e 14cf 633e
00000130: d896 fe3d 5c94 1ebe b130 87be aab9 02bd
00000140: 2fd4 173e 6f5c d3bc 32aa ebbe 4437 c8be
00000150: 3ff7 e73c a472 1d3e 5c0c b33d 45af 1dbf
00000160: 4075 34be 6796 9b3e 2d4d 713e fbfa 8cbe
00000170: 5b8c 2fbf a34c b53d 1192 813e 9389 253e
00000180: 8f7a e0be c1bb a3be cd7d da3d 5acd 443e
00000190: 1046 cb3d dcb5 b63d 11fc 04be 8f2e 85be
000001a0: 5004 833d 350e d83d 6ac6 28bc eff9 a4be
000001b0: c093 bfbe 4c97 0c3e 3b43 4e3e f0ad 2c3d
000001c0: 60d0 f0be 2b31 ccbd ffb0 2a3e 3dfc 8b3e
000001d0: 06d1 67be 0da5 1dbf e3d3 b43b 2008 8f3e
000001e0: fd6e 673d 5098 aabe f7ef bebe 8c05 e03c
000001f0: 90db 7b3e a7d6 0d3e 8645 2c3e a4d6 17bd
00000200: bb98 33be 1a8c c4bc 696d 143e 84d1 de3c
00000210: ebd7 91be 5805 e5be cabb 7e3d 54bd 083e
00000220: c69a 12bd 4cc8 1fbf c8a6 99be 8f3f 7c3e
00000230: 6be6 443e 3b21 0bbe e98b 3cbf 30d3 6dbd
00000240: 8969 223e 096e c13d b365 a2be 3651 fabe
00000250: eca5 943d bb8e 9d3e 8884 ec3d 2221 1ebd
00000260: 5935 50be 34ba cdbe c16c d7be e4af 0a3e
00000270: c207 ac3e 344d 543d bbc8 b6be 7c00 ffbe
00000280: 780b f03d 5a85 ce3e 48ba 003f add3 aa3d
00000290: 90bf 6cbe 175c 7dbe 858b 3a3e 41d8 9e3e
000002a0: bba2 57bc b521 d2bc 9320 72be 5b97 f7bd
000002b0: c328 fbbc 8018 38bd 4f29 cbbc b457 09bc
000002c0: f784 203e dd02 403e 50a9 b83e 15be be3e
000002d0: bf0b 89be d3e0 77bc 903e 633e c263 cf3e
000002e0: ee4a b63e 6b9c c6be 15fd d1be 1036 00be
000002f0: 4e31 be3d b3a1 b43e b025 16be 5f55 d0be
00000300: 916c c0be 564d 00bd 8d29 283e 0632 383e
00000310: 08e3 3fbe 9dd1 76be d81a a4bd 6256 e2bb
00000320: 35e0 03bd 3978 303c 39f4 4e3e 952d 733e
00000330: 3a5f 843e ac5e 79be ec8c 9ebe e27a 38bb
00000340: cca8 873e c531 d43e 9f99 79be 1748 e8be
00000350: 2cc0 24be 0b8e 8e3d 2976 ac3e aa16 e2bc
00000360: 0ee1 c5be 5083 8ebe 2fa3 af39 b53a 6e3d
00000370: e2b8 973d c083 43bd 80aa a5bd 21fd 863c
00000380: 8933 a43a 3180 cbbc d4b2 cc3d 300d 833e
00000390: fd15 903e 36b4 a53e d742 84be fc04 86be
000003a0: b64b a43c bf7e 813e a0fe b93e ead7 70be
000003b0: dc0f dfbe 5e3b 89be c26f 9e3d 3166 973e
000003c0: 845e ba3c e422 c6be b73f bcbe b2c6 afba
000003d0: 14aa 5fbc dcd8 133e 18e1 35be 6773 1cbe
000003e0: a51c 23bd 3da8 c63c 35d1 06be 9c16 db3b
000003f0: 1237 8e3e 9dee 943e c2c6 b43e 621f 7ebe

conv2.0.bias f4 [16]
0.021123089 -0.13802326 -0.039602745 -0.07831736 0.027925616 -0.029813183 -0.14941156 -0.02296562
-0.037145764 -0.08552922 0.0050835265 -0.1353117 0.022020524 0.081359364 -0.014794155 -0.10832629
00000000: 540a ad3c f855 0dbe 7d36 22bd da64 a0bd
00000010: 43c4 e43c c73a f4bc 58ff 18be 6522 bcbc
00000020: 2826 18bd f229 afbd b693 a63b 268f 0abe
00000030: 6364 b43c bd9f a63d 2f63 72bc 2dda ddbd

fc1.0.weight f4 [120, 400]
0.11592278 0.09082839 0.2686761 0.312426 -0.0033636745 -0.046936397 0.16673058 0.0011198155
0.039333403 0.013039716 -0.07710241 0.1176382 -0.43945652 -0.04007687 0.075889826 0.055365354
0.02538323 -0.2096851 -0.07874024 -0.08270732 0.0012614155 -0.19209537 -0.075051166 -0.13732564
-0.10502401 0.03207687 0.15512758 0.095762506 -0.13778037 -0.018491004 -0.038724154 -0.08936156
-0.1581659 0.021104978 0.24324948 -0.074254006 -0.029195232 -0.17760952 -0.033883024 0.36447808
-0.031181153 -0.025755499 -0.28965452 -0.17651324 0.053367402 0.0538954 0.02954258 0.06820105
-0.12191218 -0.11045644 0.054432034 0.12312873 -0.08806486 -0.20636056 -0.1519456 -0.07729651
-0.03886808 -0.07570274 0.09574971 -0.014807176 -0.06833087 0.12579428 0.09531501 0.24898309
0.016574498 0.19981629 -0.0069925026 -0.0534884 0.51496536 0.21369635 -0.18861063 -0.61352974
-0.18476376 -0.2147218 -0.17025413 0.14302576 0.0872753 0.06417857 0.29391974 0.011050826
-0.009126348 -0.026239645 -0.04054833 0.25148743 0.011888607 0.07646699 0.032510612 -0.41558394
0.15064351 0.078776225 -0.06082953 -0.21984701 -0.37929195 0.031753942 -0.04073332 -0.035908967
-0.008336344 -0.03293582 -0.047837935 -0.06740045 0.049187876 0.023551885 -0.01843641 0.17310728
0.008707979 -0.054455258 0.052218884 -0.12600394 0.28131023 0.048131056 0.014302601 0.0029342552
-0.38429064 0.17776163 0.16608645 0.025873654 -0.17234948 -0.35113788 -0.03565977 0.0118670855
-0.01976562 0.0059010936 -0.10556147 -0.16086124 -0.026825078 0.030117922 0.021133173 -0.046059053
-0.19163023 -0.1169013 0.026388377 0.08935986 -0.044804074 -0.1586362 0.11999225 -0.21719402
-0.0058114575 0.16212116 0.06609866 -0.03992729 0.058121204 0.11712953 0.17121302 0.22377326
0.42335585 -0.12689075 -0.20800272 -0.063277386 0.04867813 -0.003398995 -0.05909076 -0.23933193
-0.26063094 0.36846808 0.3206442 -0.1182111 -0.050616533 -0.11612292 0.1886369 0.26146743
0.12463521 0.023735158 -0.55733156 -0.14432815 0.20414557 -0.09153864 -0.19359636 -0.3000378
-0.21052992 -0.13789216 0.07561233 0.1475399 0.12191045 -0.058016744 0.00024912853 0.11652371
0.0512184 -0.18565203 0.009949356 0.03769582 -0.07147649 -0.13351287 -0.038535036 0.3032317
0.03845169 0.028730577 0.09412624 -0.13352373 0.100190245 0.16447587 0.048948515 -0.11038157
-0.34935093 -0.007952165 0.0730672 -0.056878865 -0.15390348 -0.18897834 -0.14167286 -0.13028197
-0.24076387 -0.33104965 -0.06824168 0.32311556 0.2824145 0.04492629 0.11477713 -0.11679652
-0.011068666 -0.05865216 0.1406637 -0.010222463 -0.1658036 -0.049813304 -0.16166808 -0.21017812
-0.09603608 0.08617172 0.017300483 -0.30110976 0.012413395 0.15133612 0.17544651 -0.015181466
0.08476327 0.12126224 -0.09983633 -0.08167204 0.08287436 -0.024955185 -0.026027123 0.1745269
0.48392498 0.15076745 -0.13825314 0.025242161 -0.20272423 0.11161549 0.15283957 -0.10641681
-0.03160606 -0.4735748 0.11644084 0.16009372 0.03217749 -0.08468601 -0.10485533 -0.18944657
-0.12752424 -0.07314333 0.12337721 0.042048197 -0.09806833 -0.06517443 -0.059965126 -0.00055005174
00000000: ec68 ed3d 3c04 ba3d ea8f 893e 4df6 9f3e
00000010: 1871 5cbb 6140 40bd 6cbb 2a3e c6c6 923a
00000020: 101c 213d 88a4 553c dee7 9dbd 4cec f03d
00000030: 7200 e1be a527 24bd 206c 9b3d c8c6 623d
00000040: 7ef0 cf3c b1b7 56be 9042 a1bd 7562 a9bd
00000050: 1556 a53a a6b4 44be 6db4 99bd 189f 0cbe
00000060: d416 d7bd 0963 033d c4d9 1e3e 221f c43d
00000070: 4c16 0dbe 727a 97bc 389d 1ebd 3203 b7bd
00000080: 3ef6 21be 59e4 ac3c 6416 793e 7c12 98bd
00000090: d72a efbc 45df 35be edc8 0abd df9c ba3e
000000a0: 9e6f ffbc 32fd d2bc 994d 94be e3bf 34be
000000b0: c797 5a3d 6cc1 5c3d 4803 f23c feac 8b3d
000000c0: 18ad f9bd fc36 e2bd 20f4 5e3d ea2a fc3d
000000d0: 595b b4bd 2f50 53be a197 1bbe a24d 9ebd
000000e0: 2334 1fbd 0a0a 9bbd 6d18 c43d cc99 72bc
000000f0: 0ef1 8bbd 37d0 003e 8434 c33d 6cf5 7e3e
00000100: 3ec7 873c a49c 4c3e 5d21 e5bb a716 5bbd
00000110: c5d4 033f 37d3 5a3e 2523 41be 4910 1dbf
00000120: b632 3dbe 08e0 5bbe 1957 2ebe 5875 123e
00000130: 64bd b23d 0e70 833d a67c 963e 860e 353c
00000140: ae86 15bc 86f4 d6bc 0116 26bd f6c2 803e
00000150: 6fc8 423c ba9a 9c3d d929 053d 6bc7 d4be
00000160: 4b42 1a3e 6e55 a13d 6328 79bd 931f 61be
00000170: 8e32 c2be 6c10 023d fbd7 26bd 4815 13bd
00000180: 2995 08bc b6e7 06bd b6f1 43bd 3f09 8abd
00000190: 3a79 493d e2ef c03c f407 97bc 0943 313e
000001a0: e9ab 0e3c 7a0c 5fbd 78e3 553d 2d07 01be
000001b0: e507 903e 1225 453d 7555 6a3c a24c 403b
000001c0: bec1 c4be 2507 363e 9112 2a3e fcf4 d33c
000001d0: 627c 30be 58c8 b3be fb0f 12bd 2a6e 423c
000001e0: 82eb a1bc f65d c13b 9d30 d8bd cfb8 24be
000001f0: 44c0 dbbc dcb9 f63c 7a1f ad3c 6ba8 3cbd
00000200: b73a 44be f369 efbd 702c d83c 4d02 b73d
00000210: 7a84 37bd 8771 22be 7fbe f53d 1c68 5ebe
00000220: 0a6e bebb 1703 263e bc5e 873d cc8a 23bd
00000230: 8010 6e3d 9be1 ef3d 7752 2f3e d124 653e
00000240: 19c2 d83e a6ef 01be aafe 54be 9397 81bd
00000250: b862 473d acc1 5ebb 2709 72bd 6e13 75be
00000260: 6b71 85be d9a7 bc3e 7a2b a43e a918 f2bd
00000270: 4853 4fbd dad1 edbd 082a 413e 0fdf 853e
00000280: bf40 ff3d 3c70 c23c 48ad 0ebf c2ca 13be
00000290: 890b 513e 9c78 bbbd 203e 46be 8e9e 99be
000002a0: 2895 57be 9a33 0dbe a3da 9a3d b314 173e
000002b0: 30ac f93d f7a2 6dbd 779d 8239 fca3 ee3d
000002c0: 63ca 513d 911b 3ebe a002 233c ef66 1a3d
000002d0: 4462 92bd 99b7 08be ead6 1dbd 2f41 9b3e
000002e0: 857f 1d3d 635c eb3c 42c5 c03d 72ba 08be
000002f0: 8b30 cd3d 5d6c 283e 3d7e 483d bc0f e2bd
00000300: 20de b2be cc49 02bc 42a4 953d d0f9 68bd
00000310: e098 1dbe 8a83 41be b112 11be a368 05be
00000320: ce8a 76be 577f a9be 4bc2 8bbd 676f a53e
00000330: a298 903e a104 383d 4610 eb3d 0433 efbd
00000340: 5a59 35bc 3f3d 70bd 250a 103e 1e7c 27bc
00000350: 6bc8 29be 0909 4cbd 518c 25be ef38 57be
00000360: 90ae c4bd cc7a b03d beb9 8d3c 0f2b 9abe
00000370: 8d61 4b3c dbf7 1a3e 40a8 333e afbb 78bc
00000380: 5e98 ad3d 5658 f83d fd76 ccbd ac43 a7bd
00000390: 08ba a93d d16e ccbc d536 d5bc 2eb7 323e
000003a0: 04c5 f73e c862 1a3e 3b92 0dbe a6c8 ce3c
000003b0: f196 4fbe a996 e43d fa81 1c3e 0ef1 d9bd
000003c0: 5b75 01bd 6578 f2be 8978 ee3d 9cef 233e
000003d0: 8bcc 033d dc6f adbd 64be d6bd 48fe 41be
000003e0: b795 02be 2ccc 95bd 31ad fc3d bb3a 2c3d
000003f0: 0cd8 c8bd 2c7a 85bd fe9d 75bd 5931 10ba

fc1.0.bias f4 [120]
-0.065230854 0.093952246 0.03077849 0.0711558 0.09602792 0.0509638 0.078964174 -0.02162847
-0.008012504 -0.020467797 -0.023743741 -0.016831484 -0.067992575 0.0064406632 0.024624629 -0.06259319
-0.035275865 0.107712574 -0.031694867 0.021583358 0.023716016 -0.026897397 0.062638424 -0.11993729
-0.02705328 0.009262368 -0.021909798 -0.018286673 0.116528295 -0.04317403 -0.039102104 0.057621427
0.03177444 0.024351526 0.1246354 0.02541478 -0.072420634 -0.021783473 0.07200768 -0.053219225
0.059316278 -0.048567627 -0.03372312 -0.06642401 0.10426293 0.08742693 0.056054413 0.11306584
-0.10231224 0.041254375 -0.08360322 -0.0070087886 -0.020103691 0.00014512861 0.02171735 -0.009192363
-0.028110135 -0.054124072 0.035353664 -0.027658954 0.02084872 -0.0352359 -0.045898248 -0.06567453
0.050821297 0.034424793 -0.025893103 0.042118482 -0.075760216 0.059635457 -0.079074554 0.023838753
0.047672324 0.07600146 -0.012902256 -0.006549395 0.013886204 0.033399288 -0.0019492352 0.025290418
0.030735413 -0.050200544 0.037736636 0.11589347 0.03965181 0.014501202 -0.015088782 0.02249673
-0.051086936 0.10568056 0.040865757 0.06963263 -0.050922334 0.05957962 0.046024993 0.0060765985
-0.035098575 0.072947085 -0.008031996 0.03691755 -0.007840415 0.0057390686 -0.033527423 0.0041628415
0.050591506 -0.089703016 0.018723167 0.075137116 0.04070374 -0.057725903 -0.026196228 0.037081167
-0.03449119 -0.03383498 -0.008099525 0.051459942 0.011710585 0.052205462 -0.03884054 -0.06441476
00000000: c197 85bd 096a c03d 2c23 fc3c 22ba 913d
00000010: 49aa c43d 6bbf 503d f8b7 a13d 302e b1bc
00000020: e146 03bc 15ac a7bc 3c82 c2bc 2ee2 89bc
00000030: b13f 8bbd 330c d33b 97b9 c93c dc30 80bd
00000040: 6d7d 10bd 6998 dc3d 7ad2 01bd 95cf b03c
00000050: 1748 c23c ee57 dcbc 9348 803d afa1 f5bd
00000060: d79e ddbc 30c1 173c 2d7c b3bc efcd 95bc
00000070: 63a6 ee3d 40d7 30bd 8729 20bd 7204 6c3d
00000080: ea25 023d da7c c73c d840 ff3d a832 d03c
00000090: 4551 94bd 4173 b2bc c378 933d 67fc 59bd
000000a0: a0f5 723d d9ee 46bd 4121 0abd 5009 88bd
000000b0: ce87 d53d e40c b33d 5099 653d 108f e73d
000000c0: 1489 d1bd 59fa 283d 2a38 abbd fba9 e5bb
000000d0: 7fb0 a4bc aa2d 1839 96e8 b13c 919b 16bc
000000e0: 3a47 e6bc 34b1 5dbd 01cf 103d 0895 e2bc
000000f0: efca aa3c 8553 10bd cdff 3bbd 5e80 86bd
00000100: fe29 503d 0301 0d3d c61d d4bc 6e84 2c3d
00000110: 2c28 9bbd 4f44 743d d7f1 a1bd 7d49 c33c
00000120: 0e44 433d a7a6 9b3d fc63 53bc 4f9c d6bb
00000130: f682 633c b1cd 083d 7b7d ffba da2d cf3c
00000140: d5c8 fb3c 169f 4dbd bb91 1a3d 8e59 ed3d
00000150: f069 223d 7396 6d3c f036 77bc 104b b83c
00000160: 8940 51bd 0d6f d83d da62 273d 8d9b 8e3d
00000170: f093 50bd c209 743d b484 3c3d 341e c73b
00000180: 86c3 0fbd 4865 953d a298 03bc db36 173d
00000190: 1675 00bc cc0e bc3b 0d54 09bd 7268 883b
000001a0: 0a39 4f3d 37b6 b7bd 5461 993c 7de1 993d
000001b0: f7b8 263d ff71 6cbd 7999 d6bc 6ce2 173d
000001c0: a246 0dbd 8c96 0abd dfb3 04bc a9c7 523d
000001d0: c1dd 3f3c 65d5 553d 4217 1fbd e3eb 83bd

fc2.0.weight f4 [84, 120]
-0.21392137 -0.4743232 0.023560686 0.06959684 0.1916644 -0.08150585 0.0943259 -0.027463177
-0.08284878 0.28019756 -0.25222188 0.34471196 0.42340946 -0.022861278 0.29959047 0.08426355
0.017427262 0.095113605 0.026448937 0.5416605 0.09331174 0.31066963 0.25105417 0.12357711
0.25389972 0.10067792 -0.28032532 -0.31354973 -0.18116967 -0.27162957 0.22770591 0.08107863
-0.07580536 -0.27130094 -0.17129739 0.027316129 -0.035800666 -0.097226925 0.26428515 -0.03365602
0.3827102 0.2102536 -0.032764595 -0.13189821 0.0850469 0.17381306 0.04344298 0.11864976
0.11427311 0.14171663 -0.21535662 -0.13719203 -0.08165742 0.049470127 -0.21857499 0.3483736
0.13452311 0.3583739 -0.039889283 -0.08185644 0.20634526 -0.38465276 0.27569222 -0.06987545
-0.31445006 -0.30785817 -0.032558624 0.5900571 -0.1012821 0.08872604 0.3134555 0.13742068
-0.15221888 -0.36395714 -0.039288864 -0.3064803 -0.08415698 0.25680113 -0.35299557 0.031388294
-0.13929495 0.22246677 0.28027758 0.24470058 -0.2774683 0.22347169 -0.14016579 0.08678667
0.21411727 -0.024647603 0.031139983 -0.22086059 0.18288632 -0.05227291 0.10826588 -0.5235156
0.050207075 -0.18037447 0.29984775 0.16656728 0.23359856 -0.12675038 0.012476086 -0.27406898
-0.07191156 0.10173016 0.20174958 0.052787803 -0.0055585126 -0.1331146 0.10638141 -0.13567096
-0.007647599 0.17617114 -0.4593659 -0.13463953 0.0021440159 0.17954656 0.6356556 -0.45066813
-0.093539394 -0.10850739 -0.035328224 0.18074758 0.22107017 -0.06349942 0.33521312 -0.21360755
-0.0058000493 -0.33334038 -0.17293248 -0.08237377 0.20742811 -0.04306831 -0.21836686 0.04602381
-0.18069148 0.29319173 -0.1298952 0.058022548 -0.024911059 -0.3409878 0.13734962 -0.15875413
0.34901422 0.19023326 0.081939735 -0.21850966 0.0980243 -0.060228053 0.036068138 0.18920085
0.28668067 -0.0099433325 -0.016140003 0.12457861 -0.13687074 0.044035282 0.23713896 -0.44609234
0.27850437 -0.25435996 -0.066995464 -0.31899709 0.54698014 0.34750292 0.21658023 -0.0941512
-0.18008153 0.07901996 -0.03327517 0.3043448 0.06587114 0.16420813 0.052302226 0.0840631
-0.13252595 -0.30813953 0.23444074 0.12562211 0.023734784 -0.03706373 0.25259385 -0.17559592
-0.19081478 0.13365044 0.25039098 0.060533784 -0.4681341 -0.056664523 0.2749951 -0.08943888
0.18028066 -0.08238354 -0.044036012 -0.23310077 0.07085812 -0.38498986 -0.35689062 0.18376414
0.11702936 -0.37028292 0.22434305 0.36429155 -0.31949395 -0.21671705 0.1803025 -0.14187782
-0.09917887 0.38191643 0.22053684 0.2771264 0.2626723 0.18730502 0.1901008 -0.43686596
0.26467708 0.25352493 0.19078863 0.18726572 -0.31678924 -0.24936305 0.21043745 -0.3145155
-0.047637984 -0.26435938 -0.033571444 0.19487907 -0.18037745 0.03622878 -0.20510715 0.29200482
-0.21740314 0.07527515 -0.1776517 -0.40163875 -0.05420532 0.22772276 -0.046866335 -0.25069815
0.40452355 0.07619668 -0.16852237 -0.12202268 0.14252889 0.19543543 0.600521 -0.27606612
-0.08044911 0.037363615 0.042771213 -0.23396833 0.057744212 -0.12225445 -0.019756157 -0.0046272255
00000000: 340e 5bbe 7eda f2be 5702 c13c ca88 8e3d
00000010: ac43 443e 8aec a6bd f02d c13d 75fa e0bc
00000020: 9fac a9bd 0e76 8f3e 3a23 81be 167e b03e
00000030: 20c9 d83e 9347 bbbc ec63 993e 5e92 ac3d
00000040: 9ec3 8e3c ecca c23d 71ab d83c 43aa 0a3f
00000050: 3a1a bf3d 1710 9f3e 2c8a 803e ff15 fd3d
00000060: 25ff 813e 3a30 ce3d cd86 8fbe 9789 a0be
00000070: 8b84 39be 0813 8bbe bd2b 693e 8e0c a63d
00000080: d73f 9bbd f5e7 8abe 9568 2fbe 13c6 df3c
00000090: b8a3 12bd e91e c7bd 6250 873e e5da 09bd
000000a0: 97f2 c33e b84c 573e 2b34 06bd 5310 07be
000000b0: 122d ae3d 0dfc 313e 44f1 313d a5fe f23d
000000c0: 0508 ea3d 2a1e 113e 7286 5cbe 117c 0cbe
000000d0: 013c a7bd 30a1 4a3d 1fd2 5fbe 065e b23e
000000e0: 6dc0 093e c97c b73e f262 23bd 59a4 a7bd
000000f0: 2c4c 533e 35f1 c4be 8827 8d3e dc1a 8fbd
00000100: 99ff a0be 969f 9dbe 315c 05bd fb0d 173f
00000110: fd6c cfbd 00b6 b53d 3d7d a03e 02b8 0c3e
00000120: 44df 1bbe 9758 babe 5ced 20bd fcea 9cbe
00000130: 7f5a acbd 707b 833e d6bb b4be 0391 003d
00000140: 56a3 0ebe 54ce 633e 8b80 8f3e ca92 7a3e
00000150: 5310 8ebe c3d5 643e 9f87 0fbe 36bd b13d
00000160: 8f41 5b3e c5e9 c9bc 4719 ff3c 4729 62be
00000170: 8d46 3b3e 1e1c 56bd 80ba dd3d 1e05 06bf
00000180: efa5 4d3d 16b4 38be a585 993e 9d90 2a3e
00000190: 7634 6f3e daca 01be 7f68 4c3c c552 8cbe
000001a0: 5e46 93bd e757 d03d 7197 4e3e 0638 583d
000001b0: 2f24 b6bb 324f 08be 7fde d93d 54ed 0abe
000001c0: b698 fabb 3566 343e 0232 ebbe f2de 09be
000001d0: 9e82 0c3b 0edb 373e 53ba 223f f9bd e6be
000001e0: 9591 bfbd 1f39 debd 54b4 10bd e515 393e
000001f0: 3860 623e fc0b 82bd 0ea1 ab3e f0bb 5abe
00000200: 570e bebb 97ab aabe 3615 31be 94b3 a8bd
00000210: 0968 543e 6568 30bd 909b 5fbe 7683 3c3d
00000220: 3007 39be 3a1d 963e 3f03 05be 0da9 6d3d
00000230: 4712 ccbc f495 aebe 61a5 0c3e 7190 22be
00000240: feb1 b23e 82cc 423e 05d0 a73d ffc0 5fbe
00000250: f7c0 c83d b1b1 76bd 2fbc 133d debd 413e
00000260: cfc7 923e 5ce9 22bc 0a38 84bc 1223 ff3d
00000270: d827 0cbe 575e 343d 8ed4 723e 3766 e4be
00000280: 2098 8e3e 783b 82be eb34 89bd 9653 a3be
00000290: e406 0c3f e7eb b13e 35c7 5d3e 58d2 c0bd
000002a0: 4b67 38be 37d5 a13d 8b4b 08bd 15d3 9b3e
000002b0: 73e7 863d 2d26 283e dc3a 563d 4629 ac3d
000002c0: e2b4 07be 77c4 9dbe 3c11 703e 15a3 003e
000002d0: 736f c23c 23d0 17bd fb53 813e 6bcf 33be
000002e0: f364 43be a9db 083e 3f33 803e 46f2 773d
000002f0: 46af efbe 0f19 68bd 28cc 8c3e bb2b b7bd
00000300: 7e9b 383e b4b8 a8bd 1b5f 34bd f8b1 6ebe
00000310: 101e 913d 641d c5be 5eba b6be ab2c 3c3e
00000320: 17ad ef3d b995 bdbe 2fba 653e 6c84 ba3e
00000330: b694 a3be 13eb 5dbe 38a1 383e 6b48 11be
00000340: 4b1e cbbd 8d8a c33e 69d4 613e 83e3 8d3e
00000350: fc7c 863e e3cc 3f3e c9a9 423e e5ac dfbe
00000360: c183 873e 05ce 813e 185e 433e 96c2 3f3e
00000370: 3332 a2be 0759 7fbe ea7c 573e 2d08 a1be
00000380: 0c20 43bd 1d5a 87be 3682 09bd 618e 473e
00000390: deb4 38be a164 143d 9c07 52be a881 953e
000003a0: ee9e 5ebe dc29 9a3d 54ea 35be 98a3 cdbe
000003b0: 6606 5ebd 2830 693e eaf6 3fbd 825b 80be
000003c0: b61d cf3e 010d 9c3d 2191 2cbe 07e7 f9bd
000003d0: 18f3 113e 3a20 483e bfbb 193f 8a58 8dbe
000003e0: 81c2 a4bd 970a 193d de30 2f3d 6595 6fbe
000003f0: 3285 6c3d 8b60 fabd aad7 a1bc fb9f 97bb

fc2.0.bias f4 [84]
0.08586035 -0.07358921 -0.09302034 -0.00032755954 0.015308754 0.012081968 0.09182324 0.07123651
-0.040801354 -0.0256121 0.04462611 -0.0533762 -0.04029402 -0.020965865 0.0029963437 0.066024825
-0.010098185 0.007969383 0.03582387 -0.0011429307 0.03551337 0.008024578 0.022839215 -0.026492964
0.045853432 -0.018872168 -0.016704667 0.07881064 0.044319604 0.06869351 0.046481397 -0.0053909672
-0.12021761 -0.07011242 -0.01189559 -0.03908444 -0.020519432 0.045095667 0.016691519 0.04611977
0.04508284 -0.034248706 -0.09756383 0.09900347 0.11360064 -0.018110966 -0.09458645 -0.054015182
0.014210118 -0.039474174 0.14342882 0.07897506 0.0688646 0.058252085 -0.0053972546 0.0960692
0.0029606705 -0.09740305 0.029849323 -0.030961957 -0.019285932 -0.00071961153 -0.042364128 -0.00896209
-0.11812188 0.096158184 -0.042278975 0.014965856 -0.027490444 -0.049904153 -0.010857823 0.0085765105
0.023055555 -0.056369226 0.016099596 -0.06987556 0.07485845 0.034821175 -0.026189854 0.017108655
-0.036522355 0.03337547 -0.076707035 -0.05254827
00000000: 8dd7 af3d f1b5 96bd 7381 bebd 4cbc abb9
00000010: 91d1 7a3c 72f3 453c d30d bc3d 73e4 913d
00000020: 521f 27bd 77d0 d1bc dec9 363d 01a1 5abd
00000030: 580b 25bd 9bc0 abbc 4e5e 443b 0638 873d
00000040: dc72 25bc 0492 023c 0dbc 123d 64ce 95ba
00000050: 7876 113d 8579 033c 4e19 bb3c c607 d9bc
00000060: cfd0 3b3d ce99 9abc 3ad8 88bc 7967 a13d
00000070: 7988 353d 2faf 8c3d 4763 3e3d b6a6 b0bb
00000080: a634 f6bd 1a97 8fbd b9e5 42bc 0117 20bd
00000090: 5e18 a8bc 3cb6 383d a7bc 883c 15e8 3c3d
000000a0: c9a8 383d 5f48 0cbd 8ccf c7bd 55c2 ca3d
000000b0: 74a7 e83d 735d 94bc 8ab6 c1bd 063f 5dbd
000000c0: 8ed1 683c acaf 21bd 01df 123e adbd a13d
000000d0: e208 8d3d bd99 6e3d 74db b0bb eebf c43d
000000e0: cf07 423b 407b c7bd 9186 f43c eea3 fdbc
000000f0: 88fd 9dbc 50a4 3cba 0286 2dbd bbd5 12bc
00000100: e2e9 f1bd 95ee c43d b82c 2dbd 5a33 753c
00000110: a433 e1bc 4c68 4cbd 03e5 31bc 7e84 0c3c
00000120: 01df bc3c 6be3 66bd 4de3 833c eb1a 8fbd
00000130: 634f 993d a6a0 0e3d 1b8c d6bc 7327 8c3c
00000140: 7798 15bd b8b4 083d 9418 9dbd db3c 57bd

fc3.weight f4 [10, 84]
0.34240717 0.16176556 0.26213866 -0.27628094 0.20625466 0.32913235 -0.36067554 -0.56364363
0.3474003 0.27553827 -0.31469113 -0.46027178 -0.41939875 0.2217539 0.24427435 -0.10942033
0.11507375 0.14295076 0.12984309 -0.32326728 0.13561134 0.3521953 0.13655083 0.22823444
-0.35430038 -0.28617516 -0.11188615 -0.12968977 0.042576287 -0.07569251 -0.4600122 0.34831035
0.17087571 -0.006396891 -0.41357285 -0.3286323 -0.06571574 -0.23612268 -0.42457777 0.36646143
-0.17246982 -0.30927894 0.24613924 -0.18545581 -0.30848593 -0.11919328 0.25562933 -0.10200843
0.3141044 0.012092214 -0.27903393 -0.27132282 0.3572563 -0.2601898 -0.34720343 -0.3073813
-0.3379203 0.23816183 -0.2491741 -0.0055881967 -0.3501914 -0.17430413 -0.28834975 0.19002764
0.13407916 -0.21959345 0.31517178 -0.4897766 0.20825574 -0.2915001 0.18665595 0.24525099
-0.19484659 -0.44911167 -0.29501352 -0.3323833 -0.08533782 -0.24697623 0.19520049 0.35281613
0.23122293 0.4044851 -0.22485238 -0.37528414 -0.47998855 -0.3295678 0.04778524 -0.2658727
-0.13346575 -0.22533357 0.1847876 0.24963628 -0.36421216 -0.16796358 0.23807108 0.29078472
0.2368637 -0.044259135 0.1512497 0.30026475 -0.038692582 -0.27641314 -0.3857379 0.38173932
-0.48624358 -0.16029438 0.23364381 -0.25649363 0.2842671 0.16098355 -0.10917947 0.2228053
-0.46341285 -0.24779673 0.26288232 -0.57031655 -0.44761112 -0.12941988 0.19018885 0.0888325
0.24152844 -0.21736261 0.2510025 -0.4579971 -0.004857656 -4.027439e-05 -0.41106373 0.27201432
0.032715674 0.24667196 -0.44234765 0.08563837 -0.3467587 -0.09569679 0.24886401 0.24207374
-0.31933445 0.23395476 0.18273085 0.29772934 0.21344487 -0.29641032 -0.01737516 0.2810538
0.3944033 0.0155495005 -0.41995153 -0.33127984 0.09520764 0.15041383 -0.38392603 0.12689064
0.16790657 -0.23381753 -0.35070238 -0.30999035 0.32903782 0.256929 -0.10568972 0.40313208
0.37919688 0.2322778 -0.2838293 -0.30565065 -0.5137738 -0.1734652 0.002000072 -0.23127706
0.36964706 0.1513118 0.09860476 -0.24166492 -0.35909203 -0.20628272 -0.24852188 0.13970208
0.047485683 0.23912092 -0.07900967 -0.26968288 -0.35309774 0.12336087 -0.029006034 0.33027843
0.010185191 0.07557637 -0.36225063 0.14848302 0.15218836 0.053415075 0.18341725 0.07928959
-0.23099864 -0.11356679 -0.11417853 0.3199398 -0.034309298 -0.25261065 0.11760679 0.40399978
0.13938841 -0.28255153 -0.096470416 -0.34622413 0.25800452 0.23130065 0.18190978 -0.13443828
0.08115052 -0.38883144 -0.4911406 -0.13576803 -0.06865219 0.25119138 0.080531985 -0.28153437
0.40272686 0.054151602 0.49267757 -0.081832744 0.33685812 0.11661628 0.29557177 -0.2835728
0.045429774 0.0698098 -0.39714774 -0.049754657 0.35184503 -0.25155598 -0.12651457 -0.29675025
-0.29372185 0.26381922 -0.10736713 0.2799664 -0.20769837 -0.14663573 -0.019980012 0.12900697
0.046900433 0.19715679 -0.47429335 -0.36105543 0.38439798 -0.35119262 -0.34897777 -0.30734608
-0.3120831 0.24511398 -0.2033056 0.07814266 0.12202387 0.214029 0.18151478 0.40984994
00000000: fe4f af3e dfa5 253e 0a37 863e b274 8dbe
00000010: 6c34 533e 0984 a83e 77aa b8be f34a 10bf
00000020: 74de b13e 5a13 8d3e 321f a1be bea8 ebbe
00000030: 6fbb d6be 7413 633e 0e23 7a3e c417 e0bd
00000040: c9ab eb3d af61 123e 96f5 043e 4a83 a5be
00000050: b3dd 0a3e f152 b43e fbd3 0b3e 4ab6 693e
00000060: dc66 b5be 8d85 92be 9124 e5bd 65cd 04be
00000070: 7964 2e3d ad04 9bbd b886 ebbe bc55 b23e
00000080: 0bfa 2e3e 039d d1bb d2bf d3be 7e42 a8be
00000090: f995 86bd 25ca 71be 4262 d9be d5a0 bb3e
000000a0: ee9b 30be cf59 9ebe ed0b 7c3e 21e8 3dbe
000000b0: def1 9dbe 9b1b f4bd d9e1 823e cce9 d0bd
000000c0: 4bd2 a03e 6c1e 463c 89dd 8ebe d3ea 8abe
000000d0: 4cea b63e 9937 85be a6c4 b1be 1561 9dbe
000000e0: e403 adbe b2e0 733e 7f27 7fbe 311d b7bb
000000f0: 4a4c b3be c87c 32be 94a2 93be 9b96 423e
00000100: 0c4c 093e 1bdd 60be 325e a13e 00c4 fabe
00000110: fe40 553e 803f 95be bd22 3f3e 1323 7b3e
00000120: dd85 47be f7f1 e5be 030c 97be 252e aabe
00000130: 98c5 aebd 56e7 7cbe a3e2 473e 51a4 b43e
00000140: b4c5 6c3e ac18 cf3e b43f 66be 3e25 c0be
00000150: 0fc1 f5be 1cbd a8be 75ba 433d 7720 88be
00000160: 3fab 08be d8bd 66be f638 3d3e a7a0 7f3e
00000170: 047a babe a5fe 2bbe e8c8 733e bce1 943e
00000180: 668c 723e 1149 35bd 34e1 1a3e 4dbc 993e
00000190: 1d7c 1ebd 0686 8dbe 707f c5be 5673 c33e
000001a0: ebf4 f8be 3624 24be 5340 6f3e 2253 83be
000001b0: 758b 913e dfd8 243e 7c99 dfbd 1327 643e
000001c0: 7344 edbe 6dbe 7dbe 8398 863e 4400 12bf
000001d0: 492d e5be a586 04be dec0 423e d0ed b53d
000001e0: 3b53 773e 4e94 5ebe 6683 803e 997e eabe
000001f0: f92c 9fbb 4cec 28b8 f276 d2be 7645 8b3e
00000200: df00 063d 9397 7c3e 647b e2be 2b63 af3d
00000210: 5b8a b1be aefc c3bd 35d6 7e3e 2ee2 773e
00000220: ce7f a3be d691 6f3e cc1d 3b3e fb6f 983e
00000230: 4b91 5a3e 18c3 97be 5a56 8ebc 49e6 8f3e
00000240: 3bef c93e 55c3 7e3c e303 d7be 839d a9be
00000250: 39fc c23d 1506 1a3e f491 c4be 9fef 013e
00000260: b3ef 2b3e dd6d 6fbe 438f b3be 0eb7 9ebe
00000270: a577 a83e 338c 833e da73 d8bd 5467 ce3e
00000280: 1826 c23e 3bda 6d3e 1352 91be 3e7e 9cbe
00000290: ae86 03bf dda0 31be a413 033b e5d3 6cbe
000002a0: 6142 bd3e 7bf1 1a3e 4bf1 c93d 0277 77be
000002b0: e9da b7be c73b 53be 857c 7ebe 100e 0f3e
000002c0: 5980 423d 1ddc 743e d2cf a1bd e013 8abe
000002d0: 3ac9 b4be a0a4 fc3d 109e edbc 411a a93e
000002e0: cadf 263c c9c7 9a3d ea78 b9be ef0b 183e
000002f0: 44d7 1b3e c4c9 5a3d bbd1 3b3e 9562 a23d
00000300: e88a 6cbe b595 e8bd 6fd6 e9bd 26cf a33e
00000310: e887 0cbd 2f56 81be d4db f03d 0fd9 ce3e
00000320: d6bb 0e3e 98aa 90be 4892 c5bd 4a44 b1be
00000330: 2b19 843e 14da 6c3e 8f46 3a3e 30aa 09be
00000340: 3e32 a63d ea14 c7be c876 fbbe c606 0bbe
00000350: 8599 8cbd 289c 803e f4ed a43d 4625 90be
00000360: 3732 ce3e 12ce 5d3d 3c40 fc3e ed97 a7bd
00000370: ab78 ac3e 84d4 ee3d 2f55 973e 7430 91be
00000380: 9214 3a3d 71f8 8e3d f356 cbbe 8acb 4bbd
00000390: 0825 b43e f2cb 80be 098d 01be a6ef 97be
000003a0: b662 96be 5013 873e 4ce3 dbbd c257 8f3e
000003b0: e2ae 54be ad27 16be 1fad a3bc 671a 043e
000003c0: ab1a 403d 78e3 493e 94d6 f2be 42dc b8be
000003d0: d0cf c43e 85cf b3be 37ad b2be 775c 9dbe
000003e0: 5bc9 9fbe 29ff 7a3e 582f 50be 4209 a03d
000003f0: a7e7 f93d 6b2a 5b3e 03df 393e dad7 d13e

fc3.bias f4 [10]
0.096488155 0.07397225 0.077522665 0.04241487 0.08277852 -0.04815212 -0.10744327 -0.08621964
0.09857599 -0.10685179
00000000: 959b c53d c37e 973d 34c4 9e3d 37bb 2d3d
00000010: c987 a93d 283b 45bd 380b dcbd ec93 b0bd
00000020: 35e2 c93d 1cd5 dabd
