6_ConvolutionalNeuralNetwork/LeNet/weight/model19.pth (torch, 250424 bytes, 10 tensors)

conv1.0.weight f4 [6, 1, 5, 5]
000000 65 ad 36 be 7b b2 85 3e 61 35 e4 bd 94 a0 3b 3f
       -0.17839582 0.26112732 -0.11142994 0.732919
000010 9f bd 5f 3e ef 99 8a 3e 6a 5f 7c 3f b4 2c 9c 3f
       0.21849678 0.27070567 0.9858309 1.2201142
000020 f8 ce bb 3f 32 9f d1 3e 14 5f b1 be 5c ae 2b 3f
       1.4672537 0.4094177 -0.3464285 0.67062926
000030 76 f1 58 3f a7 c6 1a 3f 62 4f 4f bf 02 f5 f9 be
       0.8474344 0.6045937 -0.80980504 -0.4881974
000040 d1 2d 92 3e 15 4c 90 be 52 ca 41 be 64 a4 95 bf
       0.2855058 -0.28183046 -0.18924835 -1.1690793
000050 d0 df 13 bf 53 16 32 bf 04 ff 6b bf 6f 8a d5 be
       -0.57763386 -0.69565314 -0.92186 -0.4170718
000060 fc 68 20 bf fd 6a 4e bf e5 80 bc be 99 10 aa bd
       -0.62660193 -0.80632 -0.3681709 -0.08303947
000070 9e f8 a1 be 3c b2 b2 3d 80 88 d0 be 88 e3 11 3f
       -0.31634992 0.08725402 -0.4072914 0.5698781
000080 80 72 76 3f 58 d5 44 3f 34 43 5a 3f 9e 3b 9e be
       0.96268463 0.76888037 0.85258794 -0.3090486
000090 04 b8 a7 3f de ba 04 40 f1 2a 2e 3f 6c 56 04 3f
       1.3103032 2.0739055 0.68034273 0.5169437
0000a0 7b a3 05 bf 89 e9 6d 3f 2f 54 4a 3e e4 dc e4 3d
       -0.52202576 0.9293447 0.19758676 0.11174944
0000b0 eb a5 2d be 45 73 b8 bf 60 4b 44 bf b4 17 72 bf
       -0.16957824 -1.4410177 -0.76677513 -0.9456742
0000c0 88 02 10 bf d0 5c aa be 31 88 17 bf 05 33 bc be
       -0.5625386 -0.33273935 -0.59192187 -0.36757675
0000d0 87 0a f5 be 80 66 52 be bd 20 83 bf f7 e9 71 3f
       -0.47859594 -0.20546913 -1.0244366 0.9449763
0000e0 c8 d5 54 3f b8 a1 95 3f fc 47 a6 3f 7c 50 49 bf
       0.83138704 1.1689978 1.2990718 -0.78638434
0000f0 e3 84 f5 3e 95 a2 3b 3f 73 6b a0 3f d8 2d 53 3f
       0.47952947 0.73294955 1.2532791 0.82491827
000100 29 d2 70 bf 8a 1c 26 3d 10 cf 5f 3f fc dc ee 3e
       -0.9407068 0.04055456 0.8742533 0.46652973
000110 a7 c8 99 3e c6 6d 44 bf 1c 2c 11 bf e4 8d 83 be
       0.30035898 -0.7673 -0.5670793 -0.2569419
000120 b7 45 d6 be 61 8e a5 be a4 79 28 bf 1d 9f cb 3e
       -0.41850063 -0.3233519 -0.6581061 0.3976983
000130 1a 5d 3a 3f 82 f9 4b 3f 50 d5 1e 3f 1b 67 18 3f
       0.7279831 0.79677594 0.6204424 0.59532326
000140 1c df 43 3e 34 f9 fe 3d e0 1c a4 be ad 63 2f be
       0.19128078 0.124498755 -0.3205328 -0.17127867
000150 25 55 1a be 0e 6c 11 bf 67 54 cf bf 0d 7a a3 bf
       -0.15071543 -0.56805503 -1.6197633 -1.2771622
000160 1e e7 90 bf ef 6a 2e bf c0 a2 76 bf 78 83 3d bf
       -1.1320531 -0.6813192 -0.96342087 -0.7402873
000170 68 1e 20 be e8 49 51 be 72 58 2b bf 66 2e ce 3d
       -0.15636599 -0.20438349 -0.6693183 0.100674435
000180 68 93 80 3f af 05 7d 3f 3a de b5 3e cf 11 05 be
       1.0044985 0.988368 0.35521108 -0.12995075
000190 e2 f2 1b 3f 4d 4f 9d 3f d8 c0 1b 3f 99 78 4b 3f
       0.60917485 1.2289826 0.6084113 0.7948089
0001a0 e6 3a 64 3f 7c 38 79 3e 1d ad c8 be ee 11 41 bf
       0.8915237 0.24337953 -0.39194575 -0.75417984
0001b0 a1 f6 49 bf 64 a5 cf be f9 27 af bd fa 76 04 bf
       -0.7889195 -0.4055587 -0.08552546 -0.51744044
0001c0 3a c2 29 bf d7 f2 0a bf 92 d0 02 bf 34 e6 0e 3f
       -0.6631199 -0.54276794 -0.51099503 0.5582001
0001d0 b0 2d 0a bf e0 21 92 bf 5c 0f 0a bf b3 70 d5 be
       -0.53975964 -1.1416588 -0.53929687 -0.41687545
0001e0 f7 5a 83 3f 69 92 cb bd eb 71 d6 be 5f 45 ac 3e
       1.0262135 -0.09940035 -0.41883788 0.33646676
0001f0 ea 11 12 3f c0 52 ba 3e 77 85 04 3f 3c b3 35 be
       0.57058585 0.36391258 0.5176615 -0.17744154
000200 7d ba 6d bf ac 68 0a bf b4 23 30 3e 56 6e d3 39
       -0.92862684 -0.54065967 0.1720112 0.00040327263
000210 48 3b 0d bf cb ad ab bf a6 a8 ab 3e d9 f6 5e be
       -0.5516858 -1.3412412 0.33527106 -0.21773852
000220 5b 8e 8a bd 1c 6c 4b bf f5 6f 58 bf db b2 3e 3f
       -0.067654334 -0.79461837 -0.8454583 0.7449166
000230 5a 67 6f 3e db 0f b2 be 12 4b ad bf d0 37 18 be
       0.23379269 -0.34777722 -1.3538535 -0.14865041
000240 64 09 6a 3e 50 b9 6b 3f 86 e2 93 be 73 15 a5 bf
       0.22855145 0.9207964 -0.2888376 -1.2897171
000250 2b 7e d9 be e4 93 de 3e
       -0.4247907 0.43472207

conv1.0.bias f4 [6]
000000 76 5c 76 bf b4 99 78 bf 2a c3 51 bf 4c d2 23 be
       -0.96234834 -0.9710953 -0.8193842 -0.1599819
000010 99 d7 e0 be 5f fc 46 bf
       -0.43914488 -0.7772884

conv2.0.weight f4 [16, 6, 5, 5]
000000 90 a8 8e 3d 6f 7c 87 3e f4 a3 0e 3f e4 90 ce 3e
       0.069657445 0.26462123 0.5571892 0.40344918
000010 a9 8e 87 be d9 bb 0a 3f d1 ee 4d 3f 1d c4 98 3e
       -0.2647603 0.5419288 0.8044253 0.29837123
000020 e3 ac 6e be 7b 01 2e bf fd be 06 3f 3f 9d 80 3e
       -0.23308139 -0.6797101 0.52635175 0.2511997
000030 15 c8 26 bf ee 4f 75 bf 39 5c ef 3d 63 73 6c 3e
       -0.6514905 -0.9582509 0.11687512 0.23090892
000040 4c 2d 08 3e b4 c1 8c bf 96 bd 1b be e9 27 3e 3f
       0.1329853 -1.0996614 -0.1520904 0.7427965
000050 e7 2c 88 bd 30 88 a5 be 3f 57 85 bf 20 6a b6 3d
       -0.066491894 -0.32330465 -1.041725 0.089069605
000060 09 0b ed 3e 67 6e 96 bd dd d8 d1 3e 6c b5 f2 3e
       0.46297482 -0.07345276 0.40985766 0.4740404
000070 55 b8 10 3e 53 02 b5 be df 2b c3 3e 45 12 fa 3e
       0.14132817 -0.35353336 0.38119408 0.48842064
000080 a0 2a 8b bd d3 fa 35 bf a8 3b 94 be 47 40 88 3e
       -0.067952394 -0.7108585 -0.28951764 0.2661154
000090 0a fb fc bd 8d eb 65 bf 64 79 1b bf fc 66 00 3f
       -0.123525694 -0.89812547 -0.607321 0.5015714
0000a0 3e f5 dc 3c f2 b1 4d 3e 80 84 86 bf bc 16 04 3d
       0.02697241 0.20087412 -1.0509186 0.032248244
0000b0 9d 8b 2e 3f 13 26 e4 ba 02 04 cf be 5d 3a 0b bf
       0.6818178 -0.0017406367 -0.40432745 -0.5438593
0000c0 3c 2d b2 3e 55 29 e2 3e 27 73 78 3e 2f e4 d0 3e
       0.34800136 0.4417216 0.24262677 0.4079909
0000d0 14 5c 0e 3f 76 29 ad 3e 6c d7 52 be b6 1e 19 3f
       0.5560925 0.33820695 -0.2058999 0.59812486
0000e0 da 90 34 3f ee 99 60 3e c8 5d 1a bf d1 6d f7 be
       0.70533526 0.2193372 -0.6029935 -0.4832597
0000f0 25 9f e3 3e 45 e7 d3 bc 95 21 65 bf 29 d8 86 bf
       0.44457355 -0.025867114 -0.8950437 -1.0534717
000100 2e 25 46 3e d0 ef 69 3e 43 af 84 3e 1e e3 75 bf
       0.1935012 0.22845387 0.25914964 -0.9604968
000110 ba cf fc be 52 d2 0b 3f 99 0d 3a be ac 79 35 bd
       -0.49377233 0.546178 -0.1816925 -0.04430549
000120 49 8d 54 bf 7c c1 03 3e 03 f3 14 3f 62 f6 83 be
       -0.83028084 0.12866777 0.58183306 -0.25773913
000130 3e 68 02 bf 13 30 05 bf db 4d 97 3b 6f 1d 6c 3e
       -0.5094031 -0.5202648 0.0046174354 0.23058103
000140 11 c8 f0 be 14 76 a0 be 70 24 31 3e ff a2 d0 3e
       -0.4702764 -0.31340086 0.17299056 0.40749356
000150 72 be 74 3c c8 f3 a6 be 20 af 48 3e f1 78 97 3e
       0.014937984 -0.32607865 0.19598055 0.29584458
000160 dc 7a 60 bd a5 1b 4e bf 65 d5 90 be dd e8 7b bc
       -0.054804668 -0.8051093 -0.28287807 -0.015375343
000170 26 4e 0b bd 2f 66 f5 be 17 6c 9b bf bb 86 5b be
       -0.034010075 -0.47929522 -1.2142361 -0.21438114
000180 05 cf ff 3c 5f 63 9b be c9 69 51 bf 38 41 8b bf
       0.031226644 -0.30349252 -0.8180204 -1.0879278
000190 59 3a e2 be 1b 2e c9 be 26 20 81 be 93 1e fd bc
       -0.4418514 -0.39292988 -0.2521984 -0.030898368
0001a0 0c 59 0c 3e 75 a6 0a bf b3 5a 2c be fe 7a 97 3e
       0.13705844 -0.54160243 -0.16831474 0.29586023
0001b0 5a 09 e6 3e 54 c0 2f be 82 98 5d be 5b 88 23 3d
       0.4492901 -0.17163211 -0.21640208 0.03992496
0001c0 f0 3c 25 3f 33 bc 66 3e ed 16 2d bf 87 14 13 be
       0.6454611 0.2253273 -0.67613107 -0.143633
0001d0 a5 22 7a 3d 95 b0 fa 3e 35 29 56 be 0a 0d c1 be
       0.061068196 0.48962846 -0.20914157 -0.3770526
0001e0 96 7c c9 bd ed a2 06 3e 96 75 a4 3e b6 24 24 bf
       -0.09838216 0.13148089 0.3212096 -0.64118516
0001f0 5b 07 b2 be 7f 21 8d be a1 88 d0 be e9 b3 ea be
       -0.34771237 -0.27564618 -0.4072924 -0.45840386
000200 97 f6 a4 be 36 35 18 be 9b 3b 36 be 55 02 ac bd
       -0.32219383 -0.14864048 -0.17796175 -0.08398882
000210 42 0a de 3d d1 cb 66 3e 38 1d 67 be 13 89 02 bd
       0.108418 0.22538687 -0.2256974 -0.031869005
000220 73 83 18 3e 53 a5 47 3f d5 8a cd 3e f3 1f 82 be
       0.14893894 0.7798664 0.40144983 -0.25415
000230 c5 5f 08 3e 07 9a 6b 3e fc 15 07 3f f2 54 e3 bd
       0.13317783 0.23007976 0.5276792 -0.111001864
000240 e5 47 6c be 49 4c 01 be e9 ce 19 3e 37 80 b6 3e
       -0.230743 -0.12626757 0.15020336 0.35644695
000250 59 e6 51 be 45 23 60 3e 9a bb a4 3e f3 35 be 3e
       -0.20498027 0.21888454 0.3217438 0.37150535
000260 8e de 0b be 85 2a ba be c2 27 d9 be f2 ed f1 3e
       -0.13659117 -0.36360565 -0.42413145 0.4725185
000270 30 06 d9 3e 52 a5 7c 3e 5e 2d c0 3e 2d 9d b0 3e
       0.42387533 0.2467244 0.37534612 0.34494916
000280 9f 44 c7 3d 81 f3 1a bf c4 64 4b bf fe 75 8f bd
       0.09729885 -0.6052781 -0.7945063 -0.07004927
000290 24 5b e9 3e 16 7f 6c bf ca 09 f1 bf 38 03 e2 bf
       0.45577347 -0.9238142 -1.8831112 -1.7657232
0002a0 a9 25 93 bf 5d ad e6 be 35 47 25 3e 4d 8f 46 3f
       -1.1495868 -0.4505414 0.16140445 0.7756241
0002b0 61 a2 4f 3e b4 a9 7b be 20 64 fb bd b6 32 88 3e
       0.20276786 -0.24576455 -0.12274957 0.2660119
0002c0 c5 96 a4 3d 8b 1b 3b be eb 67 25 be 45 c3 4a be
       0.080365695 -0.18272226 -0.16152923 -0.19801052
0002d0 e0 e9 6a 3e 1c 33 92 3d 28 dd 40 3b fe d1 03 3f
       0.22940779 0.071386546 0.0029428694 0.514923
0002e0 67 54 12 3f 3e ae b8 be be 50 af bf 56 cc 64 bf
       0.5716004 -0.36070436 -1.3696516 -0.8937429
0002f0 17 6f 89 bd b5 81 a3 3e 62 ca e1 be de cf e5 be
       -0.06710642 0.31934896 -0.44099718 -0.44885153
000300 8f f5 3f bf 5a 7f 86 bf 19 79 0d bf a7 e5 0d 3f
       -0.7498407 -1.0507615 -0.55262905 0.55428547
000310 6d 4d 60 3f 0e cd a5 3e 21 51 56 bd 24 6f fa bd
       0.8761814 0.32383007 -0.052323464 -0.1222823
000320 37 99 81 3e b8 f1 54 3e 30 76 b2 3d 16 82 9e bd
       0.25312206 0.20795333 0.08713949 -0.07739656
000330 1c ca 01 be 88 46 cc 3e 07 53 80 3e df ea 85 bd
       -0.12674755 0.3989756 0.25063345 -0.06538939
000340 ec a5 2a 3e 29 69 f7 3e ce 0e 45 be de 0e 51 bf
       0.16664857 0.48322418 -0.19243929 -0.8166331
000350 43 dc c1 bf d4 1b 42 bf c8 53 b6 bd aa f8 40 bf
       -1.5145344 -0.7582371 -0.08902699 -0.7537943
000360 ac d5 60 bf e6 26 7f bf 52 15 9d bf 2b 33 64 bf
       -0.8782604 -0.9966873 -1.2272131 -0.89140576
000370 ed 5b f8 3d 0f 16 f1 3e f7 f3 85 3e 13 9a 36 be
       0.121269085 0.47087142 0.26162693 -0.17832212
000380 97 ae 93 bd 11 27 9f be 3d dc 8c be ef 15 83 be
       -0.07211035 -0.31084493 -0.27511778 -0.25602672
000390 6b fb 10 be b1 32 3f be 4d 8b 0d 3e 1b bb e2 3d
       -0.14158408 -0.18671681 0.1382267 0.11070844
0003a0 97 7c de 3d 9f bc 6a be b9 5f eb be 75 45 67 3f
       0.108636074 -0.22923516 -0.45971468 0.9034036
0003b0 e2 d7 91 3f ae 3d 87 3f 04 05 56 3f 0f 50 b7 3e
       1.1394007 1.0565698 0.83601403 0.35803267
0003c0 25 bc e2 3e 25 bb 91 3e c5 95 ba 3e c4 08 4d 3f
       0.44284168 0.28463092 0.3644239 0.800915
0003d0 51 51 4f 3f c8 bb cc be f5 9b 20 bf f6 c5 13 bf
       0.80983454 -0.39987016 -0.6273797 -0.5772394
0003e0 2e 38 85 3c a7 9f 94 3e a7 3f 15 be 66 a1 7a be
       0.01626214 0.29028055 -0.14575063 -0.24475631
0003f0 25 16 3e be cc 5e aa be ba e1 dd be 6c 9d 74 be
       -0.18563135 -0.3327545 -0.43336278 -0.23888177

conv2.0.bias f4 [16]
000000 77 b0 fc bd ea c0 f9 3b 5e b9 d9 bc bd 77 5f 3c
       -0.123383455 0.007621874 -0.026577648 0.013639388
000010 1a ee 95 bd 3d 69 5c bd af 16 b4 bd a4 3f 01 3e
       -0.07320805 -0.0538113 -0.08793389 0.12621933
000020 03 84 ee bd a9 d2 07 3d 00 a0 0c 3d 58 b3 2e 3d
       -0.11646273 0.033159886 0.034332275 0.042651504
000030 0d bf 7e bc 70 d0 92 bd 76 ba 88 bb d5 2d c1 3d
       -0.01554848 -0.071686625 -0.0041726185 0.0943257

fc1.0.weight f4 [120, 400]
000000 69 91 31 3e 75 05 ab 3e 58 ae 73 bf 0d ee ad bf
       0.17340626 0.334026 -0.951879 -1.3588272
000010 60 0c 04 bf 98 6a b6 3e a2 84 95 3e 19 7e ee be
       -0.5158138 0.356282 0.29202753 -0.4658058
000020 99 99 ed be 56 0d c6 bd f9 5a 4c bc 97 01 13 bf
       -0.46406248 -0.096705124 -0.012472861 -0.574243
000030 b3 76 b7 bd a6 3b b0 3d 37 7d 96 3d 5b 70 1f bf
       -0.08958187 0.08605127 0.073481016 -0.62280816
000040 24 6e 37 bf 5d 3f 86 bd 15 04 97 3e 43 3a e0 3e
       -0.71652436 -0.06555054 0.29495302 0.4379445
000050 61 f0 e5 bc 91 b9 e9 bd 2e 4a ef 3d 65 ff 9a 3e
       -0.028068723 -0.11412347 0.116840705 0.30272976
000060 33 00 ba 3d 91 7c 84 bd 92 75 88 3e 92 a3 15 3f
       0.09082069 -0.06469072 0.266522 0.58452713
000070 8b 8c 83 bc d4 6a 36 be ed e8 be be fd 9f 55 bf
       -0.016058227 -0.17814189 -0.37287083 -0.8344725
000080 be 15 38 bc eb b3 20 3f e8 7f 89 3e 9c 60 69 be
       -0.0112356525 0.62774533 0.26855397 -0.2279076
000090 67 5f c3 3e b6 c4 98 be af 72 df be 09 56 63 bf
       0.38158724 -0.2983758 -0.43642184 -0.88803154
0000a0 b3 01 28 3e b3 1e d5 bb 9b 44 cc be d2 92 49 bf
       0.16406898 -0.006503904 -0.39896092 -0.78739655
0000b0 a8 e2 01 3e 0a 70 9b 3e 97 f9 e8 3d a8 fd aa b9
       0.12684119 0.30358917 0.113757305 -0.00032613915
0000c0 23 e4 75 3e 23 74 e7 3d 7a 82 a2 3e 5d 63 e3 3e
       0.24012809 0.11301448 0.3174017 0.44411746
0000d0 97 35 8b 3d 8e d1 22 bf 32 e5 cb be 06 ac e5 bc
       0.06797331 -0.63601005 -0.398233 -0.028036129
0000e0 cf f7 e1 be a3 03 f5 39 07 bf 66 be 7c 5e d6 3e
       -0.44134375 0.0004673275 -0.22533809 0.4186896
0000f0 31 64 51 be 01 38 88 bd d0 e7 9f be f7 fc 69 3e
       -0.20448376 -0.06651307 -0.31231546 0.22850405
000100 3d 37 9b 3e 36 fe f0 3e 4e e9 8a be 3e 45 9b 3e
       0.3031558 0.47068948 -0.27131122 0.30326265
000110 c3 7e 7b be 48 5b 0a 3e 18 28 26 3d 20 f2 34 3e
       -0.24560075 0.13511384 0.04056558 0.17670488
000120 80 0d 56 3e 39 a1 f1 3e 98 e4 8b 3e 4d a0 17 bf
       0.20903587 0.47193316 0.2732284 -0.59228975
000130 cd 4e 3c be 3c 05 13 3e ac 1d 92 3e 2a e9 d4 3e
       -0.18389435 0.14357466 0.28538263 0.4158414
000140 0c 8a 96 be eb c2 93 be cf 72 8f 3d 3b bc 13 3e
       -0.29402196 -0.28859648 0.0700432 0.14427273
000150 7a 27 29 3e 67 96 9e be 4d 5c 7a be a3 bc 48 3d
       0.16518965 -0.30974123 -0.24449272 0.049008023
000160 23 98 da 3d 9d bb 25 bf 13 b9 b8 3e e0 28 d5 3d
       0.10673549 -0.647394 0.360787 0.10408187
000170 5a 26 77 bd d0 eb 74 bf 88 f9 d2 bf 6a b1 a6 3e
       -0.06033931 -0.9567232 -1.6482401 0.3255723
000180 05 ff 08 3f 91 b9 95 bd 13 6d b7 be 4d a0 e7 be
       0.5351413 -0.073107846 -0.35825405 -0.45239487
000190 98 4b 41 bf ca a3 b1 be 01 6e bb 3e c7 c9 c1 3e
       -0.7550597 -0.34695274 0.36607364 0.37849256
0001a0 90 8d 09 3f 3b 19 e5 be 15 a9 15 bf 55 3d a6 3d
       0.5373163 -0.44745812 -0.58461124 0.08117167
0001b0 2c f7 01 3e 85 84 23 bd 12 d7 79 3e fa 43 99 be
       0.12691945 -0.039921302 0.24398449 -0.29934675
0001c0 cf b2 ed 3d c6 72 65 3c 36 de ae bd 75 5a ea 3e
       0.11606371 0.014004415 -0.08538477 0.45772138
0001d0 fe b4 9d bd 89 d6 a7 bd c4 62 af bd 0b ef 83 be
       -0.07700537 -0.08195216 -0.0856376 -0.25768313
0001e0 d3 33 6a 3e cd a7 00 be 65 34 12 3d 0e fc 9f be
       0.22871332 -0.12564011 0.0356945 -0.3124699
0001f0 e0 0e 14 bf d6 04 84 bf ac ad 39 be fe 9f 61 3d
       -0.578352 -1.0313976 -0.18132657 0.05508422
000200 b9 be 8c 3d a2 58 14 3f 17 9b 54 bf 6b c3 39 be
       0.06872315 0.5794774 -0.8304915 -0.18140952
000210 c7 6e 89 3a d7 fc 43 3f 6d a5 93 be 61 79 bb 3d
       0.0010485285 0.7655768 -0.28837147 0.091540106
000220 d5 85 c6 bd 41 8f 8e 3e 46 f5 9f bd 7e f1 18 bf
       -0.09693495 0.2784367 -0.07810454 -0.5974349
000230 78 83 70 bd 46 22 7a 3d e8 f1 4e bd 53 e8 8c bd
       -0.05871913 0.061067842 -0.05052367 -0.0688025
000240 41 7d dc be 19 ae 29 3e b4 e9 b0 3d 0b 7f 84 be
       -0.4306431 0.16570319 0.08638325 -0.25878176
000250 43 4c 2a bf 1a 0f 88 bf 4c 96 d6 3d 67 c5 e9 bc
       -0.66522616 -1.0629609 0.104778856 -0.028536512
000260 cd bb 67 3d 35 86 86 bc 26 c5 08 be 4a da e4 be
       0.056575585 -0.016421417 -0.13356456 -0.4469779
000270 26 0a d4 be 9a ea ea be 03 01 9a 3e 06 05 1b bc
       -0.41413993 -0.45882112 0.30078897 -0.009461647
000280 6a ec 82 be 80 32 3c be 09 ce d0 3d ee 9b 63 be
       -0.25570995 -0.18378639 0.10195548 -0.22227451
000290 eb a1 ad be d1 32 fb be 95 fd fd 3e 3f 94 48 3f
       -0.33912596 -0.49062207 0.4960753 0.78351206
0002a0 f5 e1 1a 39 6e 13 06 3e 27 b4 2a 3e 34 ec 09 3f
       0.0001477076 0.1309335 0.16670285 0.5387604
0002b0 b0 1f 19 3d db 92 d1 3e 31 31 1b 3f c0 f5 1d bf
       0.037383735 0.40932354 0.60621935 -0.6170311
0002c0 6a 50 b5 be 84 69 5d 3b 28 b8 c8 3e 1e 64 d5 3e
       -0.35412914 0.0033784816 0.39203 0.41677946
0002d0 7f 76 69 be 1d e1 14 be 50 a6 a5 3e 17 d5 2a 3f
       -0.22799109 -0.14538999 0.3235345 0.667314
0002e0 cb a8 8f 3f 2c 26 65 3d 10 81 50 3e 53 70 12 3f
       1.1223387 0.055944607 0.20361733 0.57202643
0002f0 85 d2 3f 3f cb 27 e4 3e 7d c1 ca bd f4 d0 c0 3a
       0.749306 0.4456161 -0.09900186 0.001471071
000300 5e 41 1c be f5 ed 32 bf 3c c4 df bd 9e e7 49 3e
       -0.1525931 -0.69894344 -0.109261006 0.19717261
000310 1c 00 21 3d da 24 a1 be d7 be 81 bf 7b ce b9 be
       0.039306745 -0.31473428 -1.0136365 -0.36290345
000320 cb a1 9d 3e 26 6e 08 3f 0f 67 8b bf 3b c2 4d bf
       0.307875 0.53293073 -1.0890826 -0.803745
000330 26 e4 94 3d 91 de df 3d de 0f d3 bd 1e 07 cc be
       0.07270078 0.10931123 -0.10305761 -0.3984918
000340 aa 33 a9 3c 23 e3 81 3e 93 b2 56 3e b8 f6 63 3e
       0.020654518 0.25368604 0.20966558 0.22262084
000350 83 09 0b be 9f 5b a5 3e 1c 44 a3 3e 69 e7 be bd
       -0.13577847 0.32296464 0.318879 -0.09321482
000360 a1 23 9d bd e7 77 f9 3e b3 d6 b4 be 53 b7 1c 3f
       -0.07672811 0.4872429 -0.35320053 0.6121723
000370 33 d5 b0 be 1c a4 90 3d 25 2b e8 bd 85 72 8c bc
       -0.34537658 0.070625514 -0.11336354 -0.01714445
000380 0c 7a 2f 3f f6 21 d0 be 07 cc 2e be 04 8e b9 3e
       0.68545604 -0.4065091 -0.17070018 0.36241162
000390 21 f0 d7 3e d2 9f 03 3f eb 9c 7b bf a8 06 ba be
       0.4217539 0.5141574 -0.9828631 -0.36333203
0003a0 0c 2c 0e 3b 5d 88 f7 3c 30 76 f0 bd 48 bf e5 be
       0.0021693734 0.03021639 -0.117412925 -0.448725
0003b0 6a e2 7e bc 2b c6 af be 75 ff 53 bf 2b 60 1a bf
       -0.015556911 -0.34330878 -0.8281167 -0.6030299
0003c0 7f df 27 3e 8b eb 9b 3e a3 68 99 be 5d 4c 99 bf
       0.1639385 0.30453143 -0.29962644 -1.1976429
0003d0 46 56 b3 bf ec ec 51 3e 65 92 71 3e 7e 95 72 be
       -1.4010704 0.20500535 0.23591001 -0.23689839
0003e0 4a 7d 5c bf 60 1a 70 bf 11 cc 66 bd b3 d6 57 3e
       -0.86128676 -0.93790245 -0.056346957 0.21077995
0003f0 f7 08 ff 3e ea 25 86 3d 22 8e 86 3e 12 15 2f bf
       0.49811527 0.065502 0.26280314 -0.68391526

fc1.0.bias f4 [120]
000000 87 7b 5e 3c 26 39 ce 3b 05 e4 87 bd af 03 b8 3c
       0.013579256 0.0062934337 -0.06635288 0.022462694
000010 ac 17 dd bb 8c ea 33 bd d0 1d c1 bd ec 48 11 be
       -0.0067472067 -0.043924853 -0.094295144 -0.14187974
000020 27 f6 74 bd f4 9f 88 bc 81 4b 2c be 0e 6e fb bb
       -0.05980506 -0.016677834 -0.16825677 -0.0076730317
000030 8d 18 83 3d e3 4f fe bb 0b 27 23 3e e0 06 48 bd
       0.06401167 -0.007760988 0.15932862 -0.04883468
000040 05 98 dc 3b 6a 29 e2 3d 36 7e df 3d 77 ce 21 3d
       0.0067319893 0.11043055 0.10912745 0.03950354
000050 d7 a6 ef 3c 93 f3 83 3d c5 a4 ac 3d 18 de df bd
       0.02925436 0.064429425 0.08429865 -0.10931033
000060 8c f1 a7 3d 43 a4 fc bc fb 83 42 be a6 b2 a7 bc
       0.08200368 -0.030840045 -0.18995659 -0.020470928
000070 97 03 1d 3d 29 8c 3f 3d 16 44 ef bd 48 ec 6e bd
       0.0383335 0.046764527 -0.11682908 -0.058330804
000080 65 9e 00 be d1 5d 57 bd 74 8c 00 3d 2c 0e be bd
       -0.12560423 -0.052579705 0.031383947 -0.09280047
000090 b4 22 56 3e 42 ff 0a be dc c6 3e 3d 0b 12 0e be
       0.20911676 -0.13573936 0.046576366 -0.1387407
0000a0 6f 08 50 bd d5 e9 a4 bd 64 04 50 be 36 24 29 be
       -0.050789293 -0.080524124 -0.20314175 -0.1651772
0000b0 c0 c5 06 3d 51 af 55 be b4 4c 2c 3d 53 a3 76 bd
       0.032903433 -0.20867659 0.042065337 -0.060214352
0000c0 dd 34 eb bd ed d1 3e bc 07 c0 ed bd 89 42 d9 bd
       -0.11484692 -0.01164673 -0.11608892 -0.10608394
0000d0 4c 05 f3 3d a8 8f f7 bd 08 5f a4 3d 60 de 07 be
       0.11866245 -0.12087947 0.08025938 -0.13268423
0000e0 c8 be b4 3d a8 a0 13 be f1 d4 86 bd 65 8b b8 bc
       0.08825451 -0.14416754 -0.06583584 -0.022527406
0000f0 72 ee 7e 3c 97 4e a9 bc 77 06 9f 3c 8c 3f 99 be
       0.0155597795 -0.020667357 0.019412262 -0.29931295
000100 c4 3a a1 3c e7 d7 a9 bd 0a 0a 5c 3d e4 8c 0e be
       0.019681342 -0.08293133 0.05372051 -0.13920933
000110 85 d0 d8 3d 3e f4 1c be 01 b2 e8 3b b4 ad 0e be
       0.10586647 -0.15327546 0.007101298 -0.1393345
000120 6d b3 00 be fd b5 a7 bc 29 cc d3 bc 65 02 4d be
       -0.12568446 -0.020472521 -0.025854187 -0.20020445
000130 66 33 92 3d b0 7e ea bc b1 5f 24 3d b1 87 d8 3b
       0.0713871 -0.028624862 0.04013032 0.0066079726
000140 a7 dc 70 3d b0 01 17 3e fc aa 89 bc f4 31 02 be
       0.05880418 0.14746737 -0.016805165 -0.12714368
000150 b0 f5 0c bd e7 68 41 3d 30 72 03 3d 7f bc 45 3d
       -0.034413993 0.047219183 0.03209132 0.048275467
000160 b0 06 e7 bd e4 27 c2 bc 06 22 1f 3e 50 fa f3 ba
       -0.112805724 -0.023700662 0.15540323 -0.0018614028
000170 6b be d9 3c 52 7b 25 3e c1 9d cf bc bb b0 1d bc
       0.026580056 0.16160324 -0.025343778 -0.009624655
000180 42 73 00 bc d3 83 ea bd 00 8d eb bd cb c4 e0 bd
       -0.00783998 -0.11450925 -0.11501503 -0.10975035
000190 9e 96 29 be fe d3 26 3c 9e 54 e8 3d 17 fa b2 3d
       -0.16561362 0.010182379 0.113442644 0.08739107
0001a0 c6 54 2f be 19 56 cc 3d 31 d4 72 3d 5f 1f 81 bd
       -0.17122182 0.09977359 0.059284393 -0.06304812
0001b0 8b 94 38 3d 26 dc 4b bd 3c 8f 02 be 7a b4 84 3d
       0.045063537 -0.049770497 -0.12749952 0.06479736
0001c0 1d dd 67 bd 27 2f a4 bd 28 8c fe bc b9 5e b8 3d
       -0.056607354 -0.08016806 -0.031072691 0.09002442
0001d0 49 bb ab bc 9a 07 7c 3e 3f 47 b9 bd dd e6 a7 3d
       -0.020963328 0.24612275 -0.09046792 0.081983306

fc2.0.weight f4 [84, 120]
000000 32 f4 03 be 4b e0 05 3f 4f 3d 02 3f 67 e9 17 bd
       -0.12886122 0.5229537 0.508748 -0.037087824
000010 3f 01 39 be 33 fd 45 3f 7b 8b 1a bf 45 ec 17 be
       -0.18066882 0.77339476 -0.6036908 -0.14836223
000020 de 24 fb bd e0 e8 0d 3f 37 ad 03 bf d5 21 5c be
       -0.12262891 0.55433464 -0.5143618 -0.21497281
000030 7d b4 3e bf 36 a3 7a 3e 0e cf 23 be 9f 60 1e bf
       -0.74494153 0.24476323 -0.15996954 -0.6186618
000040 7c ea 8d 3e 80 cb 0d be 33 f9 f2 3d 7d 75 26 3d
       0.2771796 -0.1384716 0.11863937 0.04063939
000050 d1 ef c9 3e 3c 03 80 be 8d 98 41 3d 67 83 82 bf
       0.39440778 -0.25002468 0.047264624 -1.0196351
000060 f1 03 1d bf b7 7f 5e 3f 04 a7 f0 3e 27 0b 44 3e
       -0.6133414 0.8691363 0.47002423 0.1914488
000070 2c ef 16 bd 02 4d 2e 3f cf 2d ee 3a a2 9d 6d 3d
       -0.036849186 0.68086255 0.0018171611 0.05801166
000080 91 fb ff bd 9f 75 ad 3d d7 6b 02 bf 81 f6 55 3f
       -0.12499154 0.084697 -0.509458 0.8357926
000090 1f 62 10 3e b5 23 28 3e 1c 14 e0 be 06 2e 6d bd
       0.1409993 0.16419871 -0.43765342 -0.05790522
0000a0 0f 78 91 be 29 4a e0 3b 79 85 de be 97 6a 8d bd
       -0.2841191 0.006844778 -0.43461207 -0.06905096
0000b0 9e d1 0d bf 54 62 a9 be 6d 07 d0 3e 88 48 bf 3e
       -0.55397975 -0.3308283 0.40630665 0.37360024
0000c0 79 ba d1 3c 52 3b 80 be 21 4b 8a be 90 0c 3a bf
       0.025601612 -0.25045258 -0.27010444 -0.7267542
0000d0 5c 97 3d 3e be eb a1 bf f9 75 c9 be f2 5a 81 be
       0.1851477 -1.2650068 -0.39347818 -0.25264698
0000e0 aa 9a 2c 3d 5c db 12 bf 6a 27 5b 3e 67 bc 15 3e
       0.042139687 -0.57365966 0.21401754 0.14622651
0000f0 7d 2d 0d 3f de b2 4f 3d d8 a8 44 3f 6a 61 34 bf
       0.55147535 0.05070769 0.76820135 -0.7046114
000100 57 27 41 3e 92 aa 96 be c3 cc 9d 3e 35 25 88 bd
       0.18862663 -0.2942701 0.30820283 -0.06647722
000110 64 49 1c 3e 9d 28 09 bf 86 46 44 3d eb 98 19 3f
       0.15262371 -0.53577596 0.04791882 0.5999896
000120 f8 c6 6a bd 9b 6d e6 bd 9f 94 bc 3e 1f 0b 94 bf
       -0.057318658 -0.11251374 0.3683214 -1.1565894
000130 3c c0 04 bf 2b eb 07 3f 40 5f d5 3e dd bb 0c 3f
       -0.51855826 0.5309321 0.41674232 0.54974157
000140 b5 2a 76 3e ff c1 a8 be 8f 18 13 be f3 c3 ec 3d
       0.24039729 -0.32960507 -0.14364837 0.11560812
000150 c5 38 00 3f 7f 59 31 3d 58 ed 3d bf 90 f5 d0 3e
       0.50086623 0.04329824 -0.7419028 0.4081235
000160 34 d7 db be 96 aa cb 3e 8f 95 0f 3f 1a 93 82 3e
       -0.42937624 0.39778584 0.56087583 0.25502855
000170 32 6c 2c 3e ab 1c 7e be 6e 6e b0 bc 55 27 a4 3e
       0.16838148 -0.24815623 -0.021537032 0.32061258
000180 a0 8e 54 be 0c 49 22 bf ea d8 91 be d8 97 ff 3d
       -0.20757532 -0.6339271 -0.28485805 0.12480134
000190 ef e6 7c bf f3 3c 80 3f 95 3d 04 3e 0f 22 5b bf
       -0.98789877 1.00186 0.12914117 -0.85598844
0001a0 d6 d9 39 bf 74 14 f6 be e1 74 e7 bd 5d 44 04 3e
       -0.72598016 -0.4806248 -0.1130159 0.12916704
0001b0 9f 29 00 3f 2f 4a 09 3f 78 68 11 3f 3e 29 4c be
       0.5006351 0.5362882 0.5680003 -0.19937608
0001c0 e5 da d4 be 0c 32 fc 3e cc 75 66 3e 08 4e c4 3c
       -0.41573253 0.49256933 0.22505873 0.02396299
0001d0 f4 e4 66 be 71 e3 57 bd 79 d6 18 3e 63 de 3e 3e
       -0.22548276 -0.05270714 0.14925565 0.18639521
0001e0 7f df 9f bd d7 55 25 3e f7 02 a0 be a2 a1 d2 bd
       -0.078063 0.16146027 -0.31252262 -0.10284735
0001f0 3a 6d 02 bf 19 de d0 be af 52 94 bb 9e 66 40 3d
       -0.50947917 -0.40794447 -0.004526458 0.046972863
000200 29 f2 60 3e 5e 23 30 bf 37 75 12 3e 57 65 96 3e
       0.21967377 -0.68803966 0.14302526 0.2937419
000210 ba 7f b3 be 07 47 fc be 9d 09 d0 bd e8 5a f5 be
       -0.35058385 -0.4927294 -0.101580836 -0.47920918
000220 af 9b fc 3e f8 90 b8 be 5e 99 a8 3e ab a3 2c 3e
       0.49337527 -0.36048102 0.3292951 0.1685931
000230 d2 e8 8b be a6 28 30 3f 9d a0 fb be 0f 4a 1a 3e
       -0.27326065 0.68812025 -0.49145976 0.15067314
000240 5d 35 9c be 92 84 31 3e 2f cd 52 3e f8 a7 95 3f
       -0.30509463 0.17335728 0.20586084 1.1691885
000250 b1 18 d2 3b 5e 01 4b be af e9 0b bf d4 38 90 bf
       0.006411635 -0.1982474 -0.5465345 -1.1267343
000260 89 e4 dd be e1 8d b2 3d 64 16 cf 3c 08 dd 9e 3e
       -0.4333842 0.087184675 0.025279231 0.31028008
000270 d3 a9 ec 3e ca 53 99 3d eb 0f 81 3e a2 e8 c1 be
       0.46223316 0.074866846 0.25207457 -0.37872797
000280 dd 62 b1 3d 36 86 4d 3f af 95 34 be 02 a8 47 3f
       0.08661435 0.80282915 -0.17635225 0.77990735
000290 c8 35 9c 3a d3 37 1c 3f d8 a9 7f 3d bd 67 20 be
       0.0011917884 0.6102268 0.062417835 -0.15664573
0002a0 00 84 09 bd 5b 26 34 be 6a fc e3 3e 28 76 08 3f
       -0.03357315 -0.17592756 0.44528514 0.5330529
0002b0 21 fd 08 be 7f 98 a4 3f 6c ec 16 3f 7f 70 0a 3e
       -0.13377811 1.2859038 0.589545 0.13519476
0002c0 ed 55 f3 be 7e 2e 9b 3e 2a c1 02 bf c5 ca 23 3e
       -0.47526494 0.30308908 -0.51075995 0.15995319
0002d0 06 a8 10 3e d0 aa f2 3e 7e 8a 00 3f 14 86 39 bf
       0.14126596 0.47395945 0.5021132 -0.7247021
0002e0 30 ab a0 3e 3d 36 6b be 64 53 86 be 88 4a f4 bc
       0.31380606 -0.22969909 -0.26235497 -0.029820696
0002f0 9f 20 97 3d ef 5d b6 bd c4 b6 10 3f b1 f9 04 bf
       0.07379269 -0.08904635 0.5652888 -0.519435
000300 51 20 22 be 51 fc 87 be 31 99 bb be 46 5b 6b be
       -0.1583264 -0.2655969 -0.36640313 -0.22984037
000310 b5 e4 19 bf ce be 08 bd b5 34 08 3d 9d d3 30 3f
       -0.60114604 -0.03338509 0.03325339 0.69072896
000320 b4 2e 1e bf 8e 6f 0c 3e 57 2d 84 3d 7e 10 b1 be
       -0.61790013 0.1371443 0.064539604 -0.34582895
000330 0c ab 06 bf 69 08 29 3e d8 de 16 3d fd bd 11 bf
       -0.52604747 0.16507114 0.036833614 -0.56930524
000340 d7 40 d8 3e 15 09 14 bf b5 0e 5b 3c dd ee 99 be
       0.4223697 -0.5782636 0.013370206 -0.3006505
000350 b6 23 dc 3e 95 e0 07 3f 49 05 94 be a7 a9 94 3e
       0.42995995 0.5307706 -0.28910282 0.29035684
000360 2a d2 47 3f 9c 09 64 3f 57 ad e5 bd 1e 4b 4b bf
       0.7805506 0.8907716 -0.112147026 -0.79411495
000370 40 35 6a 3e 8e 17 60 be 63 49 35 3e 26 c5 25 3f
       0.22871876 -0.21883985 0.17703776 0.6475395
000380 c2 f2 e5 3d 17 33 2d bf ea 52 6f be 61 32 2f bf
       0.11227943 -0.6765608 -0.23371473 -0.6843625
000390 96 b4 06 3f 29 06 5f 3f f0 71 85 be 5b 7e bf be
       0.526193 0.87118775 -0.2606349 -0.3740109
0003a0 ff 58 22 3f 5e 73 30 be 22 4b f7 3e bd 99 31 3f
       0.6341705 -0.17231509 0.4829951 0.6937521
0003b0 20 00 e4 3d c1 90 ba 3e fc 53 8f bf b6 18 1c be
       0.11132836 0.36438563 -1.1197505 -0.15243801
0003c0 14 8a a0 3f 4a 6a 9f bc b4 0d 95 3e e6 61 c1 3e
       1.2542138 -0.019459862 0.29112017 0.37770003
0003d0 bf 4b cd 3e 20 a2 be 3e 3a 86 76 be 75 b5 16 bf
       0.40096852 0.37233067 -0.24074641 -0.5887063
0003e0 7f 19 7f 3d a3 ae 1f 3f 05 10 c7 3e 5a ed 43 bc
       0.062280174 0.6237585 0.3887941 -0.0119584445
0003f0 2c 98 7b be 89 38 d3 3c d0 53 3b be 51 d1 8c be
       -0.24569768 0.025783794 -0.1829369 -0.27503446

fc2.0.bias f4 [84]
000000 db 53 80 3d 02 d6 b4 3d f4 18 b3 3c bd db c7 3d
       0.06265994 0.08829881 0.021862485 0.097587086
000010 72 e5 a4 bc 50 8d 94 bc 1b 82 7c 3c 06 4c 87 bd
       -0.02012894 -0.01813379 0.015411879 -0.06606297
000020 af 7c a7 3d 5c 3c c4 bd 06 d9 72 bc 4c 88 03 3d
       0.081780784 -0.09581825 -0.01482225 0.032112405
000030 80 78 c6 bd 34 7c 0f 3c f6 c7 37 bd 81 9a 86 bd
       -0.09690952 0.00875764 -0.044868432 -0.06572438
000040 a2 c0 d1 bd 14 95 4e 3d 08 36 c7 bd 48 68 42 3d
       -0.1024182 0.05043514 -0.097271025 0.04746273
000050 8b 6a d3 3d 24 04 49 bc 1d 02 38 3d 5f d5 38 3c
       0.10323056 -0.012269054 0.04492389 0.01128134
000060 e1 c2 09 3d 07 ce 1c 3c 35 7a 2c 3d 2b 43 7e bd
       0.033633117 0.009570605 0.042108733 -0.062075775
000070 89 2e bb 3c 0d b1 f6 3c 4b 97 06 be 2f d0 48 bd
       0.022849338 0.030113721 -0.13143651 -0.049026664
000080 16 33 9e bd 9d 1d 87 bd 5f d2 9a 3d 99 00 0c be
       -0.077245876 -0.06597445 0.07559656 -0.13672103
000090 0b e5 b7 bc 17 f9 eb 3d 76 14 ec bd a1 a0 85 bd
       -0.022448083 0.115221195 -0.1152734 -0.06524778
0000a0 57 ee 91 3d 5b a6 6b bd d4 81 03 bd 40 cb 33 bd
       0.07125538 -0.057531696 -0.032106236 -0.043895006
0000b0 3c 91 1f bd f4 ff 87 3d 08 c2 20 3d 1f 5a f2 3c
       -0.038956866 0.06640616 0.039247543 0.029583989
0000c0 1a 26 cb 3c 8d d4 31 bd 32 93 bf 3c 25 b0 1a bd
       0.024798442 -0.043415595 0.023385618 -0.03776564
0000d0 b2 08 7b bd 60 41 54 bd e0 4f 2f be 23 6c 14 3c
       -0.06128759 -0.05182016 -0.17120314 0.009058985
0000e0 d5 8e 9e bd 19 e6 43 bd d6 a6 8c 3c 85 52 29 3c
       -0.07742087 -0.04782686 0.017169397 0.010334616
0000f0 94 46 55 3d 15 ee 7c 3d 98 76 be bd 07 81 79 3d
       0.05206926 0.06175049 -0.09299964 0.060914066
000100 66 9d b9 bc 49 f3 fa 3d 36 e9 dc bd f9 0d ff 3a
       -0.022658061 0.12253434 -0.10786669 0.001945912
000110 14 1f 2e bd 53 30 d6 3d a9 0c 84 3d 80 45 dd 3b
       -0.042510107 0.10458436 0.06447727 0.00675267
000120 5c 9a 90 bd 67 5c 5e bd 41 d3 d0 3d bf 51 37 bc
       -0.07060692 -0.05428734 0.101965435 -0.011188923
000130 a6 15 06 3d 12 16 88 3d 61 1c 25 3d c9 22 c6 3c
       0.03273549 0.066448346 0.040310267 0.024186509
000140 17 e7 50 bd e4 b7 d3 3c 17 eb a6 3d 99 8f f2 bb
       -0.051001634 0.025844522 0.081503086 -0.007402372

fc3.weight f4 [10, 84]
000000 5d 10 a0 3e 5a a1 3b 3e e9 ad a5 3e 0d 92 8e bf
       0.31262484 0.1832327 0.32359245 -1.1138321
000010 f4 a0 11 bf 3b 44 60 3c 48 86 75 bf f0 05 51 bf
       -0.5688622 0.013688142 -0.9590802 -0.81649685
000020 9a 1c b8 bd 6c c8 8a 3e e4 68 ae 3c 66 be a0 be
       -0.0898983 0.27106035 0.02129025 -0.31395262
000030 33 d2 fb 3e 76 62 b0 bf 35 52 8f bf ed f7 51 bf
       0.49183807 -1.3780048 -1.1196963 -0.8201893
000040 ac a4 84 3e 80 2c 37 3e ac b0 0b bf 73 e8 3e 3e
       0.25906885 0.17888069 -0.54566455 0.1864336
000050 47 0c 7d 3c cf 52 54 bf 34 e3 a6 3e 7a 9c 61 3e
       0.015444822 -0.82938856 0.32595217 0.22032347
000060 5f 2d 55 bf 2b 4f a5 bf 19 03 65 be 50 a5 94 bf
       -0.83272356 -1.2914785 -0.22364463 -1.1612949
000070 bb f4 1b bf 23 e0 a3 3e e9 e8 fa 3e de b3 8d bf
       -0.60920304 0.3200694 0.4900582 -1.1070516
000080 2e 82 b3 3e 30 55 09 3f e0 1f c5 bf 14 ef 7d bf
       0.35060257 0.5364561 -1.5400352 -0.9919293
000090 78 97 f8 3e 31 eb 62 bf d0 f2 aa 3e 6b c7 54 be
       0.4855306 -0.88640124 0.33388376 -0.20779197
0000a0 18 34 c7 bf 8b b0 07 3f 01 df d7 3e 70 f6 b0 3e
       -1.5562773 0.5300376 0.42162326 0.34563017
0000b0 60 e1 9a bf b6 98 8c bf ee 21 51 bf 83 4e 4d 3e
       -1.2100029 -1.0984104 -0.816924 0.20049481
0000c0 f2 8b 41 3f 0a 10 b9 3e 45 5c aa be b1 3d a0 be
       0.75604165 0.3614505 -0.3327352 -0.31297067
0000d0 a2 92 ea 3c 24 7c 66 bf 24 a0 b3 be e5 86 61 3f
       0.028634373 -0.90033174 -0.35083115 0.8809646
0000e0 4d 0f 40 bf 61 e0 ad 3e da 95 49 bf 16 42 2e bf
       -0.7502335 0.3396025 -0.7874428 -0.6806959
0000f0 bb 86 bc be 24 6b 01 bf a0 20 3c 3f 1e 5b 26 bf
       -0.3682154 -0.5055411 0.7348728 -0.64982784
000100 0a f9 8e 3d 9f b8 84 bf 3f 11 ac bf e0 62 14 3f
       0.06981094 -1.0368842 -1.3442763 0.5796337
000110 67 5e 08 3f 3c 46 86 3b b8 f3 71 3e 8d b6 42 3f
       0.53269047 0.004097728 0.23628128 0.760598
000120 f7 be 3a bc 85 72 bd 3e ec 33 d7 3e 80 b6 3e 3e
       -0.011398069 0.37001434 0.420318 0.18624306
000130 f8 f4 23 3f 78 89 cc be c3 ec fb bb 29 3e ea 3e
       0.6404567 -0.3994863 -0.0076881363 0.4575055
000140 64 e2 9e 3e 2a 04 96 bf 40 4d 94 bf 11 26 a4 bf
       0.31032097 -1.1720021 -1.1586075 -1.2824117
000150 48 fd 85 bf ea 8c b4 3e 55 b3 2e bf 81 14 22 bf
       -1.046792 0.3526376 -0.6824239 -0.63312536
000160 36 0e 7f 3e 2e 0a f3 3e c3 78 08 3f 98 1e 60 bf
       0.24907765 0.47468704 0.5330927 -0.8754668
000170 f5 76 02 3f 46 77 5f bf b5 26 06 bf b2 a9 0b 3f
       0.50962764 -0.8729137 -0.5240281 0.5455581
000180 f1 45 8d 3e e6 08 c0 3e 19 0b b9 3e ab cd 4e be
       0.27592424 0.3750679 0.3614128 -0.20195644
000190 8f 65 15 bf 2e 19 0a 3e a6 56 83 be 9a e9 04 3e
       -0.5835809 0.13486168 -0.25652045 0.12979737
0001a0 59 e2 e2 3e e1 76 e8 3e 67 f2 a6 3e ec c6 34 bf
       0.44313315 0.45403197 0.32606813 -0.7061603
0001b0 fe 07 c0 3e 05 38 b7 3e 34 7e f0 3e a0 03 b6 3e
       0.37506098 0.35784927 0.46971285 0.3554964
0001c0 4e 27 54 3e 4d 86 58 bf 5d 2c 85 3e f3 6e 4a bf
       0.20718119 -0.84579927 0.2601041 -0.79075545
0001d0 94 74 f6 be 5d 65 89 3e 8d f7 3b 3e 70 ae a6 3d
       -0.48135817 0.26835147 0.18356152 0.0813874
0001e0 b5 8c 1f bf 86 9e 44 3e cd 3c 96 bf f0 87 1b 3f
       -0.62324077 0.19201097 -1.1737305 0.607543
0001f0 4e 37 03 bf 91 ec 5a 3e e4 84 81 bf ae 59 03 3d
       -0.51256263 0.21379305 -1.011868 0.032067947
000200 ed ed fe be ef 2c 95 3c 2c 7c c9 3e 3a 0c 2f bf
       -0.49790898 0.018209903 0.39352548 -0.6837803
000210 e5 d2 eb 3e 7f 48 2f 3f ba d1 5e bf 1a 31 04 3f
       0.46059337 0.68469995 -0.8703877 0.51637423
000220 fd 60 bd bf b2 66 ac 3e 60 e0 a9 be fb c4 15 3e
       -1.4795223 0.336721 -0.33178997 0.14625923
000230 4a 94 03 3f e5 8e 27 bf 13 f9 72 bf 0f c8 28 3f
       0.51398146 -0.65452415 -0.9491131 0.65930265
000240 46 fa b8 be 03 a8 6f bf d7 73 1c bf 82 4d 12 3f
       -0.36128443 -0.9361574 -0.6111426 0.5714952
000250 62 ad f0 3e 52 b4 d2 3e d5 90 37 bf f3 9f 15 bf
       0.4700728 0.41153198 -0.7170537 -0.5844719
000260 00 a3 c7 be 8a c4 40 bf 67 d9 34 bf 80 51 fa be
       -0.38991547 -0.75299895 -0.7064423 -0.48890305
000270 09 20 e0 bf 81 f7 c6 3e 0e 56 97 3e c4 c6 4f bf
       -1.7509776 0.38860705 0.29557842 -0.8116267
000280 38 54 26 bf a9 5c 2b 3f 76 ad 6e bf 1d 8b ab bd
       -0.6497226 0.66938263 -0.9323343 -0.08376143
000290 46 10 04 bf db 4e 97 3d cb dc 9c 3c b4 e1 19 3d
       -0.5158733 0.07388087 0.019148251 0.037568763
0002a0 06 cf a3 bf b4 9e 37 3e 09 d5 62 3e c9 aa 1a bf
       -1.2797554 0.17931634 0.22151579 -0.6041685
0002b0 b7 e6 3d 3f e5 16 97 3e fb cf 86 bf 7e 91 5b bf
       0.7418017 0.29509655 -1.0532221 -0.8576888
0002c0 f6 ed 42 3e 4a d6 4b 3e c7 90 1b 3f ad 1b 1c bf
       0.19036087 0.19905964 0.6076779 -0.6097973
0002d0 6f 25 2e bf 7c fb b6 bd fc 3f d9 3e 39 70 8a bf
       -0.6802587 -0.089346856 0.4243163 -1.0815498
0002e0 9d f9 3b 3f 4e 01 26 3e 21 b7 e7 3e 56 30 9f 3e
       0.73427755 0.16211435 0.45256904 0.31091565
0002f0 3e da 09 bf 7e 97 40 3f 1b 67 ed 3e 51 59 31 bf
       -0.53848636 0.7523116 0.46367726 -0.6927691
000300 2d 91 6b 3e da 64 21 3e 6f 37 73 bf d4 68 ea 3e
       0.23004599 0.15761128 -0.9500646 0.45783103
000310 38 41 75 be 16 10 69 bf 5d 4f 8a bd 13 b1 a9 be
       -0.2395066 -0.9104017 -0.067534186 -0.3314291
000320 0b 63 92 bf fe 8b 92 be c7 fd 88 bf ad c6 f6 3e
       -1.1436476 -0.2862243 -1.0702447 0.48198453
000330 05 5f ae 3e 05 6d 6b 3e 3c 94 83 3f af fc e9 bd
       0.3405687 0.22990806 1.0279613 -0.11425149
000340 6a d4 0a bf be 60 c5 3e 4c ba 82 3e 94 c0 87 bf
       -0.5423037 0.3855037 0.25532758 -1.0605645
000350 88 27 b7 3f 6a 05 1c be c2 e1 68 bf 31 d5 1d bf
       1.4308939 -0.1523644 -0.9096948 -0.6165343
000360 6c e1 2c 3f a5 d9 47 be 01 55 ca be 5f 1a 2e bf
       0.67531466 -0.19516619 -0.39517978 -0.6800899
000370 e9 c2 58 be 5e ae 08 3f 74 e4 28 bf a2 bd 14 3f
       -0.21168102 0.53391063 -0.6597359 0.58101857
000380 eb 13 4b be d1 0b 9d 3e 50 11 6a bf c2 60 85 3e
       -0.19831817 0.30673078 -0.91432667 0.26050383
000390 1c 43 ad be 75 d1 01 3f 8f ce 7a 3e 17 8d bc bf
       -0.33840263 0.5071023 0.24492858 -1.4730557
0003a0 9d b8 01 bf ed 7a 02 be 0b 5a db 3e 6c 97 9b 3e
       -0.5067232 -0.12742205 0.42842135 0.30388963
0003b0 dd ef 4e 3f 07 7e 69 3e f8 db 7a be 96 b0 46 3f
       0.8083475 0.22801982 -0.24497974 0.776132
0003c0 0c 38 1c 3e ee 43 12 3f 3d 4d ad bf 02 0d b5 bf
       0.15255755 0.571349 -1.3539196 -1.4144595
0003d0 53 75 8c 3e 22 5b 72 bf ee 96 a9 bf cd c7 80 bf
       0.2743326 -0.9467031 -1.3249185 -1.0060974
0003e0 c0 d3 c3 be 62 d3 cb 3e a0 41 2c 3d ef 51 58 bf
       -0.3824749 0.3980971 0.042054772 -0.8450002
0003f0 a7 1d 21 bf 98 82 86 bd 50 60 f3 3e b9 8c cb bd
       -0.6293587 -0.065678775 0.47534418 -0.0993895

fc3.bias f4 [10]
000000 d2 d8 81 bd cc c9 00 bc d6 c1 96 bc 16 e1 47 bc
       -0.06340183 -0.007860612 -0.018402975 -0.012199661
000010 21 5b 5e bd 9d b2 1d be 1f 52 ca 3d 62 d2 a5 3d
       -0.054286126 -0.15400167 0.098789446 0.08096768
000020 f3 fd 9b 3c f1 80 aa 3d
       0.01904199 0.08325375
