6_ConvolutionalNeuralNetwork/LeNet/model11.pth (torch, 250424 bytes, 10 tensors)

conv1.0.weight f4 [6, 1, 5, 5]
00000000: 26c1 6bbe 4697 943e 15b7 a63c 4f42 253f
00000010: 7542 613e 90b5 833e a828 633f fac3 803f
00000020: 9dea a23f 1c2e d93e 7cf0 59be dac1 2b3f
00000030: e5bf 423f 7828 1d3f a89d 0bbf d2b3 c2be
00000040: 8b80 ab3e 4f74 2dbe 78ce 9b3a 4059 7cbf
00000050: 0da7 12bf 02e2 1bbf d1c4 57bf ed05 b9be
00000060: b5fc 42bf 9c9d 4abf f4ec a8be 5356 f0bd
00000070: 0e19 96be 31f1 be3d 8333 76be dd6a 043f
00000080: 71be 353f 6cd3 133f c0a2 383f 4718 09be
00000090: 8361 a13f 0481 e73f 180e 2f3f 63a0 053f
000000a0: 648b f5be cf28 543f 4a54 493e 9a76 303e
000000b0: 4db6 25be 50e7 a5bf 117b 29bf 35b1 41bf
000000c0: 0b8e 0cbf 7c66 f2be 39f8 05bf 0ea5 6cbe
000000d0: 3485 a4be 789f cebd 91e3 5dbf 4b87 4d3f
000000e0: ddba 453f 58d5 813f c369 973f ef64 0fbf
000000f0: 048f 0a3f 79ea 513f a0c5 963f a27f 473f
00000100: 5180 2dbf c4c4 81bc 887b 453f 997f db3e
00000110: b627 a53e 5035 28bf f78b 05bf dbb7 58be
00000120: a3e3 d8be b214 d1be e540 46bf 53da d83e
00000130: 11c2 153f 3174 2c3f ec05 083f 10a0 173f
00000140: 324c 2d3e eb7e 103d 04ef bfbe 20c9 41be
00000150: e08b 0fbe 1ea4 17bf 00a8 c2bf 7603 96bf
00000160: dc23 84bf 89cd 34bf ec15 6cbf a12f 3abf
00000170: 39d1 42be 6aaa cfbd f884 1abf 967e c73c
00000180: df2e 513f c084 533f e739 a53e 3c80 1abe
00000190: 253a 313f 521c 923f e844 093f f91a 2a3f
000001a0: 48dd 513f 4afc 783e ad3c d1be 684f 22bf
000001b0: ea2a 40bf 996d c2be 4f34 0bbe d2e5 0abf
000001c0: 9fea 0fbf c779 05bf 491e dfbe ca8d e73e
000001d0: dca0 ddbe 0363 76bf 3472 ebbe 994e b5be
000001e0: 34a2 633f 526e 0eba 4772 babe 51d7 593e
000001f0: 05cd fc3e 0a94 ae3e dfdb 023f 4841 c3bd
00000200: d903 59bf ec89 1cbf 6b80 5e3e 1ab5 fb3c
00000210: c336 f0be 6134 9ebf 6970 193e a3a7 bcbd
00000220: b559 a3bd 25b8 43bf 371c 49bf 8903 1f3f
00000230: a3c0 923e 714e c5be ad03 98bf 55ef 0cbe
00000240: f9d8 fd3d bb4d 483f c707 b3be 40f9 a0bf
00000250: 136e e7be 01a8 c03e
-0.23022899 0.29021662 0.020350972 0.64554304 0.21998008 0.2572446 0.8873391 1.0059807
1.2727848 0.4241799 -0.21283144 0.6709267 0.7607406 0.61389875 -0.5453744 -0.38027817
0.33496508 -0.169389 0.0011887094 -0.98573685 -0.5728615 -0.60891736 -0.84284693 -0.36137334
-0.7616685 -0.7914674 -0.3299328 -0.11735215 -0.2931599 0.09323347 -0.24043088 0.5172556
0.70993716 0.5774448 0.72123337 -0.13388167 1.2607883 1.8086247 0.6838088 0.52197856
-0.4795791 0.8287477 0.1966106 0.17232743 -0.16182823 -1.2961216 -0.6620341 -0.7566102
-0.5490424 -0.47343814 -0.5233188 -0.23109838 -0.32132876 -0.1008901 -0.86675364 0.80284566
0.77238256 1.0143232 1.1829151 -0.5601339 0.54124475 0.819984 1.177906 0.7792913
-0.6777392 -0.015840895 0.7714162 0.42870787 0.3225686 -0.6570635 -0.52166694 -0.21163885
-0.42361173 -0.40836102 -0.7744277 0.42354068 0.58499247 0.67364794 0.53134036 0.5922861
0.16923597 0.03527729 -0.37487042 -0.1892438 -0.14018202 -0.592348 -1.520752 -1.1719806
-1.0323443 -0.7062612 -0.9222095 -0.72728926 -0.19025125 -0.10139926 -0.60359144 0.024352353
0.81712145 0.82624435 0.32270738 -0.1508798 0.69229347 1.1414893 0.5362077 0.66447407
0.81978273 0.2431499 -0.40866604 -0.63402414 -0.7506548 -0.3797424 -0.13594173 -0.5425693
-0.5621738 -0.5213894 -0.43577793 0.45225364 -0.43286788 -0.9624483 -0.45985568 -0.35411528
0.8891938 -0.0005433309 -0.36415312 0.21273543 0.49375167 0.3409732 0.51116747 -0.09533936
-0.84771496 -0.6114795 0.21728675 0.030726004 -0.4691678 -1.2359735 0.14984287 -0.09211662
-0.07976095 -0.7645286 -0.7855868 0.6211477 0.28662595 -0.3853641 -1.1876122 -0.13763173
0.123949 0.7824361 -0.3496687 -1.2576065 -0.45201167 0.37628177

conv1.0.bias f4 [6]
00000000: 74e8 4cbf 3a02 60bf d74c 4cbf 6385 5dbd
00000010: e9c8 40be 749e 14bf
-0.80042195 -0.875034 -0.7980475 -0.054082286 -0.18826641 -0.5805428

conv2.0.weight f4 [16, 6, 5, 5]
00000000: eb92 003e 2eaa 813e 1603 053f 3e27 8c3e
00000010: b376 89be a429 ec3e bfe3 243f fb39 623e
00000020: f4db 59be 0b16 09bf 48dd fb3e 601d 763e
00000030: a52d 07bf 6b32 4bbf 7f12 a83d 57a1 6c3e
00000040: 2f41 ea3d e84e 65bf 1730 5bbe a7e7 283f
00000050: 55de f3bb 45e9 90be e407 52bf e121 3a3d
00000060: df98 e23e 76d1 6e3d b5fc c43e 4c86 ec3e
00000070: 9ec2 b93d 5a3e 8ebe 0fc5 983e 2f60 cd3e
00000080: 0dde 8ebc bf16 05bf c47b 6cbe d76b ab3e
00000090: 4505 44bd fa56 45bf 49ad ebbe 12f9 e73e
000000a0: 0022 973d 2b03 db3d 8bf5 49bf 9455 5d3d
000000b0: c3be 1d3f c937 063d 112b 9dbe e094 e4be
000000c0: 8397 993e 1e7e e63e ef9c b03e 334e b53e
000000d0: 14c8 053f 2a10 973e ea8d 21be ffae 083f
000000e0: 02d1 1b3f 184e 363e 87bd e3be 8521 afbe
000000f0: 442e b83e 1562 163d d967 33bf fc27 63bf
00000100: 7f55 773e fa08 513e 217b 483e 0bef 34bf
00000110: b5b2 cebe 2884 f43e 0328 8abd 2457 63bd
00000120: 87e9 30bf 17a9 ae3d cd8d 0b3f e0a0 8dbe
00000130: bb47 d6be bfcc e1be 7050 c03c 2014 443e
00000140: 88c2 c9be 2ec2 7ebe 9c44 283e 294d be3e
00000150: 3906 643d c701 95be e93a 013e 1d30 873e
00000160: d410 6fbc 7b67 3fbf 310b 6dbe 251c 2bbd
00000170: 8232 92bc 2d59 e2be 5993 80bf 7304 7ebe
00000180: 87a1 923c e955 68be f307 3bbf 7a63 87bf
00000190: 21f7 b5be cae3 b5be c7fc 82be 56e5 69bd
000001a0: eb3c 863d dc7e c7be 7176 05be f26c 8f3e
000001b0: 120d b23e bc1f 0dbe d7a7 5dbe 504b b83c
000001c0: a27a 183f a72f 5e3e ce4f 12bf 0c8b f5bd
000001d0: 3e25 f23d 2cbc e13e 024e d4bd 11fd a8be
000001e0: 16a1 e8bd 5236 1a3e e0a0 9d3e 0bbc f7be
000001f0: 184d b0be add7 72be 1a5c afbe 31d1 cabe
00000200: c8f3 4bbe 815a 0dbe 8a63 34be f3ff c2bd
00000210: ab32 183e 8c09 553e 94e6 71be 4795 2abd
00000220: 498a 093e b686 323f 4f05 a33e a134 49be
00000230: dcc5 c83d fe1d 833e 44c3 023f 1b2a 0abd
00000240: af30 5abe 27a7 c9bd 7a7f 303e 5c28 aa3e
00000250: 60d6 0bbe 3f7f 103e d47a a53e 961a 763e
00000260: 5e59 52be f3c5 aabe 7561 b3be e731 f93e
00000270: 3788 af3e d896 813e 9388 c43e b850 b03e
00000280: b0af a83d c586 13bf cfc3 33bf 0809 1bbe
00000290: 50b8 9e3e 6374 33bf f49d bcbf 6fb0 afbf
000002a0: 41b2 78bf d723 d2be 578e e83d f9fe 133f
000002b0: c9d9 263e 99ae 5bbe 86b0 d0bd eb57 633e
000002c0: 4bee b43c 6fed 1fbe 7bac dbbd 2f1c 04be
000002d0: 81c0 4e3e fb5b 213d 9861 813d d438 d73e
000002e0: 70a9 fd3e 063d a0be 6af5 8dbf 81f2 41bf
000002f0: 206d 18be 471c 313e 5245 e4be c669 02bf
00000300: 10fc 1dbf f6e8 63bf 34da 00bf 5710 d33e
00000310: f48d 323f 8a57 833e 3f5b c5bd 708d f0bd
00000320: 60ea 9a3e a892 3a3e 4e03 aa3b 5f2c d6bd
00000330: 721f ddbd 35e7 cf3e 5740 5f3e 6c18 7fbd
00000340: 752c 413e 65b5 c93e b14c cabd 64a5 1bbf
00000350: ad08 99bf 9df1 15bf 5ef6 94bd ac26 27bf
00000360: 6eb3 49bf 91a0 5ebf e0ac 7cbf a4be 32bf
00000370: b5cc 8f3d 8833 c63e fb89 6f3e d6d1 2dbe
00000380: e591 c7bd 2886 94be b942 8fbe 6b30 81be
00000390: f9d4 3fbe 7110 48be cbd2 943d 5769 9f3d
000003a0: e389 c93d 06b5 18be 32bf acbe 7be0 3e3f
000003b0: 0b44 783f 6128 733f 674c 513f f9a5 c43e
000003c0: f37f d93e ef9d 9a3e dc5d d73e a4f8 383f
000003d0: 1748 383f 73b2 8abe 6cba 01bf 3328 eabe
000003e0: fe21 913c 0e84 873e 034a 08be addf 69be
000003f0: 1b8f 41be d304 a9be ace7 bfbe 50e7 6bbe
0.12556045 0.2532515 0.51957834 0.2737369 -0.26848373 0.4612552 0.6441001 0.2209243
-0.21275312 -0.5354926 0.49192262 0.24034643 -0.52804023 -0.79373807 0.08206653 0.23108421
0.11438214 -0.89573526 -0.21405064 0.65978473 -0.0074422755 -0.2830297 -0.8204329 0.045442466
0.44257256 0.058305226 0.3847405 0.4619621 0.090703234 -0.27781945 0.29837844 0.40112445
-0.017439866 -0.5198783 -0.23094088 0.33480713 -0.047856588 -0.7708584 -0.46030644 0.45307213
0.07379532 0.106939636 -0.78890294 0.05403669 0.61619204 0.032768045 -0.3069692 -0.44644833
0.29998407 0.45018095 0.3449473 0.35411224 0.5225842 0.2950452 -0.15776792 0.5339202
0.60865796 0.17803228 -0.44480535 -0.3420526 0.35972798 0.036714632 -0.70080334 -0.88732886
0.24153708 0.2041358 0.1957822 -0.7067725 -0.40370718 0.47757077 -0.06745913 -0.055503026
-0.69106334 0.08528345 0.54513246 -0.276618 -0.418516 -0.4410152 0.023475856 0.19148302
-0.39406228 -0.24878761 0.16432422 0.37168244 0.055669997 -0.29102919 0.12620129 0.26403895
-0.0145914145 -0.74767274 -0.231488 -0.041774888 -0.01784635 -0.4420866 -1.0044967 -0.24806385
0.017899288 -0.22689022 -0.73059005 -1.0577233 -0.35540107 -0.35525352 -0.2558348 -0.057103477
0.06554588 -0.38963974 -0.13033463 0.28012806 0.34775597 -0.13781637 -0.21646057 0.02249685
0.5956212 0.21697865 -0.5715302 -0.11989412 0.1182351 0.44088876 -0.10366441 -0.33005574
-0.1135885 0.15059784 0.307868 -0.48385653 -0.34433818 -0.23715086 -0.34249955 -0.39612725
-0.19917214 -0.13804056 -0.17616096 -0.09521475 0.14863078 0.20804423 -0.23623115 -0.04164627
0.13431658 0.697368 0.31839988 -0.19648983 0.09803364 0.2560882 0.510792 -0.03373156
-0.21307634 -0.09846335 0.17236128 0.33233917 -0.13655996 0.1411104 0.32320273 0.24033579
-0.20541903 -0.33354148 -0.3503529 0.48670885 0.3428361 0.25310397 0.38385448 0.34436584
0.08236635 -0.57627517 -0.70220655 -0.15140164 0.30999994 -0.7009947 -1.4735703 -1.3725718
-0.97146994 -0.4104297 0.11355274 0.5781093 0.16294016 -0.21453322 -0.10189919 0.22201507
0.022086283 -0.15617917 -0.107262574 -0.12901376 0.20190622 0.03939436 0.06317443 0.42035544
0.49543333 -0.31296557 -1.109052 -0.75760657 -0.14885378 0.17295943 -0.44584137 -0.5094265
-0.6171274 -0.89027345 -0.5033295 0.41223404 0.69747853 0.25652725 -0.096365444 -0.11745727
0.3025694 0.18220007 0.005188382 -0.10457682 -0.10797013 0.40606084 0.21801887 -0.06227915
0.18864615 0.39396206 -0.09877909 -0.6079924 -1.1955773 -0.585718 -0.07273553 -0.65293384
-0.7878941 -0.86963755 -0.98701286 -0.69822145 0.07021467 0.3871119 0.23392479 -0.16974577
-0.09744624 -0.29008603 -0.27980593 -0.25232252 -0.18733586 -0.19537522 0.07266768 0.07783764
0.09840753 -0.14912805 -0.3373962 0.7456128 0.96978825 0.9498349 0.81757206 0.38407877
0.4248043 0.3019862 0.42063797 0.72254395 0.71985 -0.2708927 -0.5067508 -0.45733795
0.017716404 0.26467937 -0.13309483 -0.22839232 -0.18902247 -0.33011493 -0.3748144 -0.23037457

conv2.0.bias f4 [16]
00000000: fc18 b2bd 164e aa3c 3a10 c5bc a2a2 183d
00000010: 5ab2 a0bd 6b5e 34bd e67b 9cbd 4819 053e
00000020: e5a0 c6bd 0dcd 043d 40a2 833d ef47 6a3d
00000030: a326 6dbc cc12 31bd 6411 b6bc 324e cb3d
-0.08696172 0.020789187 -0.024055589 0.037264474 -0.07846518 -0.044035356 -0.07640819 0.12997925
-0.09698657 0.032422114 0.06427431 0.057197507 -0.014474544 -0.043230817 -0.02222509 0.09927024

fc1.0.weight f4 [120, 400]
00000000: 5c27 7f3e 0663 943e 557b 7dbf 792d a7bf
00000010: e601 b4be 5aaa af3e 1545 883e c1c6 8bbe
00000020: 4b6e a4be 6e42 53bd d99b c7bc c1df c2be
00000030: 329b 923c 891b 553d d9fc f13d b282 0dbf
00000040: d246 21bf c2b7 603d fa8e 893e ccd1 ce3e
00000050: 4b37 91bb d276 15be 4aba 073e bb5e 843e
00000060: b54a 073e afce 8dbd e8af 353e 8382 d23e
00000070: 7218 033e b5b7 e9bd 1bc3 84be 66d4 3cbf
00000080: f591 69bc 64b0 ff3e 1737 f33d edd7 c2bd
00000090: 6b99 ab3e 0056 28be 2448 a4be 3784 21bf
000000a0: 31db af3d ef92 a5bc 06df 70be 43cd 50bf
000000b0: b255 883d 6e54 763e 0c4b db3d a11b 19bd
000000c0: 2f51 1f3e 29f9 493d 9fc5 7a3e 5781 a13e
000000d0: b5eb 4bbd 7bea 0dbf 4311 7ebe 55d1 8dbd
000000e0: 1d56 a9be be11 9bbd 3724 1ebe 02bc b73e
000000f0: d1ee 8fbd f2b7 f2bd 24b3 73be d3e0 593e
00000100: b7ac b63e 5bf8 953e 090e 42be 976c 953e
00000110: 7e8b 89be c3f3 103e af83 283e a5d2 b53c
00000120: c11e 6c3e 7eb8 aa3e 292e 883e ffb6 c7be
00000130: b3f0 2dbd 2509 2a3e 6364 6a3e 4926 bf3e
00000140: 7f70 81be 82b4 4bbe 5420 ef3c 44f6 cf3d
00000150: 619b 4b3e a571 aebe 20f3 41be 45ce 8d3c
00000160: 9f47 bf3d 6868 ddbe 642b 5b3e c3c5 ce3d
00000170: 8b33 12be 9e46 3ebf 5f09 9bbf ca8b bf3e
00000180: 2165 f33e 70b1 c0bd 46de a2be a6ec d7be
00000190: bbf2 1cbf 3b7a 1dbe 778b c43e 7509 bc3e
000001a0: ba12 923e 7cba f4be 8aca d7be 2715 ac3d
000001b0: 403c c43d 1760 91bc 16e3 203e 85b4 7ebe
000001c0: 3492 9c3d 9b4e 9d3c 4898 9bbd 7f7b ac3e
000001d0: 2deb 49bd 05bf fdbc 05d2 83bd 118b a6be
000001e0: ff8b 3d3e 5fb5 7cbb e3e0 46ba 4667 45be
000001f0: a83e dcbe 1ce5 24bf 00ab 73be 173b 713e
00000200: 6c1c 7c3e 86e8 ad3e 3c5c 20bf 2151 16bd
00000210: fe12 8b3d 0915 113f 0c08 5cbe 1d33 54bc
00000220: d9e3 a53b 7f1d 883e 69ad 3ebd 88af a9be
00000230: 11f3 f3bc d9d1 723d 5f73 80bd ca74 bdbd
00000240: 6e63 b3be f378 c83d 5354 1a3d ed30 0abe
00000250: 0328 22bf 08f6 83bf 6606 1b3c 9453 443c
00000260: 2ed4 f93b 6d96 0ebd 565b 0f3d 479c d0be
00000270: 7de6 90be 9264 ecbe 0e9b ed3d d804 0dbd
00000280: 2bc9 a8be d223 a0bd f461 1b3d c1e8 36be
00000290: dd67 92be 92c3 86be a344 d63e acf1 1a3f
000002a0: ff17 7dbd e2db 4e3e a224 903e 6cb9 053f
000002b0: 38b6 033e 6981 9c3e 92e5 0e3f d364 bfbe
000002c0: 7c50 94be d3bc b4bd 550d a93e 3ae7 9e3e
000002d0: 8fc1 00be c7c7 bfbd dd49 783e 5b7b 0c3f
000002e0: bb49 7e3f 51df 543d d9ea 6b3e c4a9 063f
000002f0: 5c16 383f 1617 d33e b47f 5bbd 4b00 40bc
00000300: f88c 53bd 55a3 06bf 23f2 92bd 91bb 273e
00000310: 061d 71bc 6cd6 5ebe b386 6cbf 089f b5be
00000320: 9bde 773e d49e b33e ed0c 62bf 55b3 50bf
00000330: 54e3 323e 54b2 053e 9b5b e0bd 28ea c1be
00000340: d916 17be 5f1c 043e 486a 473e 0b7d 293e
00000350: f7ed fdbc f921 823e 35cd 813e 77e4 34bc
00000360: 2004 06be b4b5 013f a068 b4be e037 1d3f
00000370: fbf2 ffbd 2e20 04bd a8a4 ab3d c752 953c
00000380: c3c8 223f 4c10 babe d767 ffbd 36ac cf3e
00000390: 47e3 e73e 5d75 c13e 8f92 2dbf 772a 53be
000003a0: 6504 043d aedd 013e 9d1a 483d 67fe b5be
000003b0: 25e8 de3d f4fe 56be 4215 2fbf 87f8 dfbe
000003c0: 10cc 153e 436c 563e 8f47 8ebe c8a4 62bf
000003d0: 8d43 9bbf 987b 533e 9192 643e 881b 43be
000003e0: 6e22 3cbf dc14 6bbf 7ee4 5abd 930a 0e3e
000003f0: e3d5 de3e 1b55 7a3d f593 043d 650a 08bf
0.24917358 0.289818 -0.99016315 -1.3060752 -0.35157698 0.34309655 0.26615205 -0.27300075
-0.32115397 -0.051577024 -0.024366306 -0.38061336 0.017896269 0.052028213 0.11815805 -0.5527755
-0.6299869 0.054862745 0.26866895 0.40394437 -0.0044316403 -0.14596108 0.13254657 0.25853524
0.13212092 -0.069241874 0.17742884 0.41115198 0.12802294 -0.114119925 -0.25930104 -0.73761594
-0.01425599 0.49939263 0.11875742 -0.09513841 0.33515486 -0.16439056 -0.3208629 -0.6309237
0.08586729 -0.020211665 -0.23522577 -0.81563205 0.0665697 0.24055645 0.107076734 -0.037379865
0.15558313 0.049309883 0.24489449 0.3154399 -0.049785335 -0.55435914 -0.24811272 -0.069246925
-0.33073512 -0.075717434 -0.15443502 0.35885626 -0.070279725 -0.11851491 -0.23798805 0.2127717
0.35678646 0.29291043 -0.18950666 0.2918441 -0.26864237 0.14155488 0.16456483 0.02219517
0.23058607 0.3334388 0.26597717 -0.39006802 -0.042465877 0.16605051 0.22889857 0.37333897
-0.2528114 -0.19893077 0.02919022 0.10154393 0.19883491 -0.3407108 -0.18940401 0.017310271
0.093398325 -0.43243718 0.21403271 0.10096314 -0.14277475 -0.74326503 -1.2112235 0.37411338
0.47538093 -0.094088435 -0.31810206 -0.42172736 -0.6130788 -0.15378658 0.38387653 0.36725965
0.28529912 -0.47798526 -0.42146713 0.08402472 0.09581804 -0.017746015 0.15711626 -0.2487355
0.076450735 0.019202521 -0.07597405 0.3368797 -0.049296547 -0.030974874 -0.064365424 -0.32527974
0.18510436 -0.0038560254 -0.00075866113 -0.19277677 -0.43016553 -0.64412093 -0.237957 0.23557697
0.24620217 0.33966464 -0.6264074 -0.036698464 0.06790732 0.5667272 -0.21487445 -0.0129516395
0.005062562 0.26585004 -0.046552096 -0.33141732 -0.029778989 0.059282158 -0.06272005 -0.09250791
-0.35036796 0.09788694 0.037678074 -0.13495226 -0.63342303 -1.0309458 0.009461975 0.011982817
0.0076241707 -0.034811426 0.034999214 -0.4074423 -0.2830085 -0.4617048 0.1160184 -0.034428447
-0.3296598 -0.07819332 0.037935212 -0.17862226 -0.28594866 -0.26321083 0.4184924 0.6052501
-0.061790463 0.20201066 0.2815295 0.52236056 0.1286248 0.30567482 0.55819046 -0.3738161
-0.28967655 -0.08825078 0.33017984 0.31035787 -0.12573837 -0.093642764 0.24246927 0.54875726
0.99331254 0.051970784 0.23038806 0.5260279 0.7190912 0.4122855 -0.053588584 -0.01171882
-0.05164811 -0.52592975 -0.0717509 0.16380145 -0.014716392 -0.21761483 -0.92393035 -0.35472894
0.24206011 0.35082114 -0.88300973 -0.8152364 0.17469531 0.13056308 -0.10954972 -0.3787396
-0.1475481 0.12901448 0.19474137 0.16551606 -0.03099726 0.25416544 0.25351873 -0.011040798
-0.13087511 0.5066788 -0.35236073 0.61413383 -0.12497517 -0.03225725 0.08381015 0.018227948
0.6358759 -0.3634056 -0.12470978 0.40561074 0.45290586 0.37784854 -0.67801756 -0.20621668
0.032230753 0.1268222 0.048853505 -0.35545656 0.10884122 -0.20995694 -0.6839181 -0.437443
0.14628625 0.20939736 -0.2778897 -0.88532686 -1.212999 0.20652616 0.22321536 -0.19053471
-0.73490036 -0.91828704 -0.053440563 0.13871221 0.43522558 0.06111632 0.032367665 -0.5314086

fc1.0.bias f4 [120]
00000000: 6b1f df3c 309e 3cb8 9625 73bd 0f7e 1c3d
00000010: 4ba7 673c 6021 31bd bbaf 8abd 6271 cbbd
00000020: 914c 27bd 26bb 833c 927b 00be ff3d e0ba
00000030: ad37 853d bca7 e9bb 02f3 1b3e 78e4 e8bb
00000040: 3aa9 b6ba 9704 b73d 4db3 9d3d d05d 323d
00000050: 8512 0b3d 8ec2 683d 36e2 b93d 137f a2bd
00000060: 0fcc da3d dff6 01bd fdb0 20be e2c1 1d3c
00000070: b4c3 b03c 809e c53c c9ee aabd ee88 12bd
00000080: adef a4bd fbbe 9abd 7c04 183d e367 31bd
00000090: 9731 163e 361c eabd a5e8 873d 4ee2 0bbe
000000a0: 014f 0cbc b49a 95bd 5460 26be 7108 01be
000000b0: e16b 873c e224 12be 8442 93ba ca01 2abd
000000c0: 5630 03be c91b d83c dc2d d1bd fe60 c5bd
000000d0: a57d 9a3d c892 9fbd 761b a73d c430 d3bd
000000e0: 08d4 ba3d fcfd 16be 4796 4dbd 785a f9bc
000000f0: 40e2 c43c 380b 2bbd 6bd6 3f3c e890 32be
00000100: fec3 eb3c c24f b5bd 4f39 943b 7a81 10be
00000110: 1357 df3d e3c8 eebd 4753 f33b 6773 11be
00000120: 6cba a5bd 004d 3abc 01c3 1fbc 8545 21be
00000130: 886c 1d3d 35e8 8abc ff28 573d d135 403c
00000140: 9ef1 aa3c ae71 c63d 9965 45bc 0984 a8bd
00000150: eb46 03bd 4337 a93c d717 a13c 1db4 863c
00000160: 8fa0 2fbd c953 15ba 33e6 d43d 7d69 6abc
00000170: 011e 0c3d a2dd dc3d 36f2 0dbc 6ebe 9a3c
00000180: 7fd8 5dbb 3c44 bdbd c0c8 a2bd 7ccb 89bd
00000190: 4e37 13be aa2d a63c c4f4 b33d 331d 7d3d
000001a0: 587b 29be bf1d 2a3d 6e14 3d3d c776 86bd
000001b0: 991c 023d 3ccb 57bd 7973 9bbd 6206 2c3d
000001c0: 2031 0bbd b823 a2bd ef0e 18bd 9fcc 6a3d
000001d0: c83c f83c f0b8 443e 2ea8 9dbd 4b26 de3c
0.027236661 -4.4970016e-05 -0.059362017 0.038206156 0.014139007 -0.04324472 -0.06771799 -0.099337354
-0.040844504 0.01608045 -0.12547138 -0.001710832 0.0650476 -0.007130591 0.15229419 -0.0071073137
-0.0013935931 0.08936422 0.077002145 0.043546498 0.03395321 0.056826167 0.090763494 -0.07934394
0.10683452 -0.031729575 -0.15692516 0.009628745 0.021577694 0.02412343 -0.08346326 -0.035775118
-0.08053527 -0.07555958 0.03711365 -0.043311965 0.14667355 -0.11431162 0.0663617 -0.13660547
-0.008563758 -0.07304898 -0.16247684 -0.12600876 0.016530933 -0.14271882 -0.0011235033 -0.041505612
-0.12811407 0.026380436 -0.10213825 -0.096376404 0.07543496 -0.07791668 0.08159535 -0.10312036
0.09122473 -0.14745325 -0.050192144 -0.030438647 0.024033666 -0.041758746 0.011708836 -0.1743809
0.02877998 -0.08853103 0.0045234333 -0.14111891 0.1090528 -0.1165941 0.007425699 -0.14204179
-0.08092198 -0.011370897 -0.009751082 -0.15749176 0.03843358 -0.016956428 0.05252933 0.011731581
0.020867165 0.096896514 -0.012048149 -0.08228309 -0.032050055 0.020656234 0.019664688 0.016443307
-0.04287773 -0.0005696384 0.103954695 -0.014307377 0.0342083 0.107844606 -0.008663705 0.018889632
-0.0033850966 -0.0924153 -0.07948446 -0.06728265 -0.14376566 0.020285446 0.0878692 0.061795425
-0.16550958 0.041532274 0.04616206 -0.06565624 0.031765554 -0.052684054 -0.07590384 0.041998275
-0.033982396 -0.07916969 -0.037123617 0.057324048 0.03030242 0.19211173 -0.07698093 0.027117869

fc2.0.weight f4 [84, 120]
00000000: 55dc f7bc 063b 0a3f 8ff6 c13e 37ac 98bd
00000010: 5da6 d1bd 36b8 3b3f a040 e3be f4d3 62bd
00000020: 9e0a 5dbe 6378 c23e 7b8b f7be 131a 4ebe
00000030: 942c 2fbf a318 813e 3689 52be 5775 0fbf
00000040: 8eb5 683e 0f70 10be db97 d43d 375c 063d
00000050: 3c68 ab3e 2f7a 9bbe a917 3f3d 58a3 67bf
00000060: 5687 f3be 6a27 463f 15ac b63e 6547 ac3d
00000070: 2fed 5dbd 2055 1a3f 1eac 21bd b004 6a3e
00000080: 0957 dbbd 5646 4d3d 74a1 05bf 5ca7 163f
00000090: 7239 043e c84f 833d 5eb1 74be 6ab9 02be
000000a0: 614f 81be d253 be3b 9d69 cbbe 9179 98bd
000000b0: 36d5 e4be 3fed 9bbe b27f e53e ca69 f23e
000000c0: 42a1 cb3d fc66 53be 37a2 36be 884d 0dbf
000000d0: 42de 803e c2fc 89bf 26da b8be ee83 a7be
000000e0: 2e4a 553c 6c3a efbe 2fe1 533e 277f e93d
000000f0: 0624 b43e 4336 debd a986 113f b987 24bf
00000100: a8c3 4f3e 882f 55be 414b 983e 6cca 81bd
00000110: 4979 1b3e 8644 debe eb93 a1bb f40f 153f
00000120: e018 e2bd 35fc 4cbd 60f4 743e 1edb 6cbf
00000130: b062 bdbe 56a0 d83e 7989 9a3e 9572 d63e
00000140: 2a46 2c3e 47de a7be 4d90 d0bd 6712 8b3e
00000150: 384c d13e dddd 923d 65ac 26bf 0656 f83e
00000160: 91f6 71be 441c ab3e 534e fb3e 16bd 853e
00000170: 8262 3c3e ad98 86be 57b3 ddbd ea8b 693e
00000180: 43e1 bfbe 1b82 fcbe 61db 94be 3946 803e
00000190: 0795 45bf d66a 583f 45ca f93d 3ab5 1bbf
000001a0: 02fc 1cbf d909 e1be 38b5 94bd ee9c 0cbd
000001b0: 73b4 953e 11fb d03e 68bd e53e e42c 77bd
000001c0: b058 b2be 9311 fc3e b668 6a3e a9ab df3c
000001d0: 1196 05be a49c 46bd 1df5 0e3e 6187 df3d
000001e0: 82e2 f8bd e014 47ba 0442 84be ac40 dabd
000001f0: 761b 01bf 0cf8 d5be b0c7 ebbc 91ca b83d
00000200: cf4d 463e 096c 0ebf 46a5 203e dc95 9c3e
00000210: 2a93 7bbe 487c 0abf bec1 99bd 2cb2 a5be
00000220: 4776 be3e dda9 90be 0834 ac3e 41ec 423e
00000230: d616 68be 6734 163f 998f e1be 7de8 8c3e
00000240: 0cc2 86be 0088 253d 0061 d33d e309 723f
00000250: aa8c 893d 7431 21be cc3a fbbe f509 6bbf
00000260: ccdd b5be b95e 623d 4a5a 543c 4675 e03e
00000270: b41f db3e 7ded 363e 4ea6 0e3e 55f4 9ebe
00000280: 8958 143e 9394 1c3f 93bd 33be f8fb 263f
00000290: 3f55 7f3d 0bdd 013f 2fa0 793c 68bb 99be
000002a0: 8f30 fabd ad64 24be 46d8 453e 4c9d cd3e
000002b0: e418 d8bc b8ca 7e3f 4aec 013f 3373 0d3e
000002c0: e5f3 92be 0529 9d3e edfc d3be 9611 fb3d
000002d0: ad4b 793d f43f be3e f002 d93e 0c3d 0ebf
000002e0: dcd7 8d3e ba47 57be de8d 82be c828 81bd
000002f0: 0f62 b53d 339b d3bc 3257 083f 7f59 ecbe
00000300: 99dd 09be 3ea8 25be 8ea4 abbe 5ed2 fbbd
00000310: bf01 0ebf 55a3 22bc 4a67 1d3c 11d2 103f
00000320: 591c 1abf 17e2 d53d fc39 af3d 2371 a2be
00000330: 2e92 cfbe d4f6 0c3d fe15 b03d c8d7 f1be
00000340: 8eb6 ae3e cb4b 05bf 12fd 403e 5b02 6cbe
00000350: 5909 b23e a71e 003f 6606 a9be aff4 743e
00000360: 9c90 363f 44f8 3c3f fc9b cabc f662 3ebf
00000370: ef9f 0e3e 0ccd fcbd 9e99 613e bde7 eb3e
00000380: df2e 783e abf6 00bf bb96 fcbd a90a 32bf
00000390: e07b ee3e 8505 4d3f 7921 f7bd b055 a3be
000003a0: 945c 0d3f aabe 6bbe a0ed db3e 1639 053f
000003b0: 4481 5c3d a446 983e 0e46 5cbf 8167 d2bd
000003c0: 1ade 793f b633 753c c1c0 4d3e 2772 993e
000003d0: 10a8 cb3e 41dc 903e 4ca2 8bbe f87a 17bf
000003e0: 8990 42bc 23ff d53e 07de 833e 9756 1abd
000003f0: 809a 5ebe d780 983b 9769 2ebe f610 93be
-0.03025643 0.5399631 0.37883422 -0.074547224 -0.102368094 0.7332796 -0.44385242 -0.055377916
-0.21586081 0.37982473 -0.48348603 -0.20127134 -0.68427396 0.2521411 -0.20560154 -0.5603842
0.22725508 -0.14105247 0.10380527 0.032802787 0.33477962 -0.30366656 0.046653423 -0.9048362
-0.4756419 0.7740389 0.35678163 0.08412055 -0.054181274 0.6028614 -0.039470784 0.2285335
-0.1070996 0.050115906 -0.5219948 0.5884912 0.12912539 0.064117014 -0.23895785 -0.12766042
-0.25255874 0.005808332 -0.39729014 -0.07445062 -0.44693917 -0.30454442 0.44823986 0.47346336
0.09942867 -0.20644754 -0.17835318 -0.5519643 0.2516957 -1.078026 -0.36103934 -0.32717842
0.013018174 -0.4672426 0.2069137 0.114012055 0.35183734 -0.10850193 0.568461 -0.64269596
0.2028948 -0.20818913 0.29744914 -0.06337437 0.15182985 -0.43411654 -0.0049309633 0.5822747
-0.11039901 -0.05004521 0.23921347 -0.92521846 -0.36989355 0.42309827 0.30183008 0.41884294
0.1682364 -0.32786772 -0.10183773 0.27162477 0.40878463 0.07171223 -0.65106803 0.4850313
-0.23629214 0.33420002 0.49083194 0.26120824 0.18396953 -0.26288357 -0.10825222 0.22807279
-0.3747655 -0.49318013 -0.29073623 0.25053576 -0.7718052 0.8453802 0.12196783 -0.60823405
-0.61322033 -0.43952826 -0.07261127 -0.034329347 0.29239234 0.40816548 0.44871068 -0.060345545
-0.34833288 0.49232158 0.22891507 0.027303534 -0.13045527 -0.048489228 0.13960691 0.10914493
-0.12152578 -0.0007594358 -0.25831616 -0.106568664 -0.5043253 -0.41790807 -0.028781742 0.090230115
0.19365619 -0.556336 0.15688047 0.30583084 -0.24567857 -0.5409589 -0.075076565 -0.32362497
0.37199613 -0.28254595 0.33633447 0.19035436 -0.22664961 0.5867371 -0.4405487 0.27521124
-0.2631992 0.040412903 0.10321236 0.94546336 0.06716283 -0.15741521 -0.49068296 -0.9181207
-0.3552078 0.055266116 0.01296098 0.43839473 0.42797625 0.17864032 0.13930628 -0.31045786
0.14486898 0.61164206 -0.17552786 0.65228224 0.062337156 0.5072791 0.015235945 -0.30025792
-0.12216293 -0.1605403 0.19320783 0.4015907 -0.026379056 0.99528074 0.50751173 0.13813476
-0.28701702 0.30695358 -0.41403905 0.122592136 0.060863186 0.37158167 0.42385054 -0.555619
0.2770375 -0.21023455 -0.2549886 -0.063066065 0.08856594 -0.02583084 0.5325805 -0.4616203
-0.13463439 -0.1617746 -0.33523983 -0.12295984 -0.55471414 -0.009926637 0.009607146 0.56570536
-0.60199505 0.10443514 0.085559815 -0.3172694 -0.40541214 0.03441508 0.08597945 -0.4723494
0.34123653 -0.52068776 0.18846539 -0.23047774 0.34772757 0.5004677 -0.33012694 0.23921464
0.71314406 0.73816323 -0.024732582 -0.7436975 0.13928197 -0.12343797 0.22031257 0.4607524
0.2423663 -0.50376385 -0.12333437 -0.69547516 0.46578884 0.8008655 -0.12066931 -0.31901312
0.5521939 -0.23021951 0.4295473 0.5204023 0.053834215 0.29741395 -0.86044395 -0.10273648
0.97604525 0.014965942 0.20093061 0.29969904 0.3977666 0.2829304 -0.2727226 -0.5917201
-0.01187528 0.41796216 0.2575533 -0.037680235 -0.21738625 0.004654031 -0.17032467 -0.28723878

fc2.0.bias f4 [84]
00000000: 2e04 953d 0c6d a23d 1e78 eebb b321 983d
00000010: 424c c6bc a7bc cdbb cae4 803b d975 1cbd
00000020: 240d 813d 1d8c d3bd f073 fcba b1c3 843c
00000030: 88cc cfbd 764d 32b9 1469 e7bc 55a0 46bd
00000040: 0d07 bcbd efe5 3d3d b113 a5bd 684f 133d
00000050: 3fee e93d 566f fe3b 4f10 653d 79c9 acbc
00000060: bff1 183d 9fe0 863c f93b 9b3c a2d1 56bd
00000070: 4890 c93c e2d6 ec3c 4e41 a9bd 6a8d 11bd
00000080: 552a 7fbd 328c 92bc 731b 843d 92c7 bdbd
00000090: 8176 43bd 42dd b63d 5926 b3bd 7b0f 9ebd
000000a0: 2cdd aa3d f134 5dbd 9f55 60bc 6ef9 01bd
000000b0: fad1 87bc a041 623d 51fe 2b3d a129 f3b9
000000c0: 455f 8a3d 26e5 7fbd 9b72 083d e10b 15bd
000000d0: c59b 33bd 517b 54bd cb90 01be 71c4 453c
000000e0: 444f 9bbd 2997 41bd 9bb6 1f3d 7ec0 343d
000000f0: 8a0b 673d 23c7 4e3d 0ab7 8ebd 2032 283d
00000100: 810c f5bc d267 053e c0cc cbbd 2063 0c3b
00000110: 4449 04bd bd1b 6c3d db21 5f3c 9a60 163c
00000120: 247f 3abd 867b 02bd 0de0 f43d af80 bebb
00000130: 5fb7 df3c f302 9e3d c4d6 fe3c bf54 4e3d
00000140: 72a2 18bd 12c4 a83b 9162 9f3d a82a c1bc
0.07276188 0.07930955 -0.0072775027 0.074283026 -0.024206284 -0.0062785926 0.003933524 -0.038198326
0.063013345 -0.10329459 -0.0019260626 0.016206594 -0.10146433 -0.0001700426 -0.028248347 -0.04849275
-0.09181032 0.04636186 -0.080603965 0.0359644 0.11422395 0.007764737 0.055923756 -0.021092163
0.037339922 0.01646453 0.018949496 -0.052446015 0.024604931 0.028911058 -0.08264409 -0.035535254
-0.06229623 -0.017889116 0.06450548 -0.09266581 -0.047720436 0.0892892 -0.087475486 -0.077177964
0.083429664 -0.054005567 -0.013692289 -0.031732015 -0.016579617 0.055238366 0.041990582 -0.00046379588
0.067564525 -0.062474392 0.03331242 -0.03638828 -0.043849725 -0.051875416 -0.1265289 0.012070761
-0.07583478 -0.0472633 0.038992506 0.044128887 0.05640749 0.05048288 -0.06968506 0.041063428
-0.029913189 0.13027886 -0.09951162 0.0021421388 -0.032296434 0.05764364 0.013618912 0.009178305
-0.045531407 -0.031856082 0.11956797 -0.00581368 0.027309118 0.07715406 0.031108268 0.05037379
-0.037264295 0.0051503265 0.07782472 -0.02357991

fc3.weight f4 [10, 84]
00000000: ac18 8a3e ee1d d43d 93c8 a43e 8f5b 6abf
00000010: 00ce fbbe 0396 36ba b580 68bf fcb1 37bf
00000020: e933 71be 7564 853e f816 2c3d 4340 cbbe
00000030: f411 c83e 2bb2 8dbf fe5b 58bf bb30 f2be
00000040: ba07 813e f7e3 4b3e 4487 f2be 01f9 063e
00000050: 9cc8 15bd 1cb0 25bf 61c2 a73e 28a9 403e
00000060: 9894 1dbf 6396 8abf c430 70be 5aed 5dbf
00000070: 6502 0dbf d062 883e 5767 da3e df86 66bf
00000080: c0f0 af3e 927f f63e 4466 a3bf 3029 44bf
00000090: d2c8 db3e 0c5d 36bf 68a0 a53e 86e7 44be
000000a0: ddca 9ebf c110 eb3e ad77 b13e ef2d a53e
000000b0: d6cb 6bbf 9b5d 5dbf aca8 20bf 4258 253e
000000c0: 6e3e 2e3f ecb4 8d3e 132b 5dbe 5931 35be
000000d0: 8d3a 733b 11ad 2bbf cf71 95be 6c84 3e3f
000000e0: 7502 14bf 5b18 833e cea9 2abf 0b2f 1bbf
000000f0: b0ed a6be 2534 cabe 949b 223f 362c 1dbf
00000100: f051 023d 046b 4ebf 73bf 89bf 6315 e53e
00000110: 5ead f83e 0fdc cdbc cbcd 613e a1c6 293f
00000120: a40f 8f3c 0177 be3e 1d97 bb3e 98b5 173e
00000130: f8c1 033f afcf b7be 4ca6 a7bc 20d9 cb3e
00000140: 3ac6 a73e f4cb 81bf f127 6ebf fdd8 90bf
00000150: 9854 5dbf 30a9 ac3e 8812 10bf 1b3b 1dbf
00000160: 65ec 913e 33d1 ec3e 9740 d73e 2d1f 38bf
00000170: ddaa f53e 594e 2abf 2254 f9be 225a 053f
00000180: 4bb1 6f3e 4e69 9f3e 32eb bc3e a872 12be
00000190: 2b54 04bf 323f f83d 038b 44be d030 803d
000001a0: 7764 cc3e 7388 d63e 03b9 a53e 35bb 22bf
000001b0: a699 b03e b11f b23e dd5a db3e 4fcd 9d3e
000001c0: 4fee 523e 2a31 3cbf a022 5f3e 4995 3ebf
000001d0: a6be dfbe 0612 703e 321e 1a3e 5842 dd3d
000001e0: 15af 21bf b3e6 303e dbe9 85bf e086 073f
000001f0: 308c eebe a658 513e fca2 55bf 7a67 3f3d
00000200: 8622 e2be 3871 22bd b04b b83e 9c1d 27bf
00000210: dc3d d73e 60e2 1b3f 5520 47bf 15e1 fa3e
00000220: e5cf 9abf a373 823e 900d 99be 2a58 ad3d
00000230: 3b58 d73e 61f5 0abf c754 45bf 6539 1e3f
00000240: 9c6e d4be 98b4 59bf 2f88 10bf 9b48 da3e
00000250: 4124 d93e ee88 c13e 5038 1fbf fc4f 04bf
00000260: f6d3 b0be aa36 1fbf 772b 31bf f4e6 aebe
00000270: 49b3 abbf cc22 be3e 6922 833e f00b 33bf
00000280: 7c90 1fbf d841 2b3f 458a 4dbf f9a6 1ebe
00000290: 8508 debe 66dd d53d f332 15bd deb2 adbc
000002a0: b655 6cbf 0568 433e 66d3 363e 468b e7be
000002b0: 5862 0e3f 6799 753e 731d 4dbf 4a79 0dbf
000002c0: f8c9 483e f997 3a3e 8aa1 073f 3ae3 fcbe
000002d0: 45f6 03bf 5bd8 28bd 1175 b33e dec5 61bf
000002e0: 94dc 0c3f ace4 103e d425 b83e fd55 873e
000002f0: 0dfe f1be a45a 1a3f d3eb c23e a12a 0ebf
00000300: c1f3 6b3e 2bf7 e93d e6ea 46bf 31ea cf3e
00000310: 56c9 43be 0325 29bf 2a3f 4abd 99a9 73be
00000320: b197 6bbf 9e31 82be eafc 5abf 77df d83e
00000330: 29d0 9c3e 7f7c 603e 7409 5f3f d9a5 49bd
00000340: a327 bebe 646f ac3e 0610 5f3e db8e 64bf
00000350: 0c94 8e3f b2cc 80bd 41e3 3bbf e94d 01bf
00000360: 6126 0d3f c186 4fbe 4c32 a8be e0f9 14bf
00000370: 3e08 2cbe 19b7 063f b605 f3be 3daf 023f
00000380: 3f71 1ebe fb83 953e 431d 2dbf 9b7d 533e
00000390: 6f48 9fbd 678f c73e da61 433e dac2 90bf
000003a0: 273e c6be d895 94bd b2e8 c73e 1762 7e3e
000003b0: a90c 1a3f 5a81 5b3e 83bb 5dbe d3c7 0b3f
000003c0: 3a8f 1b3e bd23 f03e c664 90bf 0461 99bf
000003d0: 5745 773e b013 58bf 6a68 6bbf 59f3 3dbf
000003e0: 8edd bfbe 971b bd3e 4b4e 4e3d b7a4 1dbf
000003f0: bfeb efbe c710 10bd f334 d73e d08f 3fbd
0.26971948 0.10357271 0.32184276 -0.9154596 -0.49180603 -0.00069651025 -0.9082139 -0.7175596
-0.23554958 0.26053205 0.042014092 -0.39697465 0.39076197 -1.1069998 -0.8451537 -0.47302803
0.25201207 0.1991118 -0.47368824 0.13180925 -0.03656827 -0.64721847 0.32765487 0.18814528
-0.6155486 -1.0827144 -0.23456103 -0.86690295 -0.5508178 0.26637888 0.42656967 -0.90049547
0.34363365 0.48144203 -1.2765584 -0.7662535 0.4292665 -0.7123573 0.32348943 -0.19228944
-1.2405659 0.4591122 0.34661618 0.32261607 -0.92107904 -0.86470956 -0.6275737 0.16146949
0.6806401 0.27677095 -0.21598463 -0.17694606 0.0037113756 -0.67060953 -0.29188392 0.7442081
-0.5781625 0.2560452 -0.6666535 -0.60618657 -0.32603216 -0.39492908 0.63518643 -0.61395586
0.031816423 -0.8063204 -1.0761551 0.4474288 0.4856977 -0.025129346 0.2205116 0.6631871
0.017463513 0.37200168 0.36638728 0.14815366 0.5146785 -0.35900638 -0.020465039 0.3981409
0.32768422 -1.0140367 -0.93029696 -1.131622 -0.86457205 0.3372283 -0.56278276 -0.6141831
0.28500667 0.46253356 0.42041466 -0.7192257 0.4798192 -0.665258 -0.48697 0.52090657
0.23407476 0.3113503 0.3689819 -0.1430155 -0.5169093 0.121214285 -0.19193654 0.0625931
0.399204 0.41900977 0.32367715 -0.63566905 0.34492224 0.34789804 0.4284276 0.308207
0.2059872 -0.7351252 0.21790552 -0.7444654 -0.4370014 0.23444375 0.15050581 0.1080367
-0.6315778 0.17275505 -1.0461992 0.5294018 -0.4659133 0.20443973 -0.8345182 0.046729542
-0.44166964 -0.039658755 0.35995245 -0.65279555 0.42039382 0.60892296 -0.7778371 0.4899985
-1.2094694 0.2547885 -0.2989316 0.084640816 0.42059502 -0.5428067 -0.77082485 0.6180633
-0.41490638 -0.8504119 -0.564578 0.4263352 0.42410472 0.37799782 -0.621953 -0.51684546
-0.34536713 -0.62192786 -0.6920695 -0.34160578 -1.3414088 0.37135923 0.2561219 -0.6994009
-0.6232984 0.66897345 -0.8028911 -0.15493383 -0.43365875 0.10442619 -0.036425542 -0.021203455
-0.92318285 0.19082649 0.1785408 -0.45223445 0.5561881 0.239843 -0.8012306 -0.552632
0.19608295 0.18222035 0.52980864 -0.4939211 -0.5154765 -0.041221958 0.35050252 -0.88192546
0.55024076 0.14149731 0.3596636 0.2643279 -0.47264138 0.60294557 0.38070545 -0.55533797
0.23042203 0.11424097 -0.77702177 0.4060836 -0.19119772 -0.660721 -0.049376644 -0.23795165
-0.9202834 -0.2542848 -0.85542166 0.4235799 0.30627564 0.21922491 0.871238 -0.04923043
-0.37139615 0.33678734 0.21783456 -0.8928048 1.113893 -0.062890425 -0.73393637 -0.50509506
0.55136687 -0.20266248 -0.32850873 -0.5819378 -0.16800019 0.52623135 -0.47465295 0.5104864
-0.15472887 0.29202256 -0.67622775 0.20653383 -0.077774875 0.38976595 0.19080296 -1.1309464
-0.38719293 -0.07255143 0.3904472 0.24842106 0.6017557 0.21436062 -0.21653561 0.5460178
0.15191355 0.46902266 -1.1280754 -1.1982732 0.24147545 -0.8440504 -0.919562 -0.74199444
-0.3747372 0.36935112 0.050367635 -0.6157946 -0.46859547 -0.03517225 0.42032585 -0.04676801

fc3.bias f4 [10]
00000000: 43f1 8fbd 8dcd 78bc f54c c0bc 24fc a639
00000010: 5505 9cbd 8d06 0cbe 3dec e23d e50a c23d
00000020: d475 123d 8439 a73d
-0.07028439 -0.015185726 -0.023474196 0.00031849847 -0.076182045 -0.13674374 0.11080215 0.09474734
0.0357569 0.08165267
