6_ConvolutionalNeuralNetwork/LeNet/model4.pth (torch, 250410 bytes, 10 tensors)

conv1.0.weight f4 [6, 1, 5, 5]
000000 1e ef a5 be 4e c1 72 3e 9d 4c 0b 3e 0d 7e 03 3f
       -0.32408994 0.23706552 0.13603444 0.51364213
000010 f9 bf f0 3d c2 0e 5a 3e b1 e4 38 3f fd 50 42 3f
       0.11755366 0.21294692 0.72223955 0.7590483
000020 f5 9f 5f 3f 44 3a a9 3e 8d d2 fe bd d3 27 0e 3f
       0.8735345 0.33052266 -0.12442503 0.55529517
000030 b5 f6 23 3f 15 ea 17 3f fd 53 84 be ab 53 9a be
       0.6404832 0.59341556 -0.25845328 -0.3014196
000040 ed 02 b9 3e 03 a9 b7 bb b9 d4 51 3e 57 0d 3e bf
       0.36135045 -0.0056048646 0.20491304 -0.74239105
000050 d9 b3 19 bf d8 31 0c bf c2 a0 32 bf 4a 66 bd be
       -0.6004005 -0.54763556 -0.69776547 -0.36992103
000060 80 42 6a bf 4f a8 3e bf ed a4 b0 be f5 69 99 bd
       -0.9150772 -0.7447557 -0.34500828 -0.07490913
000070 36 78 d1 bd 8d 04 66 3e de ad 85 bd b0 37 cf 3e
       -0.102280065 0.22462673 -0.06527303 0.40472174
000080 e3 f0 fb 3e 5d 4d ff 3e a5 fd 0b 3f 20 1d 46 3c
       0.4920722 0.4986371 0.54683906 0.012091905
000090 a3 ec 72 3f 69 77 b0 3f 51 4c 27 3f e6 e0 02 3f
       0.9489233 1.3786441 0.65350825 0.5112442
0000a0 b9 97 b6 be b3 49 0f 3f c7 4b 19 3e fe 1e 7d 3e
       -0.3566263 0.5597183 0.14970313 0.24718854
0000b0 c9 95 1e be 15 c1 8a bf e3 8a 10 bf c9 cc 0c bf
       -0.15486826 -1.0840174 -0.56461924 -0.5499998
0000c0 f4 ae 00 bf 65 a6 24 bf ee 41 e9 be 40 d4 88 bd
       -0.5026696 -0.643164 -0.45558113 -0.066811085
0000d0 2a d2 9a bd 71 64 03 3d 8c c4 06 bf 41 95 0e 3f
       -0.07559617 0.03207821 -0.52643657 0.55696493
0000e0 26 87 32 3f 2a 59 63 3f 8c cc 72 3f 64 db 85 be
       0.6973747 0.8880793 0.94843364 -0.26143944
0000f0 07 ba e5 3e 92 40 4c 3f e7 40 78 3f 8d e6 1c 3f
       0.4486849 0.79786026 0.96974033 0.6128929
000100 ea bc b8 be af d8 04 be 82 d9 25 3f 56 af bd 3e
       -0.3608163 -0.12973283 0.64785016 0.37047833
000110 cf 9d 9d 3e c4 d4 ed be ab b5 f0 be 78 f8 65 be
       0.3078446 -0.4645139 -0.47013602 -0.22458065
000120 90 24 e8 be 82 0e 06 bf a9 88 72 bf 76 3e 0c 3f
       -0.45340395 -0.5236589 -0.94739777 0.5478281
000130 13 92 e8 3e 30 f1 14 3f fa 24 01 3f 7c 05 08 3f
       0.45423946 0.5818052 0.50447047 0.5313337
000140 a4 38 49 3e 76 a4 a1 bb 96 96 9e be 97 31 57 be
       0.19650513 -0.0049329353 -0.30974263 -0.21015011
000150 cf ce 6f be 89 4c 02 bf 05 38 9f bf 8a d6 62 bf
       -0.23418735 -0.50898033 -1.2438971 -0.8860861
000160 47 18 71 bf 3d 10 44 bf 07 49 48 bf 8f 29 2d bf
       -0.9417767 -0.7658728 -0.7823643 -0.6764154
000170 a6 15 8a be 7f 3c 9f bd 9c 12 07 bf 53 01 dd bd
       -0.2696964 -0.077752106 -0.5276277 -0.10791268
000180 ae cd d2 3e 6e f5 08 3f 20 3c 73 3e 49 32 fe bd
       0.41172546 0.53499496 0.23753405 -0.12411935
000190 bb 55 23 3f 70 61 68 3f ac 0b d6 3e 06 3b fe 3e
       0.6380269 0.9077368 0.4180578 0.49654406
0001a0 12 65 1b 3f 12 e2 4b 3e 4f b2 da be 5b 05 00 bf
       0.60701096 0.19910458 -0.42714164 -0.5000817
0001b0 68 bb 26 bf ce 44 9d be 6a 54 45 be 54 05 0f bf
       -0.6512971 -0.30716556 -0.19270483 -0.55867505
0001c0 4d 41 15 bf d1 7e 00 bf 6c ca 62 be 64 3e c3 3e
       -0.58302766 -0.50193506 -0.2214753 0.38133538
0001d0 f0 58 76 be e2 84 55 bf 4e 95 c2 be dc b7 3f be
       -0.24057364 -0.8340589 -0.38004535 -0.1872248
0001e0 c3 2d 3d 3f e0 ae 1b 3e f7 9f ab be b5 4d 75 3d
       0.7389795 0.15203428 -0.3352048 0.05988856
0001f0 17 87 da 3e 0c 47 8c 3e 75 22 dc 3e 91 f3 a3 bd
       0.4268119 0.27397954 0.4299504 -0.08005441
000200 82 a8 35 bf 49 0d 0d bf 96 ef 43 3e da 4e 93 bc
       -0.7096025 -0.55098397 0.19134364 -0.017981935
000210 bf b6 07 bf be cf 85 bf eb 84 40 3d 0e ae 3c 3b
       -0.53013223 -1.0454023 0.04700176 0.0028790268
000220 33 81 18 be 8e dc 40 bf 05 79 28 bf c9 77 06 3f
       -0.14893036 -0.7533654 -0.6580966 0.5252653
000230 c9 62 a8 3e 7d 77 c4 be c5 47 82 bf 66 ba 26 be
       0.32887867 -0.38372412 -1.0178152 -0.16282043
000240 de f3 eb 3c 1b 8b 20 3f 20 71 c9 be 08 98 92 bf
       0.028802808 0.6271226 -0.3934412 -1.1452646
000250 32 08 fe be c8 68 98 3e
       -0.49615628 0.29767442

conv1.0.bias f4 [6]
000000 ac f9 19 bf b6 f5 3b bf 26 17 2e bf 94 e2 e5 3d
       -0.60146594 -0.734218 -0.6800407 0.11224857
000010 ba aa 1d 3e 9a bd 98 be
       0.15397158 -0.29832155

conv2.0.weight f4 [16, 6, 5, 5]
000000 2f 74 81 3e a8 b4 99 3e 83 20 d0 3e ad 04 d3 3d
       0.25283954 0.30020642 0.40649804 0.10303626
000010 3b 72 72 be 6f 04 ad 3e c7 aa 03 3f 50 7b f5 3d
       -0.23676388 0.33792445 0.5143246 0.119864106
000020 82 d0 4d be 0c 98 c2 be c4 ed be 3e 9b ae 79 3e
       -0.2009907 -0.38006628 0.37290776 0.24383013
000030 cd 06 bc be 7a a5 26 bf 7f c7 01 bd 69 86 54 3e
       -0.3672394 -0.6509625 -0.031684395 0.20754398
000040 b3 a5 71 3d 9f 96 45 bf f5 e6 95 be 6d 60 f6 3e
       0.058995914 -0.77182955 -0.2927777 0.48120442
000050 ed 56 3c 3d 52 39 6f be 30 f8 1e bf 05 01 90 bc
       0.045981336 -0.2336171 -0.62097454 -0.017578611
000060 13 33 bb 3e 45 b0 53 3e 12 95 ac 3e 2e 0c b0 3e
       0.36562404 0.2067271 0.33707482 0.34384292
000070 a7 75 a5 3c 96 67 1b be a0 55 2e 3e 9e 6c 9e 3e
       0.020197703 -0.15176234 0.17024851 0.30942243
000080 b3 3e 5a 3d 97 74 a9 be 49 74 17 be f3 c2 96 3e
       0.05328245 -0.33096763 -0.14790453 0.2944561
000090 8a 5e 3b 3d 08 9c 10 bf e0 f0 bf be 70 05 92 3e
       0.045744456 -0.56488085 -0.3748846 0.28519773
0000a0 39 89 83 3d 6f fb 02 bd 23 98 17 bf 1b 5c c7 3c
       0.064226575 -0.031978067 -0.5921652 0.024335911
0000b0 35 25 fa 3e c8 e6 ae 3d 62 e7 41 be 6f 24 af be
       0.48856512 0.08540112 -0.18935922 -0.34207484
0000c0 6a f4 41 3e 42 4b bf 3e 2a e7 ad 3e 53 fd 9f 3e
       0.18940893 0.37362105 0.33965427 0.3124796
0000d0 85 92 cf 3e 44 b3 1d 3e e0 f7 0c be 7d 7e a0 3e
       0.40541473 0.15400416 -0.13766432 0.31346503
0000e0 f0 e5 e6 3e a2 10 2d 3e e1 f8 8b be 1a 01 45 be
       0.45097303 0.16900876 -0.27338317 -0.19238701
0000f0 19 eb 43 3e c0 bd a5 3d 61 d9 ef be bb cd 2a bf
       0.19132651 0.080928326 -0.46845534 -0.6672017
000100 c0 d0 3b 3e e1 a4 23 3e 11 f0 ab 3d c5 0c 0b bf
       0.1834135 0.15980865 0.083953984 -0.5431636
000110 25 f3 a3 be 2c cd c3 3e 61 36 0a 3d df 7c c6 bc
       -0.32021442 0.3824247 0.033743266 -0.024229465
000120 c0 5f fd be 48 e4 2a 3d 57 73 e7 3e 96 99 95 be
       -0.49487114 0.041721612 0.45205185 -0.2921874
000130 27 28 a9 be b9 34 be be 2e 11 9f 3c 61 6e b4 3d
       -0.33038446 -0.371496 0.019417372 0.088101156
000140 7f f3 91 be 4d dd 3b be 26 3d e6 3d e4 4f 8e 3e
       -0.28506085 -0.18346138 0.11242132 0.27795327
000150 5f 49 2a 3d 20 c1 72 be 49 e7 47 3d de f4 5d 3e
       0.04157388 -0.23706484 0.048804555 0.2167544
000160 4c af 0d 3d c2 4a 0a bf 9d 06 45 be 84 2d 70 bd
       0.034591004 -0.5402032 -0.19240804 -0.058637157
000170 b9 ee eb 3c 68 5b a2 be bc 86 3c bf fd 03 96 be
       0.028800355 -0.31710362 -0.7364309 -0.29299918
000180 76 7e d7 bc cd d5 18 be f3 60 0c bf a1 c4 59 bf
       -0.026305418 -0.14925309 -0.5483543 -0.85065657
000190 35 87 91 be 18 bf a4 be 88 d7 58 be e4 40 8c bd
       -0.28423467 -0.32177043 -0.21175969 -0.068483144
0001a0 7e a7 89 bc b4 2a 52 be 7e 0b 09 be e5 46 36 3e
       -0.0168035 -0.20524102 -0.1338329 0.17800482
0001b0 02 e7 49 3e dc a9 f8 bd fd 11 3a be 25 3c 05 bd
       0.19717029 -0.12141773 -0.18170924 -0.03252806
0001c0 d3 84 ff 3e 6b 7a 4d 3e 6a 83 c3 be 70 e9 ee bd
       0.49906024 0.2006623 -0.38186198 -0.116656184
0001d0 f1 6c 22 3e 48 45 c9 3e b9 28 9b bd 36 c3 a3 be
       0.1586187 0.3931067 -0.075761266 -0.31984872
0001e0 af 42 20 be 92 42 04 3e c6 47 81 3e 60 83 8a be
       -0.15650438 0.1291602 0.2525007 -0.27053356
0001f0 86 3c 9b be 92 31 69 be 75 a8 a3 be d7 93 9c be
       -0.30319613 -0.22772816 -0.3196446 -0.30581543
000200 3a a2 c6 bd cf c2 0c be 88 64 2e be 4f c6 08 be
       -0.09698911 -0.13746189 -0.17030537 -0.13356899
000210 e6 47 33 3e c5 7e 33 3e fa 2c 5e be 81 a6 90 bd
       0.17507896 0.17528827 -0.21696845 -0.07063008
000220 22 ce b2 3d 59 01 1a 3f 72 78 68 3e 0d 64 37 be
       0.08730723 0.60158306 0.22702196 -0.1790926
000230 d6 e3 4b 3d 05 54 95 3e db be 07 3f 3e ee 0c 3d
       0.04977783 0.29165664 0.530256 0.034406893
000240 88 f2 64 be a2 70 8e bd ab e8 4e 3e 66 1c 93 3e
       -0.22358143 -0.06955077 0.20205943 0.28732604
000250 c5 f4 c7 bd 40 7a b8 3b 3d 3c 37 3e 67 b1 9c 3d
       -0.09763483 0.0056298077 0.17894073 0.07651024
000260 b0 9f 39 be 45 52 66 be 2e 9a 24 be 87 b4 d2 3e
       -0.18127322 -0.22492321 -0.1607444 0.41153356
000270 32 8b 72 3e 94 c4 93 3e 83 ab 91 3e aa d3 a5 3e
       0.23685911 0.28860915 0.28451166 0.3238805
000280 4b b9 df 3c 12 bd e6 be 05 dd 14 bf 9b ae 97 be
       0.027310034 -0.45066124 -0.5814975 -0.296254
000290 0d a9 0e 3e 44 56 17 bf c1 9e 88 bf 13 88 7d bf
       0.13931675 -0.59116006 -1.0673448 -0.9903576
0002a0 5b fc 20 bf 72 de 9c be dc 87 04 bc f5 7f a4 3e
       -0.62885064 -0.30638462 -0.008089032 0.32128873
0002b0 df 9e d2 3d db 17 dc bd 66 a5 a6 bd 2c 05 b6 3d
       0.102842085 -0.107467376 -0.08137016 0.08887705
0002c0 a2 61 31 bd 80 a5 6a bd a5 f7 3c bd 92 72 e3 bc
       -0.043306 -0.05728674 -0.04613461 -0.027764592
0002d0 00 72 2f 3e 13 cb a2 3d ca a2 c4 3d 70 32 7c 3e
       0.17133331 0.079488896 0.09601362 0.24628615
0002e0 c4 e9 c5 3e f6 08 8f be 2f 0b 38 bf 3b b1 25 bf
       0.38654912 -0.27936524 -0.71892065 -0.6472356
0002f0 b5 dd 55 be ce 38 6a 3d 72 af 04 bf a1 e1 11 bf
       -0.20885356 0.05718308 -0.5183021 -0.5698491
000300 6d 72 f8 be fa 83 0e bf 15 6e b8 be dd f6 89 3e
       -0.485248 -0.5567013 -0.36021486 0.26946154
000310 9d 41 fe 3e 9b 0a 7b 3e 77 3d b7 bd 57 ae 09 be
       0.49659434 0.24515764 -0.0894727 -0.13445412
000320 a3 04 69 3e c6 b0 9c 3d 03 e7 ee bc 23 e0 ae bd
       0.22755675 0.07650904 -0.02916289 -0.085388444
000330 95 1b 86 bd c7 d4 a5 3e 15 7a 21 3e cf 45 0d 3d
       -0.065482296 0.323889 0.15769227 0.034490403
000340 2c a9 13 3e 6b 3d 93 3e fc a9 e4 bd 0a d4 bf be
       0.14420003 0.28757796 -0.111652344 -0.3746646
000350 3b 20 38 bf 40 73 cf be e9 38 4b bd f5 24 15 bf
       -0.7192418 -0.40517616 -0.04961482 -0.58259517
000360 24 22 23 bf c4 04 22 bf a9 37 1d bf 46 79 d8 be
       -0.6372397 -0.6328852 -0.61413056 -0.42280024
000370 24 ff 2f 3d 1a 79 93 3e 4e 15 6b 3e 60 d6 ca bd
       0.04296793 0.2880333 0.22957346 -0.0990417
000380 4b 1d 06 be 0b 21 67 be 56 93 66 be 87 d6 60 be
       -0.13097112 -0.22571199 -0.22517142 -0.21956836
000390 dc 64 61 be e7 4c 42 be 91 0d ce bb 87 f7 14 3d
       -0.22011131 -0.18974648 -0.0062882383 0.036368873
0003a0 61 86 a9 3d b9 85 9c bd d9 53 4d be 16 ca 14 3f
       0.08277584 -0.07642693 -0.20051517 0.5812086
0003b0 c1 40 4b 3f 64 a3 46 3f 53 d5 37 3f d4 79 9a 3e
       0.7939568 0.77593064 0.7180988 0.30171072
0003c0 39 67 c5 3e 4a 4a a2 3e 02 1c c6 3e 00 2e 0e 3f
       0.38555315 0.31697303 0.38693243 0.5553894
0003d0 4c 5f 08 3f 74 c8 42 be 2b 4d c5 be f6 79 c2 be
       0.5327041 -0.1902178 -0.38535437 -0.37983674
0003e0 75 57 b7 bc bd 4d 51 3e 43 c4 e2 bd b5 76 71 be
       -0.02238057 0.20439811 -0.1107259 -0.2358044
0003f0 a8 ee 60 be d8 2f 92 be 07 3e af be b8 a1 55 be
       -0.2196604 -0.28552127 -0.3422701 -0.20862472

conv2.0.bias f4 [16]
000000 a0 81 a1 bd ca 4e d6 3c 39 00 12 bc b1 7d 61 3d
       -0.07886052 0.026160616 -0.008911186 0.05505151
000010 c6 c5 92 bd 5f 36 3f bd 1a 9a 92 bd 30 b9 09 3e
       -0.071666285 -0.04668271 -0.07158299 0.1344955
000020 02 87 d9 bd d0 d2 c8 3c 3f 07 8e 3d 67 dd 95 3d
       -0.10621454 0.024514586 0.06934976 0.0731762
000030 42 e3 a2 ba 82 99 52 bc b2 30 37 bc a6 c4 b1 3d
       -0.0012427347 -0.012853982 -0.011181043 0.08680086

fc1.0.weight f4 [120, 400]
000000 19 ca 83 3e df 6f f0 3d 2e 6c 6b bf 4d 20 91 bf
       0.25740126 0.11740088 -0.91961944 -1.1337982
000010 60 18 87 be 95 28 39 3e 3f ae 21 3e 86 25 57 be
       -0.26385784 0.18081887 0.15789126 -0.21010408
000020 35 d0 6c be b9 cc a5 bd b9 f4 3f bd 00 3f 1f be
       -0.231263 -0.080956884 -0.046864245 -0.15551376
000030 47 22 8a 3d e8 71 a8 3d 5c 3c dc 3d 51 7e c3 be
       0.06744819 0.08224851 0.107537 -0.3818231
000040 fc c8 fc be 8b 61 e7 bb 66 e4 47 3e b6 a5 34 3e
       -0.4937209 -0.0070611886 0.19520721 0.17641339
000050 3d b2 99 bd c2 3a 94 bd 4f 69 ad 3d 7d 43 40 3e
       -0.075046994 -0.0723777 0.08467352 0.18775745
000060 63 71 3e bd 95 af 39 3c c5 45 86 3e 27 6e d3 3e
       -0.046494853 0.011333366 0.26225105 0.41294977
000070 6c f4 98 3e ce a0 86 bc 8d 89 72 be f8 8d fc be
       0.2987398 -0.0164341 -0.23685284 -0.49327064
000080 da 6c ec 3d 7f 57 be 3e f3 de 81 bd 6e 48 6d b9
       0.11544199 0.3717613 -0.06341352 -0.00022629063
000090 fb 7f 0b 3e 0c 59 ac 3d 3d c4 aa 3b 5f d1 b1 be
       0.1362304 0.08415422 0.0052113817 -0.3473005
0000a0 f6 ca 84 bb b1 4b 60 bc ba e8 d0 bd 8e f2 1d bf
       -0.004052515 -0.013689921 -0.10200639 -0.61698234
0000b0 0f 16 3f bc 73 b3 18 3e a6 d3 a3 3d 4a 76 94 3d
       -0.011662974 0.14912204 0.07999353 0.07249124
0000c0 66 8e 09 3e 18 ff 8f 3a 89 bf 41 3e 1a fa 01 3e
       0.13433227 0.0010986058 0.18920721 0.12693062
0000d0 00 09 c1 bd 91 75 c8 be 80 40 7d bd 82 42 41 bd
       -0.09425545 -0.39152196 -0.06182909 -0.047182567
0000e0 2f c1 88 be 86 87 09 be d1 8d 19 be bd ed 08 3e
       -0.26709887 -0.13430604 -0.14995505 0.1337194
0000f0 ef db 3c bd 9c 50 67 bd 7a c6 4b be bf 2f 1d 3e
       -0.046108183 -0.05647336 -0.19899932 0.15350245
000100 9c 00 64 3d 41 16 be 3d 7c 49 cb bd b3 b2 23 3e
       0.055664644 0.09281588 -0.099261254 0.15986137
000110 d6 4d 13 be 55 4e 8d 3d 3e d1 17 3e d1 a3 13 3d
       -0.14385161 0.06899706 0.14825913 0.0360449
000120 d2 83 03 3e 04 c2 54 3e 9d 83 a3 3d f4 4c 35 be
       0.12843254 0.20777136 0.079840876 -0.17705137
000130 19 d2 84 3d 31 36 2e 3e b6 c3 17 3e ab 3b 62 3e
       0.064853854 0.1701286 0.14820752 0.22093074
000140 49 b8 6e bd 3d ad e0 bd cb 24 ab 3b b6 9a 8a 3d
       -0.058281217 -0.109705426 0.005222892 0.0676779
000150 38 e3 71 3e 99 06 96 be f3 d2 03 be 3b cc 84 bd
       0.23621833 -0.2930191 -0.1287344 -0.06484266
000160 46 5f a9 bd 07 54 a0 be 79 2e 9b 3d 0b be a7 3d
       -0.08270125 -0.31314108 0.07577223 0.08190545
000170 6f 05 dd bd 8b 6a d8 be 5a c8 23 bf 2f 26 87 3e
       -0.10792052 -0.42268786 -0.6397759 0.2639632
000180 30 c8 98 3e e2 a1 17 be dc 56 74 be b6 26 2e be
       0.2984023 -0.14807847 -0.23861259 -0.17006955
000190 bf dd 77 be 6d 6b 81 3c 8c 05 98 3e 42 b2 80 3e
       -0.24205683 0.015798295 0.29691732 0.25136
0001a0 08 cf bc 3d 02 8c 40 be 28 43 3c be ec 77 49 3d
       0.092191756 -0.18803409 -0.18384993 0.049186632
0001b0 93 3e 6f 3d d1 d6 1b bd 8b 1a f1 3d 21 b4 11 be
       0.058409285 -0.03804666 0.11772641 -0.1422887
0001c0 3e 42 de 3c 89 a5 62 bd d8 6c 13 be dc 4f 8f 3e
       0.027131196 -0.055333648 -0.1439699 0.27990615
0001d0 e1 c2 cd bc db 6b 3a 3d 58 86 d4 bd 10 68 86 be
       -0.02511734 0.045513015 -0.103771865 -0.26251268
0001e0 dc ea 3e 3e 20 76 e1 3c 54 03 73 bc 3e 85 4e be
       0.18644279 0.027522147 -0.014832336 -0.20168015
0001f0 ee d2 3c be 42 ac 84 be b8 ee e3 bd c0 19 65 3e
       -0.18439838 -0.25912672 -0.11129516 0.22373104
000200 ee 6c 7b 3e 93 3e 67 3e 54 0f d9 be dd 1c 61 3d
       0.24553272 0.22582464 -0.42394507 0.054959167
000210 0b f6 10 3e 95 36 d7 3e 41 b0 0d bd 10 9f 7d bb
       0.14156358 0.4203383 -0.034591917 -0.0038699545
000220 01 5c 28 3d 60 5c 19 3e cf c7 90 3d 7b 9d ee bd
       0.041103367 0.14976645 0.070693605 -0.11651131
000230 7d 40 1e bc 78 b8 99 3c 13 c3 12 be eb bd 2d be
       -0.00965893 0.01876472 -0.14332227 -0.16966979
000240 06 5d fc be b3 a4 ae 3c 43 be 47 bd ec cc bc bd
       -0.4928972 0.02131877 -0.048765432 -0.09218773
000250 59 15 e8 be 5b 0e 32 bf 8e 14 0b 3d 61 69 6b 3c
       -0.45328787 -0.69553155 0.03395515 0.014368386
000260 c0 e4 d0 bc 02 85 44 bd 92 61 65 3d a2 db 80 be
       -0.025499701 -0.04797841 0.056001253 -0.25167567
000270 2d 6f 36 be 26 4e d1 be c0 7a c4 bd ef c7 92 bd
       -0.17815848 -0.40879935 -0.09593725 -0.071670406
000280 c3 69 8d be eb f2 9f bc 51 8a 0c bc 2b da 04 be
       -0.27619752 -0.019525012 -0.008577899 -0.1297385
000290 23 42 6d be ac f3 ec bd b0 fd 77 3e e3 ca db 3e
       -0.2316976 -0.11569914 0.24217868 0.42928228
0002a0 19 37 6c bd 0d 17 87 3d 84 e5 1d 3e db 94 b7 3e
       -0.057669733 0.065961935 0.15419585 0.35855755
0002b0 c8 05 15 3e d0 bc 57 3e 36 bc 88 3e ea a9 ef bd
       0.14552987 0.2106812 0.26706094 -0.117023304
0002c0 26 cd 6d be c6 65 14 be f0 87 d8 3d cc c5 83 3e
       -0.23222789 -0.14491948 0.10572803 0.25736845
0002d0 bd 38 94 bd 70 71 bb bd 57 b5 33 3e 9d fd f7 3e
       -0.072373845 -0.09152496 0.17549644 0.4843568
0002e0 28 4c 3a 3f 45 ff 9f 3d c7 22 70 3e a1 fe b6 3e
       0.72772455 0.07812361 0.23450767 0.3574114
0002f0 0b 7c 30 3f ad b7 a5 3e 14 2f 3a bc c6 3e 98 3b
       0.68939275 0.32366696 -0.011363763 0.004646155
000300 a2 48 a9 bd 13 d2 a4 be 3e f9 21 be 3e 4d fd 3d
       -0.08265807 -0.32191524 -0.15817735 0.123682484
000310 2f 91 8f 3c f6 77 72 be f8 75 07 bf 3b a9 7e be
       0.017525284 -0.23678574 -0.5291438 -0.24869244
000320 2e 5a 76 3e 68 b7 c5 3d 12 d2 08 bf 94 34 22 bf
       0.24057838 0.096541226 -0.5344554 -0.6336148
000330 1d ba c1 3d f9 b0 32 bc 0a 83 cd bd db 3d be be
       0.094593264 -0.010906451 -0.10034759 -0.37156567
000340 5c 7e 8e be 47 bd 7a bd 87 0a 9a 3d cf 67 ee 3d
       -0.2783078 -0.061215665 0.07521539 0.11640894
000350 90 eb 79 ba e4 be 4c 3e 3f 33 2b 3d 10 aa 24 3d
       -0.0009533698 0.19994694 0.04179692 0.040201247
000360 b1 21 d4 bd 80 e3 ad 3e 28 94 25 be f3 29 98 3e
       -0.103579886 0.3396263 -0.16169798 0.29719505
000370 a4 97 94 bb d7 49 70 bc af 3b d4 3c a9 3b 77 3d
       -0.0045346785 -0.014666042 0.025907366 0.06035963
000380 e6 9c 66 3e 4f 34 4e be ba 45 df bb 9f 96 bd 3e
       0.2252079 -0.20137142 -0.006813732 0.37028977
000390 a2 33 b1 3e a4 f5 43 3e 5c 21 dc be a5 bf 0a bd
       0.34609705 0.19136673 -0.429942 -0.033874173
0003a0 b3 66 7f 3d 8b c5 23 3e 4a c3 26 3e ec b9 84 be
       0.0623538 0.15993325 0.16285434 -0.25923097
0003b0 80 73 0a 3e fa 84 75 bb c5 9d 98 be 24 6d 8a be
       0.13520622 -0.0037463293 -0.2980787 -0.27036393
0003c0 60 c5 f8 3d 8a cd ee 3d 07 0b 3f be f4 b8 18 bf
       0.12147021 0.11660297 -0.1865655 -0.59657216
0003d0 cd 8a 78 bf cf d9 1b 3e ac a0 9a 3d 71 e0 3b be
       -0.97086793 0.15219806 0.07550177 -0.18347336
0003e0 33 f9 0d bf 55 c8 41 bf 9b e6 9b 3c 95 c3 5e 3e
       -0.5545837 -0.7569631 0.01903086 0.21754296
0003f0 79 53 c0 3e 96 84 b1 3d 0d 54 9c bd 7e 21 d6 be
       0.37563685 0.08667867 -0.07633219 -0.41822428

fc1.0.bias f4 [120]
000000 bb 21 11 3d 74 5f 57 3c a0 66 1f bd 69 9b 38 3d
       0.03543256 0.013145316 -0.03891623 0.045070086
000010 a3 13 9a 3b 50 b5 97 bc df c3 50 bd 67 cf ce bd
       0.004702048 -0.018519074 -0.050968047 -0.100981526
000020 7b fb 86 bc a3 8c ec 3c b1 81 c0 bd e5 2d 84 3a
       -0.016477337 0.028875655 -0.09399737 0.0010084478
000030 bf 5b f8 3c ca 98 6a 3c 19 71 bc 3d ff d7 e2 bb
       0.030317185 0.014318654 0.09201259 -0.0069227214
000040 a0 52 fb bb b9 ef a5 3d d6 cd 94 3d c2 cb 4f 3c
       -0.007669762 0.08102364 0.072658226 0.012682857
000050 02 3f 0c 3d 86 b5 9c 3d 65 d4 c2 3d 7f 1e ad bd
       0.034239776 0.0765181 0.09513167 -0.08453082
000060 86 0b 98 3d 05 fa 02 bd 9b a8 9c bd 8f 63 29 3c
       0.07424073 -0.03197672 -0.076493464 0.010338678
000070 42 2b da ba 4a 2a fd 3c fb 02 4c bd 6a 67 87 bb
       -0.0016644972 0.030903954 -0.04980753 -0.004132201
000080 18 30 d9 bc 66 c7 aa bd 6f 81 1b 3d ec 04 96 bc
       -0.02651219 -0.083388135 0.037965234 -0.018312894
000090 43 33 9b 3d 4c 5d 83 bd 86 75 94 3d 2d 78 a7 bd
       0.07578137 -0.06414279 0.07248978 -0.081772186
0000a0 ef 0e 21 bd b9 56 1d bd 54 55 d1 bd 6e 7a a9 bd
       -0.039320882 -0.038412783 -0.10221353 -0.08275305
0000b0 be d2 21 3d ef b8 b8 bd 43 9b c5 ba cc 79 de bc
       0.03950762 -0.09019648 -0.0015076179 -0.027157687
0000c0 ac d9 92 bd d0 ca db 3c c8 d8 aa bd a1 64 b9 bd
       -0.07170424 0.026830107 -0.08342129 -0.090523966
0000d0 4f 5c 01 3d 8a f6 2a bd d7 44 85 3d bc 85 82 bd
       0.031582173 -0.041739024 0.06507271 -0.06373164
0000e0 22 b7 a0 3d f7 3f cf bd ae 3b 13 bd dc 4e d6 bc
       0.0784743 -0.10119622 -0.035945587 -0.02616065
0000f0 84 43 1a 3b 84 1e 07 bd 82 98 22 3d c8 f5 d1 bd
       0.0023538778 -0.032988086 0.039696224 -0.10251957
000100 a5 85 c5 3c 18 6a 70 bd d7 b3 5a 3c de 71 b2 bd
       0.024111578 -0.05869493 0.013348541 -0.08713125
000110 69 11 a1 3d f5 44 b4 bd bd 18 a5 bc c1 b8 c3 bd
       0.07864649 -0.08802215 -0.020153398 -0.095567234
000120 16 d0 b1 3a 24 c4 d4 bc 09 64 f0 bc c0 a0 b3 bd
       0.0013566043 -0.025972433 -0.029344575 -0.08770895
000130 cd 8e 4b 3c ac 4f 5f 3b 2c 5b 60 3d b9 d4 bc bc
       0.012424183 0.0034074588 0.05477445 -0.023050653
000140 dc 92 84 bb 95 27 7a 3d a7 50 15 bd 34 e8 d3 bc
       -0.0040458273 0.061072905 -0.03645387 -0.025867559
000150 12 0f ad bc 95 af b8 bc 73 0b d4 bb 2a 06 30 3c
       -0.02112535 -0.022544662 -0.0064710914 0.010743657
000160 0a b9 06 3c 00 fd a7 3a 67 ff 4f 3d 51 56 48 bd
       0.008222828 0.0012816489 0.05078068 -0.048910443
000170 64 30 fb 3c 32 01 ae 3d 23 00 15 3c 40 cc 08 3c
       0.030662723 0.08496322 0.009094271 0.008349478
000180 4c f4 97 bc 87 5f 8c bd eb 0b a1 bc 3b c5 49 bd
       -0.018549107 -0.06854158 -0.019659003 -0.04926036
000190 d0 cc cc bd c7 a0 f2 3c c7 13 8c 3d ce 75 f5 3c
       -0.100000024 0.02961768 0.0683971 0.0299634
0001a0 d4 dc f3 bd a7 2d 18 3d ff f8 72 3d 16 f7 8a bd
       -0.11907354 0.037152912 0.059319492 -0.06785409
0001b0 48 50 0e 3d 1f 6e 47 bc 86 51 80 bd 22 7a 17 3c
       0.03474453 -0.012172251 -0.06265549 0.009245427
0001c0 b3 bb b2 3b 4d ad 45 bc fb cb bd bc 3a 0f 83 3b
       0.0054545044 -0.012065244 -0.023168555 0.003999618
0001d0 89 9f 3e 3d 10 14 f2 3d 6b 6b 9e bd 3a 2b e2 3c
       0.046538863 0.11820233 -0.07735332 0.027608503

fc2.0.weight f4 [84, 120]
000000 71 f0 53 3d 1c f4 c6 3e b2 fd e2 3e 19 37 69 bd
       0.051742975 0.38858116 0.4433418 -0.05693731
000010 91 88 59 bb 02 26 1f 3f 69 4e 63 be a4 cc da 3d
       -0.0033192972 0.6216737 -0.2219788 0.10683563
000020 10 a5 41 be 57 63 90 3e 12 fd df be 13 fa 2d be
       -0.18910623 0.2820079 -0.43747765 -0.16989927
000030 53 ca 0b bf 4c 1f 60 3e fa 9e 4c be 8c 6a dd be
       -0.546056 0.21886939 -0.1998252 -0.4324535
000040 fa 48 4a 3d 56 6c dd bc eb 94 30 3d 58 7b 99 3d
       0.049386002 -0.027029198 0.04311077 0.07494229
000050 66 f2 90 3e f7 52 99 be c5 6c 75 3d ba 3e 27 bf
       0.28309935 -0.2994611 0.059918184 -0.6533009
000060 97 03 a8 be db 45 18 3f 56 d6 8a 3e 05 48 75 bc
       -0.3281524 0.5948159 0.2711665 -0.014970784
000070 00 3b ea 3c fc b7 e4 3e ca 57 82 3d 54 a0 dd 3e
       0.028592587 0.4467162 0.06364401 0.43286383
000080 db 08 4a bd 71 7d 1f bd b2 57 c4 be 95 b4 d0 3e
       -0.04932485 -0.03893799 -0.38348156 0.40762773
000090 b5 b6 f0 3d bc 07 be bc 2f 59 84 3c fe 88 77 be
       0.117535986 -0.023197047 0.016155807 -0.24173352
0000a0 7a b7 47 be d8 6f 33 bd 16 7b 6e be 3c 9e 10 be
       -0.19503585 -0.043807834 -0.23289141 -0.14122862
0000b0 7d 97 aa be c7 db 82 be a8 f0 9f 3e c5 dc b3 3e
       -0.333187 -0.25558302 0.31238294 0.3512937
0000c0 cd 23 90 3d a7 f4 86 bd 29 80 fd bd 86 b1 e2 be
       0.070380785 -0.065896325 -0.1237796 -0.44276065
0000d0 88 93 8e 3e 96 e9 61 bf 42 ef bf be 49 d7 9d be
       0.27846932 -0.8824705 -0.37487227 -0.30828312
0000e0 e1 b3 8e bc db f5 91 be 68 a7 51 3e bb 21 80 3d
       -0.017419757 -0.28507885 0.20474017 0.062564336
0000f0 b8 84 65 3e 9d ac 9f be 7b a8 b7 3e 46 d0 c2 be
       0.2241391 -0.3118638 0.35870728 -0.38049525
000100 7e d4 29 3e 4c 2c a5 bd 5f 3e 99 3e 23 f3 b0 bd
       0.16584966 -0.080650896 0.29930398 -0.08640125
000110 1d 1d 1c 3e cb 8e 22 be 7c 29 2b bd a7 d0 d3 3e
       0.15245481 -0.15874784 -0.04178761 0.41370127
000120 82 9c 1a be 5b 81 80 3d fd 24 8c 3d 2c 7f 23 bf
       -0.15098765 0.062746726 0.068429925 -0.63865924
000130 50 08 28 be a3 4f e6 3e 74 e7 95 3e 55 43 58 3e
       -0.16409421 0.44982633 0.29278147 0.21119435
000140 f5 34 74 3e 03 34 22 be 75 0f 10 be aa 9a d0 3e
       0.23848327 -0.15840153 -0.14068396 0.40743
000150 64 3e 85 3e f5 81 74 3d 34 34 0d bf 6a b2 fd 3e
       0.26024163 0.05969425 -0.5515778 0.49550182
000160 3c c4 48 be 80 b3 dd 3e 87 f4 f3 3e 49 4c 2a 3e
       -0.19606107 0.4330101 0.47647497 0.16630663
000170 92 e5 53 3e 8b 26 76 be 6d 2b 03 be 35 ff 05 3e
       0.20693043 -0.2403814 -0.12809534 0.13085635
000180 8b 59 99 be 0f af 9c be e6 43 82 be 7b 77 4d 3e
       -0.29951128 -0.3060231 -0.25442427 0.2006511
000190 87 85 bb be b5 0f 31 3f f7 20 9a 3d 25 d9 a2 be
       -0.3662531 0.6916459 0.07525819 -0.31806293
0001a0 7d 62 0a bf 85 7e ba be 04 b6 b8 bc 6a ad 1e be
       -0.5405653 -0.36424652 -0.02254773 -0.1549584
0001b0 fc bb 35 3e 52 a0 75 3e 27 2e cc 3e f2 6d 59 3d
       0.17747492 0.23986939 0.3987896 0.053083368
0001c0 48 d8 96 be f8 cb 05 3f a1 b0 78 3e dd 91 56 3d
       -0.29461884 0.52264357 0.24286129 0.0523852
0001d0 ec 34 3f bd 40 0a 15 bd cc 2a 31 3e e5 a5 c4 3d
       -0.04668133 -0.03638673 0.17301482 0.09601954
0001e0 11 04 40 be 87 f3 1b be fe 24 53 be c3 ba 94 bd
       -0.18751551 -0.15229617 -0.2061958 -0.072621845
0001f0 f9 4b f0 be ef f0 d3 be d4 f0 0e bd b9 dc d0 3d
       -0.46932963 -0.41394755 -0.03489764 0.101983495
000200 5d 24 2f 3e dd 20 e8 be cf fd 09 3e 83 46 a1 3e
       0.17103715 -0.45337573 0.13475727 0.3149911
000210 8f f5 92 be ed 89 b4 be a0 a2 92 bd 79 bc dc bd
       -0.2870297 -0.3526148 -0.071599245 -0.10778136
000220 bd 04 82 3e 2b fd 1a be 7d c7 8f 3e d3 d4 1f 3e
       0.2539424 -0.15135638 0.28081885 0.1560853
000230 b4 75 3c be 9c 46 f2 3e cb d3 d7 be db 44 b1 3e
       -0.18404275 0.47319496 -0.42153773 0.34622845
000240 a9 aa 82 be 30 dc 46 bd a6 4b 03 3e a6 7d 22 3f
       -0.25520828 -0.04854983 0.12821826 0.63472974
000250 0c f0 88 3d c0 cb 01 be a3 fd a4 be 7e 79 2a bf
       0.0668641 -0.1267538 -0.3222476 -0.6659163
000260 1f 92 91 be dc 6b 81 bb f2 c4 47 bd 93 01 bf 3e
       -0.28431794 -0.0039496254 -0.048771806 0.3730589
000270 ad c4 a8 3e 37 46 e2 3d c7 bd 81 3d 91 97 af be
       0.32962552 0.11048549 0.06335025 -0.34295323
000280 3c e9 fe 3d 69 bf bf 3e 40 d1 e5 bd 90 a1 01 3f
       0.1244683 0.37450722 -0.11221552 0.5063715
000290 da 68 07 3c c6 e9 98 3e 53 5b cf bd 69 40 d7 be
       0.008264745 0.29865855 -0.101248406 -0.4204133
0002a0 44 53 75 be df 19 03 be 69 33 be 3c 9b dd 85 3e
       -0.23957545 -0.12802838 0.023217874 0.26145634
0002b0 9b f5 78 3b 18 78 19 3f 7b 74 b7 3e 39 98 18 3e
       0.003798819 0.59948874 0.35831055 0.14901818
0002c0 29 37 45 be 63 9b b5 3e 22 f8 aa be 4e 52 f5 3d
       -0.19259323 0.35470113 -0.33392435 0.11978589
0002d0 4a 1f 93 3c e3 aa 82 3e d0 fd b4 3e 4c de 96 be
       0.017959256 0.25521 0.35349894 -0.29466474
0002e0 e3 8e 76 3e 33 7c 5a be 35 77 4d be 70 0d df bd
       0.24077944 -0.2133644 -0.20065005 -0.10891235
0002f0 cf 99 96 3d 31 24 16 bd 83 87 d5 3e bf 60 bc be
       0.073535554 -0.03665561 0.4170495 -0.3679256
000300 bb 47 15 be 95 53 d2 bd b9 d2 89 be 9a 7f 01 3c
       -0.14578144 -0.10269848 -0.2691858 0.007903958
000310 18 0e 05 bf 33 01 c8 bc 46 29 99 bd 92 1b de 3e
       -0.5197463 -0.024414634 -0.074785754 0.4338041
000320 5a f2 25 bf 44 eb 7f 3c e4 1d 39 3d e1 a2 85 be
       -0.64822924 0.015620057 0.04519452 -0.2610083
000330 67 a6 d3 be 94 11 90 bd dd c0 2a 3e f6 5a ea be
       -0.41337892 -0.07034603 0.16675134 -0.45772523
000340 01 e9 a9 3d 78 e4 c1 be de a5 46 3e ef eb 23 be
       0.08296395 -0.3786962 0.19399211 -0.1600797
000350 18 00 5c 3e a5 82 a9 3e 32 5a 04 bf 21 4f 4c 3e
       0.21484411 0.33107486 -0.5170013 0.1995206
000360 21 ce 24 3f f9 e1 1b 3f 6d 66 15 3b 7a 24 3a bf
       0.6437703 0.6089168 0.0022796646 -0.7271191
000370 35 04 0f 3e d0 c5 b5 bd 5d 2e 45 3e 7f 46 a7 3e
       0.13966449 -0.0887562 0.19255967 0.32670972
000380 5c 76 76 3e 33 6c e1 be f5 3f eb bd 44 cd 20 bf
       0.24068588 -0.44027862 -0.11486808 -0.6281321
000390 05 ca 9c 3e e7 6a 14 3f 26 a4 15 be 19 5a 75 be
       0.3062288 0.5797562 -0.14613399 -0.23960151
0003a0 44 e0 ca 3e a1 1d 65 be e5 b6 a9 3e 0d 73 65 3e
       0.39624226 -0.22374584 0.3314735 0.2240717
0003b0 a4 d7 3d bd 97 d0 33 3e 2a 90 4a bf 69 cf 69 bd
       -0.04634823 0.1756004 -0.79126227 -0.057082567
0003c0 2a a6 39 3f 14 6a d9 bc 34 7a 42 3e 35 9a aa 3e
       0.7251917 -0.02653984 0.1899193 0.33320776
0003d0 ce 0c bf 3e 55 3b 92 3e b2 bc 82 be 38 c0 d5 be
       0.37314457 0.28560892 -0.25534588 -0.41748214
0003e0 f0 7e bf 3c 46 9a 8b 3e 29 7a 50 3e 33 a4 23 3d
       0.023375958 0.2726614 0.203591 0.039951514
0003f0 28 d0 1f be 57 13 04 3a 8b ac 06 be a6 24 53 be
       -0.15606749 0.0005038282 -0.13151757 -0.20619449

fc2.0.bias f4 [84]
000000 8f f0 a6 3d 02 07 16 3d 13 d8 8c 3c df e8 3c 3d
       0.08151352 0.036627777 0.017192876 0.04612052
000010 c6 a9 2e bc 4b 15 39 bc a3 b1 30 bd 5d fe ff bc
       -0.010660594 -0.011296581 -0.043138158 -0.03124922
000020 92 90 10 3d dd 18 a1 bd 66 f2 e5 3c 4c 72 cd 3b
       0.035294123 -0.078660704 0.028069686 0.0062697288
000030 ea d3 af bd 6e fd 7a bc 6b 06 8d bc ad 21 37 bd
       -0.08585341 -0.015319211 -0.017214974 -0.04470985
000040 e0 e2 04 bd f9 6b 9b 3c 3f 6d 9b bd 7c 76 15 3d
       -0.032442927 0.018972384 -0.075891964 0.03648995
000050 c4 f9 e3 3d 7e cc 68 3c 94 60 b5 3d 5c a4 5c bc
       0.111316234 0.014208911 0.088563114 -0.013466921
000060 9b cb 26 3d 5a 66 8f 3d 42 9f cf 3c 85 98 12 bd
       0.040721517 0.07001944 0.025344495 -0.035789985
000070 5d dc 49 3d 6f 33 61 3d b3 f0 b4 bd 16 49 11 bd
       0.04928242 0.05498069 -0.08834972 -0.03547009
000080 c7 91 2e bd 41 1f c1 3a 89 49 44 3d 59 83 a0 bd
       -0.042619493 0.0014734046 0.04792169 -0.078375526
000090 74 88 36 bd b2 f4 bc 3d c6 87 89 bd 75 3b 85 bd
       -0.044563726 0.092263594 -0.0671535 -0.06505481
0000a0 6e 56 aa 3d 37 f3 4e bd 5d 77 2b 3c e6 eb 9b bb
       0.083172664 -0.050524916 0.01046547 -0.004758346
0000b0 ca 48 6c bc 45 c5 4e 3d 55 cb 41 3d d4 a9 ce 3c
       -0.014421651 0.0504811 0.047313053 0.025227465
0000c0 4b 58 40 3d 14 bd bb bd 36 18 2c 3d 5c 27 34 bd
       0.046959203 -0.09166923 0.042015277 -0.04398285
0000d0 a7 52 de bc 1e 61 1b bd 8c f4 e5 bd 62 92 0a 3d
       -0.027139021 -0.037934415 -0.11228284 0.033831008
0000e0 b0 e2 a7 bd ad 07 0a bd 8d e2 21 3d 2f 50 43 3a
       -0.08197534 -0.033698726 0.039522696 0.0007450608
0000f0 7e 30 92 3d 00 a7 b4 3d a5 70 0f bd 02 59 d1 3c
       0.071381554 0.08820915 -0.035019536 0.025555138
000100 66 f7 3a bd b5 79 ea 3d 53 9f 92 bd a4 4e 62 3c
       -0.045646094 0.11448995 -0.07159295 0.013812695
000110 55 a4 85 3c 1f e1 5e 3d 96 ce 3f ba ae 0f 55 3d
       0.016313711 0.05441391 -0.00073168555 0.052016906
000120 9c b0 71 bc 8a 20 c1 bc 44 46 dd 3d ae 9a 8c bb
       -0.01475158 -0.023575086 0.10804418 -0.0042909
000130 68 a6 de 3c 3b 4a c8 3d 87 55 61 3d 77 84 28 3d
       0.027178958 0.09779783 0.055013206 0.041141953
000140 38 01 8b bc bf 71 a9 ba 9d 16 7c 3d 55 74 60 bd
       -0.016968355 -0.0012927576 0.061545003 -0.054798443

fc3.weight f4 [10, 84]
000000 03 89 92 3e 04 e9 0e 3d 80 fb 90 3e 6c 69 1a bf
       0.28620157 0.03489019 0.2831688 -0.6031711
000010 7c 18 b0 be ed a9 63 bc 12 10 52 bf 8a 87 fe be
       -0.3439368 -0.013895494 -0.8205577 -0.49712783
000020 9e 3e 96 be 2b 99 6a 3e 4e 49 8b 3c 79 08 b4 be
       -0.29344648 0.22909991 0.017002728 -0.35162714
000030 70 65 9e 3e 90 f0 3e bf c0 fc 17 bf 04 c7 3d be
       0.30936766 -0.7458582 -0.5937004 -0.1853295
000040 d6 2a 96 3e e1 2d 59 3e 2f 8c d6 be 23 b3 2c 3d
       0.29329556 0.21208908 -0.41903827 0.042163026
000050 93 c0 74 bd 0d 6c dc be 1c 6e 94 3e c7 2f 36 3e
       -0.059753966 -0.43051186 0.28990257 0.17791663
000060 fa 07 0b bf a5 56 43 bf 3b 6b 1f be a3 29 2a bf
       -0.54309046 -0.76304084 -0.15568249 -0.6646978
000070 c7 c3 f9 be 86 ed 47 3e b1 a6 b1 3e ca 99 03 bf
       -0.4878218 0.19524202 0.34697488 -0.5140654
000080 89 50 b0 3e ac bd de 3e 40 db 72 bf 90 a4 08 bf
       0.34436443 0.43504083 -0.948658 -0.533761
000090 74 71 be 3e 86 f9 09 bf e0 90 b4 3e d7 53 5b be
       0.37195933 -0.5389637 0.3526678 -0.21418701
0000a0 4c 8a 50 bf 18 cd d5 3e 08 f1 ae 3e 4f c2 a7 3e
       -0.81461024 0.41758037 0.34168267 0.32765433
0000b0 3a 06 00 bf 32 6f 0e bf 5b d3 f1 be 85 4f 10 3e
       -0.500095 -0.5563842 -0.47231564 0.14092834
0000c0 21 19 0e 3f 97 93 ff 3d 84 69 b5 bd da 9a 91 bd
       0.55507094 0.124793224 -0.08858016 -0.07109614
0000d0 07 ba 7e 3d dd d4 f0 be 9b 9f 2b be e3 10 25 3f
       0.06218913 -0.47037402 -0.16760103 0.6447889
0000e0 06 ae dd be c6 76 5e 3e ca 54 0b bf 88 60 f1 be
       -0.43296832 0.21724996 -0.5442625 -0.4714396
0000f0 71 8f 15 be 01 fe 87 be bc 2f 07 3f 4f 67 04 bf
       -0.146055 -0.26560977 0.5280721 -0.51720136
000100 61 2c d2 3d 13 c5 1d bf b8 e0 4d bf 90 d0 b2 3e
       0.10262371 -0.61628836 -0.8042102 0.34924746
000110 5b 26 dd 3e 9e 62 39 bd f7 77 4e 3e 10 4c 0c 3f
       0.43193325 -0.045260064 0.2016295 0.5480356
000120 49 26 b7 3d 50 e2 a6 3e ba bf a4 3e 18 52 27 3e
       0.08942849 0.32594538 0.32177526 0.1633991
000130 87 10 de 3e 6c e5 9e be 15 bb c9 bc 65 66 b0 3e
       0.43371984 -0.3103441 -0.02462534 0.3445312
000140 48 a1 b1 3e 86 19 59 bf 61 90 2a bf df 30 63 bf
       0.3469336 -0.8480457 -0.66626555 -0.88746446
000150 48 31 09 bf c7 6f 89 3e ce 15 cd be ca fd 08 bf
       -0.5359082 0.26843092 -0.40055698 -0.5351225
000160 72 45 a1 3e cc aa d0 3e b0 4f ab 3e de 7e e5 be
       0.31498295 0.40755308 0.33459234 -0.44823354
000170 a2 01 d4 3e 73 e6 ee be ef 16 e1 be 9d 4e e6 3e
       0.41407496 -0.46660194 -0.4396281 0.44981852
000180 af a2 38 3e a5 d4 83 3e 41 70 bc 3e 7f c6 e6 bd
       0.18030809 0.25748172 0.36804393 -0.11268329
000190 70 0b d2 be 03 37 ec 3d 41 cd e0 bd 71 dc 89 3d
       -0.4102435 0.1153393 -0.10976649 0.06731499
0001a0 7c 91 bc 3e 75 b2 cc 3e e9 3c a8 3e 67 d0 f8 be
       0.36829746 0.39979902 0.3285897 -0.48596498
0001b0 23 28 a3 3e 0e 0f a3 3e 7b 9f d7 3e c2 26 86 3e
       0.3186656 0.31847423 0.4211386 0.26201445
0001c0 1b 64 5b 3e 0f 4d 1f bf 28 3c 42 3e 73 09 26 bf
       0.21424906 -0.6222696 0.1896826 -0.6485817
0001d0 a6 2c c6 be 1c 93 5c 3e dc aa 02 3e fa 35 cb 3d
       -0.3870594 0.21540493 0.1276049 0.099224046
0001e0 ca c4 20 bf b3 fa 21 3e df eb 47 bf 89 3d ed 3e
       -0.62800276 0.1581829 -0.78094286 0.4633601
0001f0 d1 48 e3 be e7 b7 08 3e 2b 1f 2f bf fa e6 61 3d
       -0.44391492 0.13351403 -0.68406934 0.055151917
000200 bd f2 9d be 64 90 5d bd 81 2e 8c 3e 5d d2 15 bf
       -0.30849257 -0.05409278 0.2737923 -0.58524114
000210 72 af bb 3e 1c 4e 05 3f e0 8c 0e bf 05 1b e5 3e
       0.36657292 0.5207231 -0.5568371 0.44747177
000220 f4 63 4d bf 50 81 4f 3e 29 de 80 be 15 99 38 3d
       -0.8023064 0.20264173 -0.25169495 0.045067865
000230 c6 c5 c5 3e cb 50 cc be f6 bf df be 99 18 05 3f
       0.38627452 -0.3990539 -0.43701142 0.5199066
000240 d0 22 b1 be 44 40 1b bf 39 da ee be 47 31 ab 3e
       -0.34596872 -0.60644937 -0.46650866 0.33436033
000250 86 ea b4 3e c1 9d b5 3e 4a ef f0 be 33 6a ec be
       0.35335177 0.3547192 -0.47057563 -0.46174774
000260 c6 e8 8e be 8b 55 14 bf 47 c0 1e bf 2b 45 80 be
       -0.27911967 -0.5794303 -0.6201214 -0.2505277
000270 dd 21 74 bf 11 60 c9 3e 29 a7 7f 3e 31 dc d5 be
       -0.9536417 0.39331105 0.2496611 -0.41769555
000280 71 c9 14 bf c2 f3 25 3f f5 33 0d bf 1d ae 50 be
       -0.58119875 0.6482507 -0.55157405 -0.20378919
000290 d0 e9 97 be 21 ce cc 3d ed 41 88 bd c7 88 20 3d
       -0.29670572 0.100002535 -0.06653199 0.03919294
0002a0 1e 51 20 bf ca a7 64 3e 7c 1f 13 3e e0 9f ca be
       -0.62623775 0.22329631 0.14367479 -0.395751
0002b0 58 0b cf 3e 09 4a 4f 3e b4 ec 0b bf fa 8e 92 be
       0.40438342 0.20243086 -0.54658055 -0.28624707
0002c0 f5 5d 41 3e b0 fe 19 3e 20 30 e8 3e 33 98 c7 be
       0.18883498 0.15038562 0.45349216 -0.38983306
0002d0 c6 c8 ad be be 12 8f bd 1a 09 91 3e 8c db 14 bf
       -0.3394224 -0.06985997 0.28327256 -0.581475
0002e0 66 0b d9 3e df 36 0d 3e 00 b4 76 3e be 47 4b 3e
       0.4239151 0.13790463 0.24092102 0.19851586
0002f0 29 10 b5 be 8f 1c e9 3e c1 ad a1 3e 02 e2 eb be
       -0.35363892 0.455296 0.31577876 -0.46070868
000300 ae 82 60 3e 79 e6 db 3d 98 82 09 bf c0 1a aa 3e
       0.2192485 0.107373185 -0.53714895 0.33223534
000310 04 83 df bd a0 b5 fa be b4 89 71 bd b5 42 4c be
       -0.10913661 -0.48966694 -0.058969215 -0.19947322
000320 50 fb 3f bf 6c da 2e be 1d 78 30 bf c5 a5 a2 3e
       -0.7499285 -0.17075509 -0.6893328 0.31767097
000330 a7 dd 89 3e 03 cd 3c 3e 5e 67 2e 3f 7e 06 ce 3a
       0.2692692 0.18437581 0.68126476 0.0015718488
000340 83 69 8c be dd 91 a2 3e fc 5a 43 3e 35 cc 42 bf
       -0.2742425 0.3175191 0.19077677 -0.76092845
000350 14 59 46 3f 5a 23 17 bc 8a 3b 17 bf 52 20 cf be
       0.7747967 -0.009224737 -0.59075224 -0.40454346
000360 78 87 f5 3e 6b ca 08 be 35 6a b7 be d0 05 f2 be
       0.47954917 -0.13358466 -0.35823217 -0.4727006
000370 66 95 21 be 23 1a f3 3e 53 13 c4 be 46 85 e8 3e
       -0.15779647 0.47480878 -0.38295993 0.4541418
000380 f9 23 0d be 4a b4 83 3e c3 cd cf be 48 93 34 3e
       -0.13783254 0.25723487 -0.4058667 0.17634308
000390 d1 f5 2c bd 04 2e 8b 3e ad 9c 1e 3e 6a e1 5d bf
       -0.042226616 0.27183545 0.15489455 -0.8667208
0003a0 2a a4 87 be 8f 18 ba bd 1f 8a a7 3e d8 64 6b 3e
       -0.26492435 -0.090867154 0.32722566 0.22987688
0003b0 0b b1 e7 3e 54 4f 4a 3e ae b7 5c be 09 e4 e6 3e
       0.4525226 0.19756824 -0.21554443 0.45095852
0003c0 2b e2 3d 3d 77 27 bc 3e 86 47 64 bf 70 56 5f bf
       0.04635827 0.3674886 -0.89171636 -0.8724127
0003d0 e8 6a 58 3e e5 21 36 bf b6 5d 1f bf 50 5d f2 be
       0.21134531 -0.7114547 -0.62252367 -0.47336817
0003e0 6f 9d d4 be e4 be aa 3e d0 e1 37 3d bf f0 bf be
       -0.41526362 0.33348763 0.044893086 -0.37488362
0003f0 93 b7 d1 be 89 d8 eb bb b8 de ad 3e 98 f2 2c bd
       -0.4096037 -0.007197444 0.33958983 -0.042223543

fc3.bias f4 [10]
000000 96 a5 84 bd 36 7f a5 bb de d5 ef bc bd 56 67 3c
       -0.064768955 -0.005050565 -0.029276785 0.014119801
000010 99 48 96 bd ad dc 09 be e8 e1 c8 3d ef 4d 9f 3d
       -0.07338066 -0.13463087 0.09808713 0.077785365
000020 41 77 4f 3d ca 33 a1 3d
       0.05065084 0.07871206
