6_ConvolutionalNeuralNetwork/LeNet/model16.pth (torch, 250424 bytes, 10 tensors)

conv1.0.weight f4 [6, 1, 5, 5]
0	0xbe4ca4a1	-0.19984676
1	0x3e92cba9	0.28671005
2	0xbd948ce2	-0.07253434
3	0x3f33cc0c	0.70233226
4	0x3e7d043a	0.24708644
5	0x3e873473	0.26407203
6	0x3f7621b4	0.96145177
7	0x3f929133	1.1450561
8	0x3fb51b0a	1.4148877
9	0x3ee5b05f	0.44861123
10	0xbe990a17	-0.2989051
11	0x3f2bbbd2	0.67083466
12	0x3f4d3067	0.8015198
13	0x3f18cb22	0.59684956
14	0xbf393e07	-0.7236027
15	0xbedaf710	-0.4276662
16	0x3e9b90d2	0.30383927
17	0xbe80605f	-0.25073525
18	0xbe177960	-0.14792395
19	0xbf906d35	-1.1283327
20	0xbf108f4b	-0.5646865
21	0xbf27ec49	-0.6559492
22	0xbf64916e	-0.8928441
23	0xbec49a1a	-0.3839882
24	0xbf2806e3	-0.6563551
25	0xbf51ca6b	-0.8194949
26	0xbec5dbaf	-0.38644168
27	0xbdd80000	-0.10546875
28	0xbe9f46c3	-0.31108674
29	0x3de387b3	0.11109867
30	0xbeaf5084	-0.34241116
31	0x3f0ceaad	0.55045587
32	0x3f5b98e1	0.8578015
33	0x3f2eb3f7	0.68243355
34	0x3f52acf6	0.8229517
35	0xbe513c41	-0.20433141
36	0x3fa7638e	1.3077257
37	0x3fffd56a	1.9987004
38	0x3f35d894	0.71033597
39	0x3f0f2198	0.55910635
40	0xbeff1c29	-0.49826172
41	0x3f644795	0.89171726
42	0x3e3ad180	0.1824398
43	0x3df4b97f	0.11949443
44	0xbe273042	-0.16327003
45	0xbfafdddd	-1.3739582
46	0xbf3adc4c	-0.72992396
47	0xbf648bd7	-0.8927588
48	0xbf117f0b	-0.5683448
49	0xbec17cd3	-0.37790546
50	0xbf13a7cc	-0.5767791
51	0xbeaacb11	-0.33358052
52	0xbee073b1	-0.43838266
53	0xbe409742	-0.188077
54	0xbf7b5ccb	-0.98188466
55	0x3f69ee98	0.9137969
56	0x3f4c6193	0.79836386
57	0x3f8f2904	1.1184392
58	0x3fa02f11	1.2514364
59	0xbf32e44e	-0.69879615
60	0x3f01bde2	0.50680363
61	0x3f4253d8	0.75909185
62	0x3f9f9add	1.2469136
63	0x3f515734	0.81773686
64	0xbf59e15c	-0.85109496
65	0x3cf3e457	0.029771967
66	0x3f563c4e	0.8368577
67	0x3ee9835c	0.45608032
68	0x3e98c928	0.2984097
69	0xbf3c571b	-0.7357041
70	0xbf0952dd	-0.53642064
71	0xbe81c545	-0.25345817
72	0xbee1dfd6	-0.44116086
73	0xbebb4e0a	-0.36582977
74	0xbf3130bf	-0.69215006
75	0x3ebffb6f	0.37496516
76	0x3f242a04	0.6412661
77	0x3f3e321d	0.74295217
78	0x3f19789a	0.5994965
79	0x3f18dc8e	0.5971154
80	0x3e3473dc	0.17622322
81	0x3dc596cf	0.09647905
82	0xbea48c56	-0.32138318
83	0xbe1acdc7	-0.1511756
84	0xbe00e935	-0.12588961
85	0xbf174ab5	-0.5909837
86	0xbfcafa49	-1.5857631
87	0xbf9e18f8	-1.235137
88	0xbf892187	-1.0713357
89	0xbf2e59a3	-0.68105525
90	0xbf764b96	-0.96209085
91	0xbf39df08	-0.72605944
92	0xbe20a494	-0.15687782
93	0xbe1b8db6	-0.15190777
94	0xbf264c91	-0.6496058
95	0x3dafe6f5	0.085889734
96	0x3f787370	0.97051144
97	0x3f76c1d9	0.9638954
98	0x3eb868d2	0.36017472
99	0xbe12c04d	-0.1433117
100	0x3f28018a	0.6562735
101	0x3fa0d79a	1.2565796
102	0x3f1ea3bc	0.6196859
103	0x3f41451c	0.7549608
104	0x3f584045	0.8447307
105	0x3e87cd5f	0.26523873
106	0xbec77e2a	-0.38963443
107	0xbf375fc6	-0.71630514
108	0xbf4583ec	-0.7715442
109	0xbed19354	-0.40932715
110	0xbde453b6	-0.11148779
111	0xbf0c89c2	-0.548977
112	0xbf212dd0	-0.6296053
113	0xbf02a148	-0.51027346
114	0xbef5c7a6	-0.48003882
115	0x3ef00b52	0.46883637
116	0xbf04ccd5	-0.5187505
117	0xbf883fcf	-1.0644473
118	0xbf00a5b0	-0.5025282
119	0xbecf8480	-0.40530777
120	0x3f710454	0.9414723
121	0xbd65e906	-0.05613043
122	0xbec45521	-0.38346198
123	0x3ea05e35	0.31321874
124	0x3f0e158e	0.5550164
125	0x3eb91af4	0.36153376
126	0x3f07e7c6	0.53088033
127	0xbe29a3ed	-0.16566439
128	0xbf6b5caa	-0.9193827
129	0xbf11648c	-0.5679405
130	0x3e37a8ad	0.17935438
131	0x3c71bacf	0.014754011
132	0xbf06cfc1	-0.5266076
133	0xbfa9d5c5	-1.3268362
134	0x3e8d5580	0.27604294
135	0xbe4a5f16	-0.19762835
136	0xbd9b8530	-0.07593763
137	0xbf49c34c	-0.78813624
138	0xbf54c902	-0.83119214
139	0x3f31df51	0.6948138
140	0x3e772b5e	0.24137637
141	0xbebb6514	-0.36600554
142	0xbfa64108	-1.2988596
143	0xbe220362	-0.15821603
144	0x3e364d13	0.17802839
145	0x3f63e76b	0.8902499
146	0xbe8cfd90	-0.27537203
147	0xbfa40942	-1.2815325
148	0xbee8990f	-0.45429274
149	0x3ed2d4ba	0.41177922

conv1.0.bias f4 [6]
0	0xbf6b8bec	-0.9201038
1	0xbf6ee4d1	-0.93317896
2	0xbf518c3a	-0.81854594
3	0xbe03de57	-0.12877785
4	0xbeac0019	-0.33593825
5	0xbf31dc04	-0.6947634

conv2.0.weight f4 [16, 6, 5, 5]
0	0x3daa4d07	0.08315473
1	0x3e8090bb	0.2511042
2	0x3f0bb3e3	0.5457136
3	0x3ec33b50	0.3813119
4	0xbe8be4ba	-0.27322942
5	0x3f04a7d2	0.51818573
6	0x3f3f7608	0.74789476
7	0x3e956b7e	0.29183573
8	0xbe50a4f9	-0.20375432
9	0xbf200f93	-0.62523764
10	0x3f0a9601	0.5413514
11	0x3e7bc34f	0.24586223
12	0xbf17f9f0	-0.5936575
13	0xbf5e7c0e	-0.8690804
14	0x3dd6b0f6	0.10482971
15	0x3e704628	0.23464262
16	0x3dd5146c	0.10404286
17	0xbf86bc1d	-1.0526158
18	0xbe34d888	-0.17660725
19	0x3f389add	0.721113
20	0xbcae7c3e	-0.021299478
21	0xbea2eeb7	-0.3182275
22	0xbf805c88	-1.0028238
23	0x3da243f8	0.0792312
24	0x3eebd232	0.46058804
25	0xbd512aa8	-0.05106607
26	0x3ec043b0	0.3755164
27	0x3ef766a2	0.4832049
28	0x3df8c08b	0.121461
29	0xbeb5e312	-0.35524803
30	0x3ebbfbca	0.36715537
31	0x3ef59346	0.47963923
32	0xbc1b2da7	-0.009471334
33	0xbf203dfa	-0.6259457
34	0xbe87e059	-0.2653835
35	0x3ea1371a	0.31487352
36	0xbdd03a6a	-0.101673916
37	0xbf61dce8	-0.882277
38	0xbf0f3c91	-0.5595179
39	0x3ef280a0	0.47363758
40	0x3d5049a2	0.05085147
41	0x3e11284d	0.1417553
42	0xbf7b4afc	-0.9816129
43	0x3ce0007e	0.027343985
44	0x3f26bd15	0.65132266
45	0x3d13d92b	0.03609578
46	0xbebc0b3a	-0.36727315
47	0xbf02c7b3	-0.51085967
48	0x3eb21c61	0.34787276
49	0x3edfcd85	0.43711486
50	0x3e8ad763	0.27117452
51	0x3ebc0d67	0.36728975
52	0x3f0b05d5	0.54305774
53	0x3eb0c1c8	0.34522843
54	0xbe53af58	-0.20672357
55	0x3f17385a	0.5907036
56	0x3f2f0b01	0.68376166
57	0x3e6b935e	0.23005435
58	0xbefce323	-0.49392042
59	0xbedc0fe4	-0.42980874
60	0x3ed91dba	0.42405492
61	0xbba49da7	-0.0050236764
62	0xbf585238	-0.84500456
63	0xbf7e14d9	-0.9925056
64	0x3e637fbd	0.22216697
65	0x3e623eab	0.22094218
66	0x3e7b5e9b	0.24547808
67	0xbf6453b7	-0.8919024
68	0xbef0d912	-0.47040612
69	0x3f07acad	0.5299786
70	0xbe021cf2	-0.12706354
71	0xbd117114	-0.03550823
72	0xbf523319	-0.8210922
73	0x3e09383e	0.13400361
74	0x3f1598aa	0.5843607
75	0xbe7c6316	-0.24647173
76	0xbef07320	-0.46962833
77	0xbefa5a2d	-0.48896924
78	0x3cdb1cb0	0.026747078
79	0x3e7340e9	0.2375523
80	0xbee0dff9	-0.43920878
81	0xbe9709d0	-0.29499674
82	0x3e33d114	0.17560226
83	0x3ed0b2d1	0.40761426
84	0x3d4dfb55	0.050288517
85	0xbea276c6	-0.31731242
86	0x3e3aa43a	0.1822671
87	0x3ea3fe46	0.32029933
88	0xbc8ffc45	-0.017576346
89	0xbf428874	-0.7598946
90	0xbe8120a6	-0.2522022
91	0xbc9ad646	-0.018901002
92	0xbc23373a	-0.0099618975
93	0xbee52889	-0.44757488
94	0xbf920ea2	-1.1410716
95	0xbe5d7a2c	-0.21628636
96	0x3d130c53	0.035900425
97	0xbe7f5df0	-0.24938178
98	0xbf49815d	-0.7871302
99	0xbf8da7e4	-1.1066861
100	0xbec73438	-0.38907027
101	0xbebf4f1d	-0.37365046
102	0xbe795603	-0.24349217
103	0xbc90b0e7	-0.017662479
104	0x3e13d30c	0.14435977
105	0xbefb8074	-0.4912144
106	0xbe19c3ee	-0.15016147
107	0x3e97c766	0.29644316
108	0x3ed8ec8d	0.42367974
109	0xbe0a31c7	-0.13495551
110	0xbe4c1e25	-0.19933374
111	0x3d926a35	0.07149164
112	0x3f29966c	0.6624515
113	0x3e7dffe7	0.2480465
114	0xbf1daf95	-0.6159604
115	0xbe00fdc9	-0.12596811
116	0x3ddfdc38	0.10930675
117	0x3efc2f05	0.49254623
118	0xbe2b7005	-0.16741951
119	0xbeb07bb1	-0.3446937
120	0xbdcd5b25	-0.1002715
121	0x3e257fde	0.16162059
122	0x3ea98e3f	0.33116338
123	0xbf1daac4	-0.6158869
124	0xbea46a7e	-0.32112497
125	0xbe773887	-0.24142657
126	0xbeb57242	-0.35438734
127	0xbede9cdb	-0.43479046
128	0xbe8a73e8	-0.27041554
129	0xbde36c22	-0.11104609
130	0xbe242dad	-0.16033049
131	0xbd563f48	-0.052306443
132	0x3e07b6e7	0.13253365
133	0x3e699dfa	0.2281417
134	0xbe57e213	-0.21082334
135	0xbc9fc9a3	-0.019505328
136	0x3e28359e	0.16426703
137	0x3f451e37	0.7699923
138	0x3ec6b8bc	0.38812816
139	0xbe57431f	-0.21021698
140	0x3e0f4614	0.13991576
141	0x3e872d51	0.2640176
142	0x3f0e1004	0.5549319
143	0xbd8874e9	-0.06662924
144	0xbe596baa	-0.21232477
145	0xbde056e3	-0.10954072
146	0x3e423693	0.18966131
147	0x3ebef7fe	0.37298578
148	0xbe261b7a	-0.16221419
149	0x3e520417	0.20509373
150	0x3ebed643	0.37272844
151	0x3ea4258e	0.32059902
152	0xbe2efe08	-0.17089093
153	0xbebfbfe9	-0.37451103
154	0xbec8c472	-0.39212376
155	0x3efb1e9a	0.49046785
156	0x3ece6454	0.4031092
157	0x3e7d3647	0.24727736
158	0x3eb9c734	0.36284792
159	0x3eb51e62	0.35374743
160	0x3df120f1	0.11773861
161	0xbf0e9003	-0.55688494
162	0xbf3ba63b	-0.7330052
163	0xbda287b6	-0.07936041
164	0x3edba2dd	0.42897692
165	0xbf51208b	-0.8169028
166	0xbfdda985	-1.7317358
167	0xbfcf2371	-1.6182691
168	0xbf85d482	-1.0455477
169	0xbec414bb	-0.38297066
170	0x3e2bd6e7	0.16781197
171	0x3f3c386f	0.7352361
172	0x3e7339cc	0.23752517
173	0xbe479141	-0.19489004
174	0xbdae86bb	-0.085217915
175	0x3e9083ee	0.28225654
176	0x3cfd8f55	0.030952135
177	0xbe4cbffc	-0.19995111
178	0xbe239626	-0.15975246
179	0xbe1b08ca	-0.15140072
180	0x3e665bb2	0.22495916
181	0x3db8abc2	0.09017135
182	0x3d27e193	0.04098661
183	0x3eef5c1b	0.46749958
184	0x3f128944	0.572407
185	0xbea68801	-0.32525638
186	0xbf9de211	-1.2334615
187	0xbf543195	-0.82888156
188	0xbda4f295	-0.08054081
189	0x3ea2546c	0.31705034
190	0xbede008c	-0.43359792
191	0xbeee2f96	-0.4652068
192	0xbf304763	-0.6885893
193	0xbf75af3b	-0.95970505
194	0xbef95434	-0.48697054
195	0x3ef9df27	0.48803064
196	0x3f5604a4	0.8360083
197	0x3eadca8c	0.33943594
198	0xbd3ebe88	-0.046568424
199	0xbdc38d43	-0.09548428
200	0x3ea13e86	0.31493014
201	0x3e4bc37c	0.1989879
202	0x3d46ece4	0.04856576
203	0xbddf20bf	-0.10894918
204	0xbe1167bb	-0.14199726
205	0x3eda4f20	0.42638493
206	0x3e85d144	0.2613622
207	0xbcd906c0	-0.026492476
208	0x3e41961b	0.18904917
209	0x3ee361af	0.44410464
210	0xbe04bcef	-0.12962697
211	0xbf3a39db	-0.7274453
212	0xbfb169ff	-1.3860472
213	0xbf2a4c6d	-0.66522866
214	0xbd1c231c	-0.03811942
215	0xbf33fc6a	-0.7030703
216	0xbf5d0b69	-0.86345536
217	0xbf74bee7	-0.95603794
218	0xbf8f9682	-1.1217806
219	0xbf4d64f5	-0.80232173
220	0x3dd43342	0.10361339
221	0x3ee3513f	0.44397923
222	0x3e94f79d	0.29095164
223	0xbe13d4d0	-0.1443665
224	0xbda55efd	-0.08074758
225	0xbe9a7bb0	-0.3017249
226	0xbe82dff1	-0.2556148
227	0xbe684bf9	-0.22685231
228	0xbe0855bf	-0.1331396
229	0xbe34be3d	-0.17650695
230	0x3df9a6be	0.12190007
231	0x3dd2991c	0.102831095
232	0x3dd2f9ce	0.10301553
233	0xbe3e6f10	-0.18597054
234	0xbed7641e	-0.4206857
235	0x3f5b087f	0.8555984
236	0x3f8c2120	1.0947609
237	0x3f83d2ab	1.0298666
238	0x3f551f5f	0.83250993
239	0x3eb4613e	0.3523044
240	0x3ee09a45	0.43867698
241	0x3e9a8994	0.3018309
242	0x3ec6aec9	0.38805225
243	0x3f44be0b	0.7685248
244	0x3f4401f4	0.7656548
245	0xbea764d3	-0.3269411
246	0xbf169c30	-0.58832073
247	0xbf0e5ee8	-0.55613565
248	0x3d0ae51f	0.033909913
249	0x3ea159f6	0.31513947
250	0xbdea22a5	-0.11432389
251	0xbe5267c1	-0.20547391
252	0xbe263216	-0.16230044
253	0xbe9c88ad	-0.30573025
254	0xbecd6500	-0.4011612
255	0xbe5835d2	-0.21114281

conv2.0.bias f4 [16]
0	0xbdc63a1e	-0.09679054
1	0x3cbe29bd	0.023213262
2	0xbcade22a	-0.021226007
3	0x3c5b61fc	0.0133900605
4	0xbdb22e1d	-0.08700202
5	0xbd8fc263	-0.07019498
6	0xbd9d13eb	-0.07669815
7	0x3e07157d	0.13191791
8	0xbdeaee68	-0.11471254
9	0x3ca8f0a6	0.020622563
10	0x3d0c3d9b	0.03423844
11	0x3d4e6c1d	0.050396074
12	0xbbc7e7dd	-0.0061006383
13	0xbd4f651c	-0.050633535
14	0xb9be63ce	-0.00036313984
15	0x3db6fd8a	0.089350775

fc1.0.weight f4 [120, 400]
0	0x3e306fa7	0.17230092
1	0x3e9981d5	0.29981866
2	0xbf6c99f6	-0.92422426
3	0xbfa88c88	-1.3167887
4	0xbef9a3a5	-0.48757663
5	0x3eb05581	0.34440234
6	0x3ea96b0e	0.3308949
7	0xbed4486d	-0.41461506
8	0xbed8fc6c	-0.42380083
9	0xbd9fa279	-0.07794661
10	0x3d8bf4c2	0.06833793
11	0xbf059d66	-0.52193296
12	0xbdbc59c2	-0.091968074
13	0x3dc0ae33	0.09408226
14	0x3da47233	0.08029594
15	0xbf19312e	-0.5984067
16	0xbf389d94	-0.72115445
17	0x3cd7be5c	0.026335888
18	0x3e8845a7	0.2661564
19	0x3ede1ab9	0.43379763
20	0xbd3bd20a	-0.045854606
21	0xbdfc4aef	-0.1231898
22	0x3dc8342d	0.09775577
23	0x3e9c676f	0.30547664
24	0x3d1115e9	0.035421286
25	0xbd4c4b14	-0.049876288
26	0x3e7e3b15	0.24827226
27	0x3ef37380	0.47549057
28	0x3baccda1	0.0052735363
29	0xbe24fa9c	-0.16111225
30	0xbec7712a	-0.38953525
31	0xbf3def03	-0.7419283
32	0xbc65adb3	-0.014018464
33	0x3f0fd711	0.5618754
34	0x3e546bf0	0.207443
35	0xbe7238c0	-0.23654461
36	0x3e9dbe86	0.3080942
37	0xbe89f8b4	-0.26947558
38	0xbeadc53a	-0.33939534
39	0xbf40bc9e	-0.75287807
40	0x3e1f8ebb	0.15581791
41	0xbb99142d	-0.0046715946
42	0xbe9bd9e5	-0.30439678
43	0xbf4b67d4	-0.79455304
44	0x3def4aee	0.116842136
45	0x3e8bbaa9	0.27290848
46	0x3ddab7b3	0.10679569
47	0x3d024de4	0.031812564
48	0x3e4fcea2	0.20293668
49	0x3ddf6928	0.10908729
50	0x3eb8b572	0.36075932
51	0x3eba071d	0.36333552
52	0x3d09fb3c	0.03368686
53	0xbf281ed0	-0.65672016
54	0xbe99f02d	-0.30066052
55	0xbde24f8d	-0.11050329
56	0xbebad8cb	-0.36493525
57	0x3ba574df	0.0050493325
58	0xbe3ca1ae	-0.18421051
59	0x3ed0cf6e	0.40783256
60	0xbe0e3936	-0.13889012
61	0xbd8869a7	-0.066607766
62	0xbea8c6f5	-0.32964292
63	0x3e7d8620	0.24758196
64	0x3eb74bab	0.35799918
65	0x3ed7ec46	0.4217245
66	0xbe8e291f	-0.27765748
67	0x3ea1accb	0.31577143
68	0xbe82989a	-0.2550705
69	0x3e6062cb	0.21912687
70	0x3d842985	0.06453232
71	0x3dc63330	0.09677732
72	0x3e4e546d	0.20149393
73	0x3ecea2f7	0.40358707
74	0x3e871777	0.2638509
75	0xbf012ca7	-0.5045876
76	0xbe39502e	-0.18096992
77	0x3e0ba46a	0.13636938
78	0x3e86f26e	0.26356834
79	0x3efa9861	0.4894438
80	0xbe96c2dc	-0.2944554
81	0xbe9a2612	-0.3010717
82	0x3d188546	0.037236474
83	0x3ddd1a5c	0.10796043
84	0x3e3d6aee	0.18497822
85	0xbeab036b	-0.33401045
86	0xbe5d823c	-0.21631712
87	0x3ca0d7ec	0.01963421
88	0x3db7f16f	0.08981597
89	0xbf0adff5	-0.5424798
90	0x3ea94791	0.33062413
91	0x3de478aa	0.11155827
92	0xbd664bea	-0.05622474
93	0xbf67be0a	-0.9052435
94	0xbfc48047	-1.5351647
95	0x3eb5652c	0.3542875
96	0x3f1369ea	0.5758349
97	0xbdbd6f6a	-0.09249766
98	0xbebe6d47	-0.37192747
99	0xbed3a3ce	-0.4133591
100	0xbf331224	-0.69949555
101	0xbeaaee1a	-0.33384782
102	0x3ea9c5bf	0.3315868
103	0x3ec3140a	0.38101226
104	0x3eff6120	0.49878788
105	0xbee0d712	-0.43914086
106	0xbf0fee88	-0.56223345
107	0x3d51dbfe	0.05123519
108	0x3dade2db	0.08490535
109	0x3b2baeac	0.0026196642
110	0x3e50579d	0.20345922
111	0xbe9b7b8a	-0.3036769
112	0x3db3e32b	0.08783563
113	0xbb4f7578	-0.003165571
114	0xbd810637	-0.063000135
115	0x3ec193e3	0.3780814
116	0xbd78b0f1	-0.06071562
117	0xbdbec0db	-0.09314128
118	0xbda7823f	-0.08179139
119	0xbebb98e3	-0.3664008
120	0x3e822c49	0.25424412
121	0xbd48d184	-0.049027935
122	0x3ae4ab12	0.0017446002
123	0xbe8a3fb8	-0.2700174
124	0xbf02e631	-0.51132494
125	0xbf763954	-0.96181226
126	0xbe659f4a	-0.22424045
127	0x3e1354b0	0.14387774
128	0x3e079e2a	0.13243929
129	0x3f000dc2	0.5002099
130	0xbf472ed1	-0.7780581
131	0xbe387722	-0.18014196
132	0xbbdc9652	-0.0067317868
133	0x3f2dbb85	0.6786426
134	0xbe580300	-0.21094894
135	0x3d0b2a4d	0.033975888
136	0xbde866ab	-0.11347707
137	0x3e892c16	0.26791447
138	0xbd77ac35	-0.060466964
139	0xbed64c7f	-0.41855237
140	0xbda4ea39	-0.08052487
141	0x3d97fc30	0.07421148
142	0xbd8eacfa	-0.069665864
143	0xbd60e013	-0.054901194
144	0xbeaf8e45	-0.3428823
145	0x3e4f58ff	0.20248793
146	0x3d611f68	0.054961592
147	0xbe4563ed	-0.192764
148	0xbf23bfb5	-0.63964397
149	0xbf89ee4f	-1.0775851
150	0x3e16fecb	0.14745633
151	0xbd3c5c60	-0.045986533
152	0x376727b4	1.3777917e-05
153	0xbd33bb47	-0.043879773
154	0xbd23cb37	-0.039988723
155	0xbef3de12	-0.47630364
156	0xbea07917	-0.31342384
157	0xbeeed0e7	-0.46643755
158	0x3e4c8246	0.1997157
159	0xbd01d3f8	-0.03169629
160	0xbe82f3e6	-0.25576705
161	0xbe130cba	-0.14360324
162	0x3d9e2d8e	0.077235326
163	0xbe4c218a	-0.19934669
164	0xbea4e550	-0.32206202
165	0xbec6dd55	-0.38840738
166	0x3efc8c46	0.4932577
167	0x3f3d99be	0.74062717
168	0xbd0cf446	-0.034412645
169	0x3e11e306	0.14246759
170	0x3e6c2e35	0.23064502
171	0x3f1a99ba	0.6039082
172	0x3dadb00b	0.08480843
173	0x3eb0ff53	0.34569797
174	0x3f0c4f51	0.5480853
175	0xbf1fdb6b	-0.6244418
176	0xbec69b1a	-0.38790208
177	0x3d4d1270	0.05006641
178	0x3ee3076e	0.44341606
179	0x3eca18bb	0.39471993
180	0xbe6c4574	-0.2307337
181	0xbe3e7033	-0.18597488
182	0x3e8a004e	0.26953357
183	0x3f25af3b	0.64720505
184	0x3f880662	1.0626948
185	0x3d46876b	0.04846899
186	0x3e41465a	0.18874493
187	0x3f09a366	0.5376495
188	0x3f410c63	0.75409526
189	0x3efa6f4f	0.48913047
190	0xbdac10ac	-0.084016174
191	0xbc89fc7a	-0.016844023
192	0xbde3719a	-0.11105652
193	0xbf2696c1	-0.6507378
194	0x3bc2eb83	0.0059484853
195	0x3e5ec174	0.21753484
196	0xbb200594	-0.0024417387
197	0xbe9b287b	-0.30304322
198	0xbf817387	-1.0113381
199	0xbec54770	-0.38531065
200	0x3e8d0307	0.27541372
201	0x3edd5f1e	0.4323663
202	0xbf82d2a6	-1.0220535
203	0xbf5443ec	-0.8291614
204	0x3dc035e9	0.093852825
205	0x3dbbb9db	0.091663085
206	0xbd264e54	-0.040602043
207	0xbedab48c	-0.4271587
208	0xbdafd15d	-0.08584855
209	0x3e3183bb	0.17335407
210	0x3e591a54	0.2120145
211	0x3e39fcb2	0.18162802
212	0xbdde5d50	-0.10857642
213	0x3e89bdc5	0.26902595
214	0x3e8bc97a	0.27302152
215	0xbd017e56	-0.031614624
216	0xbe29dca7	-0.16588078
217	0x3f000f59	0.5002342
218	0xbec7bd70	-0.39011717
219	0x3f192719	0.59825283
220	0xbe8a5255	-0.2701594
221	0x3adfc86f	0.0017073284
222	0xbda71d52	-0.08159889
223	0xbd00e9bf	-0.031472918
224	0x3f23e70e	0.64024436
225	0xbef3de41	-0.47630504
226	0xbe0cc213	-0.13745908
227	0x3eccc175	0.39991346
228	0x3ef310a3	0.4747363
229	0x3ef7ec08	0.48422265
230	0xbf6834ef	-0.9070577
231	0xbeaf0dca	-0.34190208
232	0xbd1c7587	-0.03819802
233	0x3d1a066a	0.037603773
234	0xbcc74667	-0.024325563
235	0xbee2dc43	-0.4430867
236	0x3d27bb97	0.040950384
237	0xbe96e7b4	-0.2947365
238	0xbf426a1c	-0.7594316
239	0xbefe1fc1	-0.496336
240	0x3e2173c6	0.1576682
241	0x3e897e50	0.2685418
242	0xbe90521d	-0.28187647
243	0xbf871ff4	-1.0556626
244	0xbfab1fd9	-1.3369094
245	0x3e855e4a	0.260485
246	0x3e795d36	0.24351963
247	0xbe79706f	-0.24359296
248	0xbf51aae0	-0.8190136
249	0xbf6a6341	-0.915577
250	0xbd884014	-0.06652847
251	0x3e649321	0.2232175
252	0x3ee523d3	0.44753894
253	0x3d46f967	0.048577692
254	0x3e2ae824	0.16690117
255	0xbf35233b	-0.7075688

fc1.0.bias f4 [120]
0	0x3c91d1ab	0.017800173
1	0x3baf9969	0.005358864
2	0xbd8cf8f9	-0.06883425
3	0x3d528205	0.051393528
4	0x3c6d09b5	0.014467646
5	0xbd4da4ef	-0.05020612
6	0xbdc6a103	-0.09698679
7	0xbdfbcab6	-0.122945234
8	0xbd09fa25	-0.033685822
9	0x3c68c9fb	0.014208312
10	0xbe25e21f	-0.1619954
11	0x3c4f5c2c	0.012656253
12	0x3d5efa2b	0.054437798
13	0xbd465b5c	-0.04842697
14	0x3e10df3a	0.14147654
15	0xbce0b7e6	-0.02743144
16	0x3baaeb90	0.0052160695
17	0x3d9c5cb6	0.07634871
18	0x3dc81690	0.097699285
19	0x3d01fd41	0.031735662
20	0x3d4460e8	0.04794398
21	0x3d662fdb	0.056197982
22	0x3dc26561	0.09491993
23	0xbdea89e3	-0.11452081
24	0x3dc5cb48	0.096579134
25	0xbc6cdcc5	-0.014456932
26	0xbe3dbcb4	-0.18529016
27	0xbc2a9f45	-0.010413949
28	0x3d220b1f	0.039561387
29	0x3cbaef54	0.022819199
30	0xbdc08e5a	-0.094021514
31	0xbd421f81	-0.047393326
32	0xbdab2690	-0.083569646
33	0xbd4ef204	-0.050523773
34	0x3d1c3621	0.03813756
35	0xbd6f4a5c	-0.058420524
36	0x3e3d2a0a	0.18473068
37	0xbe0255f1	-0.12728097
38	0x3d6637f2	0.056205697
39	0xbe2eba84	-0.17063338
40	0xbd358119	-0.04431257
41	0xbdaae1ac	-0.08343825
42	0xbe3f9feb	-0.18713348
43	0xbe22a02f	-0.15881418
44	0x3c7b1925	0.015325819
45	0xbe50994e	-0.20370981
46	0x3caf0cd1	0.021368416
47	0xbcdf1f44	-0.027236588
48	0xbe018fd2	-0.1265252
49	0xbc2791aa	-0.0102276
50	0xbe04f050	-0.12982297
51	0xbdfcdf26	-0.1234725
52	0x3dcf69a1	0.10127569
53	0xbdcf27c4	-0.101150066
54	0x3d7a185f	0.0610584
55	0xbdd602fc	-0.10449788
56	0x3db2a1d9	0.08722276
57	0xbe12b637	-0.14327322
58	0xbdae2073	-0.08502283
59	0xbd5fdda2	-0.054654725
60	0x3d0ac394	0.033877924
61	0xbc85e06f	-0.01634237
62	0x3d0c3266	0.03422775
63	0xbe818268	-0.25294805
64	0x3d083119	0.03324995
65	0xbdcd000e	-0.10009776
66	0x3cef7811	0.029232057
67	0xbe04f83e	-0.12985322
68	0x3def2603	0.11677172
69	0xbe0a57db	-0.13510077
70	0xbc4fa26d	-0.012673003
71	0xbe1fed14	-0.15617782
72	0xbdca4ef3	-0.098783396
73	0xbbd117a9	-0.0063809943
74	0xbbefab68	-0.0073141344
75	0xbe472955	-0.1944936
76	0x3d84d592	0.06486048
77	0xbcd72f39	-0.026267635
78	0x3d50872c	0.05091016
79	0xbc6ab2cb	-0.014324854
80	0x3d725e54	0.05917199
81	0x3e02525a	0.12726727
82	0x3c28f941	0.010313333
83	0xbe04ea7b	-0.12980072
84	0xbc712447	-0.014718122
85	0x3cde1dbc	0.027113788
86	0x3c894aa3	0.016759222
87	0x3ca22cad	0.019796694
88	0xbd6c2bab	-0.057658833
89	0xba202e3f	-0.0006110407
90	0x3e1edebd	0.15514655
91	0x3a699974	0.0008911111
92	0x3d00ab3e	0.03141331
93	0x3e10dcaa	0.14146677
94	0xbd38c045	-0.045105238
95	0x3c4dfcde	0.012572495
96	0xbbcceda1	-0.0062539135
97	0xbdd15da6	-0.1022294
98	0xbdc491ff	-0.09598159
99	0xbdc032cf	-0.09384691
100	0xbe19eed6	-0.15032515
101	0xbbb76459	-0.005596679
102	0x3dcb1e3b	0.099178754
103	0x3dbb11d3	0.09134259
104	0xbe4bd396	-0.19904932
105	0x3db96abf	0.09053563
106	0x3d67a0eb	0.056549948
107	0xbdaa2509	-0.08307845
108	0x3d3b6e04	0.045759216
109	0xbd808625	-0.06275586
110	0xbdf07225	-0.11740521
111	0x3d524973	0.051339578
112	0xbd1212e5	-0.03566255
113	0xbd8c88ba	-0.06862016
114	0xbcc21546	-0.023691785
115	0x3d437203	0.047716152
116	0x3c3dd59d	0.011586574
117	0x3e6889e3	0.2270885
118	0xbdc54de7	-0.09633999
119	0x3d786b6a	0.060649313

fc2.0.weight f4 [84, 120]
0	0xbd3acf5a	-0.045607902
1	0x3f0fe3ec	0.56207156
2	0x3f0357df	0.51305956
3	0xbd719ee0	-0.058989406
4	0xbe2c65c8	-0.16835701
5	0x3f4f15d1	0.80892664
6	0xbeef963c	-0.46794307
7	0xbd5c6daf	-0.05381554
8	0xbe3c562e	-0.1839225
9	0x3efb2f88	0.490597
10	0xbef44eb9	-0.4771631
11	0xbe619120	-0.22028017
12	0xbf359986	-0.70937383
13	0x3e466d51	0.19377638
14	0xbe3c1a3f	-0.18369387
15	0xbf1d574b	-0.61461323
16	0x3e869f2d	0.26293316
17	0xbe0c5ea5	-0.13707979
18	0x3dd5d074	0.1044015
19	0x3d28465d	0.04108273
20	0x3ea5b89b	0.32367405
21	0xbe896d22	-0.26841074
22	0x3d2a27de	0.041541927
23	0xbf7226c6	-0.94590414
24	0xbf0eb7a6	-0.55748975
25	0x3f53042e	0.8242825
26	0x3ed9a44e	0.42508167
27	0x3de69576	0.11258976
28	0xbd3d36c1	-0.046194796
29	0x3f2af735	0.6678346
30	0xbdafd81b	-0.08586141
31	0x3e0a2d50	0.13493848
32	0xbe12f22d	-0.14350195
33	0x3d353994	0.044244364
34	0xbf07a23c	-0.52981925
35	0x3f4c8629	0.7989221
36	0x3e10fb40	0.14158344
37	0x3e027576	0.1274012
38	0xbeb14c69	-0.3462861
39	0xbe27912d	-0.16363974
40	0xbe95ffd4	-0.29296744
41	0xbb00adbb	-0.0019634801
42	0xbee0e143	-0.4392186
43	0xbe041b49	-0.12901033
44	0xbf057e5f	-0.5214595
45	0xbe803d02	-0.25046545
46	0x3ee26f99	0.44225767
47	0x3ee7b86c	0.4525789
48	0x3d60ba14	0.054864958
49	0xbe6dccb4	-0.2322262
50	0xbe5e0b94	-0.21684104
51	0xbf2a1da2	-0.66451466
52	0x3e75ca69	0.24002995
53	0xbf9e5a1b	-1.2371248
54	0xbec74681	-0.38920978
55	0xbe82d8cc	-0.25556028
56	0x3d0c095a	0.034188606
57	0xbf001ac0	-0.5004082
58	0x3e438978	0.19095409
59	0x3dd7880f	0.10523998
60	0x3efe979f	0.49725053
61	0xbcae4719	-0.021274136
62	0x3f348547	0.70515865
63	0xbf3be002	-0.73388684
64	0x3e573438	0.21016014
65	0xbe925dea	-0.28587276
66	0x3eacdfd4	0.33764517
67	0xbda0fb2e	-0.07860409
68	0x3e0449b7	0.12918745
69	0xbed73d76	-0.42039078
70	0x3cff1c4c	0.031141423
71	0x3f1ab314	0.604295
72	0xbd28662e	-0.04111307
73	0xbdeb4bd3	-0.11489072
74	0x3e965245	0.29359642
75	0xbf88bc69	-1.0682498
76	0xbef600e5	-0.48047557
77	0x3f091cdb	0.53559655
78	0x3ecb5267	0.39711305
79	0x3efbfce1	0.4921637
80	0x3e42fd07	0.19041835
81	0xbea3f565	-0.3202316
82	0xbe0e80b3	-0.13916282
83	0x3e35c01a	0.17749062
84	0x3ef85e05	0.4850923
85	0x3d480189	0.04882959
86	0xbf323512	-0.6961223
87	0x3ed249b5	0.4107186
88	0xbe9d2e14	-0.30699217
89	0x3ee1651c	0.44022453
90	0x3f0d0264	0.5508177
91	0x3e82086a	0.25397044
92	0x3e2fa1db	0.17151587
93	0xbe7bd71a	-0.24593773
94	0xbce23fb3	-0.027618265
95	0x3e7def4d	0.24798317
96	0xbea9323c	-0.33046138
97	0xbf12d265	-0.57352287
98	0xbe7cede3	-0.24700122
99	0x3e4237f9	0.18966664
100	0xbf69160d	-0.9104927
101	0x3f743a5a	0.9540154
102	0x3dd07f5b	0.10180541
103	0xbf3ee556	-0.7456869
104	0xbf3a9566	-0.72884214
105	0xbf0023ec	-0.5005481
106	0xbdcd0628	-0.1001094
107	0x3c6381bf	0.013885914
108	0x3eddf210	0.43348742
109	0x3f06843c	0.52545524
110	0x3f0ecadc	0.5577829
111	0xbe43aa9b	-0.1910805
112	0xbed1356a	-0.40861064
113	0x3ee53536	0.4476716
114	0x3e820a99	0.2539871
115	0x3cef7c4e	0.029234078
116	0xbe61aac3	-0.22037797
117	0xbd4b2e00	-0.049604416
118	0x3e3677dc	0.1781916
119	0x3e35a510	0.17738748
120	0xbdf100f8	-0.11767763
121	0x3dd726a4	0.10505417
122	0xbe959825	-0.2921764
123	0xbe0245b6	-0.12721905
124	0xbf087fc2	-0.5331994
125	0xbed2ea70	-0.41194487
126	0xbc5d86ae	-0.01352088
127	0x3d2a07e1	0.04151142
128	0x3e3f7766	0.1869789
129	0xbf269186	-0.650658
130	0x3e1d227f	0.1534519
131	0x3e92ca11	0.2866979
132	0xbea8e430	-0.32986593
133	0xbf01a55b	-0.5064294
134	0xbdd33a02	-0.103137985
135	0xbed36d6c	-0.4129442
136	0x3ee9d506	0.45670336
137	0xbea7c3ad	-0.32766476
138	0x3e9c0713	0.30474147
139	0x3e340ea7	0.17583714
140	0xbe94e2e1	-0.29079345
141	0x3f22527c	0.6340711
142	0xbef25c7e	-0.4733619
143	0x3e3f733c	0.18696302
144	0xbea23ac1	-0.3168545
145	0x3dd61d99	0.10454864
146	0x3df144a6	0.11780672
147	0x3f8dc121	1.1074563
148	0xbbe8a932	-0.007100248
149	0xbe49ce1c	-0.1970753
150	0xbf0d332d	-0.55156213
151	0xbf87fe6f	-1.0624522
152	0xbed9bfdb	-0.42529187
153	0x3dbadba0	0.091239214
154	0x3c81d9b5	0.015850881
155	0x3eb85341	0.36001018
156	0x3ee22818	0.44171214
157	0x3d3123b8	0.043246955
158	0x3e407116	0.18793139
159	0xbeb62873	-0.35577735
160	0x3dab5169	0.08365137
161	0x3f443e1a	0.7665726
162	0xbe46e922	-0.1942487
163	0x3f2c9c9d	0.6742647
164	0xbd195eb7	-0.037443843
165	0x3f191e0f	0.5981149
166	0x3d0da4ea	0.034581102
167	0xbe57289e	-0.21011588
168	0xbda8ed60	-0.08248401
169	0xbe4be93b	-0.19913189
170	0x3ea83770	0.32854795
171	0x3ee85bd0	0.45382547
172	0xbdd7261d	-0.105053164
173	0x3f9b5a2e	1.2136896
174	0x3f0af660	0.5428219
175	0x3e0e870a	0.13918701
176	0xbed4ef52	-0.41588837
177	0x3e67cd43	0.22636895
178	0xbefd07c4	-0.49419987
179	0x3db7961c	0.08964178
180	0x3dcfb275	0.1014146
181	0x3eed02ec	0.46291292
182	0x3eed398a	0.4633296
183	0xbf285ec0	-0.6576958
184	0x3eac302e	0.33630508
185	0xbe63d390	-0.22248673
186	0xbe8efb3d	-0.27926055
187	0xbda0a475	-0.07843868
188	0x3da9b5ed	0.08286653
189	0xbd92cbbd	-0.07167766
190	0x3f07afa4	0.5300238
191	0xbf08a2e7	-0.5337357
192	0xbe195703	-0.14974599
193	0xbe5a5e4f	-0.21325038
194	0xbec9d5e5	-0.39421
195	0xbe630f92	-0.22173908
196	0xbf188697	-0.5958037
197	0xbd5052cb	-0.050860208
198	0x3c90a70c	0.01765778
199	0x3f24900f	0.64282316
200	0xbf25ac7a	-0.64716303
201	0x3df49c37	0.11943858
202	0x3d60dbbd	0.05489706
203	0xbeb53101	-0.3538895
204	0xbf004458	-0.50104284
205	0x3db319d2	0.08745159
206	0x3d626415	0.055271227
207	0xbf0b8a03	-0.54507464
208	0x3ed62973	0.41828498
209	0xbf1c9bbb	-0.61175126
210	0x3b74ff08	0.0037383456
211	0xbe9a518a	-0.30140334
212	0x3ed7e8bb	0.42169747
213	0x3eff5cd8	0.49875522
214	0xbe951c01	-0.29122928
215	0x3e86257d	0.26200476
216	0x3f373662	0.71567357
217	0x3f4c0fe0	0.79711723
218	0xbd7eb765	-0.062186617
219	0xbf4a519a	-0.79030764
220	0x3e56e408	0.20985425
221	0xbe5c646e	-0.21522686
222	0x3e26ef88	0.16302311
223	0x3f0ced13	0.55049247
224	0x3e4a056f	0.19728635
225	0xbf27198b	-0.6527335
226	0xbe58fbbb	-0.21189778
227	0xbf36c9cd	-0.71401674
228	0x3ef88b95	0.48543993
229	0x3f503b79	0.8134075
230	0xbe75d624	-0.2400747
231	0xbec13fff	-0.37744138
232	0x3f1d6373	0.6147987
233	0xbe4c8abd	-0.199748
234	0x3eee6717	0.46563026
235	0x3f1f5207	0.6223454
236	0x3db857b5	0.09001104
237	0x3ea8379a	0.3285492
238	0xbf8a9ab0	-1.0828457
239	0xbdffee0b	-0.12496575
240	0x3f96c41c	1.1778598
241	0x3be6d7cf	0.0070447694
242	0x3e702833	0.23452835
243	0x3ebb1f92	0.36547524
244	0x3ec9530c	0.39321172
245	0x3ea75336	0.32680672
246	0xbe88189e	-0.2658128
247	0xbf1aef7d	-0.6052168
248	0x3d17d777	0.037070718
249	0x3f0f9b55	0.5609639
250	0x3eb8b659	0.3607662
251	0xbcbbf8e9	-0.022945838
252	0xbe6b87c6	-0.23001012
253	0xbc7bd863	-0.015371415
254	0xbe2bd18d	-0.16779156
255	0xbe8f21a7	-0.27955362

fc2.0.bias f4 [84]
0	0x3d8666b5	0.065625586
1	0x3d832ed7	0.06405418
2	0x3d03ec43	0.03220774
3	0x3d95decf	0.07317888
4	0xbc4261f8	-0.011864178
5	0xbceb2053	-0.028701937
6	0x3c26e45c	0.010186281
7	0xbd71471b	-0.058905702
8	0x3da67fd9	0.08129854
9	0xbdaf0359	-0.085455604
10	0xbc044239	-0.008072429
11	0x3d02c304	0.031924263
12	0xbdc17276	-0.0944566
13	0x3cc9e01f	0.024643002
14	0xbd06f816	-0.032951437
15	0xbd40a483	-0.04703189
16	0xbdaca7ef	-0.08430468
17	0x3d6eb60f	0.058279093
18	0xbdcd4f1c	-0.100248545
19	0x3d753a33	0.059869956
20	0x3e019a08	0.12656415
21	0xbc54afd5	-0.012981375
22	0x3d8147cc	0.06312522
23	0xbc15b407	-0.00913716
24	0x3c8b1432	0.016977403
25	0x3d003c3d	0.031307448
26	0x3cbd1eac	0.023085915
27	0xbce6d1d1	-0.02817622
28	0x3c9e3827	0.019313885
29	0x3cefea71	0.029286595
30	0xbdae9212	-0.085239545
31	0xbd0f5ee6	-0.03500261
32	0xbdaebd17	-0.0853216
33	0xbd0635e8	-0.032766253
34	0x3d91e2b9	0.07123322
35	0xbdf18d76	-0.1179456
36	0xbcad1cce	-0.0211319
37	0x3de11ee9	0.10992224
38	0xbde195c2	-0.11014892
39	0xbd7e9e0c	-0.062162444
40	0x3d9f5f5b	0.077818595
41	0xbd7bcd40	-0.06147504
42	0xbcc77f1a	-0.024352599
43	0xbd4fffd6	-0.050781094
44	0xbd1b72a9	-0.037951145
45	0x3d6fd6b5	0.05855437
46	0x3d10037a	0.035159566
47	0xbb1ecfe9	-0.002423281
48	0x3d0f1daf	0.034940418
49	0xbd19bde6	-0.037534617
50	0x3cc655b3	0.024210786
51	0xbc4d60ef	-0.012535318
52	0xbd011c94	-0.031521395
53	0xbd8f235e	-0.06989168
54	0xbe239ce0	-0.15977812
55	0x3cccb323	0.024987763
56	0xbda0c97d	-0.07850931
57	0xbd641b58	-0.05569014
58	0x3c844a0f	0.016148595
59	0x3cb60a4c	0.022221707
60	0x3d6aa714	0.057288244
61	0x3d32ca67	0.043650057
62	0xbdc11ffd	-0.094299294
63	0x3d2f3c8f	0.042782363
64	0xbc66571e	-0.014058856
65	0x3ddfc3e4	0.10926035
66	0xbe093306	-0.1339837
67	0xbc1a48dd	-0.009416786
68	0xbd5be7f7	-0.053688016
69	0x3d53bbdb	0.051692825
70	0x3d0322fb	0.03201578
71	0x3cd14f8c	0.025550626
72	0xbd849bd8	-0.06475037
73	0xbd7f14b5	-0.062275607
74	0x3dee1158	0.11624402
75	0xbd0bf35c	-0.034167632
76	0x3d127994	0.035760477
77	0x3dce448d	0.10071669
78	0x3c40687b	0.01174366
79	0x3d4c924d	0.04994421
80	0xbd59cf40	-0.053176165
81	0xbb88bbb8	-0.0041727684
82	0x3dac3871	0.08409203
83	0xbc2a01f6	-0.010376444

fc3.weight f4 [10, 84]
0	0x3ea22292	0.31667
1	0x3e448703	0.19192128
2	0x3eaa70a6	0.3328907
3	0xbf8aa3f6	-1.0831287
4	0xbf0ed0eb	-0.55787534
5	0x3d11d5c7	0.035604265
6	0xbf61ec52	-0.8825122
7	0xbf45d7b0	-0.7728224
8	0xbdf682be	-0.12036656
9	0x3e8bd77e	0.27312845
10	0x3d08c9f0	0.033395708
11	0xbea66c72	-0.32504612
12	0x3ee7f3ca	0.45303184
13	0xbfa36483	-1.2765049
14	0xbf88317a	-1.0640099
15	0xbf34ec6d	-0.7067326
16	0x3e87246c	0.26394975
17	0x3e517012	0.20452908
18	0xbef73a96	-0.48286885
19	0x3e43b974	0.19113714
20	0x3b8be11c	0.0042687785
21	0xbf40e160	-0.75343895
22	0x3eae70e7	0.34070513
23	0x3e5f8dcb	0.21831433
24	0xbf36e1ee	-0.7143849
25	0xbf9904d1	-1.1954595
26	0xbe79a19e	-0.24378058
27	0xbf87c6be	-1.0607526
28	0xbf03f228	-0.51541376
29	0x3ea58fff	0.32336423
30	0x3ef5e462	0.48025805
31	0xbf8767a4	-1.0578504
32	0x3ebd3c55	0.36960092
33	0x3f051de9	0.51998764
34	0xbfb70345	-1.4297873
35	0xbf703e16	-0.93844736
36	0x3ef657cd	0.48113862
37	0xbf4e85b3	-0.8067276
38	0x3ea7813f	0.32715794
39	0xbe4e5a23	-0.20151572
40	0xbfbb9d6a	-1.4657414
41	0x3f044f5f	0.5168361
42	0x3ed15df1	0.40891984
43	0x3eb8dd92	0.36106545
44	0xbf942f28	-1.1576891
45	0xbf836561	-1.0265313
46	0xbf3c4fd9	-0.7355934
47	0x3e4ef01a	0.20208779
48	0x3f3bc6ec	0.73350406
49	0x3eb66b42	0.35628706
50	0xbe8cae64	-0.274768
51	0xbe7d8278	-0.24756801
52	0x3ce73fec	0.028228723
53	0xbf52f483	-0.82404345
54	0xbe9def29	-0.30846527
55	0x3f4ff63a	0.81235087
56	0xbf21e86c	-0.6324527
57	0x3ea68180	0.32520676
58	0xbf38d6ed	-0.7220295
59	0xbf1e8379	-0.6191936
60	0xbeb446e3	-0.35210332
61	0xbeed9ae2	-0.4640723
62	0x3f2fd3d1	0.6868258
63	0xbf247183	-0.64235705
64	0x3d8bf656	0.06834094
65	0xbf753639	-0.9578586
66	0xbf987cc9	-1.1913081
67	0x3f0ab3bf	0.5418052
68	0x3f084283	0.5322649
69	0x3cf12068	0.029434398
70	0x3e86c2be	0.26320451
71	0x3f3cbc81	0.73725134
72	0x3b47cc34	0.0030486705
73	0x3ec45f30	0.38353872
74	0x3ed53779	0.41643885
75	0x3e4167a4	0.18887192
76	0x3f1c0109	0.6093908
77	0xbebe1684	-0.37126553
78	0x3bafa480	0.005360186
79	0x3ee8d199	0.4547241
80	0x3eac2024	0.3361827
81	0xbf882c4f	-1.0638522
82	0xbf8a6bfc	-1.0814204
83	0xbf9571bc	-1.1675334
84	0xbf83363e	-1.0250928
85	0x3eb66282	0.3562203
86	0xbf2c2507	-0.67244
87	0xbf2384e7	-0.6387467
88	0x3e86b8eb	0.26312956
89	0x3ef1d4ae	0.47232574
90	0x3f00a690	0.50254154
91	0xbf52cb92	-0.82341874
92	0x3efbc711	0.49175313
93	0xbf522cd4	-0.8209965
94	0xbef1c04b	-0.4721702
95	0x3f05fe34	0.5234101
96	0x3e85247f	0.26004407
97	0x3eb4f922	0.35346323
98	0x3ebe1350	0.3712411
99	0xbe2fa178	-0.17151439
100	0xbf1a3c91	-0.60248667
101	0x3e05c0a5	0.1306177
102	0xbe7937c5	-0.2433768
103	0x3decd87f	0.11564731
104	0x3ee00582	0.43754202
105	0x3edc9fd6	0.43090695
106	0x3ea6e9a5	0.32600132
107	0xbf3330e6	-0.6999649
108	0x3ec30e9b	0.3809708
109	0x3eb6d587	0.35709783
110	0x3eead07c	0.45862186
111	0x3eb2a2b9	0.34889773
112	0x3e51d224	0.20490319
113	0xbf4e0b60	-0.80486107
114	0x3e852306	0.26003283
115	0xbf4e729e	-0.8064364
116	0xbef1b1ac	-0.47205865
117	0x3e897903	0.26850137
118	0x3e2fb038	0.17157066
119	0x3dcb12e9	0.09915716
120	0xbf21cb6d	-0.6320103
121	0x3e42cae8	0.19022715
122	0xbf951566	-1.1647155
123	0x3f0b435e	0.5439967
124	0xbf02a1fe	-0.5102843
125	0x3e557611	0.2084582
126	0xbf716c1c	-0.94305587
127	0x3c2d2525	0.010567938
128	0xbeec4470	-0.46145964
129	0xbd21e7c5	-0.039527673
130	0x3ed0d111	0.40784505
131	0xbf3004e8	-0.68757486
132	0x3eeee7db	0.46661267
133	0x3f2d2822	0.6763936
134	0xbf6436cf	-0.8914613
135	0x3f0204d9	0.50788647
136	0xbfbba189	-1.4658672
137	0x3e99a0fd	0.30005637
138	0xbea7d346	-0.32778376
139	0x3dd15129	0.10220558
140	0x3f01256b	0.5044772
141	0xbf1e7edf	-0.6191234
142	0xbf7125ac	-0.9419811
143	0x3f2881db	0.65823144
144	0xbebcf84e	-0.3690819
145	0xbf6d0408	-0.92584276
146	0xbf1e3d07	-0.6181187
147	0x3f01ca30	0.5069914
148	0x3ee43a2e	0.44575638
149	0x3ecde935	0.40216985
150	0xbf2aea71	-0.6676398
151	0xbf0b7d83	-0.5448839
152	0xbec1c287	-0.37843725
153	0xbf2f736d	-0.685355
154	0xbf2fd817	-0.686891
155	0xbef2eb5e	-0.47445196
156	0xbfcdbc0e	-1.6073015
157	0x3ec356e0	0.38152218
158	0x3e8f42ed	0.27980748
159	0xbf4e7917	-0.8065352
160	0xbf2269e6	-0.6344284
161	0x3f327811	0.69714457
162	0xbf6805b1	-0.90633684
163	0xbdd1a275	-0.10236064
164	0xbefe4feb	-0.49670348
165	0x3dc1726f	0.094456546
166	0xbccb6809	-0.024829881
167	0xbc313ba1	-0.010817439
168	0xbf92ade8	-1.1459322
169	0x3e366d56	0.17815146
170	0x3e3c7b6c	0.18406457
171	0xbf08330d	-0.532029
172	0x3f250112	0.6445476
173	0x3e80851f	0.25101563
174	0xbf7f255b	-0.99666375
175	0xbf3607c5	-0.71105605
176	0x3e37d81a	0.1795353
177	0x3e343c0f	0.17601036
178	0x3f0c7616	0.54867685
179	0xbf13b87b	-0.5770337
180	0xbf1f3a89	-0.6219869
181	0xbdc109f3	-0.09425726
182	0x3ecbeb09	0.39827755
183	0xbf7a0e99	-0.97678524
184	0x3f2aed1f	0.6676807
185	0x3e0271da	0.12738743
186	0x3ed0bbc3	0.4076825
187	0x3e84ef3d	0.25963774
188	0xbf06b8c5	-0.52625686
189	0x3f3096e0	0.68980217
190	0x3ed973bd	0.42471114
191	0xbf28b635	-0.65903026
192	0x3e59df3f	0.21276568
193	0x3ddeb0db	0.10873576
194	0xbf63da06	-0.8900455
195	0x3ede43b2	0.43411022
196	0xbe7d8272	-0.24756792
197	0xbf4d4710	-0.8018656
198	0xbdce631a	-0.10077496
199	0xbe84d354	-0.2594248
200	0xbf882660	-1.0636711
201	0xbe8eff24	-0.27929032
202	0xbf7fa4d5	-0.9986089
203	0x3eeb624d	0.45973435
204	0x3ea79370	0.32729673
205	0x3e5bcbad	0.21464415
206	0x3f77feab	0.9687297
207	0xbdd39fb2	-0.10333194
208	0xbee0e357	-0.43923447
209	0x3eb9d17d	0.3629264
210	0x3e6f6f76	0.23382363
211	0xbf822997	-1.0168942
212	0x3fa4dcda	1.2879899
213	0xbdb82ab9	-0.08992524
214	0xbf55e2a7	-0.8354897
215	0xbf138454	-0.5762379
216	0x3f1b88fa	0.60755885
217	0xbe567982	-0.20944789
218	0xbec30773	-0.3809162
219	0xbf284bdb	-0.65740746
220	0xbe4b9be7	-0.19883691
221	0x3f09e6d3	0.53867835
222	0xbf1bee2a	-0.60910285
223	0x3f0e274e	0.55528724
224	0xbe480853	-0.19534425
225	0x3e953344	0.29140675
226	0xbf54c2dc	-0.8310983
227	0x3e695051	0.22784545
228	0xbe6eb888	-0.2331258
229	0x3eed7edb	0.46385846
230	0x3e5dc21a	0.21656075
231	0xbfae70cb	-1.3628172
232	0xbee9e71e	-0.4568414
233	0xbde40923	-0.11134555
234	0x3ed2e45f	0.41189858
235	0x3e939982	0.28828055
236	0x3f38e015	0.7221692
237	0x3e5da6aa	0.21645609
238	0xbe73ba88	-0.23801625
239	0x3f2d4852	0.6768848
240	0x3e170d1a	0.14751092
241	0x3f020038	0.50781584
242	0xbfa475f4	-1.2848496
243	0xbfaaba4a	-1.3338101
244	0x3e8172b7	0.25282833
245	0xbf6ceec7	-0.92551845
246	0xbf943dd1	-1.1581365
247	0xbf710e49	-0.9416242
248	0xbed14305	-0.40871444
249	0x3ec72fb0	0.3890357
250	0x3d49d78e	0.049277835
251	0xbf3f0254	-0.7461293
252	0xbf0f4e76	-0.55979097
253	0xbd39d26a	-0.045366682
254	0x3eed2b9b	0.4632233
255	0xbda666ba	-0.08125062

fc3.bias f4 [10]
0	0xbd489200	-0.04896736
1	0xbc1b16fe	-0.009465931
2	0xbcfbedbb	-0.030753007
3	0x3bd4d888	0.006495539
4	0xbd8cb4d3	-0.06870427
5	0xbe20fade	-0.15720698
6	0x3dda5019	0.10659809
7	0x3da6c5c8	0.081431925
8	0x3cd1e0f6	0.025619965
9	0x3db527ae	0.08845459
