6_ConvolutionalNeuralNetwork/LeNet/model13.pth (torch, 250424 bytes, 10 tensors)

conv1.0.weight f4 [6, 1, 5, 5]
00000000: 8b84 6fbe 3aae 883e 22a7 4ebd 89b8 203f
00000010: 51ec 403e 3f46 663e ff07 623f fd16 883f
00000020: 120c ab3f b4cf d63e 024e 96be a24e 283f
00000030: 84ce 4b3f 1b12 233f 49cc 1ebf 0e16 dabe
00000040: 4458 a63e 5a30 4abe 35a8 34bd 8a57 85bf
00000050: 07b6 13bf ca36 1ebf decf 5fbf 6850 b8be
00000060: 466f 38bf 8e98 4fbf dcf2 b1be fb87 e6bd
00000070: bc94 a2be 8386 953d 6ecd 9bbe 22ca 083f
00000080: 65a2 463f d066 1a3f d441 403f d608 49be
00000090: e48b a23f b2ea ef3f 1d96 303f dca3 0b3f
000000a0: 5b83 00bf 465a 583f 2f8e 403e 675c 173e
000000b0: b2fc 1ebe 35ef acbf 7313 32bf fef1 52bf
000000c0: 846b 10bf c898 d3be de38 0abf bec7 91be
000000d0: d045 c3be e275 0ebe 03b9 6cbf 48c2 583f
000000e0: eb03 473f 781f 843f 751b 993f 1278 23bf
000000f0: 35dd 043f 4e8f 4f3f c48b 9a3f 7335 4a3f
00000100: 960f 45bf 0e6e d13b de37 4f3f b69e da3e
00000110: 6632 a33e 6f32 33bf 2f69 03bf e45c 62be
00000120: ccad e5be 0b0a c2be 3897 3cbf c595 bf3e
00000130: 8059 173f bf65 2c3f ec45 0a3f 7a2d 183f
00000140: 11ab 1b3e b36d 2e3d 4fda c0be 98e9 29be
00000150: 24cd 02be b5c1 1bbf 6070 c8bf 5f8e 99bf
00000160: 770e 84bf 4139 34bf 8184 78bf ba21 3fbf
00000170: ab54 25be 80d0 ecbd 93dd 26bf 6615 9c3c
00000180: 5706 603f 19e9 633f b1ce a53e 5d95 36be
00000190: 96f5 2c3f e54c 973f 6639 0a3f 184e 283f
000001a0: c2fb 533f 09b4 8f3e 263e cabe 3e58 30bf
000001b0: 54e7 47bf c81f c8be fa46 dfbd 40b0 0ebf
000001c0: f354 1abf 0c1f 03bf d7c7 e4be 9a16 e93e
000001d0: 530d f3be 65cf 82bf 1354 eebe 6414 c0be
000001e0: b3df 663f 663f 7bbc 5fe3 babe aeea 873e
000001f0: 2719 043f 329a bb3e 7ed3 083f 3043 05be
00000200: bb6c 5dbf 62b1 0dbf 9b6b 553e c79b 7c3c
00000210: 6066 03bf 7128 a2bf d1c6 5e3e 0005 0bbe
00000220: b961 b5bd 42c5 45bf 995c 53bf b43e 2d3f
00000230: 27cb 823e 7df1 c0be 4d66 9ebf 22d4 1dbe
00000240: 631c 233e 6e65 4e3f d75f aabe 51e6 a3bf
00000250: 68d4 e9be aedc c93e
-0.23390405 0.26695424 -0.05045236 0.6278158 0.18840148 0.22487734 0.8829345 1.0632015
1.3363059 0.4195534 -0.2935639 0.65744984 0.7961199 0.636995 -0.62030464 -0.4259495
0.32489216 -0.19745007 -0.044105727 -1.041734 -0.57699627 -0.6180235 -0.87426555 -0.35998845
-0.7204479 -0.81092155 -0.347556 -0.11256405 -0.317541 0.07301047 -0.30430168 0.5343343
0.77591544 0.6031313 0.75100446 -0.19632277 1.2698941 1.8743498 0.68979055 0.54546905
-0.5020043 0.84512746 0.18804239 0.14781342 -0.15526083 -1.35105 -0.6956093 -0.824005
-0.56414056 -0.413275 -0.5399302 -0.28472704 -0.381392 -0.13912156 -0.92469805 0.8467145
0.77740353 1.0322104 1.1961504 -0.6385509 0.51900035 0.8107804 1.2073903 0.7898781
-0.7697691 0.0063912934 0.8094462 0.42699212 0.31874388 -0.6999883 -0.5133237 -0.22105747
-0.4485916 -0.37898287 -0.7366824 0.37418953 0.5912094 0.6734275 0.5401294 0.5944439
0.15201975 0.042585086 -0.37666556 -0.16593015 -0.12773567 -0.6084245 -1.5659294 -1.1996573
-1.0316914 -0.7039986 -0.97077185 -0.7466084 -0.1614558 -0.11563206 -0.65181845 0.019053172
0.87509674 0.89027554 0.32384256 -0.17830415 0.67562234 1.1820341 0.53993833 0.6574416
0.82806027 0.28067043 -0.3950054 -0.68884647 -0.78087354 -0.39086747 -0.109022096 -0.55737686
-0.6028587 -0.5121925 -0.44683716 0.45525056 -0.47471103 -1.0219542 -0.4654852 -0.37515557
0.9018509 -0.01533494 -0.36501595 0.26546234 0.5160088 0.3664108 0.5344771 -0.13013911
-0.86494035 -0.5534879 0.2084183 0.015418 -0.51328087 -1.2668592 0.2175553 -0.13576126
-0.0885653 -0.77254117 -0.8256317 0.676738 0.25545618 -0.3768424 -1.237497 -0.15412953
0.15928797 0.8062352 -0.33276245 -1.2804662 -0.45669866 0.39426178

conv1.0.bias f4 [6]
00000000: 6c71 5ebf b748 6bbf 8383 4fbf 05cf a9bd
00000010: b6f3 8bbe 89ca 20bf
-0.8689182 -0.9190783 -0.81060046 -0.08291439 -0.27334374 -0.62809044

conv2.0.weight f4 [16, 6, 5, 5]
00000000: 0717 f63d b9b6 8a3e 9207 0c3f f6d3 af3e
00000010: bb02 86be e15f 053f 7260 353f 90fd 883e
00000020: 43fa 48be 267f 13bf 213a ff3e ef1a 5e3e
00000030: a2b6 14bf c219 54bf cdcb ae3d 600a 5a3e
00000040: 6625 c63d a6c9 70bf 4b63 5bbe fbb5 2f3f
00000050: 50b2 7e3c a7e5 81be 5eff 5dbf 5437 5a3d
00000060: aab6 f03e 1a19 103d 5111 cd3e bb8d ff3e
00000070: 4294 f93d 6aea 9cbe 2e11 b13e 8920 e03e
00000080: 792e aebb d281 0cbf 895c 78be 9911 9e3e
00000090: 3e02 c6bd 4d4f 51bf 5eed 00bf 90c5 ef3e
000000a0: 5136 563d 4346 f83d b3e2 58bf 96c5 543d
000000b0: 1e70 243f 7344 963d 6768 98be 97b3 edbe
000000c0: dc7f a63e ad3a f13e 7539 aa3e 0764 c53e
000000d0: f2bd 0b3f c19e a63e d431 20be 7eaf 143f
000000e0: b502 243f 90da 443e 19b5 f5be 307e c1be
000000f0: 4ad6 c73e 0276 e5bb 8c79 48bf 376b 73bf
00000100: 88a0 5d3e 395f 5d3e 3dd6 623e 4e09 3fbf
00000110: 8daf debe 5ee7 003f 9cff 09bd 4ce2 9c3a
00000120: 1e28 36bf 9909 ca3d 3279 143f a983 84be
00000130: 7f62 e1be 2420 e6be 1606 133d 3b17 653e
00000140: 5ece cbbe ffa7 78be 2c8d 4b3e 339e cb3e
00000150: 54b3 6c3d f71b 8fbe 914f 343e 511a 9c3e
00000160: a6f4 6abc d659 40bf 69f3 70be 1995 07bd
00000170: 327a c6bc efb9 ecbe d4e8 88bf 22b7 81be
00000180: 4ee1 473c a71e 79be e38b 42bf 4a32 8cbf
00000190: cfa3 bdbe a18b b4be 7011 78be cbb9 c7bc
000001a0: f74d fe3d 6b57 d0be 01c5 ccbd 25d8 9d3e
000001b0: a3a7 ca3e 331a eabd 02ae 44be 480e 8c3d
000001c0: c0d4 213f d40a 853e 142f 15bf 45f9 ffbd
000001d0: 2025 db3d 1fc7 ec3e daa7 e4bd 4b63 b3be
000001e0: 007b 02be 7f7d 273e 74e0 a83e a104 0bbf
000001f0: 983b b5be bc8c 78be d9fa afbe 5c93 dabe
00000200: 1aff 74be dc3f f3bd dc6c 21be 90f5 84bd
00000210: 9886 143e 30e5 643e c3fb 54be dcf4 73bc
00000220: 50c9 243e c71d 3c3f 8563 bd3e df3f 4dbe
00000230: e920 e73d f043 803e e733 063f fbfd ddbc
00000240: c68a 61be eb33 f3bd 3986 363e 12a6 b53e
00000250: c18f 1bbe 8df0 213e 8a0c a63e 6ebd 793e
00000260: 5197 55be 87c9 b0be be47 babe bf71 ed3e
00000270: e159 bd3e 3214 863e 31bb c03e 0d69 ac3e
00000280: fb3b a83d 970c 10bf b8ca 32bf af27 e5bd
00000290: cc42 b93e bfc8 3cbf 1bbb c9bf d40e bebf
000002a0: b0d6 80bf 7a6c c3be 11ae 0c3e 940e 283f
000002b0: d161 5e3e 3c0a 29be b6f1 94bd 0a46 683e
000002c0: a501 933c 09f0 2abe f9ed f9bd f383 13be
000002d0: a14f 4b3e e17d 9b3d 4f75 833d 9d7f e43e
000002e0: 3596 053f 840a 9fbe d14f 93bf 40c1 48bf
000002f0: 93fa f3bd 1b32 6e3e 7633 e3be dc29 03bf
00000300: 9ac1 24bf ff80 66bf e30d f7be e785 e43e
00000310: 6acb 433f e1d0 9b3e 7346 46bd dacc dbbd
00000320: cc1e 963e 0ca8 2a3e 858b 853c a878 cbbd
00000330: 253b f5bd cc62 c93e 518e 623e e2bd 05bd
00000340: 18ee 593e cfc3 da3e 0556 cbbd b7a0 28bf
00000350: e116 a2bf f8ec 18bf f0c4 f5bc f466 2ebf
00000360: 5573 56bf 4f6d 6cbf 0b98 83bf 0c33 36bf
00000370: 5a07 a43d 1906 d53e 0c81 883e 87be 11be
00000380: b0b3 8abd 3977 95be b031 8cbe a992 85be
00000390: e946 33be 5c3d 48be 91ef d93d b1e9 b33d
000003a0: 45f9 b63d 4375 31be 4376 c1be 8142 483f
000003b0: bdad 813f b977 7a3f 9549 513f 2f8e ba3e
000003c0: 4051 df3e b8ba 9b3e b4eb d13e 5350 3a3f
000003d0: 3ccb 383f 98ea 96be 9985 0abf 63d0 ffbe
000003e0: 3f62 c83c ef51 933e 9daf 06be b99e 78be
000003f0: f504 49be 871d abbe 94e8 c8be 5188 68be
0.12016111 0.2709253 0.5469905 0.343414 -0.26173958 0.52099425 0.7085029 0.26755953
-0.19626717 -0.5761589 0.49849036 0.21689962 -0.58091176 -0.82851803 0.08534966 0.2129302
0.09675102 -0.9405769 -0.21424596 0.68637055 0.015545443 -0.25370523 -0.86717784 0.05327542
0.47014362 0.03518019 0.40052274 0.4991282 0.12186481 -0.30647594 0.3458342 0.43774822
-0.0053155986 -0.5488559 -0.2425405 0.308728 -0.096683964 -0.8176163 -0.50362194 0.46830416
0.052297894 0.12122776 -0.84720916 0.051946245 0.6423358 0.073372744 -0.29767153 -0.4642608
0.32519424 0.4711508 0.3324696 0.38552877 0.5458671 0.32542995 -0.15644008 0.5808028
0.6406663 0.19224 -0.4798973 -0.37791586 0.39030677 -0.007002593 -0.78310466 -0.9508547
0.21643269 0.21618356 0.22152038 -0.7462357 -0.4349331 0.5035304 -0.033691034 0.0011969297
-0.71154964 0.09865112 0.5799743 -0.258817 -0.4402046 -0.44946396 0.035894476 0.22372143
-0.39805883 -0.24282835 0.19878072 0.39769134 0.057788208 -0.27951023 0.17608477 0.30488828
-0.014340555 -0.7513708 -0.23530354 -0.033101175 -0.02422819 -0.46235606 -1.0696054 -0.25335032
0.012199713 -0.24328099 -0.759947 -1.0952847 -0.3703904 -0.35262778 -0.24225402 -0.024380585
0.12417214 -0.40691695 -0.09998513 0.30828968 0.39581022 -0.11430778 -0.19207004 0.068386614
0.63215256 0.25984824 -0.5827496 -0.12498716 0.107004404 0.46245667 -0.11164828 -0.35036692
-0.12742233 0.16356467 0.32983744 -0.5430394 -0.3539703 -0.24272436 -0.3437107 -0.4269055
-0.23925439 -0.118774146 -0.15764183 -0.0649215 0.14504468 0.22353053 -0.20799164 -0.014889922
0.1609242 0.73482937 0.3698999 -0.20043896 0.11285574 0.25051832 0.52422947 -0.027098646
-0.22025594 -0.11875137 0.1782464 0.35478264 -0.15191557 0.15814419 0.32431442 0.24388668
-0.20858504 -0.34528753 -0.3638286 0.46375844 0.36982635 0.26187283 0.37642816 0.33673897
0.08214565 -0.5626921 -0.69840574 -0.1118921 0.36183774 -0.73743814 -1.5760225 -1.4848275
-1.0065517 -0.381687 0.13738276 0.65647244 0.21717001 -0.1650781 -0.07272665 0.22682968
0.01794512 -0.16693129 -0.12203593 -0.14405803 0.19854595 0.07592369 0.06418859 0.4462861
0.5218232 -0.3106271 -1.1508733 -0.78419876 -0.119130276 0.23261301 -0.443752 -0.5123575
-0.6435791 -0.9004058 -0.48252782 0.4463341 0.7648226 0.304328 -0.04840703 -0.10732432
0.2932037 0.16665667 0.01630188 -0.09935123 -0.119741715 0.3933319 0.22124602 -0.03265179
0.21282232 0.42727515 -0.09928516 -0.6587023 -1.2663232 -0.59736586 -0.030001134 -0.68125844
-0.8376973 -0.9235429 -1.0280775 -0.7117164 0.08009215 0.41606215 0.26660955 -0.14232837
-0.06772554 -0.29192522 -0.2738166 -0.26088455 -0.17507519 -0.19554657 0.10641397 0.087848075
0.08934263 -0.17329888 -0.3778554 0.78226477 1.0131146 0.9783893 0.817529 0.36436602
0.43616676 0.30415893 0.4100014 0.72778815 0.7218511 -0.29475856 -0.54110104 -0.49963674
0.02446091 0.28773448 -0.13152929 -0.24279298 -0.19630797 -0.33420965 -0.39239943 -0.2270825

conv2.0.bias f4 [16]
00000000: 7141 a5bd a2be 873c b037 e3bc b823 643c
00000010: 2ddd a0bd eb87 37bd 0f5a c6bd 5fe7 093e
00000020: 2748 eabd e625 8f3c 0e9c 743d 0d07 6f3d
00000030: d6f7 a4bb f26f 2dbd a2b2 a2bc d5c5 c43d
-0.080691226 0.016570393 -0.027736515 0.013924532 -0.07854686 -0.044807356 -0.09685146 0.13467167
-0.11439543 0.017474126 0.059719138 0.058356334 -0.005034427 -0.042343087 -0.01986057 0.09608046

fc1.0.weight f4 [120, 400]
00000000: 30c6 413e 9577 963e 2483 7dbf 016d b2bf
00000010: 1252 f4be 18f0 ac3e 354e 8c3e 1370 c1be
00000020: 9626 d1be 3d84 8ebd ae62 0f3d 8d08 f6be
00000030: 29e0 11bd 4adb 513d d625 a63d 90be 15bf
00000040: 7afd 31bf 0307 083d cc82 883e 9b77 ca3e
00000050: 2800 c2bc d88d e6bd 8b5c c53d 029e 953e
00000060: 55ea 853d 68b5 7abd 9b55 303e 7887 ce3e
00000070: 59cd ab3d 6408 0cbe f180 b4be 4db4 3dbf
00000080: 86be 1239 d36c 083f 27cb 003e 13a7 14be
00000090: 2d6a a73e 2003 84be 02c8 babe ee3a 29bf
000000a0: 432e b53d 7964 46bd 463c 98be 0603 5cbf
000000b0: c7ba 8e3d fc04 7a3e d861 8f3d 65b5 34bd
000000c0: dbd7 0b3e e0fd 143d 4025 9f3e 13f9 983e
000000d0: 80fb 2cbc 4e9f 15bf 99c3 8ebe e251 0bbe
000000e0: 2598 b2be 01b5 98bd e44d 67be 0b4c ad3e
000000f0: 62e4 a0bd 987f 0fbe b300 93be 7e87 4e3e
00000100: 0063 c13e 6894 a43e eaa6 75be 9cde 8a3e
00000110: 741d 9ebe 4e51 2e3e ab34 0f3e fe0f 883d
00000120: d900 7b3e 8f9c ad3e 4f8d 823e bad0 dbbe
00000130: a2c2 f8bd 46be 173e 4525 773e 638e ca3e
00000140: a9af a3be 0219 81be 749d 6c3c 1916 a63d
00000150: e2b7 393e 1b22 babe d704 4bbe 0a9a d73c
00000160: 6202 8e3d ef1b 06bf 8f06 953e a1f4 d83d
00000170: b77b 0fbe d686 51bf b5a0 aabf f79a 983e
00000180: e586 ff3e 5a81 c9bd 1abb d6be 8e10 e7be
00000190: b49e 22bf 4c6e 5abe 1b8f b63e 67e4 b33e
000001a0: fb38 c43e be1f fbbe d167 04bf 48ae 9c3d
000001b0: 5dc5 943d 5583 dfbc 1dda 043e 4bfb 91be
000001c0: 7a67 af3d d6a3 ff3b 45fa f0bd 6657 8f3e
000001d0: 0a5b 10bd e866 70bd 5161 a5bd 08d6 c2be
000001e0: c224 2e3e 2a41 24bd c2f5 bf3a 863e 6fbe
000001f0: 8acd 06bf 4ad9 3fbf a05e 38be cd46 463e
00000200: e0da 423e ec8a c83e 6221 37bf 302d 06be
00000210: a4e8 1d3d edf3 203f 5317 50be f58f f1bc
00000220: e547 24bd 1137 713e 8906 abbd c191 babe
00000230: 841d 56bd d85a 9a3d a640 4cbd 1316 cabd
00000240: 3b23 aabe b817 0f3e c881 8c3c 6101 3cbe
00000250: 724e 1fbf 5490 8cbf f9f7 7e3d 48d6 3abc
00000260: 6751 2a3b b755 00bd e2a0 d2bc 060e f8be
00000270: ff37 90be 7873 febe 0c20 053e 28e1 63bd
00000280: ce1f 8fbe 8263 d3bd 7b83 453d 6bd1 4cbe
00000290: 7369 9cbe d0aa a8be c838 d63e 22a9 233f
000002a0: 6a1f 5fbd 12ba 313e 847b 3f3e 0bed 163f
000002b0: a682 ed3d d74c 953e 7b88 033f 2302 fcbe
000002c0: 9023 a2be c62f 35bd 2318 b23e 133b b93e
000002d0: 1197 36be 95aa 05be 5868 7f3e 6c06 103f
000002e0: 3a23 863f 902a 3b3d 7b78 493e 1284 023f
000002f0: c4e9 283f d1b8 dc3e bd73 65bd 4b2a 92bc
00000300: 09a1 9cbd 78ef 25bf ce80 a2bd 5ba9 443e
00000310: c260 9c3b b7a4 8ebe 8974 7bbf f2ce b9be
00000320: ce29 823e 34b3 bd3e 7baa 70bf 875d 4bbf
00000330: 57e0 fb3d 987e cc3d bd0d bdbd bbeb e8be
00000340: 6dfc 30be 9f00 ec3d 4a9f 763e b756 033e
00000350: 4519 a7bd 8989 713e 1234 7e3e b76b fdbc
00000360: 4787 20be dc2d f13e 3bf1 b7be f201 183f
00000370: edce 35be 6e48 3cbb cf8c 003c a8d5 f9bb
00000380: 8133 193f b728 bebe 3085 99bd 223e cd3e
00000390: d014 eb3e bf6f c53e 61fc 4dbf b6cd 8bbe
000003a0: 39fc 303c 884a c73d 1c5e ec3c da34 cebe
000003b0: 4be2 a53d f975 81be a641 43bf e39c fcbe
000003c0: fb06 3f3e 5e02 803e 7aeb 87be 0824 6dbf
000003d0: 63aa 9bbf 01aa 543e 9e13 5b3e 1350 4dbe
000003e0: 313f 38bf 9bcf 64bf e7d1 73bd 9f4b 4f3e
000003f0: 3cd7 e03e c13d 833c 3dc6 323d 2d00 26bf
0.18923259 0.2938811 -0.9902823 -1.3939515 -0.47718865 0.33776927 0.27403417 -0.37780818
-0.4084975 -0.06958816 0.035006218 -0.480534 -0.035614166 0.05123452 0.081126854 -0.584939
-0.695274 0.033209812 0.2666229 0.39544377 -0.023681715 -0.11257523 0.09636792 0.29222113
0.06538836 -0.06120816 0.17220156 0.4033773 0.08388776 -0.13675076 -0.35254624 -0.7410324
0.0001399462 0.5329105 0.12577496 -0.14516859 0.32698193 -0.25783634 -0.3648072 -0.66105545
0.08846714 -0.048435662 -0.29733485 -0.85942113 0.06969219 0.24415964 0.07001084 -0.044118304
0.13656561 0.036374927 0.31083107 0.2987753 -0.010558009 -0.58446205 -0.27883604 -0.13605455
-0.34881702 -0.07456399 -0.22588307 0.3384708 -0.078560606 -0.14013517 -0.2871147 0.20168874
0.37770844 0.32144475 -0.23989454 0.27122962 -0.30881846 0.17023203 0.13984935 0.06643675
0.24512042 0.33908507 0.25498435 -0.42932683 -0.12146498 0.14818677 0.24135311 0.39561757
-0.31969956 -0.25214392 0.014441837 0.081096835 0.18136552 -0.36354145 -0.19826065 0.026318569
0.06934048 -0.52386373 0.29106566 0.10593534 -0.14012037 -0.8184637 -1.3330294 0.2980573
0.49907604 -0.09839125 -0.41939622 -0.45129818 -0.6352341 -0.21331137 0.35656056 0.35135195
0.38324723 -0.49047655 -0.5172091 0.07650429 0.072642066 -0.027284304 0.12973829 -0.28512034
0.085646585 0.007801513 -0.11766485 0.27996367 -0.03524307 -0.05869189 -0.08075202 -0.38053918
0.1700621 -0.040101208 0.0014645385 -0.23363695 -0.5265738 -0.7494093 -0.18004847 0.19362946
0.19028807 0.3916849 -0.71535313 -0.13103175 0.03855194 0.628722 -0.20321397 -0.02948759
-0.040107626 0.23556162 -0.08350856 -0.36439326 -0.052274242 0.07536858 -0.04986634 -0.098674916
-0.33230004 0.13973892 0.017151728 -0.18359901 -0.62229073 -1.0981545 0.062248204 -0.011403628
0.002598846 -0.031331744 -0.02571148 -0.484482 -0.28167722 -0.4969747 0.13000506 -0.055634648
-0.27953953 -0.10321714 0.048221093 -0.20001762 -0.305492 -0.3294282 0.41840196 0.6392995
-0.05447332 0.17356136 0.18699461 0.5895545 0.11597185 0.29160187 0.5138013 -0.4922038
-0.31667757 -0.044235013 0.3478404 0.36177883 -0.17831065 -0.13053353 0.24942148 0.562598
1.04795 0.045694888 0.19674866 0.50982773 0.659817 0.43109754 -0.05601858 -0.017842432
-0.076479025 -0.64818525 -0.07934724 0.19205229 0.0047722766 -0.27860042 -0.98224694 -0.362907
0.2542252 0.37050784 -0.9401013 -0.79439586 0.12298649 0.09985083 -0.09231136 -0.45492348
-0.17283793 0.11523556 0.24084201 0.12826048 -0.08159117 0.23587622 0.24824551 -0.030935152
-0.15676604 0.471053 -0.35926232 0.5937797 -0.17754717 -0.0028729695 0.007846071 -0.0076243468
0.59844214 -0.37140438 -0.074961066 0.40086466 0.45914316 0.38561818 -0.80463225 -0.27305382
0.010802322 0.097310126 0.028853469 -0.40274698 0.080998026 -0.25285318 -0.76272047 -0.49338445
0.18655007 0.25001806 -0.26546842 -0.92633104 -1.2161373 0.20767976 0.21394202 -0.20050077
-0.7197142 -0.8937928 -0.05952635 0.20243691 0.4391421 0.016020657 0.043646086 -0.6484402

fc1.0.bias f4 [120]
00000000: 6378 8b3b e327 4b3b 68c8 6fbd d811 253d
00000010: 2958 a93a 1430 0dbd db0c a2bd a8fc 04be
00000020: ddd8 42bd 57d0 a93c 1675 0bbe 36ea 123a
00000030: 5d37 7b3d 4df1 25bc d7fe 103e f3ed 01bd
00000040: 0f7f 55bc 1d1b a83d f948 ac3d 7bd5 c93c
00000050: b5b8 403d 17a6 893d 5f4e b73d c1ea cfbd
00000060: eed9 ba3d 2a0f d8bc fc96 37be f4be 053b
00000070: 2ade 883c b836 353d 108d d7bd 8121 6bbd
00000080: 8504 99bd ce86 7fbd ec15 283d 6a36 f5bc
00000090: d177 2a3e e38e e3bd 3df6 863d 0a24 20be
000000a0: 3ca4 b9bc 7a4a 84bd e4e9 39be 90d7 16be
000000b0: 5b22 993c d7c7 2fbe 3703 203d 0153 19bd
000000c0: c30c f5bd 6aeb 57bb 06ea b7bd 4892 f8bd
000000d0: ed60 c73d 8947 c8bd 3847 9b3d af9a c8bd
000000e0: cf9c b33d 8ba8 19be 2a93 2dbd bbb9 27bd
000000f0: 649f ae3c 11d2 05bd 21c6 0d3d 41f4 5cbe
00000100: f300 0e3d 9cb4 fabd b671 c63c 6e7e 0dbe
00000110: ab7e 023e b18b febd 085b adb8 8297 17be
00000120: 8bd9 c2bd 1953 0abc 373d d8ba f795 23be
00000130: 13da 3c3d e75f 19bc 0bee 493d bf4a dc3c
00000140: 68b2 f13c b279 e73d de1f b8bb 4bbe ebbd
00000150: 56b2 4dbd cb3b cc3c be86 cf3c 37cd 833c
00000160: ccb4 84bd 5eb6 01bc 8ba9 fa3d f230 04bd
00000170: 1747 263d a7eb 0b3e 9eac c8bc 8707 7bbc
00000180: 101f a4bc 4f5c c0bd ebd0 dcbd b927 bbbd
00000190: 298b 17be e1ff 823c a2bf 983d 8e21 b53d
000001a0: 754e 34be 4fd5 343d 2c69 633d b8a0 82bd
000001b0: 03fe 0c3d f83f 3fbd 563b f4bd 6950 263d
000001c0: 2a8d c4bc ec55 95bd a206 b9bc 3746 713d
000001d0: 65cb 023d 7eaa 523e 6cd3 c1bd fee6 1e3d
0.0042562946 0.0030999116 -0.05854073 0.04030022 0.001291995 -0.03446968 -0.07912608 -0.12987006
-0.0475701 0.020729227 -0.13618883 0.0005604358 0.061332095 -0.010128331 0.14159714 -0.031721067
-0.013030781 0.082082964 0.08412356 0.024637928 0.04705115 0.06721132 0.08950495 -0.10152198
0.09123598 -0.026374418 -0.1792869 0.0020408006 0.016707499 0.044241637 -0.105249524 -0.057405
-0.07471565 -0.06238442 0.04103653 -0.029933173 0.16647269 -0.11111238 0.06589935 -0.15638748
-0.02266132 -0.06459518 -0.18155628 -0.14730668 0.01869314 -0.17166077 0.039065566 -0.037432674
-0.11965325 -0.0032946714 -0.08980183 -0.12137276 0.09735284 -0.09779269 0.07581943 -0.097951286
0.08770143 -0.150057 -0.042376675 -0.04094861 0.021316238 -0.032671038 0.03461278 -0.2157755
0.034668874 -0.1224148 0.024224143 -0.1381776 0.12743632 -0.12428988 -8.266239e-05 -0.1480389
-0.09514149 -0.008442664 -0.0016497736 -0.15975176 0.04610641 -0.009361244 0.04929928 0.02689111
0.029504016 0.113025084 -0.0056190332 -0.11510905 -0.050218903 0.024930855 0.025332805 0.016089065
-0.06479797 -0.007917015 0.12239369 -0.03227324 0.04059514 0.13664113 -0.024496373 -0.015321619
-0.020034343 -0.093926065 -0.107820354 -0.09138436 -0.14799179 0.015991153 0.07458426 0.08844291
-0.17608054 0.04414874 0.05552022 -0.06378311 0.034421932 -0.046691865 -0.1192538 0.04060403
-0.023993094 -0.07291779 -0.02258617 0.058904853 0.031932253 0.2057285 -0.09464154 0.03879451

fc2.0.weight f4 [84, 120]
00000000: 52ca d3bc 5cb0 0a3f 3a67 c83e dc72 e0bd
00000010: 6c8b 29be c4c2 423f afa0 e5be 7664 33bc
00000020: 0c19 61be 0a08 d83e 3ad3 fbbe a763 64be
00000030: 44c0 33bf 663c 1f3e 3109 51be a12b 1cbf
00000040: 09f5 863e a642 0fbe d8da b13d dbd4 323c
00000050: 5648 ac3e a783 9fbe 5599 4f3d dbda 68bf
00000060: d5bc 05bf 8532 4d3f 4195 c73e f85a d53d
00000070: 5311 c1bd 3dc3 1e3f c376 babc d938 223e
00000080: ec4c 13be 1e48 db3c b0b5 0fbf b4df 2d3f
00000090: 8311 e83d d068 cb3d d660 9dbe ebbd 23be
000000a0: 2267 93be a6b8 a1bc 3d6c e8be 4678 bcbd
000000b0: 7549 ffbe 6f51 9dbe e6ed c33e e284 e63e
000000c0: 929e 543d 00f2 69be 8a45 2fbe 709d 22bf
000000d0: 8dd3 493e 48a8 91bf 41c3 cabe af02 aebe
000000e0: a281 a0bb 0bd3 ecbe 61c6 2c3e 334a e33d
000000f0: 7d6e de3e cbfe a5bd 22d7 1a3f 1120 2bbf
00000100: 34d7 633e 5835 6fbe 2642 9a3e a6ab 7abd
00000110: 8bca 0d3e f454 f1be 3a29 62bc 0ede 0d3f
00000120: 2b83 97bd 23b5 a6bd f0c4 8d3e 6cd8 82bf
00000130: 3121 ddbe e3b4 df3e 7ae8 ae3e ff31 d73e
00000140: 8a49 1d3e 17b5 b2be a30b d4bd faa3 243e
00000150: ec63 f53e 8352 583d 87db 3abf b861 d93e
00000160: cd14 8cbe df3a b83e 5532 053f 9c55 803e
00000170: 8a63 483e 7ed9 80be fe4f d7bd 3d5c 6e3e
00000180: 6765 c7be 5086 06bf ae65 8ebe 5209 773e
00000190: 7602 5abf fa36 5d3f d9ce d73d c0bc 26bf
000001a0: bbf6 30bf 56d7 d3be 3292 f1bd e760 91bc
000001b0: 4b7f a13e 6af6 e63e 2c8d 003f 33e8 d5bd
000001c0: 7143 c3be ac02 e63e 3104 633e eb5d 77bb
000001d0: 35d8 37be 6edb 86bd 6d4e 313e cb94 0a3e
000001e0: 72d1 9abd 889a 3a3d 9682 81be 8b3f 9dbd
000001f0: a269 03bf 234e cebe bfa5 49bc a99f ce3d
00000200: 2881 4e3e 8b59 07bf 442b 3e3e 3ada 9e3e
00000210: 58eb 8bbe c703 00bf 07a6 bfbd cfe1 b8be
00000220: b4dc d13e 6100 8bbe d9df ac3e a89e 603e
00000230: aa0b 57be 2de7 1c3f 6a5c dcbe 62ca 4c3e
00000240: eb8f 8cbe 460f b63d 0b22 ca3d 0d69 7e3f
00000250: 0645 703d bfff 19be d05d 05bf eee7 73bf
00000260: ca7f b8be 43a8 1f3d c11f d13c 4535 f43e
00000270: ff7c ef3e 9d8a a13d d6a6 473e 8306 b0be
00000280: efa6 013e b93b 313f f9fb 3cbe dbee 323f
00000290: f21c 273d 27b5 0b3f 7221 973c 540d 57be
000002a0: 1263 e8bd ea77 1ebe 0280 af3e b3dd d13e
000002b0: b7cb 1dbd 91d5 893f 8584 0b3f 8361 1e3e
000002c0: 100d aabe d4fd ad3e c8e9 e2be ceb7 083e
000002d0: 1255 993d 0a48 e23e bbdb e33e 76c2 19bf
000002e0: 32fe a63e 97a8 4fbe 0ace 85be 5767 a5bd
000002f0: d322 c73d 07a6 4e3c 67f2 0f3f df40 f1be
00000300: 91b9 23be 6a24 0abe 66d3 adbe a82b 0ebe
00000310: 131d 12bf 1a4b 683c 954f 703d 8a2e 1f3f
00000320: 0241 1cbf 21b8 153e 5c08 a53d c770 abbe
00000330: 7b8c cdbe b0e5 613d 6449 bc3d 3c2e fdbe
00000340: 812c cb3e f0af 00bf f6f3 023e f3ca 7abe
00000350: 9bc4 c83e 51a0 0b3f b09e 84be 338d 833e
00000360: 5ca7 333f 84aa 453f 4c48 e6bc 62bf 35bf
00000370: 30f6 053e c518 e4bd 6299 5d3e 070c 0c3f
00000380: acae 633e 57cb 14bf e28d 1dbe a30d 36bf
00000390: 7906 f03e 1ff8 543f d9ce ecbd 505f a9be
000003a0: 768b 173f 7a24 59be 8c46 f33e 9f87 193f
000003b0: 956f a63d 0b2d ae3e 693d 61bf bc21 17be
000003c0: af2e 883f ebb9 393d 0ad2 723e b7c9 b03e
000003d0: 60b4 cf3e 3c23 a93e 80d8 8fbe a458 15bf
000003e0: 3601 6dbc d188 013f 8230 923e e8fa 23bd
000003f0: 74d0 4cbe ab6b ca3b a11a 38be 64a1 93be
-0.02585331 0.54175353 0.39141256 -0.10959408 -0.16557091 0.7607844 -0.44849154 -0.010949245
-0.21982211 0.42193633 -0.4918459 -0.2230364 -0.7021525 0.15550384 -0.20413662 -0.6100407
0.26358822 -0.13990268 0.08684319 0.0109150065 0.33648938 -0.3115513 0.05068334 -0.90958947
-0.5224126 0.8015521 0.3898106 0.104177415 -0.094271325 0.6201666 -0.022761708 0.15841998
-0.14384812 0.026767787 -0.5613661 0.6791947 0.11331465 0.09932101 -0.30737942 -0.15990417
-0.28789622 -0.019741368 -0.4539508 -0.09202628 -0.4986073 -0.3072619 0.3826744 0.45023257
0.051909037 -0.22846222 -0.17116371 -0.6352148 0.19709606 -1.137948 -0.39602092 -0.33986422
-0.004898266 -0.46254763 0.1687255 0.11098137 0.4344367 -0.081052385 0.60484517 -0.66845804
0.22250062 -0.23360193 0.30128592 -0.061198853 0.13846795 -0.47135127 -0.0138037745 0.55416954
-0.07398065 -0.08140018 0.27689314 -1.0222297 -0.43189386 0.43692693 0.3416174 0.42030331
0.15360084 -0.34903786 -0.10353782 0.16078177 0.47927797 0.052813064 -0.7299122 0.42457366
-0.2735962 0.35982415 0.52029926 0.25065315 0.19569221 -0.25165933 -0.10513304 0.23277374
-0.3894455 -0.52548695 -0.2781195 0.24124649 -0.85160005 0.8641201 0.105375 -0.6513176
-0.6912648 -0.41375226 -0.11795463 -0.017746402 0.3154243 0.45109874 0.5021541 -0.10444679
-0.3813739 0.44923913 0.22169568 -0.0037745188 -0.1795357 -0.06584822 0.17315073 0.13533323
-0.0755948 0.04555753 -0.25294942 -0.076781355 -0.5133306 -0.4029399 -0.012307583 0.100890465
0.20166457 -0.52871007 0.18571192 0.3102587 -0.2732799 -0.50005764 -0.09357839 -0.36109778
0.40988696 -0.27148727 0.33764532 0.21935523 -0.21000543 0.61290246 -0.43039256 0.19999078
-0.2745355 0.08889632 0.098697744 0.99379045 0.058659576 -0.15038966 -0.5209627 -0.9527577
-0.36034995 0.038978826 0.025527837 0.4769689 0.46775052 0.078877665 0.19497237 -0.34379968
0.12661336 0.69231755 -0.18455495 0.69895715 0.04079909 0.5457329 0.018448565 -0.21001178
-0.11347021 -0.15475431 0.3427735 0.40989456 -0.038524356 1.07683 0.54499084 0.15466885
-0.3321309 0.33982718 -0.44318986 0.13351366 0.07486929 0.44195586 0.4450358 -0.6006235
0.3261581 -0.20279156 -0.26133758 -0.08076351 0.09723439 0.012612826 0.5622925 -0.47119805
-0.15988757 -0.13490453 -0.33950347 -0.13883841 -0.57075614 0.014178062 0.058669645 0.6218039
-0.61036694 0.14621021 0.08058235 -0.3348448 -0.4014624 0.055150688 0.09193686 -0.49449337
0.3968239 -0.5026846 0.12788376 -0.24491481 0.39212498 0.545415 -0.2590232 0.25693664
0.70177245 0.7721331 -0.028110646 -0.7099515 0.13082194 -0.11137537 0.21640542 0.5470585
0.22234601 -0.5812277 -0.15386155 -0.7111456 0.46879938 0.831911 -0.115628906 -0.3308053
0.59197176 -0.21205321 0.4751476 0.59972566 0.08126751 0.3401874 -0.8798433 -0.14758962
1.0639247 0.04534332 0.23712936 0.34528896 0.40567303 0.33034694 -0.28094864 -0.5833838
-0.014465621 0.5059939 0.28552634 -0.040034205 -0.20001394 0.006177386 -0.17978908 -0.2883407

fc2.0.bias f4 [84]
00000000: 6815 5d3d 26a2 c73d ef03 2b3c a3b6 bf3d
00000010: ee43 92bc 359b 5dbc b53e 213c 46d6 4cbd
00000020: 4bb8 6c3d ff7c a4bd b3ba c7bb d2ae 9a3c
00000030: f508 a3bd acdb 72bc 3bc0 47bd b8fe 5dbd
00000040: ec4c 91bd 225f aa3c 805b b9bd 186c 0c3d
00000050: 1212 f03d 6ad6 08bc 0e1e 8f3d 2987 45bc
00000060: c73c 523d 3e0d 073d 65b5 1a3d 803c 66bd
00000070: cf50 2a3d c3ba d73c e52c d2bd 5386 10bd
00000080: b408 68bd b68c 9bbc 4ac6 903d 6971 e8bd
00000090: b44a 02bd 5aa4 cb3d 38ac b2bd af86 8fbd
000000a0: 451b 8f3d f053 72bd c084 96bc 9b12 4bbd
000000b0: ba09 24bd c8c4 643d 0c1b 1f3d c023 633c
000000c0: 9e76 f93c 7013 96bd f8f8 f03c cd08 09bd
000000d0: 9012 39bd 1eaf 78bd 4a8f febd 4bd2 b93c
000000e0: 9c6a abbd f83f 27bd 4cc2 da3c 971a d33c
000000f0: b446 513d 1db6 413d 8103 9abd 745a 5b3d
00000100: a9f7 4bbc 9b68 d63d efe1 c2bd 52e8 74bb
00000110: a7bb 16bd c221 a23d f97a 2f3d e29c 203c
00000120: c00b 76bd 38a9 0fbd cf62 0d3e 64e8 28b9
00000130: 301a bc3c cc6f 8c3d 9139 7b3d 70a3 163d
00000140: 368a c2bc d328 8e3c d208 5a3d dfd3 77bc
0.053975493 0.09747724 0.01043795 0.09361007 -0.017854657 -0.013525774 0.009841611 -0.050009035
0.057792943 -0.080316536 -0.0060952543 0.018882189 -0.07960693 -0.014822882 -0.04876731 -0.054197997
-0.0709475 0.020797316 -0.09050655 0.034282774 0.11722197 -0.008351902 0.06988154 -0.0120561505
0.051327493 0.032971613 0.037770648 -0.05621004 0.04158097 0.026334172 -0.10262469 -0.03528435
-0.056648925 -0.018987995 0.07069071 -0.11349756 -0.031809524 0.09943457 -0.08724254 -0.07008111
0.06987623 -0.05916208 -0.018373847 -0.04957829 -0.04004834 0.055851728 0.038844153 0.013863504
0.030452069 -0.07327926 0.029415593 -0.03345566 -0.04518372 -0.06071388 -0.12429674 0.022683283
-0.083699435 -0.04083249 0.026703976 0.025769515 0.05109282 0.047292817 -0.075201996 0.05355306
-0.0124491835 0.10469171 -0.0951575 -0.003736992 -0.036800053 0.07916595 0.042841885 0.009803029
-0.0600698 -0.03507349 0.13807224 -0.00016108301 0.022961706 0.06857261 0.061334196 0.03677696
-0.023747545 0.01735345 0.053231068 -0.015126198

fc3.weight f4 [10, 84]
00000000: dc9d 963e 73c3 f63d fb44 ae3e ba48 77bf
00000010: 8353 0dbf bcf8 10bd 7677 64bf 432f 37bf
00000020: 3437 4cbe de0d 8f3e ad52 953c 779e cabe
00000030: 5096 ce3e ed92 97bf a12c 74bf 5c32 2abf
00000040: 0c93 863e 0acc 493e d2b0 fdbe 945a 193e
00000050: 121f e5bc 1834 39bf f768 a13e 27d9 4f3e
00000060: 4e93 35bf cbb2 93bf 2ea8 8ebe a16b 72bf
00000070: f3c7 08bf 964a 9f3e 49a2 e33e c820 74bf
00000080: 856d b43e 5e3d ef3e 94cf a5bf 41bb 57bf
00000090: 62fa e73e d56e 45bf 43cf a33e 9feb 44be
000000a0: 491a a5bf d5cd ee3e a0f0 b73e c9fc ac3e
000000b0: d63f 80bf 4fe2 6cbf 6444 2dbf 20fc 323e
000000c0: 2c58 2c3f d2e4 6f3e ed9a 56be a74e 75be
000000d0: 3d53 113d f9a5 40bf 00f2 8fbe 1129 403f
000000e0: 2d91 1dbf 6f53 8d3e 36d8 23bf e018 22bf
000000f0: 3551 9bbe 7ff5 d3be 3339 263f 296b 18bf
00000100: fa18 193d c76a 56bf efa0 8ebf 04d1 ef3e
00000110: d7c1 fa3e 1921 eabb 97a2 723e d751 2d3f
00000120: e854 fd3c 67df b23e de09 c43e 1c5b 253e
00000130: aaff 0a3f 3d5a c4be 763f c73c a0ef d53e
00000140: 45c5 a83e 70ba 86bf 973a 7abf c0c1 91bf
00000150: 8b0c 69bf 4397 af3e 23f8 1ebf 7eba 21bf
00000160: 8c65 813e 34a9 f13e e2a3 ea3e a3b7 4abf
00000170: bec3 f93e f439 41bf c0e9 01bf 038a 053f
00000180: b1e2 853e 6550 a03e e98c b93e feb5 29be
00000190: a6be 0cbf 565c 003e eea6 69be 0af2 b63d
000001a0: 4084 d33e 39bc cd3e 655a 9f3e e858 2cbf
000001b0: 46b4 b43e de44 b83e 96cb e43e e640 a43e
000001c0: 0252 5d3e 317d 38bf 8dc1 753e 79c8 49bf
000001d0: 59b3 dcbe d67d 6f3e a983 1d3e 75dd c63d
000001e0: f549 22bf 2409 323e 88de 8cbf 3829 0e3f
000001f0: 9afb f9be 6d5e 4d3e 06a6 5fbf 9fae 2c3d
00000200: 4f9d edbe fdf1 3fbd 10e5 be3e fd8f 2cbf
00000210: f0a8 e63e 2635 213f e9fc 53bf b22b fa3e
00000220: 290c a8bf 18bf 853e b4bc 9dbe 0186 cd3d
00000230: ce14 e33e 4a58 0dbf 33b5 52bf 2685 243f
00000240: 93b4 afbe b867 6abf 6667 13bf 42b3 f43e
00000250: a000 e73e 1adf c33e 88b6 2abf 85c8 08bf
00000260: 9a4f bcbe 9448 29bf dc79 30bf fd40 cbbe
00000270: a5d8 b9bf fb39 bb3e 4b4d 8a3e a5b4 3abf
00000280: 109c 27bf 077f 2f3f 3a77 51bf 4cee e6bd
00000290: 3c0e e8be 86e0 ac3d 343f b5bc e389 d5bb
000002a0: 2b7c 84bf 2e7b 353e b9d6 473e 6830 06bf
000002b0: b87a 133f ecb7 873e 0713 60bf fc60 1ebf
000002c0: 4778 3a3e 30e3 433e 807b 0a3f 4680 08bf
000002d0: 7b88 16bf bb7c 09bd fb59 b73e 6aed 6fbf
000002e0: d262 1d3f 599b 0e3e d084 c43e 7c59 863e
000002f0: 9c5b f9be 4b6e 1e3f 9176 c73e 27b8 17bf
00000300: b05c 5a3e 75f8 bc3d 53a2 51bf 1f04 d53e
00000310: cf83 66be 61d8 37bf f4f8 66bd 64ba 6cbe
00000320: fea7 7bbf 54b4 84be 8656 6dbf c949 de3e
00000330: 63fe 9c3e ac54 583e 8b6d 6b3f d8f2 8ebd
00000340: 9768 cdbe f35a af3e bf2f 5c3e 655a 6bbf
00000350: ce9b 973f aa90 acbd 4502 4bbf f511 0abf
00000360: a793 163f 9ae5 4abe a9d2 a8be 3c4a 16bf
00000370: 1fc9 20be 6ba0 073f 4972 04bf 4f6b 043f
00000380: 391d 2ebe 27cb 913e a761 44bf 7cbc 4b3e
00000390: 3ea7 0ebe be1e d33e e6b1 493e 9cdf 9bbf
000003a0: 570b d9be df2f dcbd 0f5f c43e 931a 833e
000003b0: 3e51 2a3f 6d12 4d3e 5390 68be 3f1b 203f
000003c0: efa4 1b3e 4495 fa3e 88df 98bf ec1c a3bf
000003d0: 9ab0 773e 70fc 59bf 6c8d 8dbf e1dc 53bf
000003e0: cca5 bdbe 74f0 b73e 19ef 563d 086d 2fbf
000003f0: c643 00bf dc42 16bd 0a80 e43e 71ec 7bbd
0.29417312 0.12048998 0.34037003 -0.96595347 -0.55205554 -0.03539346 -0.8924478 -0.7155649
-0.19942933 0.27940267 0.0182279 -0.39574024 0.40349054 -1.1841713 -0.953806 -0.6648309
0.26284063 0.19706741 -0.49548966 0.14975959 -0.027968917 -0.72345114 0.31525394 0.20297681
-0.70927894 -1.1538938 -0.27862686 -0.9469548 -0.534301 0.31111592 0.4445975 -0.9536252
0.35239807 0.46726507 -1.2953973 -0.842701 0.45308214 -0.7712224 0.31994066 -0.19230507
-1.2898647 0.46641412 0.3592577 0.3378661 -1.0019481 -0.9253282 -0.6768248 0.1747899
0.6732204 0.23427132 -0.20957537 -0.23955785 0.035479773 -0.75253254 -0.2811432 0.7506266
-0.61549646 0.27602717 -0.64001787 -0.63319206 -0.30335394 -0.41398236 0.6493103 -0.59538513
0.037377335 -0.8375668 -1.1142863 0.46839154 0.48976013 -0.007145059 0.23694836 0.67703
0.030924276 0.34936067 0.38288778 0.16148037 0.5429636 -0.38350096 0.024322253 0.41784382
0.32963005 -1.0525646 -0.9774565 -1.1387253 -0.91034764 0.3429509 -0.62097377 -0.6317519
0.25272787 0.47199404 0.45828158 -0.7918646 0.48782152 -0.75479054 -0.507473 0.52163714
0.26149514 0.31311336 0.36240318 -0.16573331 -0.54978406 0.12535223 -0.22817585 0.08932884
0.41311836 0.40182665 0.31123653 -0.6732316 0.35293788 0.35990041 0.44686574 0.32080764
0.21613315 -0.72066027 0.23999615 -0.7882152 -0.4310558 0.23387846 0.15382256 0.09710208
-0.633941 0.173863 -1.1005411 0.55531645 -0.4882477 0.20055552 -0.87362707 0.04215872
-0.4640908 -0.046861637 0.37284136 -0.6740721 0.45050764 0.62971723 -0.82807785 0.48861462
-1.3128711 0.26122355 -0.30808032 0.10035325 0.4435181 -0.55212843 -0.8230774 0.6426567
-0.34317455 -0.9156451 -0.5757965 0.47793013 0.45117664 0.3825615 -0.6668477 -0.5343097
-0.3677948 -0.6612637 -0.6893594 -0.3969802 -1.451924 0.36567673 0.27012095 -0.7293189
-0.6547251 0.68553203 -0.8182255 -0.1127592 -0.4532336 0.08441262 -0.022124864 -0.0065166815
-1.0350393 0.1772277 0.19515504 -0.5241761 0.5760913 0.2650751 -0.87529033 -0.61866736
0.18209945 0.19129634 0.54094696 -0.5332073 -0.58802 -0.033566218 0.35810837 -0.9372164
0.6147891 0.13926448 0.38382578 0.26240146 -0.48702705 0.61887044 0.38957646 -0.5926537
0.2132442 0.09227077 -0.8188831 0.41604707 -0.22511218 -0.71814543 -0.056389764 -0.23117977
-0.9830321 -0.2591883 -0.9271015 0.4341567 0.30662832 0.2112605 0.91964024 -0.069799125
-0.40118858 0.34249076 0.21502589 -0.91934806 1.1844423 -0.0842603 -0.7930034 -0.5393365
0.5881905 -0.19814149 -0.3297322 -0.5870702 -0.15701722 0.52979153 -0.51736885 0.5172624
-0.17003335 0.28475305 -0.76711506 0.1989612 -0.13930985 0.41234392 0.19696769 -1.2177615
-0.42391464 -0.10751318 0.38353774 0.25606212 0.66530216 0.2002656 -0.22711305 0.62541574
0.15199636 0.48942006 -1.1943216 -1.2743201 0.24188462 -0.85150814 -1.1058784 -0.8275891
-0.37040555 0.3592564 0.052474115 -0.68525743 -0.50103414 -0.036684856 0.44628936 -0.061504785

fc3.bias f4 [10]
00000000: e741 8bbd 287d 80bc 8e08 e5bc 6920 e23b
00000010: 1ee8 96bd 6ed4 09be 4a0d c03d c937 c83d
00000020: cad3 253d fdbe 9b3d
-0.06799679 -0.01568468 -0.02795818 0.0069008362 -0.073684916 -0.13459942 0.09377535 0.09776265
0.04048518 0.076047875
