6_ConvolutionalNeuralNetwork/LeNet/model2.pth (torch, 250410 bytes, 10 tensors)

conv1.0.weight f4 [6, 1, 5, 5]
000000 9c 34 a9 be 85 f5 59 3e f7 74 33 3e a4 53 d9 3e
       -0.3304795 0.21285065 0.17525087 0.42446625
000010 b4 35 35 3d f9 17 5d 3e 51 6f 2f 3f eb bc 34 3f
       0.04424067 0.21591176 0.6852923 0.70600766
000020 99 07 30 3f 47 05 9a 3e 16 25 8f bd bf 05 03 3f
       0.68761593 0.3008215 -0.069894955 0.5118064
000030 a9 f6 16 3f 08 59 10 3f d0 32 f9 bd 65 00 75 be
       0.58970124 0.5638585 -0.12167895 -0.23925932
000040 d9 73 b9 3e 04 19 1a 3d b2 68 86 3e f7 71 1d bf
       0.36221197 0.037621513 0.2625175 -0.6150202
000050 fb 83 09 bf b2 f0 fe be be 18 23 bf bd f9 bb be
       -0.5371701 -0.4979301 -0.6370963 -0.36713973
000060 dd 32 6f bf 51 9a 31 bf 4b 8e b8 be 0d 1b 88 bd
       -0.93436986 -0.69376093 -0.3604606 -0.066457845
000070 f9 52 0c bd 39 ad 88 3e ae c4 40 3d 27 1a ba 3e
       -0.034258816 0.26694658 0.04706257 0.36348078
000080 fa ee db 3e e7 3d f8 3e f6 c1 f5 3e 26 01 f9 3d
       0.42955762 0.48484728 0.47999543 0.12158422
000090 c2 2e 5a 3f a1 43 9b 3f 0c 26 1f 3f 0f 2c ff 3e
       0.85227597 1.2130014 0.6216743 0.49838302
0000a0 f8 e8 6f be 2b 8b f1 3e 1d 49 e0 3d 5f 06 70 3e
       -0.23428714 0.4717649 0.10951445 0.2343993
0000b0 c5 e6 32 be 86 77 69 bf 88 61 f2 be 0f 1f eb be
       -0.17470844 -0.91198003 -0.47340035 -0.45922133
0000c0 4d 60 f5 be 32 ee 32 bf 81 bd df be 33 e9 c8 bc
       -0.47925034 -0.6989471 -0.43699268 -0.02452526
0000d0 5a ea 0d bd c0 b4 c6 3d 7b 61 88 be 3c 29 f0 3e
       -0.034647323 0.09702444 -0.26636872 0.4690646
0000e0 48 79 2e 3f d7 9d 5a 3f 83 6e 5c 3f 42 7e a7 bd
       0.6815381 0.85397094 0.8610613 -0.08178379
0000f0 74 a2 d6 3e 80 7a 4b 3f b7 48 5d 3f 9a 85 02 3f
       0.41920817 0.79483795 0.8643908 0.5098511
000100 3f 26 74 be 64 ba 27 be 58 7b 1c 3f 0f 05 a0 3e
       -0.23842715 -0.16379696 0.6112571 0.3125386
000110 f0 86 78 3e a3 4e bd be 19 d8 cf be 6f ac 35 be
       0.24270225 -0.36974058 -0.40594557 -0.1774156
000120 a1 43 e4 be b6 b7 0d bf c5 0a 72 bf d5 f4 18 3f
       -0.44582847 -0.55358446 -0.94547683 0.59748584
000130 0d 4e d7 3e 91 a6 08 3f b7 25 f5 3e 0c b4 f6 3e
       0.42051736 0.5337916 0.47880337 0.4818424
000140 ef bc 6f 3e 81 c5 00 3c 6b dc 90 be 4f 44 60 be
       0.23411916 0.007859589 -0.28293166 -0.21901058
000150 f0 d9 94 be e2 8d dc be 56 12 8d bf c8 0c 41 bf
       -0.29072523 -0.43076998 -1.1021221 -0.7541013
000160 c7 4b 64 bf f5 7b 40 bf 45 55 2d bf 9a 8a 24 bf
       -0.8917813 -0.75189143 -0.67708236 -0.6427399
000170 23 8a 95 be 93 99 99 bd f6 9b eb be e7 b0 1f be
       -0.29206952 -0.07499995 -0.46017426 -0.15594827
000180 d1 5d 59 3e be f9 d8 3e 42 94 62 3e c9 0a a6 bd
       0.21227194 0.42378038 0.22126868 -0.08107526
000190 61 93 26 3f b6 fb 5a 3f 55 b7 bb 3e 01 a9 b2 3e
       0.6506863 0.8554033 0.3666331 0.34894565
0001a0 cf 1f be 3e f6 8d 8b 3e 6b bb a9 be 01 7a d0 be
       0.37133643 0.27256745 -0.331508 -0.40718082
0001b0 5b 87 22 bf 4d 6c ad be 2e e9 dd bd ee f2 fd be
       -0.63487786 -0.3387169 -0.10835491 -0.49599403
0001c0 4a f8 0e bf 67 b4 ef be 7a 6a c1 bd f9 3a bd 3e
       -0.5584761 -0.46817324 -0.09444137 0.36959055
0001d0 8e 49 4d be 91 fd 4f bf ad 53 b6 be bd be c2 bd
       -0.2004759 -0.81246287 -0.35610715 -0.09509037
0001e0 3f 86 1f 3f be 4d 16 3e 0f 47 b0 be aa a9 fa 3b
       0.6231422 0.14678094 -0.34429213 0.00764962
0001f0 a5 3a cf 3e 77 3b 87 3e cc 9c d4 3e 23 29 39 bd
       0.4047443 0.26412556 0.41525877 -0.045205247
000200 5a 39 1c bf c1 4a 0b bf a6 13 2f 3e c7 67 0f bd
       -0.6102501 -0.5441094 0.17097339 -0.03501108
000210 b3 f6 0b bf db be 6f bf b3 b5 10 bd b8 56 f7 3c
       -0.5467331 -0.936506 -0.035329532 0.030192718
000220 60 7f 31 be d6 8f 31 bf be 96 10 bf 5a ee eb 3e
       -0.17333746 -0.693601 -0.56480014 0.46080285
000230 9f a9 bb 3e d8 ed c0 be 81 7f 67 bf 4c 09 35 be
       0.36652848 -0.3768146 -0.9042893 -0.17679328
000240 5d 0f 0c bd 29 32 0d 3f 1e 49 dc be 39 4c 85 bf
       -0.03419434 0.55154663 -0.43024534 -1.0413886
000250 49 59 00 bf fd 92 83 3e
       -0.5013624 0.2569808

conv1.0.bias f4 [6]
000000 a3 2d 12 bf c9 db 2b bf d4 85 1e bf 31 c8 46 3e
       -0.57100886 -0.6713224 -0.61922956 0.19412304
000010 8b c7 84 3e f5 71 38 be
       0.2593349 -0.18012221

conv2.0.weight f4 [16, 6, 5, 5]
000000 23 97 82 3e 51 15 95 3e 1b 26 b2 3e 24 74 22 3d
       0.25505933 0.29117826 0.34794697 0.03966154
000010 33 63 6b be f3 81 9d 3e f2 45 f2 3e 0f 72 ad 3d
       -0.2298706 0.30763206 0.4731899 0.084690206
000020 40 01 51 be 5b 6b ac be af d1 b7 3e 48 12 70 3e
       -0.20410633 -0.33675656 0.35902163 0.23444474
000030 ef 20 92 be 7a e5 10 bf 49 67 6a bd 4f 6a 80 3e
       -0.2854075 -0.56600153 -0.057227407 0.25081107
000040 3d 5c 84 3d f7 bd 2e bf 2a 3f a4 be 95 a1 cd 3e
       0.064629056 -0.68258613 -0.3207944 0.4016234
000050 3f 74 bf 3d 55 ff 4f be 06 7e 10 bf 4d 69 a7 bd
       0.09348344 -0.20312245 -0.56442297 -0.081743814
000060 d8 93 a2 3e c8 50 63 3e 61 ed a6 3e 96 af 93 3e
       0.3175342 0.22198784 0.3260298 0.288449
000070 f0 e8 87 bc 96 93 fe bd fa 92 2d 3e 18 34 93 3e
       -0.016590565 -0.124304935 0.16950598 0.28750682
000080 43 d4 85 3d 12 58 90 be a9 aa e0 bd 3c 3a 94 3e
       0.06534626 -0.28192192 -0.10970051 0.2895068
000090 c7 96 7e 3d ae c1 e9 be 53 21 ae be 17 da 67 3e
       0.06215551 -0.45655578 -0.340098 0.22641788
0000a0 a8 c2 ac 3d 44 7e 52 bd 56 a9 06 bf 01 09 1d bd
       0.08435565 -0.051389948 -0.52602136 -0.038338665
0000b0 1f 9e d5 3e d4 f4 b9 3d 5f 42 24 be 5c 48 a8 be
       0.417222 0.090799004 -0.16040944 -0.32867706
0000c0 b2 86 d5 3d f5 17 a4 3e eb 35 98 3e cf 59 98 3e
       0.10426082 0.32049528 0.29728636 0.2975602
0000d0 1c 41 b6 3e 4d 08 bd 3d 73 a2 0a be 67 56 88 3e
       0.3559655 0.09230099 -0.13538532 0.2662842
0000e0 64 5d d4 3e a6 72 31 3e 04 47 63 be 42 ca 0b be
       0.414775 0.17328891 -0.22195059 -0.13651374
0000f0 27 ce 49 3e 80 a1 cb 3d db 21 b9 be b4 bc 0b bf
       0.19707547 0.09942913 -0.36158642 -0.54584813
000100 ac 92 22 3e 7a 14 6a 3e ee b4 af 3d 36 03 ee be
       0.15876263 0.22859374 0.085794315 -0.46486825
000110 de 45 a5 be 7c 70 9c 3e 63 94 b2 3d be 2f 97 ba
       -0.32279867 0.3055457 0.08719709 -0.0011534614
000120 e3 1c e0 be 38 cc 4b bc 03 cf c9 3e f1 f5 97 be
       -0.4377204 -0.012438826 0.3941575 -0.29679826
000130 65 57 a1 be c3 46 b4 be 4e a6 b3 3c 09 7e 95 3d
       -0.3151199 -0.35210237 0.021929886 0.0729943
000140 f2 2d 89 be fb 35 3e be 33 ce b5 3d 9d 0a 71 3e
       -0.26792866 -0.1857528 0.0887722 0.23539205
000150 42 b6 07 3d 25 20 6d be 49 24 91 3c 09 9b 52 3e
       0.0331328 -0.23156793 0.017717497 0.20566954
000160 80 13 93 3d 46 6e e0 be 02 7e 4b be f5 32 94 bd
       0.07181454 -0.43834132 -0.19872287 -0.07236282
000170 21 88 90 3d 1e 3d 50 be 64 3c 16 bf eb f0 8f be
       0.070572145 -0.20335814 -0.586859 -0.28113493
000180 79 56 d6 bc cb aa ae bd 03 5a d6 be 3b cf 39 bf
       -0.02616428 -0.0852867 -0.41865548 -0.72581834
000190 bd fb 8a be 85 94 a0 be b0 25 41 be 30 1c 66 bd
       -0.27145186 -0.3136331 -0.18862033 -0.056179225
0001a0 c8 95 05 bd 08 68 39 be 4d 62 0c be 52 22 05 3e
       -0.032613546 -0.18106091 -0.13709374 0.13001373
0001b0 ca 8f 1d 3e 5c b2 04 be 24 9f 3b be 4f 6a 25 bd
       0.15386882 -0.12958664 -0.18322426 -0.040384587
0001c0 59 7d e7 3e a8 70 51 3e 6c a0 a2 be f5 f4 f7 bd
       0.4521282 0.20453131 -0.31763017 -0.12107269
0001d0 78 f4 2e 3e d0 93 c0 3e 00 1c 9d bc 22 c5 98 be
       0.17085445 0.37612772 -0.01917839 -0.298379
0001e0 18 33 05 be 7b 3f 13 3e 6f a9 82 3e da fc 35 be
       -0.13007772 0.14379685 0.25519893 -0.17772236
0001f0 41 cc 92 be c0 bd 73 be 32 0c a4 be a9 80 8c be
       -0.28671458 -0.23802853 -0.32040554 -0.2744191
000200 39 87 69 bd ae ff 10 be 8d 8a 4d be 72 8b 1a be
       -0.057013724 -0.14160034 -0.20072384 -0.15092257
000210 ce c9 28 3e e6 25 29 3e 4f 87 5b be b8 d3 06 be
       0.16483232 0.16518363 -0.21438335 -0.13166702
000220 9e 4b 3c 3d 88 34 0b 3f 81 d7 4a 3e b6 61 25 be
       0.04597055 0.5437703 0.1980877 -0.16150555
000230 5e 9c 4b 3b c6 ca 8f 3e 41 a5 04 3f 0c 8d a7 3d
       0.0031068544 0.2808439 0.5181466 0.081811994
000240 27 fa 4d be fa ba 51 bd a2 c8 78 3e 9f 6a 9c 3e
       -0.20114957 -0.051203705 0.24295285 0.30550095
000250 f7 ec 3b bd 6b 96 86 bc 6a c8 ed 3d 51 b9 96 3d
       -0.045880284 -0.016429147 0.116104916 0.07359565
000260 c8 2d d1 bd d0 ed 06 be 54 9a 31 bd 2d 0e b1 3e
       -0.1021381 -0.13176656 -0.04336007 0.34581128
000270 ee b6 5e 3e 2f b6 9a 3e b4 62 74 3e 46 89 8f 3e
       0.2174947 0.3021712 0.23865777 0.2803442
000280 b8 d2 9f 3c fb a3 b8 be 17 37 f6 be ae 4d a0 be
       0.019509658 -0.36062607 -0.48088905 -0.31309265
000290 eb 0b a4 3d b4 cd 09 bf 34 58 67 bf ba 37 5f bf
       0.08010086 -0.53829503 -0.9036896 -0.87194407
0002a0 bb f3 0b bf 3c 56 8a be 95 54 21 bd aa a5 78 3e
       -0.5466878 -0.27018917 -0.039387304 0.24281946
0002b0 68 57 96 3d f8 76 e0 bd 3d 7a 90 bd bd 1f 01 3d
       0.0734089 -0.109601915 -0.07054565 0.03152441
0002c0 fb ba 5b bc c9 28 60 3c 13 a4 84 bb 91 52 39 3d
       -0.013411279 0.013681599 -0.0040478795 0.045244757
0002d0 5d b0 05 3e 45 28 ce 3d 8d 94 bd 3d 57 ae 2d 3e
       0.13055559 0.100662746 0.092568494 0.16961037
0002e0 68 00 a0 3e de 76 6c be 64 c4 0a bf 30 b9 0f bf
       0.3125031 -0.23092219 -0.5420592 -0.5614195
0002f0 99 a4 5e be 90 d7 0c 3d 2e cd 03 bf d9 1f 0d bf
       -0.21742477 0.034385264 -0.51484954 -0.5512672
000300 95 9e eb be 1c 51 f9 be 5e a2 8e be fa b4 5e 3e
       -0.46019426 -0.48694694 -0.2785825 0.21748725
000310 75 50 dd 3e e0 1f 73 3e b8 e8 b9 bd 37 20 db bd
       0.43225446 0.23742628 -0.09077591 -0.10699504
000320 06 86 2d 3e c1 bb 85 3d d0 90 14 3d 47 07 d7 bc
       0.16945657 0.06529952 0.036270916 -0.026248587
000330 0b f9 53 bc 16 02 8e 3e 36 29 1b 3e 3d 3c b5 3d
       -0.012937794 0.27735966 0.1515244 0.0884938
000340 fe 57 f9 3d e5 ab 61 3e 9b 77 bb bd b7 92 7e be
       0.12174986 0.22038229 -0.09153672 -0.24860655
000350 85 cc 01 bf 3a 4e ad be e2 ec 83 bd 4d 5d 06 bf
       -0.507027 -0.33848745 -0.06441666 -0.52486116
000360 14 c0 0a bf 67 86 07 bf d4 02 09 bf 03 59 bf be
       -0.5419934 -0.52939457 -0.5351994 -0.37372598
000370 37 ac 48 3d 7d 48 79 3e 97 aa 63 3e f7 ad b5 bd
       0.048992362 0.24344058 0.22233044 -0.08871072
000380 65 8b 0e be 07 b7 55 be 13 f0 59 be d0 48 5d be
       -0.13920362 -0.208706 -0.21282987 -0.21609807
000390 83 49 60 be e5 38 39 be 7e ab 52 bd 0c ad d2 3c
       -0.21903042 -0.1808811 -0.05143308 0.02571728
0003a0 ea 77 b1 3d 93 14 40 bd f9 62 16 be 39 a0 f6 3e
       0.0866545 -0.04689462 -0.14686193 0.48169115
0003b0 dc 8b 35 3f b8 7c 33 3f 6f 13 2b 3f ef 38 7e 3e
       0.70916533 0.7011218 0.6682653 0.24826406
0003c0 38 7e ad 3e 0a a8 99 3e e1 f8 bd 3e 2a 1b 03 3f
       0.3388536 0.30011016 0.37103942 0.51213324
0003d0 36 03 e9 3e 7d f2 2a be 1e 0c b4 be 3b ef c2 be
       0.45510262 -0.16694064 -0.35165495 -0.38073143
0003e0 55 0b 52 bd b3 09 2b 3e e2 48 ca bd 86 1d 84 be
       -0.05128034 0.16702919 -0.098771825 -0.25803775
0003f0 2b be 6b be 54 dd 80 be df 24 9c be d0 bf 45 be
       -0.23021762 -0.2516886 -0.3049688 -0.19311452

conv2.0.bias f4 [16]
000000 3f bd a3 bd 27 13 dc 3c 6d c2 85 bc 46 5e 8b 3d
       -0.0799508 0.026864601 -0.016328061 0.068050906
000010 24 17 56 bd 65 46 4e bd 42 4b aa bd db 54 05 3e
       -0.052268162 -0.050360102 -0.083151355 0.13020651
000020 4b 2c cd bd e6 44 df 3c 93 c0 90 3d 53 66 a3 3d
       -0.10018214 0.027254533 0.070679806 0.07978501
000030 61 8e 92 bb c4 aa 90 b7 0e 70 43 bc 25 49 9c 3d
       -0.0044725393 -1.7245657e-05 -0.011928571 0.07631139

fc1.0.weight f4 [120, 400]
000000 44 b2 4c 3e 20 22 69 3d 3f d4 55 bf f5 e3 83 bf
       0.19989878 0.05691731 -0.83526987 -1.0303942
000010 d1 c1 50 be ff 11 c9 3d d8 fe bc 3d 48 00 42 be
       -0.20386435 0.098178856 0.09228295 -0.1894542
000020 fe b5 4a be 88 48 b2 bd ea c5 16 bd 05 58 c2 bd
       -0.19795987 -0.087052405 -0.03680984 -0.09489445
000030 2e 72 c3 3d 48 b4 86 3d 0c 67 b9 3d 26 45 a6 be
       0.095432624 0.06577355 0.09052858 -0.3247463
000040 28 ea ca be 4b c1 41 bc 5b a3 12 3e b6 15 d2 3d
       -0.39631772 -0.01182587 0.14320128 0.10258047
000050 19 08 53 bd bb 14 5b bd f4 f2 65 3d cb 02 18 3e
       -0.051521394 -0.053486567 0.0561399 0.14844815
000060 81 af a4 bd 71 6d 0e 3d 6e 01 73 3e 6e 38 9d 3e
       -0.08041287 0.03477234 0.23731014 0.30707115
000070 43 a2 a6 3e 49 0f 4d 3d fc a4 54 be 9c 30 ad be
       0.3254567 0.050063405 -0.20766062 -0.3382615
000080 fd e9 38 3e 2e 19 a0 3e ea 70 b6 bd 46 bf 35 3d
       0.1805801 0.3126921 -0.089082554 0.044371866
000090 22 15 36 3d cc 37 e4 3d 6d 4b cc 3d 34 b6 34 be
       0.044453748 0.11143455 0.09975324 -0.1764763
0000a0 e6 af 63 3a 38 5e 25 bc 8b 8a 54 bd 47 48 05 bf
       0.00086855737 -0.010093264 -0.051889937 -0.5206341
0000b0 a1 d4 04 bd 2b e8 06 3e 4f 58 8d 3d 82 f5 83 3d
       -0.03242934 0.13174503 0.06901609 0.06443311
0000c0 70 df 3e 3d c0 d5 15 bd 64 3c 19 3e cb 46 56 3d
       0.046599805 -0.0365808 0.14964443 0.052313607
0000d0 d4 23 8c bd a7 cf a1 be 12 13 2f 3d 0c 25 64 bd
       -0.06842771 -0.3160374 0.042742796 -0.055699393
0000e0 3d b8 55 be af 4d 16 be 1c f0 16 be 9e fb 52 bb
       -0.20871063 -0.14678071 -0.14740032 -0.0032193433
0000f0 a6 a9 e0 bc b4 b3 5e ba 2c fb e3 bd bf d3 ac 3d
       -0.027424645 -0.0008495406 -0.111318916 0.08438825
000100 b2 a3 0f bd 8f 3f 12 3d c8 f9 89 bd 30 d7 ab 3d
       -0.03506822 0.035705145 -0.06737095 0.08390653
000110 ea 31 0e be 00 01 44 3d 02 63 06 3e 9e 8d 4c 3d
       -0.13886228 0.047852516 0.13123706 0.049939744
000120 82 2b a9 3d 20 f2 39 3e fd ca 12 3b 0d 44 83 bd
       0.082602516 0.1815877 0.0022398822 -0.06409464
000130 a7 5d d3 3d 7f 3e 43 3e 2d c3 0b 3e 31 e8 12 3e
       0.10320597 0.19066809 0.13648672 0.14346386
000140 d7 a0 b9 3c 87 4e b8 bd 15 26 d6 bc 1f 95 57 3d
       0.022659702 -0.08999353 -0.026141206 0.052632447
000150 c6 5e 8d 3e cf fc 85 be 6c b6 c3 bd 26 2b 86 bd
       0.2761137 -0.2616944 -0.095562786 -0.06551199
000160 7b 69 d0 bd 98 bf a2 be d8 17 c1 3c 68 d5 bc 3d
       -0.10176369 -0.317868 0.02357094 0.092203915
000170 80 f5 58 bd 0a e5 84 be 7d 90 f5 be 60 64 62 3e
       -0.052968502 -0.25955993 -0.47961798 0.22108603
000180 03 ae 62 3e d7 84 07 be 68 35 22 be 9a f2 a7 bd
       0.22136693 -0.13234268 -0.15840685 -0.082005695
000190 16 22 fa bd dd 99 ad 3d 44 22 8f 3e 75 7a 71 3e
       -0.122135326 0.08476613 0.2795583 0.2358187
0001a0 cf 1b 6d 3a 0d 0b 99 bd d4 9f 9a bd 2e 06 1c 3d
       0.00090449763 -0.07472811 -0.07550016 0.03809183
0001b0 e6 49 8a 3d 20 31 0b bd b4 26 66 3d b1 e9 a9 bd
       0.06752376 -0.033982396 0.056189254 -0.08296526
0001c0 13 c1 02 3d 3e 8d 79 bd 60 2b 2b be df 64 52 3e
       0.03192241 -0.060925715 -0.16715765 0.20546292
0001d0 ed 95 16 bc b1 f4 86 3d 3a 22 a2 bd ec ba 86 be
       -0.0091910185 0.0658964 -0.079166844 -0.26314485
0001e0 42 3c e4 3d 7d 1f 8e bc e4 f6 24 3c 70 36 1d be
       0.11144306 -0.017349 0.010068629 -0.15352798
0001f0 97 78 8d bd 4c f4 2b be 49 7f d2 bd 20 ad 41 3e
       -0.06907766 -0.1679241 -0.10278184 0.18913698
000200 d7 74 5d 3e be 17 28 3e b1 8f 83 be d9 4c b7 3d
       0.21626602 0.16415307 -0.25695565 0.089502044
000210 b2 43 5a 3e c2 ea c8 3e bb c3 cf 3d 25 59 7f 3d
       0.21314886 0.39241606 0.101447545 0.062340874
000220 e4 4e 88 3d de 64 bd 3d bb 98 76 3d 61 63 0d bd
       0.06655672 0.092477545 0.06020425 -0.034518603
000230 8a b4 6b 3c 5c e2 f9 3c a9 34 ee bd 15 36 36 be
       0.014386306 0.030503444 -0.11631138 -0.17794068
000240 07 d8 11 bf 83 72 e6 bc 5a a3 8e bd 5c c4 92 bd
       -0.56970257 -0.028130775 -0.069647506 -0.07166359
000250 e1 88 cb be 53 c3 1d bf 0e a3 92 3d b1 3d 2e bb
       -0.39752868 -0.61626166 0.071600065 -0.0026587064
000260 cc 51 84 bc 0f 57 b0 bc ba ab 87 3d f4 ec 33 be
       -0.016152285 -0.021525888 0.06624551 -0.17570859
000270 05 86 3b be 18 00 ce be 09 04 1e be f8 0b cb bd
       -0.18312843 -0.40234447 -0.15431227 -0.09914392
000280 6d a0 52 be c7 ab 9c 3c 0c 7b e3 3b 65 02 b0 bd
       -0.2056901 0.019124879 0.0069421586 -0.08594207
000290 a0 93 29 be 01 24 83 bd 9f b6 20 3e a9 bc 9d 3e
       -0.1656022 -0.064033516 0.15694664 0.30808
0002a0 b9 26 58 bd b3 cb 32 3d dd d3 b5 3d 31 7f 80 3e
       -0.052771304 0.043651294 0.088783 0.2509704
0002b0 3f 80 20 3e 6a ea 63 3e dd 9b 47 3e 35 4b 90 bd
       0.15673922 0.2225739 0.19493051 -0.070455946
0002c0 1e df 43 be 3d 92 27 be c6 1c 9b bd 9a 40 1a 3e
       -0.19128081 -0.16364379 -0.075738475 0.15063706
0002d0 79 a6 0c bd 04 ce 02 be de f2 3d 3e 0e e5 c3 3e
       -0.03433845 -0.12773901 0.18549678 0.38260692
0002e0 ae ea 0a 3f b3 b8 dd 3d e7 5e 4c 3e 01 96 a6 3e
       0.5426434 0.10826244 0.19958077 0.3253632
0002f0 e5 43 1e 3f da 24 b7 3e 20 18 46 bc 27 c6 d9 3c
       0.6182235 0.35770303 -0.012090713 0.026583744
000300 e6 18 99 bd ff b7 91 be fc b4 77 be 6a a2 c7 3d
       -0.07475452 -0.2846069 -0.24190134 0.09747775
000310 72 bd 26 3d 85 2f 53 be 49 8a c3 be 76 26 aa be
       0.040708013 -0.20623596 -0.3819144 -0.33232468
000320 9e e2 35 3e 85 84 75 3d 7b be a7 be a5 aa 00 bf
       0.17762229 0.059940834 -0.32762513 -0.5026038
000330 86 f4 96 3d 56 d9 52 bd f2 94 96 bd ec 62 b7 be
       0.07370858 -0.0514768 -0.07352628 -0.3581766
000340 21 47 93 be a8 ab 18 be a1 f1 0e 3d dc 3b de 3d
       -0.28765205 -0.14909232 0.034898404 0.10851261
000350 1f 7c 21 3d 8a 9a 13 3e 3b 1a 2c 3c 65 67 50 3d
       0.03942501 0.1441442 0.010504301 0.050879855
000360 b4 24 e8 bd ab 15 84 3e 4c 2c 10 be 53 67 55 3e
       -0.113351256 0.2579778 -0.14079398 0.20840196
000370 12 a7 4d 3d c8 4f bc bb 1c 30 18 3d 2e 36 8d 3d
       0.05020816 -0.0057468154 0.037155256 0.068950996
000380 be 3a e6 3d 59 e9 37 be 1b 63 2e 3c 8b 8b a9 3e
       0.11241673 -0.17960109 0.010643746 0.33114275
000390 a6 c7 87 3e 95 f4 d0 3d 12 62 91 be e5 6b 1a 3d
       0.26519507 0.102029 -0.28395134 0.037700552
0003a0 1a f9 16 3e 37 0d 6b 3e 12 88 83 3e c0 72 2a be
       0.14743462 0.2295426 0.2568975 -0.16645336
0003b0 3a 01 00 3e 98 1e 65 3b b1 e3 48 be 73 da 4f be
       0.12500468 0.0034960862 -0.19618107 -0.20298176
0003c0 d5 67 01 3e f8 57 e3 3d a5 b4 d4 bd 33 dd f0 be
       0.12637265 0.11100763 -0.10386018 -0.47043762
0003d0 26 54 5d bf 1e 84 c0 3d d0 11 d9 bb 56 95 45 be
       -0.86456525 0.09400199 -0.006624438 -0.19295248
0003e0 47 5c fc be be 5b 28 bf bb a7 df 3c 00 d3 39 3e
       -0.49289152 -0.6576499 0.02730166 0.18146896
0003f0 87 1b 8f 3e d3 d9 e9 3d 7f 75 af bd 93 31 ae be
       0.2795069 0.114185 -0.085673325 -0.34022197

fc1.0.bias f4 [120]
000000 24 de 32 3d d6 82 32 3c 7a 5a f5 bc 25 5e 45 3d
       0.04366888 0.0108954515 -0.02995037 0.048185486
000010 71 9d aa 3b 11 a7 f0 bb bf ba 4c bd 30 d3 ab bd
       0.0052067568 -0.0073441346 -0.049982782 -0.0838989
000020 b3 67 92 bc 52 6f bc 3c 15 23 a4 bd 11 83 09 bc
       -0.017871713 0.0230023 -0.08014504 -0.008393065
000030 2e 7c 45 3c 25 df 44 3b b8 3d cd 3d 74 45 15 bc
       0.0120535325 0.003004023 0.100215375 -0.009110797
000040 d1 ab 9b bc b0 46 84 3d 64 54 9a 3d 6e 57 75 3c
       -0.019002827 0.06458795 0.075356275 0.014974458
000050 6e fc 74 3c a3 ed 82 3d 49 22 aa 3d f5 2b a6 bd
       0.014952762 0.06392982 0.083073206 -0.08113853
000060 0f 17 93 3d 2d d4 33 bd ec 32 75 bd 8c ea ae 3c
       0.071821325 -0.04390352 -0.059863016 0.021352075
000070 a9 fe 80 bc d6 6d 32 3d 65 3e 29 bd 9d 90 d7 39
       -0.015746431 0.04356178 -0.04131927 0.0004111574
000080 35 8f d6 3b 55 86 ba bd ca a5 0c 3d 8e 7d 8f bc
       0.0065478333 -0.09107653 0.034337796 -0.017515924
000090 c5 11 50 3d f3 90 5e bd 96 2f a9 3d be 38 8f bd
       0.050798196 -0.054337453 0.082610294 -0.069932446
0000a0 f8 b2 69 bc c6 9f bb bc 5e 61 b5 bd 44 9c 9c bd
       -0.014263861 -0.022903334 -0.08856462 -0.07646993
0000b0 79 3a ec 3c b5 22 8c bd 1a 51 83 3c 98 32 1f bd
       0.028836476 -0.06842557 0.016029883 -0.03886661
0000c0 e0 2f 62 bd 25 f4 3a 3d aa 48 82 bd ea a0 88 bd
       -0.05522144 0.04564299 -0.06361516 -0.06671317
0000d0 32 75 b0 3c 7e b5 2b bd 66 93 71 3d fc e8 74 bd
       0.021540258 -0.04192113 0.05897846 -0.059792504
0000e0 26 80 89 3d f1 66 9c bd 65 a2 13 bd 8f 74 08 bd
       0.067138955 -0.07636822 -0.036043543 -0.033314284
0000f0 cf 3d aa 3c 2b 79 22 bc 2c 59 2b 3d d9 a6 7e bd
       0.020781426 -0.009916584 0.041833088 -0.062170837
000100 d2 48 84 3c 18 8c 2d bd c5 68 b2 3b 87 b0 88 bd
       0.016148005 -0.042369932 0.0054446184 -0.06674295
000110 4a 22 6c 3d 10 8f 97 bd 11 e0 84 bc 50 15 a2 bd
       0.057649888 -0.07400334 -0.016220124 -0.07914221
000120 cc 6c 2e 3c c4 96 c8 bc ed 22 82 bc 3c 49 71 bd
       0.010646056 -0.024485953 -0.015885795 -0.058907732
000130 dd c5 8a bb 9a 56 a4 3c 24 51 6e 3d 2d 38 cb 3b
       -0.004235013 0.020060826 0.05818285 0.006201765
000140 43 62 31 bc 5d e4 75 3d 53 3d 1e bd df 58 d9 3b
       -0.01082665 0.060032237 -0.038632702 0.0066329087
000150 01 cf 6f bc 0b ee 11 bd e3 f8 84 3c 4a 63 cf bb
       -0.014636756 -0.035627406 0.01623196 -0.006328975
000160 f8 a3 b5 3b b0 3f 72 3a 43 11 18 3d 93 18 68 bd
       0.0055432282 0.00092410576 0.037125837 -0.05666406
000170 b4 e1 c8 3c 4f 9e 82 3d 15 7c 48 3a 42 6b 84 3c
       0.024521686 0.06377851 0.0007647884 0.016164426
000180 f1 72 33 bc ab 16 5a bd 41 49 28 bc ce 75 3a bd
       -0.010952697 -0.053244274 -0.010271371 -0.045522504
000190 ea b1 9e bd ce 9d 06 3d b2 0e 83 3d a8 c6 01 3d
       -0.07748778 0.032865338 0.06399287 0.031683594
0001a0 31 20 b4 bd 0c cb db 3c 3c e7 0e 3d 91 b8 6e bd
       -0.087952025 0.026830219 0.03488849 -0.058281485
0001b0 20 f7 c6 3c 2b 79 54 3c 04 80 56 bd 0e 4d 77 bc
       0.02428776 0.012968342 -0.05236818 -0.015094055
0001c0 22 10 7b 3c f2 40 01 bb cc ab ae bc 87 34 9a bb
       0.015323671 -0.0019722548 -0.021322154 -0.004705969
0001d0 72 12 30 3d a9 c4 c2 3d 5a b7 a6 bd 8f 7a 39 3d
       0.04298634 0.09510166 -0.0814044 0.045282897

fc2.0.weight f4 [84, 120]
000000 60 13 b2 3d f8 b5 ae 3e 51 f2 c5 3e 36 ab 22 bd
       0.08695102 0.34123206 0.38661435 -0.03971406
000010 59 58 f7 3c f1 1e fe 3e 0f e1 53 be 9a 6d eb 3d
       0.030193495 0.4963298 -0.20691322 0.11495514
000020 50 17 32 be 44 bb 76 3e 90 04 ca be a2 22 27 be
       -0.17391706 0.24094874 -0.39456606 -0.16321805
000030 8d 6d f4 be 25 3e 2f 3e 6a 83 3f be 6c 1e c6 be
       -0.4773983 0.1711355 -0.18702474 -0.38695085
000040 26 bb a5 bc 9b 1e fe bc 9f 35 02 3d d1 66 9f 3d
       -0.02023084 -0.031020453 0.03178942 0.077832825
000050 ff 08 89 3e 82 c0 97 be 26 d2 65 3d 03 d6 14 bf
       0.26764676 -0.2963906 0.056108616 -0.58139056
000060 dd b7 9f be a9 ea fe 3e 14 f5 90 3e 7a 9a 69 bd
       -0.31194964 0.49788406 0.2831198 -0.057032086
000070 1f e8 9c 3d c3 07 ca 3e 08 8b 45 3d 25 5b c9 3e
       0.07661461 0.39459047 0.048228294 0.3932735
000080 32 d0 22 bb b3 d6 f4 bc c4 25 b4 be dd c1 a6 3e
       -0.0024843332 -0.029887533 -0.35185063 0.3256978
000090 14 c1 02 3e f8 22 c8 bc 7f fd 47 3d 11 9f 69 be
       0.12768966 -0.024430737 0.048825737 -0.22814585
0000a0 ca 0d 35 be 96 96 d3 3b 2c 9b 3f be 55 7c 0d be
       -0.17681041 0.00645716 -0.18711537 -0.1381696
0000b0 5e 36 9b be 55 1f 80 be bf 85 9d 3e b1 b2 92 3e
       -0.30314916 -0.25023904 0.30766103 0.28651956
0000c0 d4 7c ea 3d 22 d8 10 bd 53 f5 b2 bd 23 0f c5 be
       0.1144959 -0.03536237 -0.08738198 -0.3848811
0000d0 05 f8 71 3e c0 0f 44 bf 64 22 ac be d6 6a 6d be
       0.23629768 -0.7658653 -0.33619988 -0.23185286
0000e0 3c 2d 35 3c 68 5a 7f be b2 55 3a 3e 93 96 71 3c
       0.011058148 -0.24936831 0.18196753 0.014745372
0000f0 bc 94 53 3e 40 d3 a3 be e0 ad 8f 3e 54 ee 95 be
       0.20662206 -0.31997108 0.28062344 -0.29283392
000100 93 1c 00 3e f6 52 85 bd 97 a7 9b 3e 6b ba 66 bd
       0.125109 -0.06509964 0.30401298 -0.056330126
000110 e4 6b 1a 3e 2d 71 de bd e6 8d e9 bc c6 0a c1 3e
       0.1508022 -0.1086143 -0.028510045 0.37703532
000120 db 51 40 be a2 3c 83 3d fa 93 a7 bd 75 47 05 bf
       -0.18781225 0.06408049 -0.08182521 -0.5206216
000130 d0 6e 24 be 74 2a dc 3e 47 08 9c 3e 92 1f 37 3e
       -0.16057897 0.4300114 0.30475065 0.17883137
000140 bd 5b 8a 3e 99 76 37 be fa 56 0d be bc 66 df 3e
       0.27023116 -0.17916335 -0.1380271 0.43633068
000150 b6 58 3e 3e 46 1d 6b 3d 4b 38 01 bf 72 75 d0 3e
       0.18588528 0.057400964 -0.5047652 0.40714604
000160 ec 7e 41 be bb 00 ae 3e a0 eb ef 3e bf a7 13 3e
       -0.18896073 0.33984932 0.46859455 0.14419459
000170 3f 22 4b 3e f1 63 7d be fd db cb bd 1e 72 ad 3d
       0.19837283 -0.24745156 -0.09954069 0.08469032
000180 98 5c 90 be e9 45 72 be e7 0f 40 be ca 36 22 3e
       -0.28195643 -0.23659481 -0.18756066 0.15841213
000190 8e ce 92 be 58 64 12 3f 01 bb 7a 3d 85 be 9e be
       -0.28673214 0.5718436 0.061213497 -0.3100473
0001a0 bd 83 01 bf a2 f2 a0 be 03 cf 19 3d 52 30 23 be
       -0.5059164 -0.31435114 0.037550937 -0.15936401
0001b0 29 d1 0b 3e 2d 4b 6e 3e 4c cb d3 3e b4 00 4f 3d
       0.13654007 0.23270865 0.4136604 0.05053778
0001c0 ff 77 89 be 7c 33 03 3f 65 3b 5d 3e 5c 48 a1 3d
       -0.26849362 0.51250434 0.21604688 0.078751296
0001d0 51 88 65 bc a8 06 b5 bc e5 78 17 3e 55 d6 e6 3d
       -0.014009551 -0.0220979 0.14792211 0.11271349
0001e0 bb b3 3d be 1a e3 2c be 94 37 47 be 6e 73 1e bd
       -0.18525593 -0.16883507 -0.19454795 -0.0386843
0001f0 a7 f4 df be 71 a9 be be 73 9c 06 bd e7 e6 ff 3d
       -0.43741342 -0.3723865 -0.032864045 0.12495213
000200 3e 15 35 3e 6e 90 b5 be 43 2e 11 3e fd 19 a7 3e
       0.17683885 -0.35461754 0.14177804 0.32637015
000210 3b ff 80 be fb fa 89 be 53 4f 8b bd 96 28 0e bc
       -0.25194725 -0.26949295 -0.06802239 -0.008676669
000220 92 29 58 3e f7 16 00 be 33 1f 94 3e bd ce 2c 3e
       0.21109608 -0.1250876 0.28930053 0.1687574
000230 31 a5 2c be 0a ac df 3e d0 41 c8 be 1e f6 98 3e
       -0.1685989 0.43685943 -0.3911271 0.29875273
000240 fc ef 5f be f3 05 3e be 1c 58 e2 3d 81 c5 01 3f
       -0.2186889 -0.18556957 0.11051962 0.5069199
000250 47 f8 5d 3d 56 7d 00 be 5f a8 90 be fe b7 0e bf
       0.054191854 -0.12547812 -0.28253457 -0.557495
000260 ef 10 7f be 0b d7 e3 bc 82 f3 6a bd 9c 5a b5 3e
       -0.24908803 -0.027812501 -0.057361133 0.35420692
000270 da 64 a1 3e 56 61 ba 3d 5b 57 4f 3d b8 38 af be
       0.31522256 0.091005966 0.050620418 -0.3422296
000280 a2 82 f2 3d 14 0c 9b 3e bd 7b a0 bd a1 a7 e6 3e
       0.118413225 0.30282652 -0.07836101 0.45049766
000290 24 a8 39 3c 45 00 94 3e 87 86 2e be 7c a5 db be
       0.011331592 0.28906456 -0.17043506 -0.42899692
0002a0 fb 04 7e be f5 74 b5 bd 52 3b 1a bd af a4 71 3e
       -0.24806587 -0.088601984 -0.03765423 0.23597978
0002b0 fb 4f 04 bc 6e 11 ef 3e 64 1a a4 3e c2 50 f0 3d
       -0.008075709 0.46692985 0.32051384 0.11734153
0002c0 75 44 06 be da a3 a0 3e c2 43 9c be 0f ae cc 3d
       -0.13112052 0.3137501 -0.30520445 0.099941365
0002d0 d4 b6 17 bc ba 57 90 3e c1 da ad 3e a6 0e 6f be
       -0.009259898 0.2819193 0.33955958 -0.23345432
0002e0 39 e1 5c 3e e3 9b 45 be 55 a1 23 be e5 d7 f4 bd
       0.2157029 -0.19297747 -0.15979512 -0.11955241
0002f0 ab 85 95 3d 1f c2 1b bc 55 46 c7 3e 2d 22 88 be
       0.07300886 -0.009506731 0.38920847 -0.26588574
000300 64 e9 08 be 79 e7 a4 bd a8 c4 5b be 28 28 0f 3d
       -0.13370281 -0.080519624 -0.21461737 0.034950405
000310 1b 77 00 bf fc 70 14 bd 76 78 e4 bd f7 ab d8 3e
       -0.5018174 -0.036240563 -0.111557886 0.423187
000320 34 26 21 bf db 2a 8f bc 7a e9 25 3d 19 a1 56 be
       -0.6294892 -0.01747649 0.040505864 -0.20959891
000330 95 f0 ba be 9b b4 9f bd a0 e9 82 3e b2 0b dc be
       -0.36511675 -0.0779812 0.25568867 -0.42977673
000340 47 d1 b8 3c 01 75 8e be 8e 3a 21 3e 4f a6 fe bd
       0.022560729 -0.27823642 0.15744993 -0.124340646
000350 d9 eb 26 3e b9 28 98 3e 36 6f 03 bf 9e 56 26 3e
       0.16300906 0.2971857 -0.5134157 0.1624398
000360 85 e5 11 3f 13 c6 07 3f 3c 48 21 3a d2 5b 25 bf
       0.56990844 0.5303661 0.00061524264 -0.6459323
000370 71 0a 0f 3e a9 94 a5 bd ac 76 54 3e 73 08 95 3e
       0.13968827 -0.08084995 0.20748395 0.2910801
000380 47 e8 9c 3e e8 05 c3 be 0b 6f a9 bd 6d 65 13 bf
       0.30645964 -0.38090444 -0.08273133 -0.5757664
000390 20 55 89 3e 19 1b e6 3e 8a de fa bd 2b f4 42 be
       0.26822758 0.4494255 -0.12249477 -0.19038455
0003a0 33 b4 ba 3e 38 ec 64 be 76 d8 9d 3e fc 17 8f 3b
       0.36465606 -0.22355735 0.3082921 0.004366873
0003b0 34 cb 8c bd 69 a6 25 3e 6f 37 31 bf 0b b3 51 bd
       -0.068746954 0.16176762 -0.6922521 -0.05119614
0003c0 f4 1d 15 3f 54 39 61 bc 4f 4a 5d 3e 98 85 a2 3e
       0.5824883 -0.013746578 0.21610378 0.3174255
0003d0 6d 49 ba 3e 0c f3 8c 3e 58 55 81 be e9 3a be be
       0.36384144 0.2752918 -0.25260425 -0.3715432
0003e0 d7 17 ce 3c 9e bc 43 3e 1b af 44 3e 86 15 1d 3d
       0.025157852 0.1911492 0.19207422 0.038350604
0003f0 6b b4 19 be da 0a b0 bc 79 6a 0b be 44 1e 3d be
       -0.1501023 -0.02148955 -0.13614835 -0.18468577

fc2.0.bias f4 [84]
000000 eb f3 af 3d 93 25 1d 3d 57 8b ae 3c 56 9c 42 3d
       0.085914455 0.03836591 0.021306677 0.047512375
000010 0a b4 df 3b 93 b5 2f bb b9 3f 09 bd 86 25 01 bd
       0.0068268823 -0.0026811108 -0.033508036 -0.031529926
000020 3e cb ea 3c ca 43 97 bd b7 fa be 3c c4 81 b2 3b
       0.028661367 -0.073859766 0.02331291 0.005447598
000030 c2 7a c4 bd 63 fe 3f bc 5f 16 e4 bc 98 2e 3b bd
       -0.09593727 -0.011718365 -0.027842699 -0.045698732
000040 05 34 02 bd a6 d1 07 3c 8a cf 9c bd c4 34 70 3d
       -0.03178789 0.00828973 -0.076567724 0.05864407
000050 c3 80 db 3d da eb d9 3c 28 19 b4 3d 11 53 bd bc
       0.10717919 0.02660172 0.08793861 -0.023110898
000060 82 d9 d2 3c fb 44 bd 3d ed 8e 0e 3c 66 f2 09 bd
       0.025738481 0.092416726 0.008701068 -0.033678435
000070 92 76 72 3d 1f 6a 7b 3d 0b 8e c0 bd 86 bb 50 bd
       0.05919511 0.0613805 -0.094020925 -0.050960086
000080 00 0d 0a bd a2 90 3c 3c cd f3 44 3d 61 55 84 bd
       -0.033703804 0.0115090925 0.04808407 -0.06461597
000090 7e ff 27 bd bf 53 b2 3d ea ef 6f bd ab 67 43 bd
       -0.04101514 0.087073795 -0.05857841 -0.047706287
0000a0 13 1a a0 3d b6 7a 41 bd cd 97 30 3c a2 da 75 bc
       0.07817473 -0.047236167 0.01077838 -0.015005739
0000b0 ab df 70 ba 46 35 46 3d 7c d1 46 3d 57 34 d0 3b
       -0.00091886026 0.04839065 0.048539624 0.0063538956
0000c0 94 f3 64 3d 81 8e af bd d8 7d 2f 3d 1e bb 76 bd
       0.055896357 -0.08572102 0.042844623 -0.060237043
0000d0 98 2e d6 bb e6 b6 f4 bc f7 99 cf bd e0 bb 19 3d
       -0.006536316 -0.029872369 -0.10136788 0.037532687
0000e0 0b 75 8a bd b1 98 67 bd 89 5a 81 3d 66 8e 8c 3b
       -0.067606054 -0.056542102 0.06316096 0.004289436
0000f0 29 16 af 3d b5 96 93 3d 82 7d 37 bd 0a 08 bf 3c
       0.085491486 0.072064795 -0.044797428 0.023319263
000100 d0 67 88 bd 95 62 e1 3d 8d c4 52 bd 49 5b d9 3c
       -0.06660426 0.11005131 -0.051456977 0.026532786
000110 51 83 9b 3c d5 e1 71 3d 77 c4 ce bc 20 8c 93 3d
       0.018983515 0.05905326 -0.025240166 0.07204461
000120 3f 7d 15 bb 49 c5 0d bc e6 08 d0 3d c1 f8 b7 3b
       -0.0022810248 -0.0086529935 0.10157947 0.0056143706
000130 f4 a3 de 3c b4 6e cf 3d 16 66 66 3d f8 97 34 3d
       0.027177788 0.10128537 0.0562497 0.04409024
000140 44 39 1b bc ce 8b c2 3b be 56 1a 3d d8 25 f9 bc
       -0.009474102 0.005937076 0.03768038 -0.030413553

fc3.weight f4 [10, 84]
000000 88 28 8b 3e 94 94 97 bb 7c f9 72 3e 54 7d 03 bf
       0.2717936 -0.004625866 0.23727983 -0.5136311
000010 4b a8 96 be b2 26 75 bd 08 26 3d bf a6 bb cd be
       -0.29425272 -0.059851356 -0.73886156 -0.40182227
000020 28 d6 96 be b8 3d 45 3e ea 2d 62 bc 84 5d ae be
       -0.29460263 0.19261825 -0.013804892 -0.34055722
000030 da cb 83 3e 62 ec 1a bf 55 03 dd be d9 3a 2d be
       0.25741464 -0.6051694 -0.43166605 -0.1691698
000040 7b 83 92 3e 83 6b 3f 3e ab f2 d6 be 1c fe 48 ba
       0.28615937 0.18693356 -0.41982016 -0.000766726
000050 68 db bb bd 66 96 b5 be c3 1a 89 3e 71 3a 1f 3e
       -0.09172708 -0.35466307 0.2677823 0.15549637
000060 05 e8 02 bf 8e 5c 27 bf a1 df 00 be a9 4a 16 bf
       -0.51135284 -0.653756 -0.12585308 -0.5870767
000070 09 4a e5 be e8 08 17 3e d8 28 9a 3e db b3 cc be
       -0.44783047 0.14749491 0.30109286 -0.3998097
000080 0f f3 9f 3e 84 2f c8 3e 4b 0b 5d bf 4c d2 e9 be
       0.31240126 0.39098752 -0.86345357 -0.45668256
000090 ba d5 a9 3e a6 ab 01 bf 83 72 ac 3e 36 a1 60 be
       0.33170873 -0.5065254 0.33681116 -0.21936497
0000a0 d4 f3 2f bf f8 e6 bf 3e 54 97 9e 3e 07 15 9e 3e
       -0.6873143 0.37480903 0.3097483 0.30875418
0000b0 57 3c c2 be 68 d2 e4 be 81 2c ce be 39 0c fe 3d
       -0.3793666 -0.44691777 -0.4026833 0.12404675
0000c0 c2 dd f7 3e ca 83 7d 3d f7 c6 42 bd 0c ef 0f bd
       0.48411375 0.061893262 -0.04755303 -0.035140082
0000d0 f4 00 6a 3d bc 27 d5 be 74 7a f3 bd a3 46 0e 3f
       0.057129815 -0.41631877 -0.118885905 0.55576533
0000e0 8e 1c be be 79 9f 49 3e 86 ad 08 bf 98 39 cc be
       -0.3713116 0.1968974 -0.53389776 -0.3988769
0000f0 2c 84 0e be 14 f5 60 be 3e cc e5 3e 58 37 fb be
       -0.13917607 -0.2196849 0.44882387 -0.4906566
000100 6f 02 f9 3d ef 68 12 bf 95 aa 2e bf d8 00 94 3e
       0.12158667 -0.57191366 -0.6822904 0.28906894
000110 63 33 cf 3e 51 d2 37 bd 72 25 32 3e f0 cd fa 3e
       0.40468892 -0.044878308 0.17397097 0.48985243
000120 89 6e be 3d 3a 5e 99 3e 7d f6 8e 3e 86 ac 1c 3e
       0.09298427 0.29954702 0.2792243 0.15300187
000130 b9 17 ca 3e 26 d5 9c be e9 fa 8a bc 53 18 9b 3e
       0.39471224 -0.3063137 -0.016965346 0.30291995
000140 3c bb a8 3e 8b 2a 45 bf 4a 8f 11 bf 36 15 3a bf
       0.32955348 -0.7701804 -0.56859267 -0.72688615
000150 a0 44 f8 be b3 5c 7b 3e aa e8 a0 be 70 e8 ea be
       -0.48489857 0.2454708 -0.3142751 -0.4588046
000160 d4 db b0 3e fa 2d c1 3e aa f5 97 3e e8 69 c0 be
       0.34542716 0.3773039 0.29679614 -0.375808
000170 02 ff b0 3e 31 c7 ba be 50 01 a9 be cd b8 c4 3e
       0.34569556 -0.36480096 -0.33008814 0.38422242
000180 d2 27 08 3e a0 89 82 3e f5 5a bf 3e d4 79 84 bd
       0.1329644 0.25495625 0.37374082 -0.06468549
000190 47 5e c2 be 12 20 07 3e cc bf 18 bd 31 9c ae 3d
       -0.37962553 0.13195828 -0.037292287 0.08525885
0001a0 d6 fd a7 3e ef 24 d0 3e b5 2d ac 3e ff 71 ca be
       0.3281085 0.40653178 0.33628622 -0.39540097
0001b0 49 5e a7 3e 93 98 aa 3e 8b c5 bb 3e 5a b7 8d 3e
       0.3268912 0.3331953 0.3667415 0.2767895
0001c0 32 a6 2c 3e bb b7 1b bf 0d 8d 38 3e 46 b6 18 bf
       0.16860273 -0.60827225 0.18022557 -0.5965313
0001d0 21 5e be be ec 92 66 3e 20 9e ed 3d 78 55 de 3d
       -0.3718119 0.22516984 0.116024256 0.108561456
0001e0 d4 0c 1c bf 35 ef 2d 3e 6f 9e 29 bf d0 73 d5 3e
       -0.60957074 0.16985781 -0.66257375 0.4168992
0001f0 04 1d d3 be 60 5d d5 3d 70 f8 0d bf 19 9d 0f 3b
       -0.41233075 0.104182005 -0.5545721 0.0021913706
000200 fc 38 42 be 68 8c a2 bd 14 20 7e 3e 62 a2 07 bf
       -0.1896705 -0.079369366 0.24816924 -0.5298215
000210 c7 4c 9f 3e 03 1d 01 3f 5c 93 ef be 0b d5 d1 3e
       0.31113264 0.50434893 -0.46792114 0.4098285
000220 9d 10 3c bf d7 61 57 3e d1 ee 56 be 18 63 1f 3c
       -0.7346285 0.21033417 -0.20989539 0.009728216
000230 11 6d c4 3e 0f 00 ac be ef c9 be be 63 f5 df 3e
       0.3836446 -0.33593795 -0.37263438 0.43741903
000240 45 90 b1 be 45 3c e4 be 1d 38 e1 be 38 51 8d 3e
       -0.3468038 -0.44577232 -0.43988124 0.27601027
000250 2a 6f 84 3e 5d 0e b5 3e 96 e1 b8 be 8c 03 d7 be
       0.2586606 0.3536252 -0.36109608 -0.41994894
000260 8d 88 85 be ff 69 fd be c5 13 12 bf 1e b2 5c be
       -0.26080742 -0.4949493 -0.57061416 -0.21552321
000270 b9 59 4f bf 45 8b cb 3e f1 b1 5e 3e b2 88 bd be
       -0.8099628 0.39754692 0.21747567 -0.37018353
000280 96 bb f8 be 01 d1 19 3f f4 42 e6 be 91 94 6d be
       -0.48580617 0.6008454 -0.44972956 -0.23201205
000290 9b cc 7b be ed 59 10 3e fb 08 ac bd 4a 55 91 3d
       -0.2458977 0.14096804 -0.084001504 0.07096346
0002a0 91 27 02 bf 22 07 62 3e 15 3e ed 3d ca c5 ba be
       -0.50841624 0.22073033 0.11584107 -0.36479026
0002b0 48 90 c0 3e 44 d7 32 3e 8c 66 c8 be 61 c9 50 be
       0.37610078 0.1746493 -0.39140737 -0.2038932
0002c0 d2 90 52 3e 32 4d 07 3e 17 9f cc 3e ef 38 95 be
       0.20563057 0.13213041 0.39965126 -0.29145
0002d0 a2 cf 91 be a5 fc ac bd 30 5d 58 3e ab fa f5 be
       -0.28478724 -0.084466256 0.21129298 -0.48042807
0002e0 9e e6 b8 3e dd ea d8 3d 20 f9 48 3e 1d f7 28 3e
       0.36113447 0.105916716 0.19626284 0.16500516
0002f0 cf 7c a2 be 18 13 d4 3e c3 f6 9c 3e a5 9b c3 be
       -0.31735846 0.41420817 0.30657014 -0.38204685
000300 17 38 50 3e 35 f2 0d 3e da 92 d5 be c6 51 96 3e
       0.20333897 0.13861926 -0.417136 0.29359263
000310 2d 07 00 bd d5 80 df be b6 4b c1 bd 48 4e 2e be
       -0.031256843 -0.4365298 -0.09438269 -0.1702205
000320 42 3a 2b bf 31 64 23 be b7 e3 17 bf 67 d5 87 3e
       -0.6688577 -0.15956189 -0.5933184 0.2653
000330 03 4c 79 3e 22 75 2d 3e 58 50 15 3f c9 82 f3 3b
       0.24345402 0.16939214 0.5832572 0.0074313623
000340 c9 2d 81 be 92 55 9c 3e 12 3c 31 3e a1 0b 2c bf
       -0.25230244 0.30534035 0.17308071 -0.67205244
000350 3d a6 27 3f 4d 1e ca 3c 31 16 e9 be bd e8 bc be
       0.65488034 0.024672652 -0.45524743 -0.36896315
000360 b1 a5 df 3e a7 5b eb bd 45 14 b1 be 1a a5 da be
       0.436811 -0.11492091 -0.34585777 -0.42704087
000370 fd f4 0e be f1 9f de 3e f8 46 9d be 39 0b ce 3e
       -0.13960643 0.434814 -0.30718207 0.40242937
000380 97 f8 ec bd fb d2 65 3e 0b be 98 be 7b 4c 2d 3e
       -0.11570852 0.22443764 -0.2983249 0.16923706
000390 77 80 8c bd 02 f7 5e 3e f3 a9 f6 3d a9 83 40 bf
       -0.0686044 0.21773914 0.12044134 -0.752009
0003a0 f7 51 5f be a9 32 db bd 77 f9 9c 3e 29 a4 5c 3e
       -0.21808611 -0.10703022 0.30659077 0.21546997
0003b0 2f c8 cd 3e b4 b1 36 3e 02 05 50 be 7e 49 ce 3e
       0.4019179 0.17841226 -0.2031441 0.40290445
0003c0 9b c7 c2 3c 6c ad a8 3e 08 35 3e bf 5b 17 32 bf
       0.02377682 0.3294481 -0.7429967 -0.6956689
0003d0 0b df 48 3e fc d1 17 bf b9 65 f9 be 70 48 d3 be
       0.19616334 -0.59304786 -0.4871042 -0.41266203
0003e0 24 b0 d1 be 7a bc 9c 3e cf 1a 07 3d b6 af 7f be
       -0.40954697 0.30612546 0.03298455 -0.24969372
0003f0 ca e7 cb be 4a 07 34 3b c2 1b 98 3e 8d 22 4c bd
       -0.3982528 0.0027470165 0.29708678 -0.049837638

fc3.bias f4 [10]
000000 f4 c5 9d bd 98 66 f8 3a a1 4f e1 bc 48 e5 0a 3c
       -0.07703772 0.0018951474 -0.02750379 0.0084775165
000010 c4 73 a0 bd 0c 91 f7 bd fa 48 cc 3d f4 96 9d 3d
       -0.078345805 -0.12088212 0.09974857 0.07694808
000020 f0 40 4f 3d 9e ea 9c 3d
       0.05059904 0.07661937
