6_ConvolutionalNeuralNetwork/LeNet/model15.pth (torch, 250424 bytes, 10 tensors)

conv1.0.weight f4 [6, 1, 5, 5]
00000000: f5fa 6ebe 0171 903e 9dbe fbbc 34b2 353f
00000010: 4290 7b3e a6ed 523e 54d9 6c3f 97a2 923f
00000020: 643c b43f d665 e43e dced 9fbe a588 303f
00000030: 59c4 543f 7a64 1e3f 9193 2dbf 903d ccbe
00000040: 63a3 b33e 28fd 52be 4559 cabd 04db 89bf
00000050: 3bcc 0cbf f082 20bf 2a69 60bf 9182 b5be
00000060: 4b2c 29bf 1b02 4cbf 946e b8be 0d15 febd
00000070: ff39 abbe 85b9 c83d 6535 9fbe 84f5 0e3f
00000080: 4772 523f 26e5 2a3f d1b6 4d3f ef6a 56be
00000090: c11f a63f 005a fc3f a148 363f 704e 113f
000000a0: 674e 01bf 9967 633f b428 4b3e d11c 163e
000000b0: 4a10 06be cf7c afbf 11fa 36bf 7ea8 60bf
000000c0: 20eb 10bf ddba b8be 9067 17bf 9ff7 b2be
000000d0: c27c ddbe 3d79 1bbe 7863 70bf 5bed 5f3f
000000e0: f244 443f 5652 8c3f 5994 9e3f 10c6 2fbf
000000f0: af07 033f 9ce6 473f dce2 9f3f 2ed6 4c3f
00000100: d137 52bf 276a 4f3d dd5d 5c3f edc7 f33e
00000110: 0d31 a33e e11b 34bf 7091 00bf 775d 5bbe
00000120: 9890 d7be 3e0b b7be a891 32bf 6011 c33e
00000130: 4587 243f f3ad 373f 9ff5 0e3f 09e3 133f
00000140: 232d 3a3e e0a8 b13d 68a0 bbbe 13ca 3bbe
00000150: 52ba 0dbe 9408 15bf 4709 cabf 083c a0bf
00000160: 9361 8abf 62ce 32bf d92a 75bf 476e 3ebf
00000170: 7ac8 31be da0c 20be b552 2abf 29f7 873d
00000180: c3f5 6e3f 182e 6e3f 8f99 ac3e 2496 2bbe
00000190: d561 233f 6235 9b3f b8d4 173f a37f 3c3f
000001a0: d095 5b3f 8738 773e 69cb d3be 94c1 34bf
000001b0: 8a3e 45bf f5dd cbbe 1886 01be f5e4 12bf
000001c0: 9594 1fbf 33e0 02bf e341 e3be 4f9e ed3e
000001d0: af1e 03bf bc6b 86bf cea4 f8be 9d36 c1be
000001e0: a2e0 713f 0158 0dbd 46b1 c5be 06d3 923e
000001f0: 3493 0b3f 7b36 b13e 6f03 063f cab1 19be
00000200: cf74 65bf 8c02 10bf 194d 3e3e 9757 b23c
00000210: dd07 01bf f94d a6bf d9a6 8a3e 8645 32be
00000220: 5046 90bd f9e6 45bf c972 4fbf 3035 353f
00000230: 5e42 753e 81a0 c0be 4c1f a3bf 0948 0fbe
00000240: 2d88 3d3e d96a 5a3f ca3b 9abe 3561 a4bf
00000250: 2909 e5be 117f d53e
-0.2333792 0.28211215 -0.03073054 0.7097504 0.24566749 0.20598468 0.92519116 1.1455868
1.408093 0.44608945 -0.3123616 0.68958503 0.831121 0.61872065 -0.67803293 -0.39890718
0.35085592 -0.20604384 -0.09880308 -1.0769963 -0.5499913 -0.62699795 -0.8766047 -0.35451177
-0.6608321 -0.7969071 -0.36021864 -0.12406359 -0.33442685 0.0980101 -0.31095424 0.5584338
0.82205623 0.667559 0.8035708 -0.2093923 1.297844 1.9714966 0.7120457 0.5676031
-0.5051026 0.8882995 0.19839746 0.1465943 -0.13092151 -1.3709964 -0.7147532 -0.877571
-0.5660877 -0.36080065 -0.591424 -0.34954545 -0.43259245 -0.15182967 -0.9390178 0.8747155
0.766677 1.0962627 1.2389022 -0.68661594 0.511836 0.78086257 1.2491107 0.8001431
-0.8211642 0.050638344 0.86080724 0.4761347 0.3187336 -0.7035504 -0.5022192 -0.21422373
-0.42102504 -0.35750765 -0.69753504 0.38099194 0.64268905 0.717498 0.5584354 0.57768303
0.18181281 0.086747885 -0.36645818 -0.18338804 -0.13840607 -0.58216214 -1.5784081 -1.251832
-1.0811027 -0.69846165 -0.95768505 -0.7438702 -0.17361632 -0.15629902 -0.6653245 0.06638939
0.9334375 0.93039083 0.33710906 -0.16756493 0.63821155 1.2125666 0.5930896 0.7363226
0.8577547 0.24142657 -0.41366127 -0.70607877 -0.7704855 -0.39817777 -0.12648809 -0.5738061
-0.62336093 -0.5112335 -0.44386205 0.46409842 -0.51218694 -1.0501628 -0.48563236 -0.3773698
0.9448339 -0.034507755 -0.3861181 0.28676623 0.5452149 0.34611878 0.5234899 -0.15009227
-0.8963136 -0.56253886 0.18584098 0.021770282 -0.50402623 -1.2992545 0.2708042 -0.17409334
-0.07044661 -0.7730556 -0.81034523 0.7078428 0.23951098 -0.37622455 -1.2743926 -0.13992323
0.18508978 0.85319287 -0.3012374 -1.2842165 -0.4473355 0.41698506

conv1.0.bias f4 [6]
00000000: 69af 68bf c723 6cbf debc 4ebf 4e22 eebd
00000010: 09cb afbe bb83 30bf
-0.90892655 -0.9224209 -0.8075694 -0.11627637 -0.3433459 -0.68951005

conv2.0.weight f4 [16, 6, 5, 5]
00000000: 9175 813d 7213 643e 87d0 053f ce54 b63e
00000010: 33eb 97be 4e48 063f 0fbf 373f 50be 893e
00000020: 14fc 60be fe53 1fbf e209 083f 4769 633e
00000030: 61b3 17bf 47cc 59bf e71e e13d 2b7d 563e
00000040: f3c0 ad3d e742 7fbf 3c9f 47be 9c93 353f
00000050: c94e 87bc 30d7 98be bf4e 74bf d72f 6d3d
00000060: 1e14 ec3e 4365 55bd 8a7e b63e 2530 f23e
00000070: 6be4 e83d 1969 babe 3c4e bd3e 4c75 ec3e
00000080: fcb2 4cbc f234 1bbf 485d 82be 0ad5 9c3e
00000090: 5abd fdbd 150e 5dbf ec0f 09bf 4017 f73e
000000a0: 9582 d93c a6f0 063e 8b36 6dbf 1c2e 133d
000000b0: 3ab1 253f 9c39 143d ff44 b5be fffc 01bf
000000c0: e43e ab3e c50e e93e 7a83 8e3e 47ba b33e
000000d0: 169d 043f abfe a63e 9ef1 50be 1fd6 193f
000000e0: b720 2b3f 388c 473e 56fa fdbe a098 d0be
000000f0: c270 d43e 80fb c5bc 120f 57bf f49e 7cbf
00000100: ad50 6c3e 6d93 5f3e 673c 5c3e 2c63 56bf
00000110: a8cd f1be 528f 063f 8c32 a7bd 07e5 1dbd
00000120: ad77 4dbf 67cc d33d 7a0c 143f f621 80be
00000130: 0f75 ebbe 82a2 efbe 5c8d 103d 6a92 723e
00000140: e095 debe 2063 91be ae87 3d3e 6f4e c43e
00000150: c6a8 eb3c f551 9dbe 0317 3b3e c476 9c3e
00000160: 491b 0dbd 00e9 45bf c74c 81be b7d8 eebc
00000170: 1cd0 ebbc 661d f5be 48ff 8fbf fc05 74be
00000180: 2dc6 0b3d b6d3 6fbe b709 48bf eea7 8ebf
00000190: d542 c6be 4d3a bbbe 3c99 82be d80f cabc
000001a0: dc71 113e 2745 f5be 5dc1 10be 0b99 903e
000001b0: c98f c83e 766c 20be 37de 41be 921e 943d
000001c0: 53cf 223f 1b09 753e e906 20bf e77f f1bd
000001d0: a82c cf3d 5c9e f03e 5d65 21be f0e4 b6be
000001e0: c73f cebd 1220 2d3e f3a3 ac3e d13a 16bf
000001f0: 1129 b8be 0400 79be 07fa adbe d3cb dcbe
00000200: 1332 89be f634 e7bd 3537 27be c953 45bd
00000210: fbb2 063e 1b74 653e 1451 64be b98a 9dbc
00000220: 4716 2e3e f5d6 3f3f 7cfe c23e bb98 6cbe
00000230: 18b2 073e bc45 873e 7aad 0b3f 5ca4 3ebd
00000240: e1d8 68be d01f d7bd d291 483e c2f6 c03e
00000250: 729f 1ebe 1477 293e 9f3a bf3e ed7e a13e
00000260: 0aa3 36be 1c63 bbbe 05d6 c6be 126b f63e
00000270: e329 c83e 71af 723e 6de3 ab3e 92ef 9e3e
00000280: 707d b83d 674d 12bf 8890 39bf ce10 c8bd
00000290: eb2e c83e 7c39 4bbf b65b d8bf eede c7bf
000002a0: 1a23 86bf e808 cfbe 25a9 313e bd57 393f
000002b0: cc00 6b3e 0bbe 53be 92aa cabd 9469 923e
000002c0: bf2e 153d 9d89 4ebe 17cf 2fbe 5d9c 2ebe
000002d0: 8f0f 533e c648 9f3d a96b e83c 6e4b de3e
000002e0: f1ee 053f cd96 a3be 5a7e 9abf 77f0 51bf
000002f0: 43a8 cebd b115 8c3e 9ea1 d2be dbb6 efbe
00000300: e553 2ebf 96a9 78bf 9952 02bf fc39 fa3e
00000310: 9ea8 523f 0545 a03e 7d10 8fbd 1a9e d4bd
00000320: 1b2f 9f3e e563 503e 563a 303d 6e53 e5bd
00000330: 395d 20be 25e5 cc3e 821d 763e 5c35 ffbc
00000340: 7405 443e 5be1 d53e 7b69 08be 3338 37bf
00000350: c37d acbf a9d2 22bf 386b 55bd 9068 30bf
00000360: cac7 57bf 92de 6fbf 2ad1 8dbf ecb3 4ebf
00000370: 0dbb ee3d 69a2 e53e fa52 923e cfd7 30be
00000380: 8945 d5bd e4ab a1be c849 8dbe fd8b 73be
00000390: 3e91 0cbe 1182 2fbe 6e6c f13d ff41 c73d
000003a0: 8496 c73d 8acc 36be a0c1 cfbe 6dfa 523f
000003b0: 76a8 873f c1ca 813f a1c5 523f 1e1c b63e
000003c0: e684 d43e 7605 973e 64ac cd3e f6ec 423f
000003d0: f42e 423f f30e b2be d4de 13bf b4fb 04bf
000003e0: 8ad9 483d 39f7 9d3e 09fe 09be 24b9 68be
000003f0: 988d 2ebe 9325 9bbe 058c c3be b1da 5ebe
0.06321252 0.22273043 0.5227131 0.35611576 -0.2967163 0.5245408 0.7177591 0.2690301
-0.2197116 -0.62237537 0.5314008 0.22208129 -0.59258085 -0.8507733 0.10992222 0.20946185
0.08484068 -0.9971146 -0.19494337 0.7092836 -0.01651706 -0.29851675 -0.95432657 0.05790695
0.46109098 -0.052098524 0.35643417 0.47302356 0.11371692 -0.36408308 0.3697375 0.4618324
-0.012493845 -0.60627663 -0.25461793 0.30631286 -0.123896316 -0.8634961 -0.5353992 0.48259926
0.026551524 0.13177738 -0.9266135 0.035932645 0.6472355 0.036187753 -0.35404202 -0.50776666
0.3344642 0.4551908 0.27834684 0.35103056 0.51802194 0.3261617 -0.2040467 0.6009235
0.66846794 0.19487083 -0.49605054 -0.40741444 0.41492277 -0.024167776 -0.8400737 -0.98680043
0.2307765 0.21833582 0.21507417 -0.83745074 -0.47227216 0.5256244 -0.08163938 -0.038548496
-0.80260736 0.10341721 0.5783154 -0.2502591 -0.45987746 -0.4680367 0.03529106 0.23688665
-0.4347372 -0.2839594 0.18508789 0.3834109 0.028767 -0.3072659 0.18270497 0.3055936
-0.03444985 -0.77308655 -0.2525389 -0.029156072 -0.028785758 -0.47873992 -1.1249781 -0.23830408
0.034124542 -0.23420605 -0.78139824 -1.1144998 -0.38722864 -0.36567917 -0.25507534 -0.024665758
0.1420359 -0.47904322 -0.14136262 0.28241763 0.391722 -0.15666375 -0.18932424 0.07232393
0.635976 0.23929255 -0.62510544 -0.117919736 0.101159394 0.4699582 -0.15761323 -0.3572154
-0.10070758 0.16906765 0.33718833 -0.58683497 -0.3596883 -0.24316412 -0.33979818 -0.43124256
-0.26796016 -0.11289398 -0.16329654 -0.048175607 0.13154213 0.22407572 -0.22296554 -0.019231187
0.17000686 0.74937373 0.3808478 -0.23105137 0.13251531 0.2642039 0.5456158 -0.046543464
-0.22738983 -0.10504115 0.19586876 0.3768826 -0.15490511 0.16549331 0.37349412 0.3154215
-0.17835632 -0.36599052 -0.3883516 0.48128563 0.39094457 0.23699738 0.3357195 0.31042153
0.090083 -0.57149357 -0.7248616 -0.0976883 0.39098296 -0.7938459 -1.6902988 -1.5614908
-1.0479462 -0.40436482 0.1734968 0.72399503 0.22949523 -0.20677964 -0.09895815 0.28596175
0.036421534 -0.20169683 -0.17168842 -0.17051835 0.20611404 0.07777552 0.028371649 0.43416923
0.5231772 -0.3195099 -1.206981 -0.82007545 -0.10090687 0.273603 -0.4113893 -0.46819195
-0.6809676 -0.9713377 -0.50907284 0.48872364 0.8228854 0.31302658 -0.06985567 -0.10381718
0.31090626 0.20350607 0.043024383 -0.111975536 -0.15660562 0.40018573 0.24034694 -0.031153373
0.19142705 0.41773495 -0.13321488 -0.7157013 -1.347588 -0.6360269 -0.052104205 -0.6890955
-0.8428923 -0.9369899 -1.1079457 -0.8074329 0.11656771 0.44850472 0.2857893 -0.17269824
-0.104136534 -0.31576455 -0.27595353 -0.2378387 -0.1372728 -0.1713946 0.117882594 0.09729385
0.097455055 -0.17851463 -0.40577412 0.8241337 1.0598285 1.014 0.8233281 0.35568327
0.41507643 0.29496354 0.40170586 0.76142824 0.75852895 -0.3477703 -0.57761884 -0.5194657
0.049035586 0.30852678 -0.13475813 -0.22726876 -0.17046201 -0.30302104 -0.38192764 -0.21763112

conv2.0.bias f4 [16]
00000000: 514c c8bd 819a 6a3c 7fc7 62bc ee12 c43c
00000010: 6450 abbd 5832 6cbd 3fe3 c2bd 8f40 033e
00000020: 7a50 f6bd 4ece 863c e8bc 4a3d 7e6d 2f3d
00000030: d45a 91bc 26cf 6dbd 38e6 00bc d2b3 b83d
-0.09780181 0.014319063 -0.013841509 0.023934808 -0.08364943 -0.0576652 -0.09516 0.12817596
-0.120270684 0.016455796 0.04949656 0.04282903 -0.017743506 -0.05805888 -0.007867388 0.09018673

fc1.0.weight f4 [120, 400]
00000000: f02a 3c3e d7b2 943e 3e2a 77bf 25a8 afbf
00000010: af1f 0ebf 18b4 ae3e 2970 9f3e ba0d d1be
00000020: 0fc7 cebe df32 7dbd 6009 143d 1120 f9be
00000030: 8629 aebd a3f4 a53d e4ea 9d3d c65b 16bf
00000040: dc27 33bf 5079 e63c 3c06 883e ac1b d63e
00000050: 2ae0 b5bc ec05 19be 6cb1 f63d bf6e 933e
00000060: 705b 493d 7ef2 78bd 41bb 5c3e 94d7 d23e
00000070: 1148 73ba f28d 46be 2c9f abbe 4817 36bf
00000080: aa20 913c 96fb 073f bd15 463e 64a1 5dbe
00000090: 4d38 a43e 3f30 84be ec7a b8be 6db6 39bf
000000a0: e4ba 013e 3baf f1bc 3462 9bbe afa6 4ebf
000000b0: 56c3 ce3d 6ec3 843e 4918 e03d 6eac 9e3c
000000c0: 90e7 353e 5f58 a23d 6757 bc3e 0f5d aa3e
000000d0: b3c7 873c 7009 23bf d771 adbe 369c abbd
000000e0: 768a bbbe 0ffa 21bd 5cf3 58be b8c3 d13e
000000f0: c5e8 1bbe df0d b1bd 0141 a1be 7544 523e
00000100: e318 b33e 1128 bc3e 2e06 7ebe fab0 993e
00000110: f453 8ebe 6e71 453e d60a b53d 9d97 bf3d
00000120: b38e 4e3e a88f be3e 9fa7 843e 1ed7 e4be
00000130: e324 19be 6ac7 213e 1e56 8e3e 86c3 eb3e
00000140: 6060 a2be 4be4 8fbe af07 0a3d 2a9b ad3d
00000150: 4e7c 2b3e 2578 a8be a16e 6cbe 951e 723c
00000160: dd36 b43d a227 04bf 8a6a 9f3e 6d43 be3d
00000170: 5f1b c4bd e3ba 62bf e101 bebf fc1f a33e
00000180: 6bbe 123f 1422 c2bd 9c3d c2be ee33 e4be
00000190: 1f56 22bf 02ab 87be f407 b43e 940a be3e
000001a0: 7eaa eb3e fd12 fabe ca4a 0dbf 3e4c 603d
000001b0: f9bc a63d 344a a0bc f29d 2a3e e3b5 9ebe
000001c0: 0045 9a3d fcb9 ebbb 2f5f b1bd 0784 be3e
000001d0: 63e2 9bbd c21a bebd 0b16 b1bd 44de b5be
000001e0: 019b 6f3e c4d3 8fbd 308d 71bb 02bd 84be
000001f0: d3ab 01bf 3d45 61bf ee99 42be 9103 243e
00000200: cb97 003e 72c9 f33e 1d95 3ebf 949f 1abe
00000210: bae7 96bb 4381 263f c7fe 7fbe 411d 9cba
00000220: 33a5 b5bd d235 873e cbe5 b9bd ff9a ccbe
00000230: 158c 80bd 6dad 6e3d af19 a1bd 81b1 8dbd
00000240: 0dd9 b0be 12f1 2b3e 151d 203d 38f8 46be
00000250: 01ea 25bf 99c7 8ebf fd28 ee3d f208 2ebd
00000260: bd61 353c c371 6ebd 406c 92bd 06a1 eabe
00000270: b2aa 99be 8c5d f2be db0b 363e 3e25 11bc
00000280: 54c0 88be 40b1 fdbd 2448 513d bac6 2bbe
00000290: bf6a a3be 2901 babe 6bb1 ff3e aff4 363f
000002a0: d41a 36bd 60a5 1b3e 02ed 683e 51d1 103f
000002b0: 78e4 ff3d 68f6 a33e 20ae 0e3f 60f6 10bf
000002c0: 7f21 adbe 9e83 5b3c 4c2a d53e e6d9 cd3e
000002d0: 6f29 66be 779c 29be 999b 873e 4ce3 203f
000002e0: 5c44 873f a987 1c3d 6c94 343e a8ae 0c3f
000002f0: 39b7 343f ab86 dd3e 0537 aabd a83c cbbc
00000300: 2ead d7bd 3b1a 23bf 1904 e2bc ddd6 473e
00000310: 8d0d 43bc f161 9cbe e366 80bf ff4f babe
00000320: f9bc 913e 510c d03e 13bb 81bf e13c 54bf
00000330: e72d cf3d 34ee c33d dbb3 13bd af5e e4be
00000340: 1771 b6bd 7699 263e 5ea1 363e a6ad 323e
00000350: cb91 debd 1c51 953e a894 903e 6c3a 0abd
00000360: e75c 03be 9961 fb3e 780c c4be 22da 173f
00000370: 78c8 73be 4a71 8abc df1c 3cbd 3279 2fbd
00000380: d9d7 213f e1dd d0be d19a b6bd 15ed d23e
00000390: f77e e53e 881d e23e b10b 61bf be7f a8be
000003a0: cebd 57bd dfcb b43c 4b90 14bd ad3d dabe
000003b0: 0b65 3c3d 383f 98be fb36 40bf 17eb f3be
000003c0: cc47 263e 8eea 7d3e e9b2 92be e8e1 82bf
000003d0: db8c a7bf 31cd 7b3e 5790 6f3e 1b2b 75be
000003e0: e342 4abf e2ed 66bf 3242 87bd 804e 673e
000003f0: ee7b e63e 1c6e 4d39 c81b d23d 704e 23bf
0.18375754 0.29042694 -0.9654883 -1.3723189 -0.55517095 0.34121776 0.3114026 -0.40830785
-0.40386245 -0.061816093 0.036141753 -0.48657277 -0.08504014 0.081033014 0.077108175 -0.58733785
-0.69982696 0.028134018 0.26567256 0.41817987 -0.022201616 -0.14943665 0.12045559 0.2879543
0.049159467 -0.060778134 0.21555807 0.41180098 -0.0009280453 -0.19390085 -0.33519876 -0.71129274
0.01771577 0.53118265 0.1934423 -0.21643597 0.32074204 -0.2581806 -0.36031282 -0.72543985
0.1266895 -0.029502502 -0.3034836 -0.8072309 0.10095851 0.2593035 0.10942132 0.01936933
0.17764115 0.07927012 0.36785433 0.33274123 0.016574716 -0.63686275 -0.33875915 -0.08379404
-0.36629075 -0.039545115 -0.21186584 0.40969634 -0.15225513 -0.08645224 -0.31494907 0.20533927
0.34979925 0.36749318 -0.24807045 0.30017835 -0.27798426 0.19281551 0.088399574 0.0935509
0.20171623 0.37218976 0.25909135 -0.4469537 -0.14955477 0.15798727 0.27800077 0.4604761
-0.31714153 -0.2810386 0.033698734 0.08476861 0.16746637 -0.32904163 -0.23089077 0.014777799
0.08799527 -0.51622975 0.3113597 0.09290204 -0.09575533 -0.88566417 -1.4844323 0.3186034
0.57321805 -0.09479156 -0.3793763 -0.4457087 -0.6341266 -0.26497656 0.35162318 0.37117445
0.46028513 -0.48842612 -0.55192244 0.05476021 0.081415124 -0.019566633 0.16661814 -0.30998144
0.07532692 -0.007193802 -0.08660733 0.37210104 -0.07611539 -0.092824474 -0.086467825 -0.35521138
0.23398973 -0.07022813 -0.0036857836 -0.25925452 -0.5065281 -0.87996274 -0.19004032 0.16016985
0.12557904 0.47614628 -0.7444628 -0.15099937 -0.0046052607 0.6504099 -0.24999534 -0.0011910574
-0.088694 0.2640825 -0.09077033 -0.39962003 -0.062767185 0.05827086 -0.07866227 -0.06918622
-0.34540597 0.1679118 0.039090235 -0.19430625 -0.64810187 -1.1154662 0.11628912 -0.042489
0.011070666 -0.05821396 -0.07149553 -0.45825976 -0.30013043 -0.47336996 0.1777796 -0.008858977
-0.26709235 -0.123873234 0.05109419 -0.16775027 -0.31917378 -0.3632901 0.49940047 0.7146711
-0.04445918 0.15199804 0.22746661 0.5656939 0.12494749 0.3202393 0.55734444 -0.5662594
-0.33814618 0.013398079 0.41633832 0.40205306 -0.22476743 -0.16563593 0.264859 0.6284683
1.0567737 0.038215313 0.17634743 0.54954004 0.70592076 0.43266806 -0.083112754 -0.024809197
-0.10531078 -0.637119 -0.027589845 0.19515558 -0.011905086 -0.30543473 -1.0031399 -0.36389157
0.28464487 0.40634397 -1.0135216 -0.82905394 0.10116177 0.09566918 -0.036060195 -0.44603488
-0.08908289 0.16269478 0.17834994 0.17449054 -0.108676516 0.29163444 0.28238416 -0.03374712
-0.12828408 0.490979 -0.38290763 0.5931722 -0.23806942 -0.016899724 -0.04592597 -0.04284019
0.6321998 -0.4079428 -0.08916248 0.41196504 0.4482343 0.44163156 -0.87908465 -0.3290996
-0.052671246 0.02206987 -0.03627042 -0.4262518 0.0459948 -0.29735732 -0.75083894 -0.47640297
0.16238326 0.24796507 -0.28652123 -1.0225191 -1.3089861 0.24589993 0.23394905 -0.23942225
-0.7900831 -0.9020673 -0.06604423 0.22588539 0.45016426 0.00019591342 0.10259205 -0.6379156

fc1.0.bias f4 [120]
00000000: 37d4 e03b 2e73 a9bb f280 94bd fa49 4c3d
00000010: a683 1c3c da30 1bbd 3c1d d8bd 804c ebbd
00000020: 6205 7dbd fcbf 013c 3201 1ebe fa4b 223c
00000030: 412c d23c 5501 87bc 14ff 1a3e 6cba cbbc
00000040: e4ad 3a3b 623b bc3d e939 e73d c339 1e3d
00000050: eccb 1f3d 4046 803d d6cc b73d fa75 b7bd
00000060: 7383 cb3d c144 e6bc ce01 43be c3f1 2d3b
00000070: f470 3a3d 959b 4a3d 0bf0 e2bd 4904 69bd
00000080: 9e9a e2bd fc53 8fbd ffe9 133d 0c30 6fbd
00000090: 6e7e 3d3e c8b6 00be b06e 053d f8cf 14be
000000a0: 70a8 27bd 9864 b1bd 6628 52be 2fe8 10be
000000b0: 26cb 053c 8ce3 3fbe ed75 003d 9e9c 32bd
000000c0: 8a76 e5bd 811d 39bb 102a 0fbe 216b f6bd
000000d0: 1cc7 da3d e504 d6bd 1f45 913d c4cd c2bd
000000e0: 2e04 bd3d 90f6 09be 476d abbd aa33 fbbc
000000f0: c19d 0b3d 91bf babb 1805 e13c 1321 75be
00000100: e03d 0a3d 2960 bbbd 7f78 023d 5f5f 22be
00000110: 7a6d 143e b0ac fdbd 6153 d0bb 6325 fcbd
00000120: 7d47 ccbd dd7f 0cb9 bae2 4fbc 113c 34be
00000130: 8b1e 8b3d 2002 bbbc 2fbb df3c f0c7 fb3c
00000140: b7cd 663d a403 e53d 8679 5bbc d006 eebd
00000150: abbc 82bc e7fa 0d3d 2859 1a3d c120 fb3c
00000160: dc11 4fbd 0c4c babb fe25 0c3e 8ad0 78bc
00000170: 7e90 183d 33ea 173e e5d5 23bd aa1d d43b
00000180: cf1c 26bb 2a50 e0bd 4056 e2bd f965 d1bd
00000190: 36cb fabd 08a0 d73a 0727 d33d 9098 ab3d
000001a0: 091d 3bbe 3692 853d fab2 1e3d 81f1 79bd
000001b0: 203b 4b3d 6794 29bd f4db e0bd 102a 063d
000001c0: 6d94 edbc d769 bfbd 5aca f5bc 1777 483d
000001d0: 2c46 bf3b 8e98 4e3e df0a d5bd d095 233d
0.0068612355 -0.005171201 -0.07251157 0.049875237 0.009552872 -0.037888385 -0.10552451 -0.114892006
-0.06177271 0.007919308 -0.15430143 0.00990581 0.025655868 -0.016480127 0.15136367 -0.024869166
0.0028484995 0.09191014 0.11290342 0.038629305 0.039012834 0.06263399 0.08974616 -0.08958049
0.09937181 -0.028108956 -0.19043657 0.0026541806 0.045517877 0.04946478 -0.11080941 -0.056888852
-0.11064647 -0.069984406 0.036111828 -0.05839543 0.1850526 -0.12569726 0.032576263 -0.14532459
-0.04093212 -0.08661765 -0.20523223 -0.14151071 0.00816611 -0.18739146 0.031362463 -0.043606393
-0.1120425 -0.0028246345 -0.1398089 -0.12032152 0.10682508 -0.10450152 0.07093262 -0.09511903
0.09229313 -0.13472962 -0.083704524 -0.030664284 0.034085993 -0.005699106 0.02746825 -0.23938398
0.033750415 -0.091492005 0.031853195 -0.15856694 0.14494887 -0.12386453 -0.006357596 -0.123118185
-0.09974573 -0.00013399073 -0.012688333 -0.17601039 0.06792935 -0.022828162 0.027310936 0.030734986
0.05634853 0.11182335 -0.013395673 -0.11622393 -0.015959105 0.034663107 0.037682682 0.030655267
-0.05055414 -0.005685335 0.13686368 -0.015186438 0.037247173 0.14835434 -0.039998908 0.006473263
-0.002534676 -0.1095279 -0.11051607 -0.10224528 -0.12245791 0.0016450891 0.10310178 0.08378708
-0.18272795 0.06522028 0.038744904 -0.06102133 0.049616933 -0.041401293 -0.10979453 0.032754958
-0.029001439 -0.09346359 -0.030003715 0.048941698 0.0058372226 0.20175382 -0.10402464 0.039937794

fc2.0.weight f4 [84, 120]
00000000: 1800 cfbd dc22 0e3f 0ec9 f83e e440 c3bd
00000010: 2b43 39be 3c5f 4b3f a7b3 f5be 7f11 48bd
00000020: e6c1 4ebe 869b e13e c7e5 05bf 1505 66be
00000030: f399 31bf 2e82 383e f894 49be dc6f 1ebf
00000040: c92a 813e 83ff 19be 33c1 a83d a971 393d
00000050: 3326 a03e 3d93 9abe db51 e73c 5f33 76bf
00000060: 990e 0bbf 8dbf 4b3f 8c6f c83e 5b04 c23d
00000070: f7e3 75bd 933c 1e3f 35de acbd 8a44 0e3e
00000080: 6287 19be af98 d13c 90bb 0cbf 3bc8 403f
00000090: aeb1 f13d 5828 f23d 1977 c2be 1870 20be
000000a0: fdd5 9abe 08ac 083d a97d e3be 5b3a f3bd
000000b0: 7489 09bf d529 94be 2e63 ce3e d597 d73e
000000c0: d919 063d 8c99 84be 7318 44be bfba 27bf
000000d0: 9623 673e 60cd 97bf d062 d4be afe8 92be
000000e0: f797 9e3c 4598 03bf a84e 473e 7c9c a53d
000000f0: abc2 053f 510d 6dbd 1d29 343f a034 40bf
00000100: 38f6 543e 0024 79be e78b 9d3e d715 93bd
00000110: b73d 153e 7b3a e2be dd80 e3ba 1a15 183f
00000120: 8ceb afbd 2fa0 c9bd c309 823e 7701 8bbf
00000130: f90c f4be bc62 043f 992d bd3e 2ab9 e13e
00000140: ea80 2d3e d125 a2be 65b2 1dbe f23c 103e
00000150: 17de fc3e a3ad 1c3d b16f 3bbf 49a5 d33e
00000160: 2731 a0be a8f4 cf3e 2310 043f dcfd 843e
00000170: cbfd 373e 78f4 7dbe 1616 f3bd f95f 833e
00000180: 7922 b2be 2803 18bf f9a0 88be 704c 443e
00000190: 6c58 66bf 0553 683f 2898 a63d 0c62 2bbf
000001a0: d989 3dbf 2fdf eebe 67be 00be 3cd4 603c
000001b0: 091e db3e 0252 fa3e 2b87 123f ac36 35be
000001c0: 955f dabe 2dd3 e33e 1796 6d3e 62a3 fc3c
000001d0: f1d8 6abe 99b8 93bd 081e 273e b176 3b3e
000001e0: c78d adbd 7b3e 683d f73a 6fbe a406 d8bd
000001f0: 74b8 04bf 3898 bfbe f933 a03b f3d7 933d
00000200: 9fc0 513e b134 1fbf 83c8 143e a207 a03e
00000210: 291b 8fbe f915 06bf de0f a8bd c863 d1be
00000220: 1cd1 ec3e 9464 97be 78cc a83e c041 543e
00000230: 9926 83be 35a6 223f 954a e0be ad89 7d3e
00000240: 9386 8dbe d697 df3d 5dac 0e3e ec2d 8e3f
00000250: f7a5 fd3c 118d 2abe 36d3 02bf f00f 81bf
00000260: 0b2d cabe 194e b33d 9496 0c3d f31c d33e
00000270: afe4 f13e 4151 b43d d67a 7b3e e438 b8be
00000280: cb0d eb3d 6922 3f3f 3abc 34be 4b62 2f3f
00000290: 4e8c a2bc 11fe 1e3f c524 cbbc 32c0 61be
000002a0: 46bf b7bd ef59 24be 0c93 9f3e 4b66 cc3e
000002b0: cf9b 78bd 4468 973f 6b57 0b3f bcde ea3d
000002c0: 556c b7be 649a 6b3e 27b5 ebbe 8280 043e
000002d0: fead b93d 592d ee3e c21e f63e 3100 21bf
000002e0: b952 ad3e 32b2 48be 0029 81be be04 a2bd
000002f0: b07d ed3d 3a57 f5bc 379e 0d3f 9c3c fdbe
00000300: ef35 06be a1b4 18be bb20 b7be bf06 41be
00000310: 9c9b 15bf 6757 a63c 1185 583d b888 263f
00000320: d4db 1dbf f9e0 063e d79c 593d 6cf2 aabe
00000330: 38a0 fabe 5388 de3d 7be2 933d 63bd 05bf
00000340: eb7b cf3e 6543 09bf 0bbe 9e3d 8100 8bbe
00000350: fd83 d43e a776 0e3f 1a4d 96be 4d24 923e
00000360: aedc 3b3f bde5 503f 9b53 69bd 4d26 41bf
00000370: 1fec 3d3e 69c8 2fbe 1002 443e 9aba 133f
00000380: 72f9 373e aae9 1ebf f6e7 4cbe f3ad 3dbf
00000390: d2ff 033f f16a 4f3f 48b5 38be 1bc4 a8be
000003a0: 20e6 183f e35c 40be 01ea ef3e 4fd6 163f
000003b0: 83d2 cb3d 72d4 b23e 6c2d 83bf 623d c4bd
000003c0: 7de1 8f3f 7c8d 25bd 00eb 7b3e 2f84 b83e
000003d0: 3c57 c13e 4d9a ae3e fe89 9abe 63c9 1dbf
000003e0: 0544 913c fe03 063f f464 a33e 0972 27bd
000003f0: a4a3 62be 236a 94bc 9681 44be b2a7 9ebe
-0.1010744 0.5552194 0.48590893 -0.09533861 -0.18092029 0.7944219 -0.47988626 -0.04884481
-0.20191154 0.44063967 -0.5230374 -0.22462876 -0.6937553 0.1801841 -0.19685733 -0.61889434
0.25227955 -0.15038876 0.08239975 0.04527441 0.31279144 -0.3019046 0.028237274 -0.96172136
-0.5431915 0.7958916 0.39147604 0.09473487 -0.060031857 0.6181118 -0.0844082 0.13893333
-0.1499305 0.0255855 -0.549737 0.7530553 0.11801468 0.11824101 -0.3798149 -0.1566776
-0.30241385 0.033367187 -0.4443181 -0.11876365 -0.5372536 -0.28938165 0.40310043 0.42108026
0.032739494 -0.25898397 -0.19149952 -0.65519327 0.22572169 -1.185955 -0.41481638 -0.28693148
0.019359572 -0.5140422 0.19463599 0.08086488 0.52250165 -0.057874028 0.70375234 -0.750803
0.2079705 -0.24330139 0.307708 -0.071819 0.14574324 -0.44185242 -0.001735713 0.594072
-0.08589849 -0.09845006 0.25398073 -1.0859822 -0.47666147 0.51713157 0.3694885 0.4408658
0.16943708 -0.31669477 -0.15400083 0.14085749 0.4938819 0.03825153 -0.732173 0.4133704
-0.312875 0.40616345 0.5158712 0.2597493 0.17967908 -0.24800289 -0.11869447 0.2565916
-0.34791926 -0.59379816 -0.26685312 0.19169784 -0.8997867 0.9075168 0.0813449 -0.6694648
-0.74038464 -0.4665465 -0.12572633 0.013722476 0.42796353 0.48890692 0.572375 -0.17696637
-0.42651048 0.44497052 0.23201786 0.030839626 -0.22934319 -0.072129436 0.1632005 0.18306996
-0.084743075 0.05670021 -0.23362337 -0.105481416 -0.51843953 -0.3742082 0.004889008 0.072189234
0.20483635 -0.62189776 0.14529614 0.31255823 -0.2795041 -0.5237728 -0.082061514 -0.4089644
0.46253288 -0.29568923 0.32968497 0.20728207 -0.25615385 0.6353486 -0.43806902 0.2475955
-0.27641734 0.10917632 0.13932939 1.1107764 0.030962927 -0.16655375 -0.5110353 -1.0082989
-0.3948749 0.0875513 0.03432329 0.41233024 0.47244784 0.088045605 0.24558577 -0.35980904
0.1147724 0.7466188 -0.17649928 0.6850936 -0.019842293 0.62106425 -0.024797807 -0.22045973
-0.089720294 -0.16049932 0.31166875 0.39921793 -0.060695466 1.1828694 0.54430264 0.114682645
-0.35824838 0.23008114 -0.46036646 0.12939647 0.090663895 0.46518973 0.4807034 -0.6289092
0.33852175 -0.19599226 -0.25226593 -0.07911061 0.115962386 -0.02994882 0.5531954 -0.49460304
-0.13106512 -0.14912654 -0.3576716 -0.1885023 -0.58440566 0.020305349 0.052861277 0.65052366
-0.61663556 0.13171758 0.05312809 -0.33388078 -0.48950362 0.108658455 0.07220932 -0.52242106
0.4052423 -0.5361846 0.077510916 -0.27148822 0.4150695 0.556498 -0.293557 0.2854332
0.73383605 0.8160055 -0.056964498 -0.7544907 0.18547104 -0.17166294 0.19141412 0.57706606
0.1796625 -0.62075293 -0.20010361 -0.7409355 0.51562226 0.81022555 -0.18037903 -0.32962117
0.5972614 -0.18785433 0.46858218 0.5892076 0.09952261 0.34927708 -1.0248237 -0.0958202
1.1240689 -0.040418133 0.24601364 0.36038348 0.37761867 0.34102097 -0.30183405 -0.61635417
0.01773263 0.5234984 0.3191296 -0.040880237 -0.22132736 -0.018117016 -0.19190058 -0.30987316

fc2.0.bias f4 [84]
00000000: 73b6 333d 1cb9 c23d c887 ff3b e4df 863d
00000010: 8d0e 03bc 1a67 58bc d882 2c3c 483d 5cbd
00000020: 97f6 ae3d 3a16 b4bd 90e6 30bc 849f 0f3d
00000030: b3cf bcbd 5606 cd3a b2d1 01bd e9dc 52bd
00000040: 6bd2 a8bd 1297 013c 0433 c2bd 5839 533d
00000050: 2153 e03d 4f39 93ba 50fc 6f3d 5828 2dbc
00000060: 77b9 423d 4484 0e3d dbe7 8e3c 0455 3abd
00000070: 43fd 0d3d 37ef d43c 7499 d3bd 47ad f4bc
00000080: a82d 83bd 923b 48bd da5d 603d 4d8f edbd
00000090: 6b27 90bc 2758 e13d f191 bbbd 3aee 63bd
000000a0: f787 a53d f193 77bd 1a89 babc 51e9 29bd
000000b0: 4201 eabc e1ad 933d 060c ec3c 312b 19bd
000000c0: d4be 3a3d f9d8 7cbd a587 2d3d 0aaf 24bd
000000d0: 061a 2abd b29d 3fbd b2e5 13be f666 b73c
000000e0: 2f65 8dbd e0eb 27bd 7bf6 23bb 1753 8b3c
000000f0: 24b5 5c3d e154 353d 72fe c8bd 2bbd 5a3d
00000100: 7bc2 8bbc e4a2 e53d 4dcf efbd 6a8d 4dbc
00000110: b41f 53bd 5bc6 b13d c9ec 4c3d 12a8 6b3c
00000120: 4c77 65bd 20e9 76bd 3cff f33d b015 52bc
00000130: 3fb4 d83c d6b2 bb3d 92ed 1d3d 054f 1f3d
00000140: ed14 4cbd 564c 303c c62d a73d 1f17 183b
0.04387517 0.09507963 0.007798169 0.065856725 -0.007999075 -0.013208175 0.010529242 -0.05376938
0.08543127 -0.08793302 -0.010797158 0.035064235 -0.09219303 0.0015642147 -0.03169412 -0.051480208
-0.08243259 0.007909553 -0.09482387 0.05156836 0.109533556 -0.0011232289 0.058590233 -0.010568701
0.047540154 0.034794107 0.017444542 -0.045491233 0.034665357 0.025992973 -0.10332003 -0.029867781
-0.064051926 -0.048884936 0.054777004 -0.11599598 -0.017596921 0.11003142 -0.091586955 -0.055647112
0.08082574 -0.060443822 -0.022770453 -0.041482273 -0.028565053 0.07210899 0.028814327 -0.037394706
0.045592144 -0.06173036 0.04236569 -0.040205993 -0.041528724 -0.04678125 -0.1444309 0.022387963
-0.06904065 -0.040996432 -0.002501874 0.017007394 0.053883687 0.0442704 -0.098141566 0.05340306
-0.017060509 0.112127095 -0.11709461 -0.012545923 -0.051543906 0.086804114 0.050030503 0.014383333
-0.056021973 -0.06028092 0.119139165 -0.0128225535 0.026453136 0.091649696 0.038556643 0.03889372
-0.049824644 0.010760387 0.081630275 0.002320714

fc3.weight f4 [10, 84]
00000000: f63e 9c3e 7187 1c3e af7e a93e 2ea4 82bf
00000010: c378 11bf 9d91 c9bc cd8f 61bf c6b0 3dbf
00000020: 7229 33be d670 8a3e b779 343d a27f c2be
00000030: bb13 d73e ce8e 9cbf 4492 87bf 8bfb 30bf
00000040: b158 823e 33e3 463e 3987 03bf 3959 2c3e
00000050: 8694 6cbc c60d 48bf ed62 a73e b74f 573e
00000060: 752c 38bf ed87 9abf 4ff0 88be c5de 83bf
00000070: a516 0dbf cdf5 a23e 660c ec3e 814b 84bf
00000080: 67a8 b73e cd10 fd3e 09be b1bf 1505 69bf
00000090: 06ed e93e f1b2 4bbf bb32 a23e ebd5 67be
000000a0: 232a b7bf de80 f93e fa4c c03e fc25 b73e
000000b0: 5122 8fbf 6785 80bf 2d20 31bf 4a15 303e
000000c0: c615 343f 4352 a83e e2ba 82be 91b7 77be
000000d0: 397f a63c 5640 59bf b370 8abe 4dfd 423f
000000e0: b5ee 21bf 791f 963e 5795 2abf 7c1e 25bf
000000f0: f3d9 b3be 52f9 e6be 5f3a 2a3f 79a3 22bf
00000100: 71fb 013d 2d89 69bf 956d 97bf f068 f73e
00000110: c930 003f 4da4 12bb 8410 7d3e 0c66 333f
00000120: 830c 7e3c 1935 b73e f445 ca3e a491 2c3e
00000130: c0f2 143f d260 c4be f498 343c 5f36 e03e
00000140: 9aee a83e 1060 8cbf 9c8c 8abf e478 94bf
00000150: 8d05 81bf 7038 b33e 0b27 2cbf 86ba 21bf
00000160: 28d8 843e 4189 fb3e 1684 ef3e b027 50bf
00000170: f9c2 f93e 5204 52bf 8da4 f6be af48 063f
00000180: 645e 873e 9acf b23e 0847 be3e 2254 13be
00000190: ffbf 15bf 7c17 0f3e 70fe 55be 1f29 d13d
000001a0: 7fd8 dd3e c161 d53e 1dd1 a13e ccfc 32bf
000001b0: 83de bd3e 2d24 b03e 1908 eb3e 7eaa b53e
000001c0: 903c 413e a85a 4abf d347 813e 3f78 46bf
000001d0: 2ee2 ecbe ae75 863e b662 393e 7a82 e33d
000001e0: af14 1fbf 63f3 413e ec80 90bf d15b 093f
000001f0: 4dfe f7be 1717 4d3e ba85 6ebf 2ad5 2b3b
00000200: 9082 edbe f93c 93bc c91b c13e ac9e 2dbf
00000210: 0130 e33e 1ba5 2b3f 1ed2 5ebf e585 023f
00000220: e4d0 b2bf 468e 993e 5cab aabe 9bf4 d03d
00000230: 0838 f53e 2cac 1abf 1cdc 66bf 0c1c 253f
00000240: 6220 b0be 895b 67bf f579 17bf 7ad2 023f
00000250: a4f2 e53e c6df cd3e 860b 29bf b7c5 0cbf
00000260: a465 c0be f50a 35bf e54d 2fbf b2e8 e9be
00000270: 0ed5 c8bf 11f3 c03e d96f 8e3e 72ba 4dbf
00000280: 9a82 23bf bc02 2e3f 224b 66bf 71e4 d5bd
00000290: 715e f8be 5ac4 b33d 137e b6bb 1bfd 2dbc
000002a0: 4cbd 91bf 03cd 3a3e 8d70 353e eff3 01bf
000002b0: 630b 1f3f 353a 863e 0a5a 75bf 8c64 28bf
000002c0: d460 413e 57fa 313e c7e6 0a3f 310a 0ebf
000002d0: 4f34 19bf 38af 70bd 8d79 cf3e 041e 77bf
000002e0: 0974 293f d422 083e 31c8 d13e 008d 833e
000002f0: bb56 01bf a5bb 293f 203f d93e 6df8 27bf
00000300: 1ed2 663e 52da e33d 0697 5bbf e020 e23e
00000310: 133d 7bbe 99c7 47bf 8336 92bd 4991 64be
00000320: c16c 86bf 2ea8 82be 1319 76bf b81e eb3e
00000330: 824a a53e 40db 633e 4312 733f 45cf 98bd
00000340: a69c d3be 9652 b93e eca6 6d3e 584b 81bf
00000350: f24f a03f 6616 c4bd 3ca8 4fbf 7283 0dbf
00000360: 065b 1d3f 8637 54be 0e4d bebe addc 1bbf
00000370: ce4c 3ebe 9c81 0b3f 070a 0cbf 987c 0a3f
00000380: 183d 4dbe 0114 923e 06aa 4cbf 3f3b 6e3e
00000390: eade 69be 4ce5 e13e 92d5 633e 90ba a4bf
000003a0: 4ccf d5be 82b5 c5bd e23e cd3e cd1c 8e3e
000003b0: 6926 343f 76f6 5e3e becd 63be fc72 273f
000003c0: 2b7c 0f3e 72a4 013f 7982 a1bf 53be aebf
000003d0: 91af 803e 3022 65bf e681 93bf 86d0 5fbf
000003e0: 43f7 cfbe 80b2 c83e 7063 593d a6fc 3bbf
000003f0: b3d2 10bf a3ee 12bd e694 ea3e 7463 9cbd
0.30516785 0.15286042 0.33104464 -1.0206354 -0.5682489 -0.024605567 -0.8811005 -0.7409786
-0.17496279 0.27039212 0.04406139 -0.37988 0.4200724 -1.223108 -1.0591512 -0.69133824
0.2545829 0.19422607 -0.5137821 0.1683091 -0.014439708 -0.78146017 0.32692662 0.21026503
-0.71942836 -1.2072731 -0.2674584 -1.0302359 -0.5511268 0.31828156 0.4610321 -1.0335542
0.35870668 0.4942688 -1.3886119 -0.9102338 0.45688647 -0.7956992 0.3167933 -0.22640197
-1.4309734 0.4873113 0.37558728 0.35771167 -1.1182348 -1.0040711 -0.6918972 0.17195621
0.70345724 0.3287526 -0.25533205 -0.24191119 0.020324336 -0.84863794 -0.27039108 0.76167756
-0.63254863 0.29320887 -0.66634125 -0.6449964 -0.3512722 -0.4511209 0.6649532 -0.6353069
0.031733934 -0.9122494 -1.1830317 0.48322248 0.5007444 -0.0022375763 0.24713331 0.70077586
0.015505913 0.35782698 0.39506495 0.16852432 0.5818291 -0.38355118 0.011022795 0.43791482
0.3299454 -1.0966816 -1.082416 -1.1599393 -1.0079819 0.35003996 -0.67247075 -0.6317524
0.25946164 0.49128154 0.4678046 -0.8131056 0.48781565 -0.8203784 -0.48172417 0.52454656
0.26439202 0.34924012 0.37163568 -0.14387563 -0.5849609 0.13973802 -0.20897841 0.10212921
0.43329236 0.41676143 0.31604853 -0.6991699 0.37083825 0.344026 0.45904616 0.35481638
0.18870759 -0.7904458 0.2525011 -0.7752723 -0.4626631 0.26261657 0.18104061 0.11108871
-0.62140936 0.18940501 -1.1289344 0.53655726 -0.48436204 0.2002834 -0.931728 0.0026219585
-0.46388674 -0.01797341 0.3771651 -0.6782024 0.44372562 0.67048806 -0.87039363 0.50985557
-1.3969998 0.2999136 -0.33333862 0.10202905 0.4789431 -0.60418963 -0.9017961 0.6449592
-0.34399706 -0.90374047 -0.59170467 0.5110241 0.44911683 0.40209788 -0.6603321 -0.5498919
-0.37577546 -0.70719844 -0.6847823 -0.45685345 -1.5690019 0.37685445 0.27819708 -0.8036262
-0.6387116 0.6797292 -0.89958394 -0.10443962 -0.48509553 0.087776855 -0.0055692284 -0.010619427
-1.1385894 0.18242268 0.17718716 -0.5076284 0.6212675 0.26216283 -0.95840514 -0.6577842
0.18884593 0.17380653 0.5425839 -0.554843 -0.5984544 -0.05876085 0.40522423 -0.96530175
0.6619268 0.13294536 0.40973046 0.25693512 -0.50522965 0.6630195 0.42430973 -0.6561344
0.22541091 0.11125626 -0.8577732 0.44165707 -0.24535017 -0.78038937 -0.071393035 -0.22321047
-1.0501939 -0.25518936 -0.9613201 0.45921874 0.32283407 0.22251606 0.9494974 -0.074614085
-0.4133045 0.3619582 0.23208207 -1.0101118 1.2524397 -0.09574585 -0.8111608 -0.55278695
0.61467016 -0.20724306 -0.37168163 -0.608836 -0.18583986 0.54494643 -0.547028 0.54096365
-0.20042837 0.28530887 -0.79946935 0.23264788 -0.22838941 0.44120252 0.2224944 -1.2869434
-0.41759717 -0.096537605 0.40087038 0.27756348 0.7037111 0.21773705 -0.22246453 0.6540983
0.1401221 0.5064155 -1.2617942 -1.3651832 0.25133947 -0.8950529 -1.1524017 -0.87427557
-0.40618333 0.39198685 0.053073347 -0.73432386 -0.565715 -0.035872113 0.45816725 -0.07636157

fc3.bias f4 [10]
00000000: 3bfe 86bd fcd6 09bc 337b d1bc 4ea1 433c
00000010: 1c1a 96bd 0000 13be 9067 c03d aafb a33d
00000020: fd1d 1c3d cd3d a93d
-0.06591459 -0.008413073 -0.025571441 0.0119403135 -0.07329199 -0.14355469 0.09394753 0.080069855
0.038114537 0.08263741
