6_ConvolutionalNeuralNetwork/LeNet/model9.pth (torch, 250410 bytes, 10 tensors)

conv1.0.weight f4 [6, 1, 5, 5]
-0.2979955 0.23089415 0.03190445 0.6225693 0.19463219 0.22168507 0.81575394 0.9375034
1.2013112 0.37626034 -0.21581683 0.61273575 0.7359198 0.63144976 -0.50501317 -0.39637187
0.31026465 -0.11651684 0.08412443 -0.92728156 -0.6148011 -0.601315 -0.78320396 -0.32891938
-0.78600633 -0.779861 -0.32469642 -0.113127105 -0.25512055 0.11973489 -0.19156383 0.49339047
0.6469118 0.5567276 0.6829269 -0.1025385 1.171684 1.6994933 0.6700514 0.5143384
-0.47069934 0.75666493 0.19172427 0.20624168 -0.15037496 -1.271144 -0.6584038 -0.702367
-0.5211124 -0.49210244 -0.520385 -0.23442768 -0.2899155 -0.08657008 -0.811953 0.75333625
0.7270191 0.9785048 1.1078842 -0.54359233 0.5303063 0.7999828 1.12182 0.71933454
-0.6480801 -0.035162576 0.7356465 0.4276997 0.32007283 -0.6297785 -0.49706948 -0.19981164
-0.40139112 -0.443255 -0.8304339 0.5022842 0.5867414 0.64782745 0.511182 0.589058
0.21536125 0.06555495 -0.35833997 -0.18740971 -0.13552068 -0.5590551 -1.4225985 -1.0804837
-0.980383 -0.6954107 -0.8902592 -0.6998264 -0.19345284 -0.075297005 -0.58315307 -0.0111568365
0.728037 0.7616062 0.3074742 -0.15224656 0.7104943 1.1157644 0.5231463 0.65199256
0.80682176 0.23399298 -0.41096714 -0.6078123 -0.7118465 -0.33946618 -0.1648718 -0.5441527
-0.5441532 -0.49067652 -0.3733321 0.4109355 -0.39635053 -0.91343045 -0.41817874 -0.3209981
0.81633615 0.006427656 -0.36109564 0.17513014 0.46284974 0.30762225 0.47751063 -0.11910422
-0.8246614 -0.5720808 0.19117525 0.0023952017 -0.5186243 -1.1983608 0.1447266 -0.08356879
-0.104693174 -0.7888395 -0.7549808 0.6034184 0.28783146 -0.38275376 -1.1502889 -0.17101935
0.090615064 0.7316202 -0.3831893 -1.2712023 -0.49641812 0.34693772
00000000: de92 98be 846f 6c3e 3eae 023d b460 1f3f
00000010: a94d 473e 6901 633e 40d5 503f 3900 703f
00000020: 91c4 993f 32a5 c03e 16ff 5cbe 40dc 1c3f
00000030: 3d65 3c3f b1a6 213f 8b48 01bf 41f1 cabe
00000040: 02db 9e3e 62a0 eebd 6e49 ac3d 5362 6dbf
00000050: 9b63 1dbf c8ef 19bf 0e80 48bf 1f68 a8be
00000060: b637 49bf f8a4 47bf 9c3e a6be 2faf e7bd
00000070: 299f 82be 9137 f53d 4f29 44be ad9d fc3e
00000080: 039c 253f b385 0e3f 4cd4 2e3f b5ff d1bd
00000090: bef9 953f ff88 d93f 7d88 2b3f aeab 033f
000000a0: 81ff f0be cbb4 413f 5e53 443e 0531 533e
000000b0: e5fb 19be d9b4 a2bf 278d 28bf 53ce 33bf
000000c0: 9f67 05bf daf4 fbbe f437 05bf cf0d 70be
000000d0: ce6f 94be a74b b1bd 27dc 4fbf a5da 403f
000000e0: ec1d 3a3f 4a7f 7a3f 26cf 8d3f de28 0bbf
000000f0: 27c2 073f accb 4c3f cc97 8f3f 4f26 383f
00000100: 94e8 25bf a206 10bd 5453 3c3f 75fb da3e
00000110: 96e0 a33e 2a39 21bf e47f febe 6c9b 4cbe
00000120: 2383 cdbe 52f2 e2be 5197 54bf b395 003f
00000130: af34 163f 05d8 253f d3dc 023f 81cc 163f
00000140: a987 5c3e ac41 863d 5678 b7be 55e8 3fbe
00000150: efc5 0abe 3c1e 0fbf b517 b6bf 4a4d 8abf
00000160: 61fa 7abf 7006 32bf 07e8 63bf d327 33bf
00000170: 8018 46be 5135 9abd 8549 15bf 2acb 36bc
00000180: a260 3a3f a0f8 423f 426d 9d3e 86e6 1bbe
00000190: f4e2 353f 5ed1 8e3f eaec 053f fce8 263f
000001a0: df8b 4e3f db9b 6f3e 496a d2be 9699 1bbf
000001b0: 923b 36bf 83ce adbe 27d4 28be 974d 0bbf
000001c0: a04d 0bbf f439 fbbe 6325 bfbe 2366 d23e
000001d0: 75ee cabe 94d6 69bf 861b d6be dd59 a4be
000001e0: 68fb 503f 169f d23b 87e1 b8be 5155 333e
000001f0: a4fa ec3e aa80 9d3e 467c f43e eaec f3bd
00000200: 021d 53bf e373 12bf 72c3 433e d1f8 1c3b
00000210: 90c4 04bf e363 99bf 3633 143e 1d26 abbd
00000220: 6069 d6bd 63f1 49bf 6c46 41bf a179 1a3f
00000230: a55e 933e 4df8 c3be ab3c 93bf b21f 2fbe
00000240: 6494 b93d 764b 3b3f 6331 c4be c2b6 a2bf
00000250: 842a febe d2a1 b13e

conv1.0.bias f4 [6]
-0.76671314 -0.8375153 -0.7666083 -0.021723412 -0.12104831 -0.4934664
00000000: 5047 44bf 6767 56bf 7140 44bf 4cf5 b1bc
00000010: 2de8 f7bd a1a7 fcbe

conv2.0.weight f4 [16, 6, 5, 5]
0.19152707 0.3053076 0.5192645 0.24188088 -0.2568102 0.44026652 0.61162525 0.1853404
-0.18574804 -0.46688986 0.46092832 0.23034693 -0.5115221 -0.72658974 0.08415575 0.21865302
0.08352478 -0.8656639 -0.23714998 0.6246742 -0.005402198 -0.29412976 -0.77448016 0.014398977
0.41508806 0.14332151 0.4039575 0.4572871 0.094509095 -0.22500841 0.25434488 0.36522034
-0.0060193585 -0.44041905 -0.18255854 0.33472142 -0.031333614 -0.7286563 -0.3939709 0.43810782
0.07212702 0.042622253 -0.7375841 0.041714244 0.5835912 0.05046771 -0.29241624 -0.43476817
0.26223978 0.4285215 0.35831976 0.36463013 0.51512724 0.2820974 -0.11727504 0.4693724
0.56301105 0.1461789 -0.40542293 -0.2775542 0.31128734 0.0543235 -0.66800857 -0.8386869
0.24672452 0.17221361 0.16394085 -0.6706566 -0.39650002 0.4377069 -0.049395327 -0.053795274
-0.64502627 0.059902847 0.5034664 -0.281856 -0.40063325 -0.42921075 0.017572468 0.1492355
-0.34921357 -0.21553533 0.15744436 0.34656435 0.04466272 -0.2734152 0.10651787 0.25641924
-0.013378115 -0.7146064 -0.214573 -0.03974782 0.015442213 -0.39066434 -0.9082161 -0.26069063
0.0101575535 -0.18763112 -0.6667206 -1.0035654 -0.34505084 -0.3439717 -0.24197306 -0.0777095
0.01963461 -0.33201477 -0.108085334 0.27921122 0.29585606 -0.14436945 -0.2161656 0.011827404
0.5695093 0.19518895 -0.540188 -0.1266631 0.13187556 0.4288669 -0.072167836 -0.30544308
-0.14656319 0.1358047 0.29574576 -0.41515496 -0.32900903 -0.2332504 -0.3396774 -0.36607054
-0.17572276 -0.14221138 -0.1733991 -0.09715807 0.17440003 0.18661723 -0.25106457 -0.04033658
0.14223744 0.68719256 0.2826753 -0.19373107 0.09615291 0.28476503 0.52164286 -0.012647068
-0.20523289 -0.09766566 0.16655768 0.3168787 -0.10531118 0.12567551 0.297362 0.17501791
-0.23583475 -0.33009475 -0.30228242 0.4833472 0.31807938 0.26029962 0.36233628 0.35984695
0.083747245 -0.547208 -0.66699153 -0.19193785 0.2590267 -0.67893976 -1.3710014 -1.2467116
-0.85097766 -0.36559513 0.09836732 0.5286677 0.16870251 -0.15287776 -0.06910473 0.19536388
-0.027971713 -0.17205627 -0.11210493 -0.10599465 0.21798918 0.05881225 0.08401669 0.38577136
0.4776971 -0.29812798 -1.0223167 -0.74121815 -0.17875573 0.121524036 -0.4772816 -0.5287805
-0.54789674 -0.7519455 -0.4564819 0.39151594 0.659878 0.27079788 -0.079868786 -0.10741065
0.29836008 0.14257382 -0.03730186 -0.14029156 -0.117288135 0.400539 0.21807633 -0.036083926
0.19269235 0.3772848 -0.09021654 -0.54955006 -1.1021378 -0.5402203 -0.05919961 -0.63973
-0.75837684 -0.8151792 -0.84782994 -0.5609154 0.06794184 0.38303217 0.24494925 -0.14023055
-0.082278825 -0.26892334 -0.25742272 -0.23028241 -0.19310084 -0.19858156 0.048968427 0.057406038
0.07982847 -0.14163738 -0.30323458 0.70887244 0.93612903 0.91946304 0.80361074 0.3797935
0.419034 0.30994484 0.40944403 0.65300095 0.662921 -0.26640534 -0.48568562 -0.42960557
0.017018836 0.25603032 -0.12435439 -0.21570188 -0.18069698 -0.3104658 -0.36738443 -0.22886887
00000000: ac1f 443e 4751 9c3e 85ee 043f 9faf 773e
00000010: a07c 83be 9d6a e13e 7993 1c3f e0c9 3d3e
00000020: bc34 3ebe 300c efbe ccfe eb3e 11e0 6b3e
00000030: 1df3 02bf c901 3abf da59 ac3d 94e6 5f3e
00000040: 0a0f ab3d 269c 5dbf 72d7 72be a6ea 1f3f
00000050: ec04 b1bb 2d98 96be 5544 46bf b0e9 6b3c
00000060: 6c86 d43e e0c2 123e 84d3 ce3e 8921 ea3e
00000070: fc8d c13d 9b68 66be 7e39 823e 29fe ba3e
00000080: 0a3e c5bb 9b7e e1be a0f0 3abe 9b60 ab3e
00000090: ad57 00bd 3889 3abf 8eb6 c9be ab4f e03e
000000a0: 55b7 933d ac94 2e3d 50d2 3cbf 8edc 2a3d
000000b0: 3c66 153f 3bb7 4e3d 95b7 95be ef99 debe
000000c0: 4b44 863e 2c67 db3e b075 b73e cdb0 ba3e
000000d0: 61df 033f 126f 903e e52d f0bd 9451 f03e
000000e0: 7e21 103f ecaf 153e 9893 cfbe 961b 8ebe
000000f0: 0e61 9f3e 5182 5e3d 9c02 2bbf 2fb4 56bf
00000100: 5aa5 7c3e c458 303e 1ce0 273e 27b0 2bbf
00000110: 0d02 cbbe 1e1b e03e c152 4abd 6f58 5cbd
00000120: 7120 25bf b05c 753d 2de3 003f 6e4f 90be
00000130: cd1f cdbe 83c1 dbbe 23f4 8f3c 31d1 183e
00000140: 1fcc b2be 4bb5 5cbe 1839 213e e270 b13e
00000150: 42f0 363d 14fd 8bbe 0b26 da3d 6249 833e
00000160: e22f 5bbc 72f0 36bf 06b9 5bbe 9cce 22bd
00000170: 5601 7d3c 2805 c8be da80 68bf 3e79 85be
00000180: de6b 263c 5f22 40be 34ae 2abf d574 80bf
00000190: 81aa b0be 0f1d b0be c9c7 77be 2926 9fbd
000001a0: c3d8 a03c d7fd a9be d85b ddbd c6f4 8e3e
000001b0: 727a 973e 96d5 13be 845a 5dbe bac7 413c
000001c0: 5dcb 113f 9ddf 473e c349 0abf f9b3 01be
000001d0: 630a 073e 7194 db3e bbcc 93bd 0963 9cbe
000001e0: a914 16be 6310 0b3e fd6b 973e 318f d4be
000001f0: df73 a8be 31d9 6ebe 32ea adbe 996d bbbe
00000200: abf0 33be dc9f 11be 898f 31be cffa c6bd
00000210: ec95 323e 9618 3f3e 898b 80be f837 25bd
00000220: b1a6 113e daeb 2f3f d1ba 903e 7061 46be
00000230: d1eb c43d b9cc 913e 638a 053f a635 4fbc
00000240: 9228 52be ef04 c8bd 198e 2a3e ed3d a23e
00000250: 63ad d7bd 15b1 003e d53f 983e e537 333e
00000260: aa7e 71be 2e02 a9be c3c4 9abe 4979 f73e
00000270: 4ddb a23e fe45 853e 2484 b93e dc3d b83e
00000280: ad83 ab3d d315 0cbf f5bf 2abf 5b8b 44be
00000290: 269f 843e ffce 2dbf f97c afbf 3f94 9fbf
000002a0: acd9 59bf 492f bbbe ce74 c93d c456 073f
000002b0: 5ac0 2c3e fd8b 1cbe c886 8dbd 780d 483e
000002c0: ef24 e5bc 852f 30be 4597 e5bd b913 d9bd
000002d0: 8e38 5f3e 1de5 703d f110 ac3d d383 c53e
000002e0: b794 f43e 3ba4 98be 46db 82bf 79c0 3dbf
000002f0: be0b 37be 98e1 f83d 415e f4be 295e 07bf
00000300: f642 0cbf 807f 40bf ffb7 e9be c774 c83e
00000310: c4ed 283f 05a6 8a3e 3f92 a3bd 1dfa dbbd
00000320: a7c2 983e dffe 113e d6c9 18bd 97a8 0fbe
00000330: c334 f0bd 7313 cd3e 674f 5f3e bdcc 13bd
00000340: 2551 453e 792b c13e 73c3 b8bd 50af 0cbf
00000350: da12 8dbf e14b 0abf 4a7b 72bd 58c5 23bf
00000360: fc24 42bf 96af 50bf 620b 59bf 2798 0fbf
00000370: 1725 8b3d cb1c c43e fad3 7a3e 9998 0fbe
00000380: cd81 a8bd 52b0 89be e9cc 83be 27cf 6bbe
00000390: 3abc 45be f758 4bbe 1e93 483d 9822 6b3d
000003a0: 1c7d a33d 6409 11be 9041 9bbe aa78 353f
000003b0: 27a6 6f3f ee61 6b3f 6fb9 4d3f 4b74 c23e
000003c0: a08b d63e 17b1 9e3e a6a2 d13e 122b 273f
000003d0: 31b5 293f 4866 88be c9ab f8be 43f5 dbbe
000003e0: 166b 8b3c 6816 833e 84ad febd f4e0 5cbe
000003f0: a108 39be 60f5 9ebe d019 bcbe 9a5c 6abe

conv2.0.bias f4 [16]
-0.082881086 0.026971618 -0.02406695 0.03774822 -0.07098277 -0.03767067 -0.076270446 0.13108546
-0.11064356 0.02834458 0.061459232 0.061058164 -0.008679162 -0.013922414 -0.008545272 0.072498776
00000000: 8fbd a9bd 95f3 dc3c 0d28 c5bc e19d 1a3d
00000010: 6a5f 91bd 8f4c 1abd ae33 9cbd 443b 063e
00000020: 1799 e2bd e532 e83c adbc 7b3d 2018 7a3d
00000030: 0b33 0ebc d61a 64bc 7801 0cbc 3d7a 943d

fc1.0.weight f4 [120, 400]
0.19216043 0.2549477 -0.9567907 -1.3219 -0.32105544 0.28309023 0.27581063 -0.3176316
-0.32136512 -0.043195076 -0.018797452 -0.33233264 0.009576616 0.08835818 0.09730264 -0.55159694
-0.6126719 0.006567044 0.2799591 0.3057356 -0.07511986 -0.084021896 0.1101162 0.24213244
0.045793384 -0.058327664 0.18890381 0.43950233 0.19439071 -0.10057869 -0.25681847 -0.6900002
-0.005608926 0.42654166 0.072466396 -0.082714096 0.30157745 -0.09716681 -0.22122614 -0.5423219
0.030738868 -0.05509145 -0.23494174 -0.7452595 0.0369859 0.2350621 0.14464171 -0.0041549313
0.1697481 0.002537129 0.17445081 0.2365647 -0.052907344 -0.5186667 -0.21016252 -0.107982956
-0.3155094 -0.12501271 -0.18943672 0.31617895 -0.065236375 -0.097237155 -0.24465838 0.19650629
0.30300364 0.19361384 -0.1824862 0.25417823 -0.22730532 0.09747741 0.15318948 0.067876235
0.19500944 0.28198165 0.19979674 -0.34168908 -0.048354156 0.14289662 0.18531866 0.34194174
-0.25222367 -0.18828993 0.022823252 0.08306768 0.2113429 -0.33115184 -0.19515206 -0.030017499
-0.007195759 -0.36966923 0.19672123 0.09182772 -0.16207728 -0.6479986 -1.0266552 0.35262012
0.40647015 -0.13867815 -0.2845019 -0.35512656 -0.47923693 -0.1387935 0.31607315 0.34184512
0.24926405 -0.4086018 -0.41972426 0.06985293 0.087477185 -0.03515397 0.13641386 -0.24816105
0.0684986 -0.0026207278 -0.11360061 0.34479532 -0.0640796 -0.007586069 -0.10721646 -0.28410542
0.18728101 -0.025345748 8.625164e-05 -0.23651287 -0.35748443 -0.5158237 -0.2185371 0.2080706
0.24308616 0.34148082 -0.59630233 -0.020002773 0.0840133 0.5545642 -0.15611094 -0.09711448
-0.012174486 0.20827262 0.0042320285 -0.24052092 -0.016868338 0.06619737 -0.10922021 -0.16658756
-0.41834244 0.05833794 -0.013557589 -0.14961308 -0.5859468 -0.8968231 -0.02936669 0.0022079733
0.015737562 -0.031164551 0.035659026 -0.40247935 -0.28229335 -0.5138184 0.06296342 -0.02558696
-0.309856 -0.07445824 0.01933335 -0.1808933 -0.33294016 -0.22779642 0.3168648 0.52526283
-0.057563584 0.13563952 0.22198547 0.51769125 0.11305987 0.27455786 0.48276636 -0.31700543
-0.28981993 -0.121472 0.25621682 0.28349826 -0.14510326 -0.07980488 0.20792253 0.51005745
0.9420143 0.012836618 0.23474333 0.47670156 0.71339434 0.43400842 -0.064984344 -0.0120158605
-0.08702562 -0.45657268 -0.086245194 0.123789735 0.0010392296 -0.25412124 -0.8380642 -0.25823367
0.17460412 0.2632818 -0.80926317 -0.79579794 0.12241681 0.048647013 -0.114846334 -0.43920872
-0.20770939 0.055406276 0.16425373 0.17276402 -0.037924547 0.24036843 0.13247946 -0.032612048
-0.13490176 0.42051753 -0.28647467 0.48467702 -0.14407788 -0.012478647 0.04608529 0.05084356
0.5154832 -0.2995015 -0.15485516 0.3382874 0.43246445 0.38599175 -0.63386494 -0.12779091
0.06495646 0.13018197 0.08419073 -0.39057967 0.08811561 -0.1732638 -0.5869448 -0.36875767
0.18508637 0.19691683 -0.270309 -0.8376687 -1.2089013 0.1390126 0.16592109 -0.21121085
-0.6971971 -0.89234126 -0.03109123 0.13710311 0.4119303 0.04542571 0.048951723 -0.49084738
00000000: b4c5 443e 8188 823e 3cf0 74bf 0534 a9bf
00000010: 6161 a4be 34f1 903e 0d37 8d3e 9ca0 a2be
00000020: f889 a4be 52ed 30bd 1dfd 99bc 8127 aabe
00000030: 3de7 1c3c 22f5 b43d 9b46 c73d 7535 0dbf
00000040: 11d8 1cbf 5c30 d73b cd56 8f3e 6089 9c3e
00000050: 71d8 99bd ac13 acbd 9a84 e13d 91f1 773e
00000060: d891 3b3d fde8 6ebd 0070 413e 7306 e13e
00000070: 5c0e 473e 33fc cdbd b67d 83be daa3 30bf
00000080: 15cb b7bb ab63 da3e 4369 943d 0266 a9bd
00000090: 5c68 9a3e 64ff c6bd 1b89 62be 9cd5 0abf
000000a0: 14d0 fb3c 93a7 61bd 9194 70be 54c9 3ebf
000000b0: 877e 173d 1fb4 703e f51c 143e 1726 88bb
000000c0: 72d2 2d3e f645 263b 3ca3 323e 043e 723e
000000d0: 5fb5 58bd 57c7 04bf d834 57be 2b26 ddbd
000000e0: 738a a1be 5503 00be b3fb 41be 35e2 a13e
000000f0: a69a 85bd 4624 c7bd ba87 7abe f238 493e
00000100: 4b23 9b3e b542 463e aadd 3abe a623 823e
00000110: bac2 68be 3da2 c73d b4dd 1c3e b202 8b3d
00000120: 8eb0 473e e65f 903e 8497 4c3e dff1 aebe
00000130: 020f 46bd 7e53 123e 2dc4 3d3e fd12 af3e
00000140: 7623 81be 13cf 40be d4f7 ba3c 631f aa3d
00000150: 466a 583e bc8c a9be f1d5 47be 42e7 f5bc
00000160: 67ca ebbb 4945 bdbe 4a71 493e 2c10 bc3d
00000170: 96f7 25be 3ce3 25bf 7069 83bf a08a b43e
00000180: db1c d03e a501 0ebe 3caa 91be 26d3 b5be
00000190: 8b5e f5be e21f 0ebe 57d4 a13e 5306 af3e
000001a0: 133f 7f3e 4134 d1be 19e6 d6be 0e0f 8f3d
000001b0: 3d27 b33d 9cfd 0fbd 13b0 0b3e ee1d 7ebe
000001c0: fe48 8c3d 84c0 2bbb 70a7 e8bd 0389 b03e
000001d0: 2a3c 83bd 8f94 f8bb 4e94 dbbd 4476 91be
000001e0: 98c6 3f3e e3a1 cfbc ffe1 b438 6e30 72be
000001f0: 3308 b7be 060d 04bf 31c8 5fbe 7610 553e
00000200: 94eb 783e 93d6 ae3e 45a7 18bf dbdc a3bc
00000210: 2a0f ac3d ebf7 0d3f 8cdb 1fbe f5e3 c6bd
00000220: 7f77 47bc 6b45 553e d4ac 8a3b 1e4b 76be
00000230: 782f 8abc 7d92 873d d8ae dfbd ee95 2abe
00000240: fb30 d6be c4f3 6e3d a620 5ebc 2c34 19be
00000250: 9c00 16bf 3396 65bf 6a92 f0bc a5b3 103b
00000260: 0fec 803c cd4c ffbc 330f 123d c611 cebe
00000270: c188 90be 9a89 03bf f7f2 803d bf9b d1bc
00000280: 72a5 9ebe 907d 98bd f960 9e3c 183c 39be
00000290: 2277 aabe 7743 69be 1a3c a23e a077 063f
000002a0: cbc7 6bbd 16e5 0a3e 2950 633e 6a87 043f
000002b0: ef8b e73d d992 8c3e 272d f73e 894e a2be
000002c0: 4763 94be 50c6 f8bd da2e 833e af26 913e
000002d0: f395 14be be70 a3bd a5e9 543e 2093 023f
000002e0: d927 713f ae50 523c 8e60 703e 3a12 f43e
000002f0: 03a1 363f 5a36 de3e 8316 85bd 2cde 44bc
00000300: 7d3a b2bd e5c3 e9be 52a1 b0bd 7985 fd3d
00000310: c236 883a 2e1c 82be 608b 56bf 3437 84be
00000320: 6ccb 323e dfcc 863e df2b 4fbf 6ab9 4bbf
00000330: aab5 fa3d 1742 473d 8e34 ebbd f7df e0be
00000340: c5b1 54be b1f1 623d 2132 283e 0de9 303e
00000350: c556 1bbd 2423 763e b2a8 073e 3694 05bd
00000360: b023 0abe 134e d73e cfac 92be 9627 f83e
00000370: 2789 13be 3d73 4cbc eec3 3c3d 5641 503d
00000380: b5f6 033f 4358 99be 5a92 1ebe 0234 ad3e
00000390: fb6b dd3e b6a0 c53e f944 22bf 9fdb 02be
000003a0: e407 853d 6c4e 053e 306c ac3d 0ffa c7be
000003b0: f575 b43d 116c 31be 0442 16bf cecd bcbe
000003c0: 4887 3d3e 91a4 493e f165 8abe 7571 56bf
000003d0: 47bd 9abf 5259 0e3e 38e7 293e a847 58be
000003e0: 827b 32bf 7a70 64bf 09b3 febc c264 0c3e
000003f0: 87e8 d23e 4f10 3a3d 9a81 483d 5950 fbbe

fc1.0.bias f4 [120]
0.02597988 0.00813918 -0.05820232 0.03552526 0.004015185 -0.030283213 -0.09215302 -0.110812515
-0.032781556 0.028291978 -0.12522812 0.0030003248 0.061981656 -0.00019374052 0.13386385 -0.027319662
-0.0067616287 0.08354522 0.086617194 0.035061933 0.05106656 0.059873797 0.09303458 -0.10457382
0.08533476 -0.0082946345 -0.1401238 0.00014354021 0.010779169 0.022148157 -0.0759632 -0.042634644
-0.049536277 -0.07058981 0.019813022 -0.05207411 0.12303405 -0.10664312 0.085459426 -0.13306431
-0.056255486 -0.061556872 -0.12894881 -0.12132132 0.033160627 -0.12312658 0.02146198 -0.034552146
-0.10251959 0.014858639 -0.11676817 -0.10666715 0.066317 -0.08122311 0.058876947 -0.090715095
0.08505542 -0.15181607 -0.04475124 -0.03907853 -0.003576184 -0.03970357 0.027088491 -0.1409271
0.029530993 -0.059970945 0.006399439 -0.13155548 0.0994308 -0.11589829 -0.0023755208 -0.11439155
-0.07334477 -0.026467668 -0.0071691517 -0.15853304 0.041121658 -0.01612683 0.04470668 0.009990227
0.0286086 0.09274039 -0.012604956 -0.060029358 -0.03959883 -0.0032171537 9.0173315e-05 0.028606858
-0.047556214 0.006512303 0.09093064 -0.017393284 0.028878765 0.10449002 -0.012928697 0.0021496075
-0.017426886 -0.06505781 -0.0940668 -0.07094838 -0.1393642 0.018615719 0.08411444 0.057568856
-0.15743408 0.057157848 0.04830734 -0.06346678 0.041871075 -0.04772825 -0.07794178 0.023896677
-0.030139374 -0.069989145 -0.04218019 0.054217387 0.0348941 0.17196521 -0.09398708 0.038509738
00000000: c2d3 d43c 325a 053c 8e65 6ebd ef82 113d
00000010: d091 833b 8014 f8bc b9ba bcbd acf1 e2bd
00000020: f445 06bd 94c4 e73c cd3b 00be 19a1 443b
00000030: 7ae0 7d3d d326 4bb9 9b13 093e 7ccd dfbc
00000040: a790 ddbb c219 ab3d 5b64 b13d 1a9d 0f3d
00000050: 2b2b 513d 3a3e 753d ea88 be3d cd2a d6bd
00000060: fec3 ae3d 38e6 07bc 9d7c 0fbe 4883 1639
00000070: 1d9b 303c 0d70 b53c 9892 9bbd aaa1 2ebd
00000080: 8de6 4abd 6491 90bd eb4e a23c a94b 55bd
00000090: 47f9 fb3d b567 dabd 5a05 af3d 0342 08be
000000a0: 276c 66bd 0f23 7cbd 280b 04be 5077 f8bd
000000b0: 70d3 073d ca29 fcbd 09d1 af3c 8d86 0dbd
000000c0: caf5 d1bd a671 733c 2624 efbd 4f74 dabd
000000d0: 35d1 873d 4d58 a6bd f428 713d d6c8 b9bd
000000e0: 8931 ae3d ac75 1bbe 144d 37bd cf10 20bd
000000f0: 695e 6abb 36a0 22bd afe8 dd3c 324f 10be
00000100: fbea f13c 18a4 75bd 63b2 d13b 7bb6 06be
00000110: 60a2 cb3d 155c edbd a0ae 1bbb 1e46 eabd
00000120: c835 96bd b9d2 d8bc 34eb eabb 7c56 22be
00000130: 2f6f 283d 6a1c 84bc 5a1e 373d 0dae 233c
00000140: 955c ea3c acee bd3d 0485 4ebc 58e1 75bd
00000150: 6232 22bd e2d6 52bb 6e1b bd38 ee58 ea3c
00000160: 4eca 42bd 2865 d53b d839 ba3d 5c7c 8ebc
00000170: 2993 ec3c ddfe d53d e3d2 53bc 6ee0 0c3b
00000180: d4c2 8ebc 073d 85bd 18a6 c0bd 624d 91bd
00000190: 7db5 0ebe fe7f 983c 3144 ac3d 52cd 6b3d
000001a0: 6636 21be 591e 6a3d ebdd 453d dffa 81bd
000001b0: 0181 2b3d b37e 43bd f19f 9fbd f7c2 c33c
000001c0: d9e6 f6bc 7856 8fbd 23c5 2cbd 0d13 5e3d
000001d0: 1eed 0e3d a617 303e 4c7c c0bd 63bc 1d3d

fc2.0.weight f4 [84, 120]
-0.029785464 0.54993236 0.38221803 -0.0821732 -0.0715124 0.71578324 -0.36750343 0.059157345
-0.21854296 0.3159656 -0.5064621 -0.20680687 -0.6448175 0.26216546 -0.21328352 -0.52618587
0.18733138 -0.1242332 0.07680152 0.045822512 0.30455786 -0.31881866 0.05050509 -0.771231
-0.42317823 0.7071868 0.3473672 0.017833902 -0.053599287 0.5099209 -0.015672944 0.31650865
-0.08157232 0.0021327317 -0.48590755 0.4926647 0.11531117 0.03944598 -0.16554452 -0.18314232
-0.21019478 -0.0032013438 -0.3573913 -0.099750765 -0.42546973 -0.30304393 0.4051338 0.42722067
0.10228894 -0.17061032 -0.12514274 -0.5403496 0.24202771 -1.0382763 -0.380914 -0.35812977
0.01182862 -0.41248512 0.24465896 0.07790701 0.3650501 -0.19412634 0.502999 -0.5744593
0.20659214 -0.1908108 0.3024776 -0.07975247 0.15480258 -0.34488133 -0.033015512 0.52602965
-0.14189753 -0.0696463 0.12041352 -0.8122059 -0.28647965 0.39935046 0.28362495 0.34316176
0.19146149 -0.26949236 -0.10305662 0.34114254 0.3800368 0.050413717 -0.65733486 0.5158958
-0.20332174 0.38239947 0.42748848 0.23051281 0.20236231 -0.2786658 -0.14739594 0.20855248
-0.39447692 -0.44534063 -0.29194298 0.22474463 -0.669832 0.76655823 0.099241324 -0.5382655
-0.62205017 -0.43908566 -0.060423456 -0.07085833 0.29812884 0.3614277 0.43482843 -0.047400072
-0.3479387 0.5134242 0.19810781 0.036462862 -0.09417372 -0.05604184 0.16045494 0.05734308
-0.1420523 -0.06842956 -0.21908112 -0.082215324 -0.49253467 -0.42119035 -0.033370387 0.094629444
0.2077259 -0.523453 0.14421281 0.3092808 -0.2569583 -0.49669006 -0.083081804 -0.30175295
0.30226672 -0.24579136 0.30681285 0.21221192 -0.20437336 0.5504451 -0.42225873 0.22102039
-0.27855107 -0.010158162 0.12329293 0.8836753 0.08364561 -0.15875676 -0.4628505 -0.86151755
-0.32922092 0.011399198 0.0031923961 0.44238257 0.41636667 0.15476279 0.103319764 -0.32433397
0.15854342 0.61854184 -0.15987737 0.6041196 0.011130718 0.44658366 0.016269533 -0.3559786
-0.1695238 -0.15787333 0.15510158 0.26298523 -0.00041935878 0.9000643 0.44426018 0.16182524
-0.25388718 0.3466526 -0.39393497 0.12162475 0.052406732 0.30698833 0.4143676 -0.5168526
0.27272037 -0.21637087 -0.2384845 -0.09367653 0.08260461 -0.016843919 0.49605507 -0.44527286
-0.1537101 -0.1778225 -0.33524257 -0.06788332 -0.5429539 0.023657363 0.035403367 0.52475184
-0.6255114 0.071791016 0.080802344 -0.3077034 -0.42802584 -0.011949892 0.09418919 -0.46400037
0.35031298 -0.48792025 0.18655284 -0.20954907 0.32693917 0.4243149 -0.39505595 0.22620256
0.70029104 0.722441 0.0086949095 -0.79705495 0.12853475 -0.09427608 0.2042604 0.38384372
0.16037503 -0.49877986 -0.100964874 -0.71450174 0.4455886 0.76481193 -0.15069693 -0.3509856
0.494018 -0.22688442 0.4670362 0.46620798 0.002715322 0.26637834 -0.8503341 -0.070784114
0.9494918 0.019061657 0.19991587 0.33916548 0.38598207 0.28350693 -0.2813884 -0.5160624
0.014939023 0.39061832 0.23931164 -0.0135116875 -0.22680672 0.035577733 -0.15220776 -0.25942367
00000000: a500 f4bc 5ec8 0c3f 15b2 c33e 6c4a a8bd
00000010: 1875 92bd 923d 373f 6929 bcbe f94e 723d
00000020: bac9 5fbe 3ec6 a13e 80a7 01bf 2ec5 53be
00000030: c212 25bf 8d3a 863e ff66 5abe 1eb4 06bf
00000040: ccd3 3f3e fa6d febd 1e4a 9d3d 63b0 3b3d
00000050: 02ef 9b3e 333c a3be 6dde 4e3d 656f 45bf
00000060: d1aa d8be 320a 353f 1dda b13e 6718 923c
00000070: ed8a 5bbd 2d8a 023f 8c64 80bc 6c0d a23e
00000080: 630f a7bd 4dc5 0b3b e0c8 f8be 8c3e fc3e
00000090: 4328 ec3d 1c92 213d 8184 29be a989 3bbe
000000a0: 4d3d 57be a3cd 51bb fefb b6be 214a ccbd
000000b0: 2bd7 d9be 9328 9bbe b36d cf3e abbc da3e
000000c0: dd7c d13d 79b4 2ebe 6b25 00be 5a54 0abf
000000d0: 1dd6 773e 3de6 84bf 2907 c3be c95c b7be
000000e0: d4cc 413c 4031 d3be e187 7a3e b68d 9f3d
000000f0: d9e7 ba3e 0ec9 46be 8bc4 003f c40f 13bf
00000100: e48c 533e e863 43be 58de 9a3e 4355 a3bd
00000110: 9184 1e3e 4994 b0be 463b 07bd e1a9 063f
00000120: 964d 11be b8a2 8ebd 5d9b f63d baec 4fbf
00000130: 76ad 92be aa77 cc3e 4a37 913e e6b2 af3e
00000140: 7b0e 443e e7fa 89be 590f d3bd 3caa ae3e
00000150: 2f94 c23e 9d7e 4e3d 1947 28bf bf11 043f
00000160: 9333 50be ddc9 c33e c5df da3e 8d0b 6c3e
00000170: 1138 4f3e 49ad 8ebe f6ee 16be c88e 553e
00000180: e1f8 c9be b003 e4be 8d79 95be 7523 663e
00000190: 1c7a 2bbf 293d 443f 093f cb3d c5cb 09bf
000001a0: ae3e 1fbf d6cf e0be 967e 77bd 2c1e 91bd
000001b0: 58a4 983e 0d0d b93e d5a1 de3e 9426 42bd
000001c0: 0525 b2be c56f 033f c6dc 4a3e 155a 153d
000001d0: 27de c0bd 218c 65bd 4d4e 243e 94e0 6a3d
000001e0: 2876 11be cc24 8cbd cd56 60be 8260 a8bd
000001f0: 812d fcbe 43a6 d7be 63af 08bd 15cd c13d
00000200: 19b6 543e 0401 06bf 86ac 133e 0e5a 9e3e
00000210: 0a90 83be 294e febe cb26 aabd 5d7f 9abe
00000220: b4c2 9a3e bbb0 7bbe 9316 9d3e 154e 593e
00000230: 4047 51be f8e9 0c3f 4c32 d8be 2b53 623e
00000240: 3f9e 8ebe 6b6e 26bc 0181 fc3d 8b38 623f
00000250: 644e ab3d 2291 22be befa ecbe 6a8c 5cbf
00000260: a58f a8be b4c3 3a3c 8537 513b f87f e23e
00000270: 032e d53e 237a 1e3e 5099 d33d 1a0f a6be
00000280: 3559 223e c258 1e3f e5b6 23be 95a7 1a3f
00000290: 9d5d 363c 9da6 e43e af47 853c d442 b6be
000002a0: a697 2dbe 8ca9 21be f3d2 1e3e 00a6 863e
000002b0: 62dd dbb9 9d6a 663f 1276 e33e 84b5 253e
000002c0: 80fd 81be 737c b13e d8b1 c9be 6616 f93d
000002d0: 71a8 563d 932d 9d3e fd27 d43e 7450 04bf
000002e0: 01a2 8b3e 5390 5dbe 4835 74be 7bd9 bfbd
000002f0: 9b2c a93d 42fc 89bc eefa fd3e cefa e3be
00000300: 2e66 1dbe 1a17 36be eaa4 abbe 6906 8bbd
00000310: 07ff 0abf 16cd c13c 1f03 113d 2356 063f
00000320: 8421 20bf 2b07 933d b37b a53d 4d8b 9dbe
00000330: 3426 dbbe 7bc9 43bc 43e6 c03d 7591 edbe
00000340: 395c b33e afd0 f9be b507 3f3e 0894 56be
00000350: 9264 a73e cd3f d93e c644 cabe a5a1 673e
00000360: 4646 333f e5f1 383f 1875 0e3c cb0b 4cbf
00000370: 9d9e 033e d113 c1bd a329 513e 2a87 c43e
00000380: 5a39 243e 1360 ffbe acc6 cebd 96e9 36bf
00000390: 3024 e43e b7ca 433f 4c50 1abe 62b4 b3be
000003a0: edef fc3e 6454 68be 5e1f ef3e d0b2 ee3e
000003b0: 8bf3 313b be62 883e 7faf 59bf 43f7 90bd
000003c0: e511 733f 3127 9c3c bfb6 4c3e 19a7 ad3e
000003d0: 719f c53e d227 913e 2412 90be aa1c 04bf
000003e0: cec2 743c 20ff c73e 1c0e 753e 2060 5dbc
000003f0: 0540 68be f5b9 113d 5adc 1bbe 2ed3 84be

fc2.0.bias f4 [84]
0.06181492 0.06381785 0.0068192543 0.049403477 -0.019911097 -0.023165686 -0.018107414 -0.046638012
0.048093718 -0.09075711 0.005152075 0.033192627 -0.10944655 -0.000826244 -0.045944456 -0.068684645
-0.06739121 0.021932812 -0.080982715 0.045655962 0.12137141 -0.0015805211 0.061082166 -0.02256651
0.052812565 0.05054926 0.027324751 -0.044568654 0.024919666 0.026002863 -0.087424524 -0.035352204
-0.062862195 -0.015415481 0.06772429 -0.09952333 -0.032181572 0.10160142 -0.06760764 -0.060616285
0.058991976 -0.041749224 -0.006129022 -0.021893453 -0.04384957 0.039271947 0.049146563 -0.001761463
0.039109148 -0.072042145 0.036050793 -0.03874118 -0.030754065 -0.07834625 -0.12680842 0.057425074
-0.076749705 -0.04600714 0.034122176 0.03146598 0.060072396 0.06098525 -0.08110149 0.033602975
-0.03886714 0.10506703 -0.09368824 -0.0049484572 -0.012030785 0.06471123 0.005915262 0.021621745
-0.047876876 -0.04174172 0.12260161 0.018944927 0.02533235 0.09433854 0.030840563 0.058754127
-0.02357588 0.0109706 0.06961151 -0.032384567
00000000: a431 7d3d efb2 823d 0d74 df3b 4d5b 4a3d
00000010: 991c a3bc f7c5 bdbc 0056 94bc 8007 3fbd
00000020: ebfd 443d ddde b9bd bdd2 a83b fef4 073d
00000030: 8325 e0bd 4c98 58ba 4130 3cbd 89aa 8cbd
00000040: 6704 8abd 71ac b33c 44da a5bd bf01 3b3d
00000050: 9391 f83d 7d29 cfba 4b31 7a3d 67dd b8bc
00000060: fd51 583d be0c 4f3d 28d8 df3c 9f8d 36bd
00000070: 5424 cc3c f503 d53c a10b b3bd 79cd 10bd
00000080: e5bd 80bd 3791 7cbc 08b3 8a3d e3d2 cbbd
00000090: d3d0 03bd 6814 d03d e075 8abd c848 78bd
000000a0: 92a1 713d 3c01 2bbd f7d5 c8bb e659 b3bc
000000b0: 9b9b 33bd 9fdb 203d e84d 493d e4e0 e6ba
000000c0: ea30 203d d58a 93bd ffa9 133d 12af 1ebd
000000d0: f3ef fbbc 0074 a0bd 11da 01be 8e36 6b3d
000000e0: f32e 9dbd fc71 3cbd b2c3 0b3d 79e2 003d
000000f0: 790e 763d abcb 793d 8a18 a6bd 46a3 093d
00000100: 2633 1fbd 622d d73d 9fdf bfbd ab26 a2bb
00000110: c51c 45bc 5287 843d d0d4 c13b 1620 b13c
00000120: 8b1a 44bd 5ef9 2abd 8e16 fb3d 6432 9b3c
00000130: ca85 cf3c 9134 c13d 59a5 fc3c 2ba8 703d
00000140: 3422 c1bc 08be 333c 7b90 8e3d aea5 04bd

fc3.weight f4 [10, 84]
0.28613278 0.103607155 0.33022076 -0.82762843 -0.4350781 0.0065249777 -0.8673782 -0.6811495
-0.24015914 0.26968408 0.045182753 -0.35926962 0.3694654 -1.0063148 -0.79551685 -0.34907213
0.26605597 0.21404406 -0.43806016 0.1325384 -0.027215844 -0.59076816 0.3202268 0.20271645
-0.5832982 -1.0093249 -0.21831813 -0.79511267 -0.5130583 0.26783207 0.4251346 -0.8214737
0.3604191 0.4681422 -1.1786155 -0.6939912 0.42783523 -0.6584108 0.33970076 -0.18407723
-1.1068345 0.45761043 0.33972538 0.32504803 -0.8028786 -0.7881097 -0.5755777 0.15922163
0.66265386 0.24190302 -0.16261396 -0.13529442 0.031982224 -0.62308186 -0.25091594 0.73111135
-0.5226951 0.23979014 -0.6149206 -0.58459324 -0.23160826 -0.35885695 0.61683965 -0.5543024
0.05737674 -0.7368968 -1.0157613 0.4206464 0.4822817 -0.020214211 0.23063664 0.6398332
0.04728758 0.36232716 0.3730354 0.162687 0.4916477 -0.34141725 -0.026912738 0.40465158
0.34323138 -0.97008204 -0.8561579 -1.0684195 -0.79274607 0.3371721 -0.5314952 -0.60254776
0.28127348 0.4596825 0.42633814 -0.6781888 0.49643806 -0.62286 -0.49610922 0.52223164
0.2271739 0.32015124 0.36547416 -0.12898901 -0.5158481 0.11969377 -0.16451114 0.081180155
0.40078995 0.40611938 0.32387376 -0.62647843 0.3545067 0.33128774 0.42854264 0.30722362
0.20508812 -0.6274243 0.22775096 -0.739298 -0.43880096 0.2288501 0.16734764 0.114761755
-0.61269736 0.17762297 -1.0183315 0.5440216 -0.46037707 0.20351626 -0.7858116 0.048979834
-0.41020012 -0.04362194 0.3425491 -0.6306121 0.41054854 0.600772 -0.7360679 0.4770979
-1.1447358 0.25898808 -0.29026404 0.07695575 0.4293466 -0.49930823 -0.7044734 0.61926466
-0.37002352 -0.80990875 -0.55293125 0.43438533 0.43189663 0.3966915 -0.5661028 -0.48715484
-0.3431021 -0.5748641 -0.659235 -0.33724597 -1.2247362 0.37040505 0.24334401 -0.6519344
-0.61522007 0.6622081 -0.74272555 -0.15234435 -0.41775188 0.12270665 -0.042688973 -0.015388233
-0.83819634 0.19828108 0.1589971 -0.4268968 0.51198536 0.21953888 -0.73525596 -0.42851833
0.18274197 0.16969039 0.49574482 -0.4553825 -0.441017 -0.0655842 0.3415432 -0.7685954
0.5072767 0.14205523 0.32577404 0.23527399 -0.42242056 0.56198424 0.35354555 -0.5117514
0.23455797 0.11233337 -0.6877057 0.38366336 -0.16911376 -0.61527795 -0.0810913 -0.20355058
-0.85670304 -0.22108038 -0.7965807 0.3898134 0.28930098 0.21128838 0.82289845 -0.048620723
-0.32057634 0.33229542 0.1956831 -0.8371634 0.98095405 -0.04592759 -0.6830899 -0.46131214
0.51693666 -0.19037214 -0.3201035 -0.5089584 -0.162472 0.5043674 -0.44166705 0.48041138
-0.15323095 0.28068787 -0.6144169 0.18242289 -0.08297643 0.35268047 0.17626563 -1.047475
-0.35237443 -0.08844534 0.35873604 0.23302542 0.56353503 0.19914274 -0.2209296 0.50741285
0.12337333 0.43924266 -1.0496598 -1.1470804 0.22828475 -0.8072997 -0.79229933 -0.67462206
-0.36690316 0.35328585 0.04242859 -0.55003774 -0.41527236 -0.0453298 0.417934 -0.05419655
00000000: ff7f 923e fd2f d43d b212 a93e 75df 53bf
00000010: 8fc2 debe 7bcf d53b 7f0c 5ebf d05f 2ebf
00000020: 47ec 75be 0814 8a3e 8d11 393d 30f2 b7be
00000030: 922a bd3e ecce 80bf fea6 4bbf 95b9 b2be
00000040: 7d38 883e 5e2e 5b3e 6c49 e0be 25b8 073e
00000050: c3f3 debc 953c 17bf c4f4 a33e e794 4f3e
00000060: 0853 15bf 8f31 81bf ca8e 5fbe 818c 4bbf
00000070: ca57 03bf 4921 893e 3eab d93e 1a4c 52bf
00000080: da88 b83e 56b0 ef3e dfdc 96bf 68a9 31bf
00000090: 380d db3e 9c8d 28bf 42ed ad3e be7e 3cbe
000000a0: c1ac 8dbf ea4b ea3e 7cf0 ad3e b26c a63e
000000b0: 7489 4dbf 8fc1 49bf 0f59 13bf ff0a 233e
000000c0: afa3 293f 6db5 773e 4684 26be 9f8a 0abe
000000d0: cbff 023d 4b82 1fbf 0e78 80be 1d2a 3b3f
000000e0: 59cf 05bf 8c8b 753e 706b 1dbf e7a7 15bf
000000f0: b72a 6dbe 19bc b7be 34e9 1d3f c3e6 0dbf
00000100: df03 6b3d 45a5 3cbf 7704 82bf f75e d73e
00000110: a1ed f63e 4698 a5bc 032c 6c3e 1ccc 233f
00000120: 9fb0 413d f282 b93e 7ffe be3e 6c97 263e
00000130: 3fb9 fb3e 3ece aebe 1a78 dcbc 7e2e cf3e
00000140: 06bc af3e 4c57 78bf 2a2d 5bbf f8c1 88bf
00000150: 68f1 4abf d2a1 ac3e 1210 08bf 9240 1abf
00000160: 1403 903e 815b eb3e fe48 da3e c89d 2dbf
00000170: 212d fe3e c173 1fbf 0702 febe f9b0 053f
00000180: 46a0 683e ddea a33e 6e1f bb3e b215 04be
00000190: 9f0e 04bf 0222 f53d 9c75 28be c841 a63d
000001a0: 5734 cd3e e1ee cf3e c8d2 a53e e460 20bf
000001b0: e781 b53e 8c9e a93e f169 db3e 6a4c 9d3e
000001c0: 9f02 523e e19e 20bf 8c37 693e a242 3dbf
000001d0: 85aa e0be ae57 6a3e 2e5d 2b3e 3608 eb3d
000001e0: bcd9 1cbf cce2 353e b058 82bf 0045 0b3f
000001f0: 8bb6 ebbe 9166 503e f32a 49bf 149f 483d
00000200: c005 d2be ebac 32bd 9862 af3e cb6f 21bf
00000210: 6b33 d23e 32cc 193f f26e 3cbf 2d46 f43e
00000220: b486 92bf 169a 843e 7d9d 94be fa9a 9d3d
00000230: 51d3 db3e 54a5 ffbe 5e58 34bf 2188 1e3f
00000240: b973 bdbe 2e56 4fbf e78c 0dbf c167 de3e
00000250: 8e21 dd3e 261b cb3e 1dec 10bf 5c6c f9be
00000260: 14ab afbe 4b2a 13bf a0c3 28bf 81ab acbe
00000270: 28c4 9cbf bba5 bd3e 2c2f 793e 2ce5 26bf
00000280: 107f 1dbf 7886 293f 4323 3ebf 2800 1cbe
00000290: 93e3 d5be a04d fb3d a2da 2ebd ed1e 7cbc
000002a0: 0994 56bf 320a 4b3e 23d0 223e 3892 dabe
000002b0: 7911 033f cdce 603e bc39 3cbf c166 dbbe
000002c0: b620 3b3e 51c3 2d3e 44d2 fd3e e527 e9be
000002d0: fbcc e1be 0251 86bd c0de ae3e abc2 44bf
000002e0: e3dc 013f ed76 113e dbcb a63e aaeb 703e
000002f0: 8247 d8be 33de 0f3f ec03 b53e 2402 03bf
00000300: f72f 703e 0a0f e63d 7b0d 30bf 866f c43e
00000310: 282c 2dbe db82 1dbf 3213 a6bd 906f 50be
00000320: e450 5bbf e562 62be b6ec 4bbf 9f95 c73e
00000330: 421f 943e fb5b 583e 79a9 523f 8626 47bd
00000340: 9522 a4be a022 aa3e 2761 483e 5750 56bf
00000350: ce1f 7b3f 921e 3cbd fbde 2ebf 1b31 ecbe
00000360: f655 043f eaf0 42be 9be4 a3be 194b 02bf
00000370: 0f5f 26be 391e 013f 2f22 e2be 7bf8 f53e
00000380: 93e8 1cbe 52b6 8f3e 6d4a 1dbf 11cd 3a3e
00000390: 8cef a9bd 8992 b43e fa7e 343e a913 86bf
000003a0: 6c6a b4be d522 b5bd 40ac b73e 379e 6e3e
000003b0: d543 103f 13ec 4b3e 5e3b 62be cfe5 013f
000003c0: 28ab fc3d 6ae4 e03e 415b 86bf 88d3 92bf
000003d0: 7ac3 693e 31ab 4ebf 21d4 4abf 08b4 2cbf
000003e0: bbda bbbe e2e1 b43e 9ac9 2d3d 46cf 0cbf
000003f0: 949e d4be beab 39bd 72fb d53e 34fd 5dbd

fc3.bias f4 [10]
-0.0574092 -0.004304628 -0.02616597 0.007586196 -0.06335968 -0.13788322 0.09694179 0.080179684
0.037988704 0.076726004
00000000: e925 6bbd d60d 8dbb 045a d6bc a095 f83b
00000010: b8c2 81bd 4231 0dbe 6b89 c63d 3f35 a43d
00000020: 0b9a 1b3d 8622 9d3d
