6_ConvolutionalNeuralNetwork/LeNet/model6.pth (torch, 250410 bytes, 10 tensors)

conv1.0.weight f4 [6, 1, 5, 5]
00000000: bbb6 a6be 615b 7e3e bf83 d93d 5493 123f
00000010: 8c42 0b3e 1213 503e 4f5f 463f 043f 553f
00000020: c8e9 803f 6933 a83e a70b 2bbe cacc 183f
00000030: 253e 2e3f 8380 1e3f 2b53 bebe 337a b0be
00000040: 4b71 b73e 147c 40bd ca8b 2b3e 228b 53bf
00000050: 81cd 1bbf a6a1 10bf b1d4 3ebf 8763 b6be
00000060: c12d 5dbf 971e 47bf 1491 afbe 46f4 c5bd
00000070: 9038 40be ac9c 273e 0c79 f9bd 6ec2 df3e
00000080: 111d 0d3f 2a62 083f 1b73 1b3f fb72 3ebd
00000090: fd09 873f 7be5 c43f d3c3 323f 25de 073f
000000a0: cefc d5be 1acb 2c3f 77d5 5c3e bcd2 8d3e
000000b0: e316 efbd 699b 94bf c67a 14bf f4aa 16bf
000000c0: b9c2 f3be f22f 0cbf bbad f8be 9ddb 18be
000000d0: 5a9d 3ebe 34a1 52bd e162 34bf 0f9c 263f
000000e0: 90f6 363f 2772 643f 6853 803f a95d d1be
000000f0: 361a fc3e b482 4e3f 47d4 833f 0b82 2e3f
00000100: 66ac fabe fef7 b9bd f8ed 2e3f 8c7a d13e
00000110: 77f2 ac3e e1d0 0bbf 221c 00bf 9a4b 6bbe
00000120: 4c1c dbbe f5bb f7be 4db0 68bf 6c5f 0b3f
00000130: 6833 053f 9933 1d3f 5550 053f cf01 153f
00000140: d2ad 573e 40f5 fc3c a970 a6be e26b 2ebe
00000150: 6f1d 20be d077 08bf 7a09 aabf a09d 79bf
00000160: 5307 73bf 1b5d 3cbf 18a9 4fbf 4e2f 2cbf
00000170: d498 69be 1694 b5bd f076 14bf bfe6 11bd
00000180: c45a 143f 7df1 233f 0a3e 7d3e f518 2cbe
00000190: bf7b 2d3f 19d5 7e3f 12cd ea3e 1eeb 123f
000001a0: e72f 3b3f 8e0f 6d3e 3426 d8be b706 0fbf
000001b0: bb98 2dbf 86cd 9abe a88c 32be 523d 0bbf
000001c0: a283 0fbf 7da5 02bf a037 8fbe 4ef6 d13e
000001d0: 08dc 9bbe 6280 5ebf 0e54 d3be d860 78be
000001e0: 3175 4b3f 3cc5 b03d 70c2 babe d3e3 b73d
000001f0: 1ad0 e43e 9b57 993e b173 e33e 366d d5bd
00000200: fc2f 47bf ad9a 0fbf ff12 483e 3709 56bc
00000210: 2f90 04bf a9f0 8ebf 97a8 e03d e387 37bd
00000220: 9b82 07be 0909 48bf 994c 38bf 54ba 0e3f
00000230: adbf 9d3e 6c39 bfbe f53c 88bf b534 34be
00000240: 7651 5a3d 9e7d 2f3f c7fa c4be f6b4 9cbf
00000250: 43b0 02bf cf34 a03e
-0.32561287 0.24839546 0.10620832 0.57256055 0.13599604 0.20319775 0.7748918 0.8329928
1.0071344 0.32851723 -0.16703664 0.59687483 0.68063575 0.61914843 -0.37172827 -0.3446823
0.35828623 -0.04699333 0.16752544 -0.82634175 -0.6086045 -0.56496656 -0.7454329 -0.35622808
-0.8639794 -0.7778105 -0.34290373 -0.09665732 -0.18771577 0.1636836 -0.12181291 0.43703026
0.55122477 0.53274786 0.6072251 -0.046496373 1.0549923 1.5382532 0.69830054 0.5307334
-0.41794437 0.6749741 0.21565805 0.2769984 -0.11674287 -1.1609927 -0.5799984 -0.58854604
-0.476095 -0.5476066 -0.48570046 -0.14927526 -0.18614712 -0.051423267 -0.7046338 0.65081877
0.71469975 0.8923668 1.0025454 -0.4089177 0.49238747 0.8066819 1.0299157 0.6816718
-0.48959655 -0.09080504 0.6833186 0.40913808 0.33778736 -0.546156 -0.5004293 -0.22978058
-0.42795026 -0.48385587 -0.90894014 0.5444248 0.52031565 0.61406857 0.520757 0.58205885
0.21062401 0.030878663 -0.32507828 -0.17033342 -0.15636228 -0.5330782 -1.3284142 -0.9750614
-0.9493305 -0.7357957 -0.8111739 -0.6725968 -0.22812206 -0.08866136 -0.57993984 -0.035620447
0.57951 0.64040357 0.24730697 -0.16806395 0.67766947 0.9954391 0.4585958 0.5739001
0.7311997 0.23150465 -0.42216647 -0.5586962 -0.67811173 -0.30234927 -0.17436469 -0.5439044
-0.5606023 -0.51033765 -0.27972126 0.41008228 -0.30441308 -0.86914647 -0.41275066 -0.24255693
0.79475695 0.086313695 -0.3647647 0.08979001 0.4469002 0.2994965 0.44424203 -0.10421221
-0.77807593 -0.5609539 0.19538496 -0.01306372 -0.51782507 -1.1167194 0.10969656 -0.044807326
-0.13233416 -0.78138787 -0.7199188 0.55753064 0.308103 -0.37348497 -1.0643603 -0.17598231
0.053300343 0.6855105 -0.38472578 -1.2242725 -0.51050204 0.3129029

conv1.0.bias f4 [6]
00000000: 0f75 2bbf af87 49bf ae42 39bf e91d 883d
00000010: 9af7 403d 6c13 cfbe
-0.6697549 -0.7872266 -0.7236737 0.0664633 0.04711113 -0.40444505

conv2.0.weight f4 [16, 6, 5, 5]
00000000: dfcd 733e 3a87 933e f43a e23e 8356 223e
00000010: be30 60be 86fc c43e d31c 0a3f a2e3 0b3e
00000020: 3145 3fbe 13f8 c7be 54b2 da3e fc2c 6b3e
00000030: 4be6 dcbe f145 30bf f956 ec3b d768 543e
00000040: 9c78 783d 15fc 4ebf 08c0 85be 9f99 0a3f
00000050: 6a69 a83c 1ae6 82be ff2c 30bf ea9e 8f38
00000060: c25a c73e 3f54 353e 1802 aa3e ef8e c13e
00000070: f71a 8b3d 3b14 17be ff93 4a3e 1685 a23e
00000080: 0669 053d 9cd0 babe ba86 1ebe 9c93 a23e
00000090: 6a3d 483b 67e6 24bf d85d c1be 19df b23e
000000a0: 119b 6c3d 3154 12bc e109 24bf 728a 4e3d
000000b0: 107b 0a3f 5ed3 983d aa3b 6fbe 07df c3be
000000c0: 7586 6a3e 0688 d03e 4b22 bc3e e979 a53e
000000d0: d1c6 dc3e 547a 4a3e 4f30 e4bd 713f d13e
000000e0: 7992 003f 8f39 1d3e 54af a7be ad22 60be
000000f0: ea2f 893e 8de5 973d 8c71 0ebf bb2e 3cbf
00000100: efbc 5d3e f615 313e 81a8 d53d 14e4 15bf
00000110: 7ec6 a8be 4bc0 d83e 6980 223c 4d40 2cbd
00000120: f1ab 11bf 4dfa 5b3d 2123 f53e 511c 92be
00000130: 3a36 b2be 6dd9 c3be a88d 273c 772b b23d
00000140: cf71 a3be f9b5 45be 5dd9 0c3e cda7 9f3e
00000150: 6c59 383d 080c 84be 37b6 9a3d 2421 6b3e
00000160: b114 743a 03cf 20bf b6bd 51be 263e 52bd
00000170: af15 483c 084d c3be 2459 59bf 7786 96be
00000180: 00c1 3fbc 96e4 2dbe 7892 1ebf e7e2 70bf
00000190: 599b 9bbe 0cc1 a3be 95fe 66be a101 adbd
000001a0: dd48 99bc bf51 87be 3b8c f8bd bcd4 603e
000001b0: 5982 773e 03a8 ecbd 2b95 45be d8d7 7abc
000001c0: fe14 073f b67e 483e 4344 e2be 6062 e5bd
000001d0: 96c4 163e 6f27 cf3e 1fa9 afbd a9a6 a3be
000001e0: 63c0 20be b5a1 043e 75b4 8c3e 31f0 a5be
000001f0: 9ee4 a2be 9bc8 6dbe 1e63 a3be 8dcd a5be
00000200: 63fb 04be bb1a 19be 1336 30be 7793 e3bd
00000210: e0f0 343e 6b9a 2e3e 33a7 77be 461c 67bd
00000220: 75b6 f03d 3658 233f 682e 7d3e 3ff4 44be
00000230: b342 9b3d fb6f 9a3e 5168 063f 6c4a ad3c
00000240: 5e9d 5ebe 537a 86bd f0fc 423e 08e9 953e
00000250: 7533 d8bd 33cb 443d e276 783e 1bbf eb3d
00000260: cfa8 6ebe ac55 9cbe ff5a 7ebe a0f2 dd3e
00000270: 86be 7b3e 7deb 7e3e a202 9b3e 6a06 a73e
00000280: 60c1 cf3c d0b5 09bf 3e16 24bf 55f3 82be
00000290: 01b2 313e 2085 21bf 1ce0 9abf 7533 8bbf
000002a0: 2961 37bf 3b13 b2be bde6 003d 1a9e cd3e
000002b0: c19d e93d a94e 0ebe 3cf8 b6bd be17 123e
000002c0: 0676 3ebd bdc6 03be 73bd c9bd 3928 a5bd
000002d0: 9b5e 343e 1adf 0a3d 36a1 933d cc50 963e
000002e0: e9f6 cf3e 996b a2be b614 61bf c443 2fbf
000002f0: a982 42be 13dc 793d 9650 00bf 9962 0ebf
00000300: f0e2 03bf 1fb8 26bf 17e8 dbbe d9d5 a63e
00000310: d707 103f d509 733e 71ed d5bd 9e37 11be
00000320: 258c 873e 0719 df3d 6aad 73bd b03d 12be
00000330: 5911 debd 2246 ad3e c9ee 1e3e 6795 07bd
00000340: c26a 173e 6add 9f3e 7075 e7bd 66e2 f7be
00000350: a6a0 68bf 38ef e4be cae4 48bd 7a86 1abf
00000360: 0c0c 31bf 52ad 37bf f869 36bf 3e2a fabe
00000370: 4782 373d 2bdf a93e 8e2f 6b3e f9a1 02be
00000380: c3b2 f4bd 6f79 84be ff47 80be 02c5 66be
00000390: 9aba 5bbe bc02 4cbe d3d5 513c 4634 3a3d
000003a0: 8c5a 9b3d 7284 e2bd 2301 7ebe a193 203f
000003b0: a7cb 573f 2d8f 523f 2dec 3c3f 66ba a73e
000003c0: 9986 c63e d36b 9c3e 8631 c93e 9930 183f
000003d0: fcdf 163f 0418 68be 7b5c debe d73c cebe
000003e0: 78b2 06bc fdbf 613e 8b14 02be ff2c 70be
000003f0: f66b 59be e69d 9fbe d6d4 bcbe 1617 5bbe
0.23809002 0.28814107 0.44185603 0.15853314 -0.21893594 0.3847391 0.5395023 0.13661054
-0.18678738 -0.39056453 0.4271418 0.22966379 -0.4314445 -0.6885672 0.0072125164 0.20743118
0.060661897 -0.80853397 -0.2612307 0.5414066 0.020558078 -0.2556618 -0.6881866 6.8483714e-05
0.3893643 0.17707919 0.33204722 0.37804362 0.067922525 -0.14753811 0.19783019 0.31742162
0.03257086 -0.3648728 -0.15481082 0.31753242 0.0030554184 -0.64414066 -0.3776691 0.34935835
0.05776507 -0.008931206 -0.64077574 0.050425 0.5409403 0.0746219 -0.23362604 -0.38256094
0.22902854 0.40728778 0.36744913 0.32319573 0.43120435 0.19773227 -0.11142027 0.40868714
0.502235 0.15353988 -0.32750952 -0.21888228 0.26794368 0.0741683 -0.5564201 -0.73508805
0.21654104 0.17293534 0.1043253 -0.58551145 -0.32963938 0.42334208 0.009918311 -0.04205351
-0.56902987 0.053705502 0.47878364 -0.2853723 -0.34806997 -0.3825182 0.010226645 0.086996965
-0.31922767 -0.19307698 0.13754793 0.3118271 0.045007154 -0.2579043 0.07554286 0.22961861
0.00093109446 -0.62815875 -0.20482525 -0.0513288 0.012212201 -0.38144708 -0.8490164 -0.29399464
-0.01170373 -0.1698173 -0.61942244 -0.94096226 -0.30391958 -0.3198322 -0.22558053 -0.08447576
-0.018711502 -0.26429555 -0.12136122 0.21956152 0.24170817 -0.11555483 -0.19295184 -0.01531025
0.52766407 0.19579586 -0.44192705 -0.11200404 0.14723429 0.40459773 -0.08577179 -0.3196309
-0.1569839 0.12952311 0.27481428 -0.32409814 -0.31815046 -0.23221056 -0.31911558 -0.32383385
-0.12986521 -0.14951603 -0.17208128 -0.11112111 0.17670012 0.17051093 -0.24184875 -0.056423448
0.11753551 0.63806474 0.24724734 -0.19233797 0.07581081 0.3016356 0.52502924 0.021153651
-0.21739718 -0.065663 0.190418 0.2927935 -0.1055669 0.04804535 0.242641 0.1151106
-0.23306583 -0.30534112 -0.248394 0.4334917 0.24584398 0.24894519 0.30275446 0.3262208
0.025360763 -0.5379305 -0.6409644 -0.25576273 0.1735306 -0.6309376 -1.2099643 -1.0875078
-0.7163263 -0.34780297 0.03147005 0.40159684 0.11407042 -0.13897194 -0.08934066 0.1426687
-0.046499275 -0.12868781 -0.09850588 -0.080643125 0.17614214 0.033904172 0.07208483 0.29358518
0.40618065 -0.31722715 -0.8792223 -0.6846278 -0.18995155 0.061000895 -0.50122964 -0.556192
-0.51518154 -0.65124696 -0.42950508 0.32585028 0.5626196 0.2373422 -0.10445679 -0.14181373
0.2647411 0.108934455 -0.059491552 -0.14281344 -0.108431526 0.3384257 0.15520777 -0.033101466
0.14786819 0.31223613 -0.11301696 -0.48414916 -0.9087013 -0.4471376 -0.049046315 -0.60361445
-0.6915901 -0.7174884 -0.71255445 -0.48860353 0.044801977 0.33178076 0.2296736 -0.127571
-0.119481586 -0.25873896 -0.2505493 -0.2253609 -0.21457902 -0.19922918 0.012807327 0.045460008
0.0758563 -0.11060418 -0.24805121 0.62725264 0.84295124 0.8224972 0.73797876 0.32759398
0.38774565 0.30551013 0.39295596 0.59449154 0.58935523 -0.22665411 -0.43429932 -0.40280792
-0.008221261 0.22045894 -0.12703149 -0.23454665 -0.2123259 -0.31175154 -0.3688113 -0.21395525

conv2.0.bias f4 [16]
00000000: fb2c a1bd a093 813c 3748 15bc 79d5 7b3d
00000010: da47 8abd ead4 33bd b9a9 b7bd 7134 053e
00000020: 4fa1 d5bd 0395 de3c 4300 943d 36a9 9f3d
00000030: fbb7 ca3a 8454 fdbc 38dc afbc d3e1 b93d
-0.078699075 0.015817463 -0.009111456 0.06148288 -0.06751986 -0.043904223 -0.08967919 0.13008286
-0.10431158 0.027170664 0.072266124 0.07795946 0.0015466207 -0.03092409 -0.021467313 0.09076276

fc1.0.weight f4 [120, 400]
00000000: f729 7a3e 8b4f 273e 2049 71bf 7146 9dbf
00000010: b438 97be ccec 703e 65b6 513e 2005 7cbe
00000020: e720 9abe a252 4dbd 70df 01bd 7872 82be
00000030: fab3 593d ae3d 983d f0a0 e83d 450b f2be
00000040: 9350 07bf 4790 f7bb 9a73 6a3e ae86 6c3e
00000050: 4d6c 6ebd a824 bfbd eaad ae3d 431c 523e
00000060: 0eef 88bb 1f34 2ebd fc03 4a3e 1173 ce3e
00000070: d315 673e 030d 8cbd a3c5 85be 7f73 1abf
00000080: c9d1 333d b318 c33e 16e1 38bd 7f61 37bd
00000090: 9838 403e e98d 1abc 52a9 e3bd 39c2 e7be
000000a0: 56a1 423c 88f7 fdbc 29a3 24be 2975 38bf
000000b0: 32ac a0bb a2f1 323e 7c18 b03d 86c0 b23c
000000c0: c548 193e 0599 7bbb 0453 303e b022 2b3e
000000d0: 04a9 cabd 20b8 d9be 7067 20be ebaa 79bd
000000e0: a7d9 95be 8396 fdbd 0891 46be 4233 643e
000000f0: 3e15 86bd 9ad6 ffbd 0d92 7abe 5e6f 3a3e
00000100: 7d10 5c3e 51b7 013e 2bee 03be 4693 623e
00000110: ae70 34be 4bb5 aa3d ffdf df3d 487b 2c3d
00000120: 2166 0b3e 1522 463e 144d f83d a724 8ebe
00000130: c62c a33c d18d 203e c381 253e 8f0e 923e
00000140: 185c 0fbe 702a 19be aa86 0e3c 9e2b 7b3d
00000150: 04c7 413e b1e8 9dbe d53a 28be 226c 76bd
00000160: 8227 a1bd 215c a0be 785b 053e 4da3 793d
00000170: eb85 11be b6c0 06bf a930 51bf 641e 933e
00000180: 2106 b53e 2031 04be d4f4 72be afe8 76be
00000190: 00ba bbbe 6216 70bd 6d64 9a3e 09db 913e
000001a0: 4ec9 3b3e 664d 96be 783a 93be 52f4 5f3d
000001b0: aace 8d3d 3e1c 60bd 6b95 013e fff1 33be
000001c0: c941 d73c be27 0dbd b91a 13be c6a2 9c3e
000001d0: 5a21 54bd dcc4 9a3b 59d6 debd 9eee 99be
000001e0: 2c53 293e 1edc 56ba 49e2 84bc 1404 66be
000001f0: 2f25 94be bd3c bebe b913 29be 8437 613e
00000200: 0a0d 803e 598f 9a3e e130 02bf 93d0 00bc
00000210: 8946 d53d 8755 f43e 32c0 abbd c40f 05bd
00000220: d434 f13c dd01 343e 46bc 4c3c 63ca 2ebe
00000230: 2b5b 2fbc 4e20 143d 77a1 1abe a767 3bbe
00000240: de89 d8be 38e2 593d fbb2 02bd 6570 d4bd
00000250: 641e 05bf d4ba 4fbf 9fd8 1239 adb1 26bb
00000260: 8923 03bd aa36 52bd b156 053d 9245 96be
00000270: 56d9 44be b0ee e5be 6c88 8cbd 1228 26bd
00000280: 0e0b a3be 2ebe c8bd afa0 54bb 4d76 1cbe
00000290: a13a 87be a1fe 27be 211e 9a3e 848e ed3e
000002a0: ad2f a4bd 5968 cb3d b1ef 303e 409b d13e
000002b0: 11da af3d e603 723e 721e b93e 6e45 51be
000002c0: 0054 8cbe b7d7 e6bd 399d 403e 740b 833e
000002d0: 179d ddbd 384a d3bd 5bf8 423e 2d8e ff3e
000002e0: 6f8f 603f b492 6a3d ebba 753e 78e5 d13e
000002f0: 4d46 343f 93be ba3e 66b9 22bd dd2a 0ebc
00000300: d0ea aebd 9947 bfbe edb2 b9bd a09c 013e
00000310: 0576 6b3b ca42 7ebe 1bf2 35bf 5878 82be
00000320: 91f7 663e 708b 053e 6b34 2cbf d8ef 37bf
00000330: 1be8 d43d b26f 903c bf9b 0fbe 6262 cdbe
00000340: 357f 93be b2bd f7ba ff9b e53d 317b ad3d
00000350: 86f2 78bc 9de0 513e 75ef f53d 90d8 a2bb
00000360: 0d74 ddbd bf06 c93e 6543 70be bc27 c83e
00000370: 833f dcbd d139 babc d763 1b3c 4236 1e3d
00000380: d2d0 b63e 95af 87be 7122 8ebd 8412 b93e
00000390: cee9 cc3e a60e 973e 121b 0dbf 8777 e0bd
000003a0: 65e5 433d 2183 163e ebbd 133e 05b7 96be
000003b0: 7ed0 003e 5498 acbd b157 eabe 52be abbe
000003c0: 4a79 0f3e d19a db3d 4171 7ebe cab6 32bf
000003d0: daa6 85bf 6e0b 2a3e 3d36 1b3e b94d 39be
000003e0: ee70 22bf 1948 56bf 9906 38bc 933b 3e3e
000003f0: 235a bf3e a0a0 623d cd8c 0abd 7613 f8be
0.24430071 0.16338937 -0.94252205 -1.2287122 -0.2953545 0.23527831 0.20479734 -0.2461133
-0.30103227 -0.050127633 -0.031707227 -0.25477958 0.053150155 0.074336395 0.113588214 -0.47274223
-0.5285732 -0.007555041 0.22895661 0.23098251 -0.058208752 -0.093331635 0.08529265 0.20518593
-0.004178888 -0.042530175 0.19728082 0.40322164 0.22566919 -0.06838419 -0.26127347 -0.60332483
0.04390124 0.38104782 -0.045136534 -0.044770714 0.18771589 -0.009433248 -0.1111628 -0.45265368
0.011879286 -0.031001821 -0.16077866 -0.7205377 -0.00490334 0.17474988 0.0859842 0.021820318
0.14969166 -0.0038390767 0.17219168 0.16712451 -0.098955184 -0.4252329 -0.15664458 -0.060954016
-0.29267618 -0.123822235 -0.19391263 0.22285178 -0.065470204 -0.12492104 -0.24469776 0.18206546
0.21490665 0.12667586 -0.12883823 0.22126493 -0.17621109 0.0833536 0.10931396 0.042109758
0.13613178 0.19348939 0.121240765 -0.2776234 0.01991881 0.15679099 0.16162781 0.28526732
-0.13999975 -0.14957595 0.008699099 0.061320893 0.18923575 -0.30841592 -0.16428693 -0.060161717
-0.07868864 -0.3132029 0.13023174 0.06094675 -0.14211242 -0.52637804 -0.81714875 0.28734124
0.35356238 -0.12909365 -0.23726207 -0.24112199 -0.36665344 -0.058615096 0.30154744 0.28487423
0.1833851 -0.29355925 -0.28755546 0.05467636 0.06924184 -0.054714434 0.12654655 -0.17572783
0.026276486 -0.03446173 -0.14365663 0.30592936 -0.05178962 0.0047231745 -0.10880727 -0.30064863
0.16535634 -0.0008196252 -0.016221182 -0.22462493 -0.2893462 -0.37155715 -0.1651143 0.21993834
0.25009948 0.3018749 -0.50855833 -0.007862228 0.10413844 0.47721502 -0.08386268 -0.03248574
0.029444136 0.17578836 0.01249606 -0.17069392 -0.0107028885 0.03616362 -0.15100656 -0.18301259
-0.42292684 0.053194255 -0.03190897 -0.10373 -0.519995 -0.8114445 0.00014004343 -0.0025435493
-0.03201631 -0.051321663 0.03255338 -0.29349953 -0.19223532 -0.44908667 -0.06861958 -0.040565558
-0.31844372 -0.09801899 -0.0032444408 -0.15279503 -0.26411918 -0.16405727 0.30101112 0.46397793
-0.08016906 0.09932012 0.17278935 0.4093876 0.08586515 0.236343 0.3615604 -0.20436642
-0.27407837 -0.11271613 0.18809976 0.25594676 -0.10820978 -0.103168905 0.19040053 0.4991316
0.8771886 0.057268813 0.23997085 0.40995383 0.7041977 0.36473522 -0.03972759 -0.008677212
-0.08540881 -0.37359312 -0.090673305 0.12657404 0.00359285 -0.24830166 -0.7107255 -0.2548244
0.22555377 0.13041472 -0.67267483 -0.7185035 0.10395833 0.017631385 -0.14024256 -0.40114123
-0.2880799 -0.0018901138 0.112113945 0.084707625 -0.015194541 0.2049584 0.120085634 -0.004969664
-0.108131506 0.3926296 -0.23463209 0.39092815 -0.107543014 -0.022732647 0.009484253 0.038625963
0.35706192 -0.26501146 -0.06940163 0.3614694 0.4002213 0.29503363 -0.5511943 -0.10960298
0.04782619 0.14698459 0.14427917 -0.29436508 0.12579533 -0.08427492 -0.45770028 -0.3354364
0.14011112 0.10722888 -0.2484789 -0.69810164 -1.0441544 0.16605923 0.15157409 -0.18096055
-0.6345357 -0.8370376 -0.011232042 0.18577413 0.37373456 0.055328965 -0.033825684 -0.48452348

fc1.0.bias f4 [120]
00000000: 3350 c53c 14e3 6fbb f129 1dbd d52b 303d
00000010: 4942 a9bb db60 babc e7b8 b0bd e0c1 cabd
00000020: 6814 8fbc 887b bd3c 4c1e d3bd f7d8 643c
00000030: ba38 b33c 26c7 513b 88ba e93d ea75 8bbc
00000040: f358 d3bb feb4 ab3d 81d5 8b3d 9dac d03c
00000050: 5bd8 b03c 4ec3 7a3d 2c9d ab3d ae8c b6bd
00000060: 7a30 963d 2090 80bc 71b4 ecbd bd43 a73c
00000070: 0d67 053c eb7e 1a3d e66f 85bd 04a0 cbbc
00000080: dc55 e3bc 6790 babd 9980 9e3c 314b 0abd
00000090: f65d ba3d 948c 9cbd 99f6 b73d 0907 c1bd
000000a0: b60f 33bd 3e61 8bbd 4301 03be 7921 ebbd
000000b0: 71f3 a43c c505 b6bd 7668 af3b 97e9 fabc
000000c0: dade 8dbd 8f26 fd3c da4b b3bd 8c0c afbd
000000d0: b5af 493d 4801 91bd 0786 8f3d 8b19 b2bd
000000e0: d60d b03d f5a1 f3bd d801 6cbd e51b f7bb
000000f0: c119 b03c 95e2 23bd 8d72 e03c 52cc d9bd
00000100: 31a6 1e3d 8ea3 6bbd 5b2b 853c 0ace bebd
00000110: e313 a73d 0143 a1bd 0a18 64bc af4b d8bd
00000120: 763b fabc 6fd1 0fbb c11d 01bd fad1 dbbd
00000130: ab3b a23c 1c0f 21bb 96ba 743d e807 22bb
00000140: f64f 3ebc d295 953d eab6 2bbd d83c 01bd
00000150: 6171 96bc 19ef f83a 2543 bcbb 7281 233c
00000160: 0d6f 93bc 0e3e 6f3c 0c68 873d f58d 3abd
00000170: 5fb0 9c3c d25a d53d 1efd 5cbc 89dd 2fbc
00000180: 63cb f0bc 54c0 9bbd 861e 44bd 4f37 84bd
00000190: 97c2 cdbd 77af ba3c 4a02 833d 291a ae3c
000001a0: 9a3d 05be 1e6b 083d 7c20 233d cbc9 82bd
000001b0: 4201 293d 6ec1 94bc 368b 99bd 1c15 6b3c
000001c0: 7dcf fdbb 8870 05bd 7d65 8dbc 0a20 cb3c
000001d0: c04b f03c ad15 153e 7f78 96bd fd15 0d3d
0.024086094 -0.0036603855 -0.038370077 0.04301055 -0.0051653725 -0.022751262 -0.08629017 -0.0990026
-0.017465785 0.023130193 -0.10308513 0.013967744 0.021877635 0.003200957 0.11412531 -0.017024
-0.0064498126 0.08384131 0.06827832 0.025472933 0.021587541 0.061221413 0.083795875 -0.08913551
0.07333465 -0.015693724 -0.11557854 0.020418042 0.008142245 0.037718695 -0.065154836 -0.024856575
-0.027750902 -0.09109574 0.01934843 -0.033763114 0.09099953 -0.07644001 0.08982582 -0.0942517
-0.043716155 -0.06805657 -0.1279345 -0.11480994 0.020135613 -0.08887819 0.005353029 -0.030628962
-0.06927271 0.030902175 -0.08754702 -0.08547315 0.049239833 -0.070803225 0.070079856 -0.08696278
0.08596389 -0.11896125 -0.057618946 -0.007541167 0.021496655 -0.040011007 0.027398372 -0.10634674
0.03873271 -0.057529025 0.016256025 -0.093166426 0.0815809 -0.07874108 -0.013921747 -0.105613105
-0.030545931 -0.00219449 -0.031522516 -0.10733409 0.019803843 -0.0024575656 0.059748255 -0.002472395
-0.011615744 0.073039666 -0.041922487 -0.031552166 -0.01836461 0.0018992155 -0.005745309 0.009979593
-0.01799729 0.014602197 0.06611642 -0.045545537 0.019127069 0.10417713 -0.013488082 -0.01073397
-0.029393857 -0.07605043 -0.047880672 -0.06455862 -0.10046881 0.022788746 0.06396921 0.021252709
-0.1301178 0.03330528 0.0398259 -0.06386145 0.041260965 -0.01815864 -0.074972555 0.014348295
-0.007745682 -0.03257802 -0.017260307 0.02479555 0.029332995 0.1455905 -0.073472016 0.034444798

fc2.0.weight f4 [84, 120]
00000000: b34c d53b 7844 ee3e 98ef c13e 1f2b a1bd
00000010: 0b84 ddbc 5ae0 2c3f 9da7 96be e6f9 b53d
00000020: 803e 5ebe 35a7 893e 8c6e fabe 8ba3 43be
00000030: e4b8 17bf 3d0a 583e ec1d 5cbe f356 f6be
00000040: 8b6b c43d 7021 cabd e6f6 663d a0cf 363d
00000050: 5d75 8b3e 8ab7 a5be dd7c 4f3d 5f64 3abf
00000060: dbed c1be a07f 283f 1bf7 993e d697 31bc
00000070: d631 e23b 79f7 e53e 8653 183d e747 c73e
00000080: 174b 8cbd 4512 68bc 6a9d d7be 4d9b de3e
00000090: 937f e43d ae66 ae3c 923e b0bd 3b09 7bbe
000000a0: 8b86 3ebe 28aa 8abc 2786 90be 084a f9bd
000000b0: fc46 bbbe 5442 8ebe 94f4 b73e fb82 ac3e
000000c0: 290c b33d 7397 f5bd db55 31be a9fe fbbe
000000d0: 8d3f 663e e42f 75bf cf05 c8be a5cd b6be
000000e0: d12f b5bb fc27 c3be a426 7c3e bf22 513d
000000f0: 618a 893e 33c0 8bbe 2be6 cb3e c55d febe
00000100: 2646 263e 8ea3 f6bd 27b9 923e 3cf5 9ebd
00000110: fed6 053e 31a9 7ebe 4f22 48bd 79c7 ed3e
00000120: b8eb 30be 4eb6 d6bc 9f99 743d e29d 34bf
00000130: ec42 66be c95f c03e af55 8d3e 7923 8a3e
00000140: 9ab4 733e 6196 5ebe b53a f9bd 1796 d53e
00000150: 0357 913e 2fc5 683d 0f2c 19bf 472a ff3e
00000160: 636f 62be 422c ca3e c29a ea3e 4ad6 413e
00000170: 1ed2 423e eb1f 9fbe 6b8f 1cbe 92d2 253e
00000180: ba76 b1be b915 c3be 3a3e 8bbe 192a 543e
00000190: 4637 ffbe 5211 303f 945b af3d d3e1 dabe
000001a0: 71a9 11bf 513e debe d418 1ebd 43f7 e9bd
000001b0: 2ba8 753e a4c6 983e bc86 cc3e 11db 20bb
000001c0: e5bf a3be 3d68 063f a7c9 6e3e dcf6 513d
000001d0: d7d7 bfbd 963d 54bd 75f8 2a3e 76ed 5f3d
000001e0: b938 16be d8a4 e2bd e3c3 5cbe 4b86 aabd
000001f0: bc0b ebbe e09f dcbe 5582 47bd 09be e33d
00000200: e66d 463e 14d9 f9be cdbf 163e 8a51 a43e
00000210: 37c8 99be 13fd d6be 94b1 96bd b25f 2bbe
00000220: a2e2 8e3e 46e8 28be 925f 923e 5731 463e
00000230: 5489 48be dae8 023f 170b d3be beaa 993e
00000240: 8ef0 8abe 51a5 38bc b8d2 053e 5b31 3b3f
00000250: 5e62 c13d e566 0dbe dab3 bcbe 4d09 43bf
00000260: 8f71 95be 29cd 3e3c 3802 96bc 2f8c d73e
00000270: ac56 bd3e c668 2a3e fc78 933d a83a aabe
00000280: d4af 243e 1da3 063f a016 f9bd 4467 073f
00000290: 1ce3 303c 540b ab3e 18e3 eabc e308 d8be
000002a0: 4599 32be 7e85 00be 3ca3 cc3d 4fda 8c3e
000002b0: 646d c43c a94b 3a3f 808c cd3e e578 1b3e
000002c0: 41f3 57be de93 bd3e 41a9 b7be 21f6 f63d
000002d0: d041 583c ce5c 9d3e 8027 be3e dade c3be
000002e0: 207d 813e f38d 50be 616d 5fbe 351b b0bd
000002f0: 7cb8 553d 2b90 02bd 2592 e53e dd25 d7be
00000300: a53e 1bbe e1e6 1bbe 6ee0 99be 9f12 cebc
00000310: 2d2c 07bf 01aa 043d a951 d5bc 93bf ed3e
00000320: b42d 1ebf da4b 753d 8a0d af3d bb5c 96be
00000330: bbc3 dcbe 58fd 32bd ed02 333e 658a dabe
00000340: 264a 413e b3f6 e1be e23a 813e c7f5 4cbe
00000350: 38fd 7d3e d316 c13e ddfb ebbe 53de 4d3e
00000360: 52f9 253f 8da3 213f 12fa 883c 8723 44bf
00000370: 7340 153e 4fd1 95bd cd19 483e 32b8 a33e
00000380: 456e 553e 1319 f0be dac1 b2bd 6b1f 2dbf
00000390: 5a77 c33e 8d3f 2b3f 7afa 1ebe 248b 8ebe
000003a0: 2f43 e53e aecf 52be f5d2 ce3e 7d6d c53e
000003b0: d96e 46bd 5b91 5d3e e41b 50bf ea52 0dbd
000003c0: e170 4c3f fe0d 6cbd 36f6 3f3e 5fb5 ab3e
000003d0: 998a bf3e 2d29 913e 4f5a 88be 95e7 e6be
000003e0: 045b 723c fcc9 9c3e d620 503e 124d d23c
000003f0: fa10 30be 6b43 fbbb 1037 09be 35b2 82be
0.0065093874 0.46536613 0.37878108 -0.07869553 -0.027040502 0.67529833 -0.29424754 0.08885555
-0.2170353 0.2688538 -0.48912466 -0.19105355 -0.59266496 0.21097656 -0.2149579 -0.48113212
0.09590825 -0.09869659 0.056387804 0.0446316 0.2723798 -0.32366592 0.05065619 -0.72809404
-0.37876782 0.6581974 0.3007134 -0.010839423 0.0069029136 0.4491537 0.03718903 0.38922045
-0.0685026 -0.014164512 -0.42112285 0.4347786 0.11157145 0.021289196 -0.08605684 -0.2451524
-0.18606012 -0.01692684 -0.2822735 -0.121723235 -0.36577594 -0.2778498 0.35928786 0.3369368
0.08742554 -0.11991777 -0.17317908 -0.49217728 0.2248518 -0.957762 -0.39066932 -0.3570377
-0.005529382 -0.38116443 0.24624115 0.051058527 0.26863387 -0.27295074 0.39824042 -0.49680915
0.16237697 -0.12042914 0.28656885 -0.077616185 0.13070294 -0.24869229 -0.048860844 0.46441248
-0.1727742 -0.026209977 0.059716817 -0.7055341 -0.22486466 0.37573078 0.27604434 0.26980188
0.23799363 -0.21737053 -0.121694006 0.41716072 0.28386697 0.056828674 -0.59832853 0.49836943
-0.22112803 0.3948689 0.45821196 0.18929401 0.19025466 -0.3107904 -0.15289085 0.16193607
-0.34660894 -0.3810251 -0.27195913 0.20719184 -0.49846858 0.6877643 0.08562389 -0.42750415
-0.5689917 -0.4340692 -0.038597897 -0.114241146 0.23989932 0.2983905 0.39946544 -0.0024544636
-0.3198234 0.52502805 0.23319112 0.051260814 -0.0936734 -0.051816545 0.16696341 0.05466982
-0.14670075 -0.11066598 -0.215591 -0.083263956 -0.4590739 -0.43090725 -0.04870828 0.11120231
0.1937786 -0.4879843 0.14721604 0.3209346 -0.30035564 -0.41989955 -0.07358089 -0.16735724
0.27907282 -0.16494855 0.2858854 0.19354759 -0.19583637 0.51136553 -0.41219398 0.30013078
-0.27136654 -0.011269883 0.13068664 0.73122185 0.0944259 -0.13808782 -0.36855966 -0.76186067
-0.291882 0.011645594 -0.018311605 0.4209914 0.36980188 0.1664153 0.0720081 -0.33247876
0.16082698 0.5259264 -0.121625185 0.52891946 0.010796335 0.3340708 -0.02867274 -0.4219428
-0.1744128 -0.12550923 0.09992072 0.27510306 0.023977943 0.727717 0.40146255 0.15182836
-0.21088888 0.37026876 -0.35871318 0.12058664 0.013199285 0.30734867 0.3713951 -0.3825596
0.25290775 -0.2036665 -0.21819068 -0.08598939 0.05217789 -0.03187577 0.44838062 -0.42021075
-0.15160616 -0.15224792 -0.3005404 -0.025155364 -0.5280178 0.03238869 -0.026039915 0.46435222
-0.6178849 0.05988679 0.08547504 -0.29367623 -0.4311808 -0.04369864 0.17481585 -0.42683712
0.18875942 -0.4413353 0.25240237 -0.20015632 0.24803627 0.37712726 -0.46090594 0.20104341
0.6483356 0.63140184 0.016720805 -0.7661671 0.14575367 -0.07315313 0.19541092 0.31976467
0.20842846 -0.4689413 -0.087283805 -0.67626065 0.38176996 0.66893846 -0.15525237 -0.2784053
0.4477782 -0.20587036 0.40395322 0.38560095 -0.048445556 0.2163748 -0.8129256 -0.0345029
0.7985974 -0.05763053 0.18746266 0.33536813 0.3741043 0.28351727 -0.266314 -0.45098558
0.014792208 0.30622852 0.20325026 0.025671516 -0.17193976 -0.007667949 -0.13399911 -0.25526586

fc2.0.bias f4 [84]
00000000: fbb9 843d fae1 4c3d bbf7 1e3c 1670 383d
00000010: 3db2 aabb 340f 5ebc fa9a 8cbc 2193 23bd
00000020: d36a 543d 2405 b5bd f117 543b 247b c93c
00000030: 0c56 c0bd 922c 08bd a3a7 10bd f0f7 3dbd
00000040: f55f 3bbd 3f81 803c 8c08 a2bd 054e 7f3d
00000050: dcd8 f43d 3c65 213c 1ded 963d 4d2a cebc
00000060: 3a52 943c 5d65 9a3d 6796 a33c a0de f9bc
00000070: 1cb9 4e3d ff78 063d 9855 c7bd 2263 3bbd
00000080: 286d febc c0cc 823b bde3 5c3d 10d6 a1bd
00000090: 124e 34bd 2269 b33d b253 adbd dce9 94bd
000000a0: 9ffc 8d3d 198a 4ebd 2ec5 a4bb 2e30 b1bc
000000b0: acab 91bc d7de 5a3d a0d6 673d f601 8dbc
000000c0: a6c9 3c3d 7b02 aebd e7e1 033d d5ae 30bd
000000d0: 4230 fbbc 124e 73bd ec25 f4bd dcb9 1d3d
000000e0: 615a 93bd c671 11bd 74c4 433d 23ac a83b
000000f0: 4476 883d 06e6 873d 0916 5fbd 8d10 2e3d
00000100: f8b9 42bd cf61 c63d 7fea 8fbd 43df 66bc
00000110: d0b9 ac3a 5833 8e3d 2388 6f3c c111 2a3d
00000120: b221 28bd 15cc acbc c6f9 fb3d 091e 003b
00000130: dfa8 953c 2ad2 e43d f6ce 0c3d b7e5 4c3d
00000140: b09b 52bc d8d6 943c 0565 6b3d 427e dfbc
0.064807855 0.050020196 0.009702618 0.04502877 -0.005209236 -0.013553429 -0.017163742 -0.039935235
0.051859688 -0.08838871 0.0032362903 0.02459485 -0.09391412 -0.03324563 -0.03531612 -0.04637903
-0.04574581 0.01568663 -0.079117864 0.062330265 0.11955425 0.009850796 0.073694445 -0.025166655
0.018105615 0.07538865 0.019969178 -0.030501664 0.050469503 0.032830235 -0.097331226 -0.045748837
-0.03105791 0.0039916933 0.053928126 -0.07902157 -0.044019766 0.08760287 -0.08463229 -0.07271168
0.06932949 -0.05042467 -0.0050283885 -0.02162942 -0.017782055 0.053435173 0.056601167 -0.01721285
0.046090744 -0.08496567 0.03219786 -0.043135483 -0.03066266 -0.059400626 -0.119212955 0.038507327
-0.07194973 -0.035508893 0.047794774 0.0051474734 0.066631824 0.0663567 -0.054464374 0.042496253
-0.047540635 0.09686624 -0.070271485 -0.014091316 0.0013177935 0.06943387 0.01461986 0.041520838
-0.04104776 -0.021093408 0.123035 0.0019549152 0.018269 0.11172898 0.03437706 0.05002376
-0.012854502 0.018168852 0.057469387 -0.027281884

fc3.weight f4 [10, 84]
00000000: 858a 883e f9d1 a03d c6d0 963e 209d 2bbf
00000010: 304a cfbe 3f94 d5bb c1b5 5cbf e37e 1ebf
00000020: 5d7f 81be 731f 733e 28db c03a c37c aebe
00000030: 9c05 ac3e f480 52bf a3e1 2ebf 8923 5cbe
00000040: 54da 873e e251 503e c624 e1be 25b7 8c3d
00000050: 87b4 92bd 7012 07bf d784 943e 462e 2d3e
00000060: c670 0cbf 5f0c 66bf 97a3 4fbe 43e4 36bf
00000070: 8d7c 05bf 4b0d 563e 7edf bf3e 731a 28bf
00000080: 4d78 ac3e 958e de3e bffc 81bf 25f3 1ebf
00000090: d21b c73e da8c 1bbf d8b3 a53e a829 46be
000000a0: 44ec 6ebf 8c6e da3e 7cd4 a63e 5c89 9e3e
000000b0: d681 26bf 847d 2abf 7f68 0dbf 801e 0c3e
000000c0: 76a4 183f aba9 233e 8689 1fbe eab5 cbbd
000000d0: e9e4 1c3d fce2 07bf 67a2 6bbe af1c 2f3f
000000e0: 5832 f9be ead8 623e 24a6 16bf 0ff2 00bf
000000f0: dae5 32be 5eb4 a9be cd7b 0e3f 0c8b 08bf
00000100: fa76 b13d e551 20bf 7d6d 6dbf b4a2 c13e
00000110: 4efa d93e 6421 23bd e0e5 4f3e f5bf 0f3f
00000120: 349a 553d 0a66 ab3e 6188 a73e 9c8b 173e
00000130: 4e79 dd3e 4a14 b3be 59ad 5dbd 9e5d b53e
00000140: 8d2c a93e 5eb8 5fbf 8d23 3dbf cb41 81bf
00000150: d611 17bf 7ebf 9f3e e895 debe d525 16bf
00000160: 62ed a03e 20b2 df3e a189 c23e 9e22 0bbf
00000170: 9f8a e93e f656 02bf 5f60 dfbe 6306 f73e
00000180: b8a2 543e 2bbb 973e 1f58 c03e 4a26 04be
00000190: a618 e2be 346b 013e 5e81 01be 85b2 bd3d
000001a0: 346f c73e b566 d33e 0e32 af3e 22e6 0abf
000001b0: a54d b23e 9605 ad3e 4f56 dd3e 4c96 993e
000001c0: ba37 553e 5cdd 1bbf 4d26 673e 8544 34bf
000001d0: 8cbb ccbe fe6d 6c3e cc99 093e 3342 eb3d
000001e0: 26b0 1fbf 8b34 343e 7110 5dbf 133b 013f
000001f0: 9fa5 f0be 2704 3a3e b381 35bf 5a5d 893d
00000200: bace afbe 220b 47bd 10e8 a93e 3f5c 1fbf
00000210: 5536 d63e 8dca 113f 0851 26bf 626a e93e
00000220: 0140 7abf 16d5 633e eb49 6bbe 06a8 a73d
00000230: bf00 da3e 6764 e0be 52b4 0ebf c7ba 143f
00000240: 05fa b8be 5119 2fbf 282d 03bf 3b2f bc3e
00000250: 7595 ca3e c917 c63e c21f 00bf 907a f0be
00000260: 70e5 90be 6ee6 0fbf b24a 24bf 6f1c 88be
00000270: ce28 88bf 0acd ca3e 8b6a 823e dba8 06bf
00000280: 6e90 15bf 2ab4 2b3f 43b0 15bf a994 28be
00000290: 083d adbe 76f3 e73d 3276 4ebd 29b8 033d
000002a0: 2b8d 38bf 88e4 573e 9e84 163e df7d d7be
000002b0: 1de3 e73e 71c9 513e 08a3 26bf e39a b0be
000002c0: 0bc1 313e 04c8 1f3e d9fe fa3e 4d2b e2be
000002d0: 879d cabe 5d01 a7bd b21e a03e 2879 25bf
000002e0: 051f ed3e 281b 0d3e b0aa 8f3e ee75 593e
000002f0: 88d7 c7be c80b 003f 57ac ab3e 5c8e f8be
00000300: 2aa4 6d3e dbc8 9f3d 29b3 1dbf 9dbb b43e
00000310: 8f9a 20be 18d6 0ebf 3ab9 9dbd 4b3f 68be
00000320: 9165 4cbf 23df 34be ea6f 41bf f68a b73e
00000330: 15b9 903e dfd0 473e 9e5a 443f 38da 26bd
00000340: 2429 95be d7cb a83e 574f 4e3e e688 51bf
00000350: 183f 5f3f d322 05bd 60b7 29bf 8fd3 dbbe
00000360: edad fc3e 2232 2fbe 4b01 b2be f94a fabe
00000370: e48e 5dbe 50cb fe3e 1f94 dbbe 87b4 f03e
00000380: 7f0c 1cbe 0451 883e 347b 08bf 8b8a 2b3e
00000390: 3389 95bd 02cc a23e 1a2b 263e 5911 77bf
000003a0: 9667 a6be 9996 c5bd 0f79 b13e 8950 713e
000003b0: 7af4 013f 64ca 4d3e 05e0 60be d8a0 f73e
000003c0: 83b4 963d 3b28 cd3e b57e 7dbf 366a 7bbf
000003d0: 7ed8 6a3e 11fc 46bf cee8 32bf b206 10bf
000003e0: 68e4 cebe 3d4b b03e b69a 2f3d 8fa3 efbe
000003f0: cad7 d1be db19 99bc 88b5 c13e 9f6c 2ebd
0.26668182 0.07852549 0.29456156 -0.6703663 -0.40486288 -0.0065179165 -0.86214834 -0.61912364
-0.25292483 0.23742466 0.0014713751 -0.3407956 0.3359803 -0.82228017 -0.68313044 -0.2149793
0.2653376 0.20343736 -0.43973368 0.068708695 -0.07163339 -0.5276251 0.290076 0.16912183
-0.5485958 -0.89862627 -0.20277248 -0.7144205 -0.52143174 0.20903508 0.37475199 -0.6566536
0.33685532 0.43468156 -1.0155257 -0.6208976 0.38888413 -0.607618 0.32363772 -0.19351828
-0.9332926 0.42662466 0.32583988 0.30964172 -0.65041864 -0.6659777 -0.55237573 0.1368351
0.5962595 0.15982692 -0.15579805 -0.09946807 0.038304243 -0.53080726 -0.2301117 0.6840314
-0.48671222 0.22153059 -0.5884726 -0.5036935 -0.17470494 -0.33145422 0.55657655 -0.5333717
0.08665271 -0.6262496 -0.9274519 0.37819445 0.4257378 -0.039826766 0.20302534 0.5615228
0.052149013 0.33476287 0.32721236 0.1479935 0.4325661 -0.34976417 -0.054120395 0.35422987
0.33041802 -0.87390697 -0.7388237 -1.0098203 -0.5901159 0.31200784 -0.43473744 -0.5865148
0.3143111 0.43690586 0.37995628 -0.54349697 0.45613572 -0.5091394 -0.43628213 0.4824706
0.20765197 0.29634985 0.3756723 -0.12905231 -0.4415943 0.12638551 -0.12647006 0.092625655
0.3895203 0.41289297 0.34217876 -0.54257405 0.34824863 0.33793324 0.4322991 0.2999748
0.20822039 -0.6088464 0.22573204 -0.7041705 -0.39986837 0.23088834 0.13437575 0.11487236
-0.62378156 0.17598169 -0.8635321 0.50480765 -0.4700136 0.18165646 -0.7090103 0.067072585
-0.34337407 -0.0485946 0.33184862 -0.6225013 0.41838327 0.5694969 -0.64967394 0.45588976
-0.9775391 0.22249255 -0.22977416 0.08186345 0.42578694 -0.438266 -0.55743897 0.580975
-0.3612825 -0.68398005 -0.5124078 0.36754784 0.39567152 0.38690022 -0.5004846 -0.46968508
-0.28300047 -0.5621098 -0.64176476 -0.26584193 -1.0637453 0.39609557 0.2547191 -0.52601403
-0.5842351 0.67071784 -0.5847208 -0.1646296 -0.33835626 0.11325733 -0.05040569 0.03215805
-0.72090405 0.21083272 0.14699027 -0.4208822 0.4529046 0.20487 -0.65092516 -0.3449317
0.17358796 0.15603644 0.49022558 -0.4417366 -0.3957331 -0.08154557 0.3127342 -0.64637995
0.4631273 0.1377989 0.28059912 0.21236393 -0.39031625 0.50017977 0.33529922 -0.48546112
0.23207155 0.07801982 -0.616015 0.35299388 -0.1568396 -0.5579543 -0.07701345 -0.22680394
-0.7984248 -0.17663245 -0.7556139 0.35848206 0.28266206 0.19513272 0.7670077 -0.040735453
-0.2913295 0.32968017 0.20147453 -0.81849515 0.8720565 -0.032503914 -0.66295433 -0.42934844
0.49351445 -0.17108968 -0.3476661 -0.48885325 -0.2163654 0.4976449 -0.42886445 0.4701273
-0.15239142 0.2662431 -0.53312993 0.16752069 -0.07301559 0.3179627 0.1622738 -0.96510845
-0.32500905 -0.09647865 0.34662673 0.23565878 0.50763667 0.20096737 -0.21960457 0.48364902
0.07358649 0.40069756 -0.99021465 -0.9820894 0.22934148 -0.7772837 -0.6988648 -0.56260216
-0.40408635 0.34432402 0.042872153 -0.46804473 -0.40984946 -0.018689087 0.3783381 -0.042584058

fc3.bias f4 [10]
00000000: 64ef 9dbd d0da 9f3b 7a8e fcbc 0087 513c
00000010: b1e4 a3bd 977d febd 15a6 d53d 906b a33d
00000020: 2fa2 273d a357 9f3d
-0.07711676 0.0048783794 -0.030829657 0.012788534 -0.08002604 -0.12426298 0.10432068 0.079795
0.040926155 0.07780387
