6_ConvolutionalNeuralNetwork/LeNet/model10.pth (torch, 250424 bytes, 10 tensors)

conv1.0.weight f4 [6, 1, 5, 5]
0	0xbe8e2bf7	-0.27767918
1	0x3e7316ab	0.23739116
2	0xbc011b5f	-0.007880061
3	0x3f1e3389	0.61797386
4	0x3e54420a	0.20728317
5	0x3e631dec	0.22179383
6	0x3f536875	0.82581264
7	0x3f6fc11f	0.93654054
8	0x3f9afee4	1.2109036
9	0x3ec4a432	0.3840652
10	0xbe6568d7	-0.22403274
11	0x3f202b83	0.62566394
12	0x3f35aa8d	0.70963365
13	0x3f147b0d	0.5800026
14	0xbf0f4f21	-0.55980116
15	0xbec3c143	-0.38233384
16	0x3ea1cca4	0.3160144
17	0xbe3a3fd6	-0.18188414
18	0xbb71a07f	-0.0036869345
19	0xbf803b7a	-1.0018151
20	0xbf161a53	-0.5863392
21	0xbf1dd58e	-0.61653984
22	0xbf58fb94	-0.8475888
23	0xbec9b620	-0.39396763
24	0xbf512ad5	-0.8170598
25	0xbf486df2	-0.78292763
26	0xbe9f9535	-0.31168523
27	0xbdc70538	-0.09717792
28	0xbe822a9d	-0.25423136
29	0x3e0b4918	0.13602102
30	0xbe69a8c2	-0.22818282
31	0x3f003735	0.5008424
32	0x3f2d9dce	0.67818916
33	0x3f15d98c	0.58535075
34	0x3f38ddda	0.7221352
35	0xbe106c7a	-0.1410388
36	0x3f98c37f	1.1934661
37	0x3fdcf7ec	1.726316
38	0x3f28e7f5	0.6597894
39	0x3f01c4a9	0.50690705
40	0xbefa5979	-0.48896387
41	0x3f4b4b4e	0.7941178
42	0x3e41324f	0.18866847
43	0x3e29f8a3	0.16598754
44	0xbe33b382	-0.17548946
45	0xbfa529d3	-1.2903389
46	0xbf284d0e	-0.65742576
47	0xbf3e0ee7	-0.7424149
48	0xbf10a29b	-0.56498116
49	0xbf034e7b	-0.51291627
50	0xbf041987	-0.5160145
51	0xbe78eb2c	-0.24308461
52	0xbea45d7d	-0.32102576
53	0xbdd4736a	-0.10373576
54	0xbf54bf73	-0.8310463
55	0x3f499578	0.78743696
56	0x3f3c3429	0.7351709
57	0x3f7bd510	0.9837198
58	0x3f926bc9	1.1439143
59	0xbf0c4e89	-0.54807335
60	0x3f05b154	0.52223706
61	0x3f42db67	0.7611603
62	0x3f90694f	1.1282138
63	0x3f3f7da0	0.74801064
64	0xbf25e428	-0.64801264
65	0xbd39cab4	-0.04535933
66	0x3f36fc33	0.71478575
67	0x3ed23465	0.410556
68	0x3ea1a75f	0.31573007
69	0xbf28039a	-0.65630496
70	0xbf08e826	-0.5347923
71	0xbe817f3d	-0.25292388
72	0xbee27c04	-0.4423524
73	0xbee78348	-0.45217347
74	0xbf54cf79	-0.8312908
75	0x3ef140c5	0.47119728
76	0x3f18a0ce	0.5962037
77	0x3f2a7f12	0.66600144
78	0x3f081a46	0.5316509
79	0x3f18b15e	0.5964564
80	0x3e43f429	0.19136108
81	0x3d5a6369	0.05331746
82	0xbeb9798d	-0.36225548
83	0xbe3eedf7	-0.18645464
84	0xbe100e74	-0.14068013
85	0xbf133266	-0.57498777
86	0xbfbb8648	-1.4650354
87	0xbf9021b8	-1.126029
88	0xbf811e79	-1.0087425
89	0xbf339547	-0.70149654
90	0xbf66e022	-0.9018575
91	0xbf37cff3	-0.7180168
92	0xbe48537d	-0.19563098
93	0xbdb32498	-0.08747214
94	0xbf16f8ac	-0.58973193
95	0x3c56cea8	0.013110794
96	0x3f4684f3	0.77546614
97	0x3f4c1237	0.79715294
98	0x3ea4fe20	0.32225132
99	0xbe1446c9	-0.14480127
100	0x3f3319d3	0.6996128
101	0x3f8fa22f	1.122137
102	0x3f015dc5	0.50533706
103	0x3f2125e6	0.62948453
104	0x3f4bb0e4	0.7956679
105	0x3e6e7020	0.2328496
106	0xbed21316	-0.41030186
107	0xbf240516	-0.6407026
108	0xbf3fff6b	-0.7499911
109	0xbebc1909	-0.3673785
110	0xbe0f3669	-0.139856
111	0xbf074898	-0.52845144
112	0xbf0c9871	-0.5492011
113	0xbf0225f3	-0.50839156
114	0xbece3e71	-0.40282014
115	0x3ee88e76	0.4542119
116	0xbec94d2c	-0.3931669
117	0xbf6d6543	-0.9273264
118	0xbee0d77c	-0.43914402
119	0xbead9090	-0.33899355
120	0x3f61682b	0.8804957
121	0x3ca38f94	0.019965924
122	0xbeb196ec	-0.34685457
123	0x3e4ea59d	0.20180364
124	0x3ef9a157	0.48755905
125	0x3ea3f4d8	0.32022738
126	0x3efac3e4	0.48977578
127	0xbde4b23f	-0.1116681
128	0xbf550399	-0.83208615
129	0xbf17c87e	-0.592903
130	0x3e4b80be	0.1987333
131	0x3bc37e39	0.0059659746
132	0xbf0178cf	-0.50574964
133	0xbf9a4663	-1.205273
134	0x3e1e7100	0.15472794
135	0xbda85564	-0.08219412
136	0xbdbb50f4	-0.091463
137	0xbf474540	-0.7784004
138	0xbf3f430b	-0.74711674
139	0x3f1fadf3	0.623748
140	0x3e99643b	0.29959282
141	0xbec74b9d	-0.38924876
142	0xbf94a81a	-1.16138
143	0xbe13a5d8	-0.14418733
144	0x3de7c5a2	0.11316992
145	0x3f475ce6	0.77876127
146	0xbeba16ad	-0.36345425
147	0xbfa103ac	-1.2579246
148	0xbef0cc11	-0.4703069
149	0x3ebdd8a4	0.37079346

conv1.0.bias f4 [6]
0	0xbf47879c	-0.779413
1	0xbf5a3fa2	-0.85253346
2	0xbf483754	-0.78209424
3	0xbce58a89	-0.02802016
4	0xbe2ad8be	-0.16684243
5	0xbf0a2619	-0.5396438

conv2.0.weight f4 [16, 6, 5, 5]
0	0x3e27cf46	0.16387662
1	0x3e8f0151	0.27930692
2	0x3f001a75	0.5004037
3	0x3e79e893	0.24405126
4	0xbe8dcf81	-0.27697375
5	0x3ed6b2b1	0.41933206
6	0x3f169207	0.5881657
7	0x3e2cd207	0.16876994
8	0xbe58554b	-0.21126287
9	0xbf03aa88	-0.51432085
10	0x3ee3009b	0.443364
11	0x3e4acbfe	0.1980438
12	0xbf0fa890	-0.5611658
13	0xbf465d98	-0.7748656
14	0x3d889620	0.06669259
15	0x3e521f75	0.20519812
16	0x3d88391e	0.06651519
17	0xbf6c0fb3	-0.92211455
18	0xbe756645	-0.23964794
19	0x3f2270ff	0.6345367
20	0xbc8488f2	-0.016178582
21	0xbea1649c	-0.3152207
22	0xbf53392c	-0.8250911
23	0x3d0ef298	0.034899324
24	0x3edf7b3c	0.43648708
25	0x3db91be8	0.09038526
26	0x3ebd01a3	0.3691531
27	0x3ee02352	0.43776947
28	0x3da21be5	0.07915477
29	0xbe8a2499	-0.26981047
30	0x3e72e3e9	0.23719753
31	0x3eae2208	0.3401034
32	0xbd235718	-0.03987798
33	0xbefb807b	-0.4912146
34	0xbe5fac58	-0.21843088
35	0x3ea014a1	0.3126574
36	0xbd976ce0	-0.07393813
37	0xbf456fe6	-0.7712387
38	0xbedddf0f	-0.43334243
39	0x3edaebe7	0.42758104
40	0x3d891413	0.06693282
41	0x3d6653a3	0.056232106
42	0xbf44d940	-0.76894
43	0x3d48b2a9	0.04899851
44	0x3f1a1161	0.6018277
45	0x3d383533	0.04497261
46	0xbe9f57da	-0.31121713
47	0xbee46d80	-0.44614792
48	0x3e937a77	0.2880437
49	0x3ee3601b	0.4440926
50	0x3ea633bc	0.32461345
51	0x3eade1ba	0.33961278
52	0x3ef95460	0.48697186
53	0x3e897193	0.26844463
54	0xbe20d2e8	-0.15705454
55	0x3eebfc5f	0.4609098
56	0x3f0c2923	0.5475027
57	0x3dec422a	0.11536057
58	0xbee766ac	-0.4519552
59	0xbea44cc3	-0.32089815
60	0x3e9e8d71	0.30967286
61	0x3cb61ab4	0.02222953
62	0xbf382f45	-0.7194713
63	0xbf622ed9	-0.88352734
64	0x3e6aa9ea	0.2291638
65	0x3e30b202	0.17255405
66	0x3e2b6e9e	0.16741416
67	0xbf37d76b	-0.71813077
68	0xbecd9984	-0.40156186
69	0x3eec7596	0.4618346
70	0xbd93c0ce	-0.07214509
71	0xbd8bb7ca	-0.06822164
72	0xbf3063b5	-0.6890214
73	0x3d909128	0.07058936
74	0x3f08ad85	0.5338977
75	0xbe8b27d5	-0.27178827
76	0xbeceaadf	-0.4036474
77	0xbed97583	-0.42472467
78	0x3cd61f8d	0.026138091
79	0x3e2d599a	0.16928712
80	0xbeb78de5	-0.35850444
81	0xbe671589	-0.22566809
82	0x3e2a8ddb	0.16655676
83	0x3eb6c860	0.3569975
84	0x3d426086	0.047455333
85	0xbe8faf57	-0.2806346
86	0x3de9c330	0.11414182
87	0x3e82d667	0.255542
88	0xbcd3da32	-0.02586088
89	0xbf3d33f3	-0.73907393
90	0xbe6796ca	-0.22616115
91	0xbd48ba85	-0.049006004
92	0xbc58048a	-0.013184676
93	0xbee547ee	-0.4478144
94	0xbf7e1cf1	-0.9926291
95	0xbe859707	-0.26091787
96	0x3bde5a71	0.006785684
97	0xbe639c50	-0.22227597
98	0xbf39e075	-0.7260812
99	0xbf887163	-1.0659603
100	0xbeb35a82	-0.3502999
101	0xbeaf67f1	-0.34258988
102	0xbe7f0c9f	-0.24907158
103	0xbd9fffe8	-0.07812482
104	0x3d15c0f7	0.03656098
105	0xbeb7add1	-0.358748
106	0xbde5721d	-0.11203406
107	0x3e8da1ae	0.27662414
108	0x3e9ab03d	0.30212584
109	0xbe15753d	-0.14595504
110	0xbe68af07	-0.22723018
111	0x3c36be2b	0.011153738
112	0x3f119c80	0.56879425
113	0x3e3fbac1	0.18723585
114	0xbf0ec4d9	-0.55769116
115	0xbe1338b6	-0.14377102
116	0x3df2816f	0.11841094
117	0x3ed829a6	0.42219275
118	0xbdff5194	-0.12466732
119	0xbeac0aad	-0.33601895
120	0xbe0ff8a7	-0.14059697
121	0x3e072545	0.13197811
122	0x3e905c01	0.28195193
123	0xbef52cd3	-0.4788576
124	0xbeb08762	-0.3447829
125	0xbe6f76c1	-0.23385145
126	0xbea769b1	-0.32697824
127	0xbebd16bc	-0.36931407
128	0xbe3f98c0	-0.18710613
129	0xbe0a3695	-0.13497384
130	0xbe315619	-0.17318
131	0xbdb01e93	-0.085995816
132	0x3e29d3c9	0.16584696
133	0x3e44cac2	0.19217971
134	0xbe77aa91	-0.2418616
135	0xbd2bec2c	-0.041973278
136	0x3e1131e4	0.14179188
137	0x3f30d5e0	0.6907635
138	0x3e9394c7	0.28824446
139	0xbe52843d	-0.20558257
140	0x3dbcacf6	0.09212677
141	0x3e8a2118	0.26978374
142	0x3f0326af	0.512309
143	0xbd39aace	-0.045328908
144	0xbe66f782	-0.22555354
145	0xbde0942b	-0.10965761
146	0x3e22e942	0.15909293
147	0x3e9cf09b	0.30652317
148	0xbe1a7582	-0.15083888
149	0x3df660dd	0.12030194
150	0x3ea95260	0.3307066
151	0x3e637bbb	0.22215168
152	0xbe56afdc	-0.20965523
153	0xbea4f022	-0.32214457
154	0xbeacaada	-0.337241
155	0x3ef7eba7	0.48421976
156	0x3eadc65a	0.33940393
157	0x3e867d79	0.26267603
158	0x3eba9ada	0.36446267
159	0x3eab4e60	0.33458233
160	0x3da35fbc	0.07977244
161	0xbf0dcd29	-0.55391175
162	0xbf2f74b3	-0.68537444
163	0xbe3d9288	-0.18512928
164	0x3e8d1c5d	0.27560702
165	0xbf3547be	-0.70812595
166	0xbfb5f291	-1.421465
167	0xbfaa0c72	-1.3285048
168	0xbf6f02c3	-0.9336359
169	0xbec93feb	-0.39306578
170	0x3ddf7127	0.10910254
171	0x3f11f57a	0.5701519
172	0x3e36e809	0.17861952
173	0xbe2d34bb	-0.16914646
174	0xbd8e937c	-0.06961724
175	0x3e63c0c6	0.22241506
176	0x3c18a5c1	0.009316863
177	0xbe1fa1a1	-0.15589
178	0xbdeb415a	-0.11487074
179	0xbe0d6f5b	-0.1381201
180	0x3e51f8db	0.20505087
181	0x3d49dbbd	0.049281824
182	0x3d986293	0.074406765
183	0x3ec715a2	0.38883692
184	0x3eeed7dd	0.46649066
185	0xbe9e5eed	-0.30931798
186	0xbf8758fa	-1.0574028
187	0xbf4112cf	-0.75419325
188	0xbe31e76a	-0.17373434
189	0x3e1181da	0.1420969
190	0xbef02d83	-0.46909723
191	0xbf0282b4	-0.5098069
192	0xbf182c53	-0.59442633
193	0xbf53f19e	-0.82790554
194	0xbefa3b23	-0.48873243
195	0x3ed168d8	0.40900302
196	0x3f335e95	0.70066196
197	0x3e8e59ef	0.2780299
198	0xbd87451e	-0.0660498
199	0xbdcdfc3d	-0.10057876
200	0x3e9e68c3	0.30939302
201	0x3e2f61a4	0.1712709
202	0xbb4fa4b3	-0.0031683862
203	0xbdeab843	-0.114609264
204	0xbe064dec	-0.13115662
205	0x3ecde475	0.4021336
206	0x3e5eeb14	0.21769363
207	0xbd2ff499	-0.042957876
208	0x3e446708	0.19179928
209	0x3ebe7dc0	0.37205315
210	0xbdc01164	-0.09378317
211	0xbf1175d9	-0.56820446
212	0xbf911798	-1.1335325
213	0xbf10d682	-0.5657731
214	0xbd88c9d6	-0.06679122
215	0xbf27ac20	-0.65497017
216	0xbf44f930	-0.7694273
217	0xbf55ef5c	-0.8356836
218	0xbf6ad793	-0.9173519
219	0xbf1e6717	-0.6187605
220	0x3d9e18e7	0.077195935
221	0x3ecc9f5b	0.3996533
222	0x3e8284fd	0.25492087
223	0xbe0a7e41	-0.13524725
224	0xbd823b56	-0.06358974
225	0xbe8be489	-0.27322796
226	0xbe8795c9	-0.26481465
227	0xbe70e707	-0.2352563
228	0xbe3b1b81	-0.1827221
229	0xbe3c33f2	-0.1837919
230	0x3d8d2ae5	0.06892947
231	0x3da4cd88	0.080470145
232	0x3dc113ee	0.094276294
233	0xbe0fa8da	-0.14029256
234	0xbe9ed159	-0.31019095
235	0x3f3c9869	0.7367006
236	0x3f75ce4a	0.960179
237	0x3f70929e	0.9397372
238	0x3f5180a9	0.81836945
239	0x3ec7e02a	0.3903821
240	0x3edde168	0.43336034
241	0x3e9dd1e6	0.30824202
242	0x3ed46ca8	0.41489148
243	0x3f3007de	0.68762004
244	0x3f3298c0	0.6976433
245	0xbe8b14c1	-0.2716427
246	0xbf008aa3	-0.5021154
247	0xbee6e511	-0.4509664
248	0x3c246c14	0.010035533
249	0x3e82d74c	0.25554883
250	0xbdff02e0	-0.1245172
251	0xbe61b369	-0.22041096
252	0xbe3a54c6	-0.18196401
253	0xbe9c0cea	-0.30478603
254	0xbeb1905d	-0.34680453
255	0xbe607364	-0.21919018

conv2.0.bias f4 [16]
0	0xbdbee4d9	-0.09320993
1	0x3ce88390	0.028383046
2	0xbc9b71ad	-0.018975103
3	0x3d16efdd	0.036849845
4	0xbda22322	-0.07916857
5	0xbd23a2fd	-0.03995036
6	0xbda13823	-0.07872035
7	0x3e07a548	0.13246644
8	0xbde79ca0	-0.11309171
9	0x3cad8c12	0.021184955
10	0x3d963980	0.07335186
11	0x3d726c68	0.059185416
12	0xbc139f1c	-0.009010103
13	0xbce90a5f	-0.028447328
14	0xbc404c76	-0.01173698
15	0x3db2b5e6	0.087261006

fc1.0.weight f4 [120, 400]
0	0x3e700e88	0.23443043
1	0x3e814e0d	0.2525486
2	0xbf7520bb	-0.9575307
3	0xbfa7f4a8	-1.3121538
4	0xbeadc949	-0.3394263
5	0x3ea24dfd	0.31700125
6	0x3e98bfe8	0.29833913
7	0xbe9d009e	-0.30664533
8	0xbea12a74	-0.31477702
9	0xbd36f767	-0.044669535
10	0x3cb2f84f	0.021846918
11	0xbeba5582	-0.36393362
12	0x3ce2829a	0.027650166
13	0x3d7d2829	0.061805878
14	0x3ded4bb5	0.115867056
15	0xbf12588c	-0.5716636
16	0xbf1e5884	-0.61853814
17	0x3d7f9aa9	0.062403355
18	0x3e855039	0.26037768
19	0x3ec109ea	0.37702876
20	0xbd82f9b4	-0.06395283
21	0xbdbc7005	-0.092010535
22	0x3de4c88e	0.11171065
23	0x3e83167c	0.25603092
24	0x3df18a42	0.11793949
25	0xbd860430	-0.065437675
26	0x3e418a3c	0.18900388
27	0x3ee66822	0.45001322
28	0x3e4a2363	0.19740061
29	0xbded3312	-0.115820065
30	0xbe7ad271	-0.2449434
31	0xbf3008fc	-0.6876371
32	0x3cd3d678	0.025859103
33	0x3ef6218b	0.48072466
34	0x3db8bf0f	0.090208165
35	0xbde8f021	-0.11373926
36	0x3e9b5592	0.30338722
37	0xbe097011	-0.13421656
38	0xbe801771	-0.25017884
39	0xbf1527a0	-0.5826359
40	0x3db25a4d	0.0870863
41	0xbce0b6d4	-0.02743093
42	0xbe6b01c6	-0.22949895
43	0xbf4a0322	-0.7891103
44	0x3d2c4592	0.042058535
45	0x3e7b2cbd	0.24528785
46	0x3e0f1404	0.13972479
47	0x3b1c2e81	0.002383143
48	0x3e11d9b1	0.14243199
49	0x3d22a7c2	0.039710768
50	0x3e6aac51	0.22917296
51	0x3e867ce1	0.2626715
52	0xbcef2f9a	-0.029197503
53	0xbf046d34	-0.5172913
54	0xbe573ead	-0.21020003
55	0xbd8b64c2	-0.068063274
56	0xbe8e9d8e	-0.2785458
57	0xbd9a1c5d	-0.07524941
58	0xbe31ad9a	-0.1735138
59	0x3eafbf31	0.34325555
60	0xbd81c5a2	-0.063365236
61	0xbdc4feb7	-0.096188955
62	0xbe650e92	-0.2236884
63	0x3e605bee	0.21910068
64	0x3e975617	0.2955787
65	0x3e84e514	0.25956023
66	0xbe4aa4e6	-0.19789466
67	0x3e934cdb	0.28769574
68	0xbe838f5a	-0.25695306
69	0x3e04647c	0.12928957
70	0x3e323df9	0.17406453
71	0x3d801a72	0.06255044
72	0x3e7730e7	0.24139749
73	0x3e93cf9a	0.28869325
74	0x3e793d07	0.24339686
75	0xbec0ca2a	-0.3765424
76	0xbcbf7c00	-0.023374557
77	0x3e2bd9a2	0.16782239
78	0x3e5ead24	0.21745735
79	0x3ec3bddb	0.38230786
80	0xbe6de3ad	-0.23231383
81	0xbe3f643a	-0.18690577
82	0x3d1b38c1	0.03789592
83	0x3dcc1dec	0.09966645
84	0x3e5a1202	0.21295932
85	0xbea65235	-0.32484594
86	0xbe236176	-0.15955147
87	0x3c0873ba	0.008328373
88	0x3d86b775	0.065779604
89	0xbed9338c	-0.4242214
90	0x3e5bf274	0.21479207
91	0x3dd52757	0.10407894
92	0xbdf3ce08	-0.11904532
93	0xbf2ee254	-0.683141
94	0xbf90d75f	-1.1315726
95	0x3ec3866e	0.381885
96	0x3ee4c159	0.44678763
97	0xbda32e15	-0.07967774
98	0xbe8f17c6	-0.27947825
99	0xbeccda51	-0.40010312
100	0xbf11ff59	-0.57030255
101	0xbdeaff3e	-0.11474465
102	0x3eb68577	0.356487
103	0x3eb9b8e1	0.36273864
104	0x3e919233	0.28431854
105	0xbee6a6a0	-0.45049
106	0xbecec2af	-0.40382907
107	0x3da87839	0.08226056
108	0x3dcb8a29	0.09938461
109	0xbb8cee1b	-0.0043008453
110	0x3e1ae669	0.15126957
111	0xbe6d07fe	-0.2314758
112	0x3da51560	0.080607176
113	0x3c789ce2	0.0151741225
114	0xbdc354d4	-0.09537664
115	0x3eab71ba	0.33485204
116	0xbd0ab51b	-0.033864122
117	0xbc4d0f45	-0.012515848
118	0xbd8accb1	-0.06777323
119	0xbea17c56	-0.31540173
120	0x3e55df04	0.20885855
121	0xbcca1724	-0.024669237
122	0x3c200b77	0.009768358
123	0xbe4210ea	-0.18951765
124	0xbedaa166	-0.42701262
125	0xbf12af29	-0.57298523
126	0xbe425aa1	-0.18979885
127	0x3e844478	0.25833488
128	0x3e8d9913	0.2765585
129	0x3eb69db5	0.35667196
130	0xbf1cf170	-0.61305904
131	0xbcd38e13	-0.025824582
132	0x3dbd944f	0.09256803
133	0x3f155c84	0.5834429
134	0xbe338c1d	-0.17533918
135	0xbc204305	-0.009781604
136	0xbaa66c73	-0.0012697115
137	0x3e803bae	0.25045532
138	0xbcf1cf99	-0.029517936
139	0xbe937599	-0.28800657
140	0xbbe9fe10	-0.0071408823
141	0x3dab7747	0.0837236
142	0xbd8cfa43	-0.06883671
143	0xbe0c8908	-0.13724148
144	0xbecd4ae8	-0.4009621
145	0x3d953c8f	0.07286941
146	0x3cc0acab	0.023519835
147	0xbe0d2778	-0.13784587
148	0xbf1859fb	-0.595123
149	0xbf7f6ebc	-0.9977834
150	0x3c33deff	0.010978459
151	0x3c6e3e00	0.014541149
152	0x3d0d07b8	0.03443119
153	0xbc6c0b8d	-0.014407051
154	0x3d6a60fb	0.057221394
155	0xbebc9182	-0.36829764
156	0xbe7838f1	-0.24240471
157	0xbef2144c	-0.4728111
158	0x3dbc6d54	0.0920054
159	0xbca3f863	-0.020015901
160	0xbe9a9722	-0.3019343
161	0xbd8b827a	-0.06811996
162	0x3d3fb2af	0.046801265
163	0xbe2d45e0	-0.16921186
164	0xbe94dccb	-0.29074702
165	0xbe4f87c1	-0.2026663
166	0x3ebdbb35	0.3705689
167	0x3f175c2f	0.59125036
168	0xbd7a921f	-0.06117451
169	0x3e466741	0.19375326
170	0x3e8548f5	0.26032224
171	0x3f0b846c	0.54498935
172	0x3dde7465	0.10862044
173	0x3e9de839	0.30841234
174	0x3f07f2b6	0.5310472
175	0xbeabd717	-0.33562538
176	0xbe8e7b0b	-0.2782825
177	0xbdb0a696	-0.08625524
178	0x3ea6934b	0.3253425
179	0x3ea89bbc	0.32931316
180	0xbe08ce48	-0.1335994
181	0xbda30b42	-0.07961132
182	0x3e7e4a29	0.24832977
183	0x3f0e6612	0.55624497
184	0x3f75ceee	0.96018875
185	0x3d8f1b06	0.06987576
186	0x3e6a22ba	0.2286481
187	0x3f0356f7	0.5130457
188	0x3f34c44a	0.70612013
189	0x3ecdb872	0.40179783
190	0xbd15f565	-0.03661098
191	0x3a834000	0.001001358
192	0xbd4a3365	-0.04936542
193	0xbefb27e3	-0.4905387
194	0xbdd49430	-0.10379827
195	0x3e108ec8	0.14116967
196	0x3bb86f0c	0.005628472
197	0xbe589de4	-0.2115398
198	0xbf6322b6	-0.8872484
199	0xbea3e57d	-0.32011023
200	0x3e607c6b	0.21922462
201	0x3e91a123	0.2844325
202	0xbf55aec8	-0.8346982
203	0xbf4bb93e	-0.7957953
204	0x3e37877e	0.1792278
205	0x3dd341ab	0.103152595
206	0xbdc38d89	-0.0954848
207	0xbed2130d	-0.4103016
208	0xbe388277	-0.18018518
209	0x3dd2e9f0	0.10298526
210	0x3e4d7cc7	0.2006713
211	0x3e2c9fd8	0.1685785
212	0xbc632fd1	-0.013866381
213	0x3e699de9	0.22814144
214	0x3e5af17f	0.21381186
215	0xbccdf828	-0.025142744
216	0xbe0ca532	-0.13734892
217	0x3efd38de	0.4945745
218	0xbea7778f	-0.32708403
219	0x3f12df55	0.5737203
220	0xbe1d7488	-0.15376484
221	0xbbb5a3b6	-0.0055431975
222	0x3d8516a9	0.06498463
223	0x3d3c7afc	0.046015725
224	0x3f17aa00	0.59243774
225	0xbe92e2bf	-0.2868862
226	0xbda87da9	-0.08227093
227	0x3ed51a11	0.4162145
228	0x3ef0acd4	0.47006857
229	0x3ec70adc	0.38875473
230	0xbf2944d7	-0.66120666
231	0xbe321449	-0.1739055
232	0x3d76ffc9	0.06030253
233	0x3e13e1b2	0.14441565
234	0x3d59763d	0.053091276
235	0xbea92eef	-0.3304362
236	0x3df90d92	0.121607915
237	0xbe285cce	-0.16441652
238	0xbf1d6483	-0.61481494
239	0xbed17614	-0.409104
240	0x3e41ee5e	0.18938586
241	0x3e6a882e	0.22903511
242	0xbe8285f4	-0.25492823
243	0xbf61cce1	-0.88203245
244	0xbf9f1fba	-1.2431557
245	0x3e35309b	0.17694323
246	0x3e506afd	0.20353313
247	0xbe363434	-0.17793351
248	0xbf31db61	-0.6947537
249	0xbf6924ee	-0.91071975
250	0xbc9a3a7c	-0.018826716
251	0x3e30dca9	0.17271675
252	0x3ef30685	0.47465912
253	0x3d9e88aa	0.0774091
254	0x3d36c132	0.04461784
255	0xbf00e6cf	-0.50352186

fc1.0.bias f4 [120]
0	0x3d09ab0a	0.03361038
1	0x3bd13235	0.006384159
2	0xbd5ed625	-0.054403443
3	0x3d4028f8	0.04691407
4	0x3c5936ec	0.013257723
5	0xbd36df55	-0.04464658
6	0xbdcf9e31	-0.101375945
7	0xbdd83f66	-0.10558967
8	0xbd38ca9d	-0.045115102
9	0xbb781ed6	-0.0037860177
10	0xbde41ba2	-0.11138083
11	0x3cc59481	0.024118664
12	0x3d145599	0.036214445
13	0x3b8bcbd0	0.0042662397
14	0x3e113d22	0.14183477
15	0xbca12561	-0.019671144
16	0xbc392804	-0.011301044
17	0x3da8f27a	0.08249374
18	0x3dc4e3d9	0.09613771
19	0x3d249a7b	0.040186387
20	0x3d201189	0.039079223
21	0x3d6bfd12	0.057614394
22	0x3db0ec91	0.086388715
23	0xbdc5d68b	-0.096600614
24	0x3db5903f	0.088654034
25	0xbc391ed8	-0.011298858
26	0xbe1bc948	-0.15213501
27	0xbb021810	-0.0019850768
28	0x3cb40e1f	0.02197939
29	0x3cd955af	0.026530115
30	0xbdb2e6aa	-0.08735402
31	0xbd401038	-0.046890467
32	0xbd390094	-0.045166567
33	0xbd67ce8f	-0.056593474
34	0x3d2a3ab0	0.041559875
35	0xbd30c965	-0.043160815
36	0x3e1ee944	0.15518671
37	0xbde8b051	-0.11361755
38	0x3d867934	0.065660864
39	0xbe0ed34a	-0.13947788
40	0xbd04a405	-0.032382984
41	0xbd8310cb	-0.063996874
42	0xbe154b37	-0.14579473
43	0xbdf94e49	-0.12173135
44	0x3ce855aa	0.02836116
45	0xbe03e6f3	-0.12881069
46	0x3c249f4d	0.010047746
47	0xbc8ce480	-0.017198801
48	0xbdd1602f	-0.10223424
49	0x3ca6985d	0.020336324
50	0xbde164b3	-0.11005535
51	0xbddb8e35	-0.10720483
52	0x3db0aa6e	0.08626257
53	0xbd874cec	-0.066064686
54	0x3d49e454	0.049290016
55	0xbda9eb45	-0.08296827
56	0x3d940bf6	0.07228844
57	0xbe06f6cf	-0.13180088
58	0xbd45654f	-0.04819232
59	0xbc462614	-0.0120940395
60	0x3bc5b016	0.006032954
61	0xbd122f6e	-0.035689764
62	0x3cec9579	0.028879868
63	0xbe3510db	-0.17682211
64	0x3cb3874e	0.021915104
65	0xbdc4fffe	-0.09619139
66	0x3c6e6b8b	0.014552007
67	0xbe0bb214	-0.1364215
68	0x3dc0770f	0.093977086
69	0xbddb07cd	-0.10694847
70	0xbc3927df	-0.01130101
71	0xbe091e49	-0.13390459
72	0xbd919717	-0.07108896
73	0x3c546732	0.012964057
74	0xbcd90ffc	-0.02649688
75	0xbe38046c	-0.17970437
76	0x3d0d36aa	0.03447596
77	0xbc3e7d94	-0.01162662
78	0x3d4d92b0	0.05018872
79	0x3c950879	0.018192517
80	0x3c2f8917	0.010713837
81	0x3da735cf	0.0816456
82	0xbccddc5e	-0.025129493
83	0xbd7678b4	-0.060173705
84	0xbcee6d56	-0.02910487
85	0x3c414524	0.01179627
86	0xba8193d1	-0.0009885972
87	0x3c6bfba0	0.014403254
88	0xbd388111	-0.045044962
89	0xbc1d8946	-0.009615248
90	0x3dc86fd4	0.097869545
91	0xbca2f4fc	-0.019892208
92	0x3cd26de0	0.025687158
93	0x3e04a430	0.12953258
94	0xbcd979fb	-0.026547423
95	0xbc8d96ea	-0.017283875
96	0xbcb5061d	-0.022097642
97	0xbd8eff3a	-0.06982274
98	0xbdaaf107	-0.083467536
99	0xbdb794f7	-0.0896396
100	0xbe0620ed	-0.13098498
101	0x3c9899b6	0.018627983
102	0x3d9615f8	0.07328409
103	0x3d5ce5d3	0.053930115
104	0xbe23a25c	-0.15979904
105	0x3d37069e	0.044684045
106	0x3d7f0e31	0.062269393
107	0xbda36730	-0.07978666
108	0x3d3037ee	0.04302209
109	0xbd67b07b	-0.05656479
110	0xbdc999fd	-0.09843824
111	0x3cfd4b6e	0.030919757
112	0xbc8e7bc7	-0.017393006
113	0xbd821f2d	-0.063536026
114	0xbcc3c2b9	-0.023896562
115	0x3d2d09d7	0.042245712
116	0x3cfee306	0.031114113
117	0x3e46c6c8	0.19411767
118	0xbdb420f7	-0.0879535
119	0x3cd86e9a	0.026419926

fc2.0.weight f4 [84, 120]
0	0xbb008bd1	-0.0019614587
1	0x3f033076	0.5124582
2	0x3ec96662	0.39335924
3	0xbd87df86	-0.066344306
4	0xbd9f80a5	-0.07788209
5	0x3f3d08de	0.73841655
6	0xbed605f6	-0.41801423
7	0x3cc4843c	0.023988836
8	0xbe48cc1e	-0.19609115
9	0x3eaf8c24	0.34286606
10	0xbefc8383	-0.49319085
11	0xbe4b0394	-0.19825584
12	0xbf242156	-0.64113367
13	0x3e83274a	0.25615913
14	0xbe58b979	-0.21164502
15	0xbf0ceea2	-0.55051625
16	0x3e5a4ae3	0.2131763
17	0xbdf89627	-0.12138014
18	0x3dad797d	0.08470438
19	0x3d13df15	0.03610142
20	0x3ea3fe87	0.32030126
21	0xbe9b0aad	-0.30281582
22	0x3d653122	0.05595506
23	0xbf5d1143	-0.86354464
24	0xbee6cc83	-0.45077905
25	0x3f3d448d	0.73932725
26	0x3ec3fe4d	0.38279954
27	0x3cf2b8e6	0.029629182
28	0xbd5961d1	-0.0530718
29	0x3f0c5dbb	0.5483052
30	0xbc6de91d	-0.014520911
31	0x3e9129fe	0.2835235
32	0xbdc13a07	-0.09434896
33	0x3d3d3e68	0.046202093
34	0xbefa7cd4	-0.4892336
35	0x3f0af55b	0.5428063
36	0x3e0162a9	0.12635292
37	0x3d86e5ca	0.065867975
38	0xbe4bf395	-0.19917138
39	0xbe07c703	-0.1325951
40	0xbe5cce72	-0.21563128
41	0xbba1fa33	-0.004943156
42	0xbebc40f1	-0.36768296
43	0xbda83c6f	-0.08214652
44	0xbee49795	-0.44646898
45	0xbe9ef3ac	-0.31045282
46	0x3ed8e18f	0.42359588
47	0x3ee2e595	0.44315782
48	0x3dce2022	0.100647226
49	0xbe3b1ee9	-0.1827351
50	0xbe167048	-0.1469127
51	0xbf0fe48c	-0.5620811
52	0x3e633c49	0.22190966
53	0xbf88dfe1	-1.0693322
54	0xbeb4b7d2	-0.35296494
55	0xbe964579	-0.29349878
56	0x3c66b57a	0.014081353
57	0xbee2c19a	-0.4428833
58	0x3e6d3667	0.23165284
59	0x3dc4ec4d	0.09615383
60	0x3ead2be6	0.33822554
61	0xbdf1a648	-0.11799294
62	0x3f0bb02b	0.54565686
63	0xbf0f2750	-0.5591936
64	0x3e62c21c	0.2214436
65	0xbe2c417d	-0.16821857
66	0x3e96f676	0.2948491
67	0xbd47cc1f	-0.04877865
68	0x3e2bd6f5	0.16781218
69	0xbeba8143	-0.36426744
70	0xbc8b4a5e	-0.017003234
71	0x3f13c1b8	0.57717466
72	0xbe0e4d70	-0.13896728
73	0xbd984a4b	-0.07436045
74	0x3e40b033	0.18817215
75	0xbf5991a3	-0.8498785
76	0xbe9eb66b	-0.3099855
77	0x3ed55d9b	0.41672978
78	0x3e9ac679	0.30229548
79	0x3ebf8f4a	0.37414008
80	0x3e4d54d7	0.20051895
81	0xbe8e48ea	-0.27790004
82	0xbd9df2a2	-0.07712294
83	0x3e9cb80d	0.3060917
84	0x3ec3ae0e	0.3821873
85	0x3d757448	0.059925348
86	0xbf29e647	-0.66367
87	0x3f0b31a5	0.54372627
88	0xbe4f49ec	-0.20243043
89	0x3eb7d301	0.3590317
90	0x3ef23ff7	0.47314426
91	0x3e9124c6	0.28348368
92	0x3e415302	0.18879321
93	0xbe917843	-0.28412065
94	0xbdfd17cb	-0.12358054
95	0x3e6e18a1	0.23251583
96	0xbec53ba9	-0.3852208
97	0xbee98b92	-0.45614296
98	0xbe902f1c	-0.28160942
99	0x3e64f858	0.2236036
100	0xbf3ebdd1	-0.74508387
101	0x3f4e36b3	0.80552214
102	0x3dd5987f	0.10429477
103	0xbf148c40	-0.58026505
104	0xbf1fed14	-0.6247113
105	0xbed49f94	-0.41527998
106	0xbd64b041	-0.05583215
107	0xbd172229	-0.036897812
108	0x3e964204	0.2934724
109	0x3ec584b7	0.38577816
110	0x3ed0f8c8	0.40814805
111	0xbd8b6b3b	-0.06807562
112	0xbeb00d14	-0.34384978
113	0x3f00cff3	0.50317305
114	0x3e4f6fdc	0.20257515
115	0x3d1435e0	0.03618419
116	0xbdff1253	-0.12454667
117	0xbd3bb35a	-0.04582534
118	0x3e1f3d9e	0.15550849
119	0x3dae7178	0.08517736
120	0xbe09bc87	-0.13450824
121	0xbb5b3368	-0.0033447389
122	0xbe8486e5	-0.25884166
123	0xbdcadf5c	-0.09905884
124	0xbefe6dff	-0.49693295
125	0xbee031c4	-0.43787968
126	0xbd30ca1d	-0.0431615
127	0x3daa2383	0.083075546
128	0x3e4ad4a0	0.19807673
129	0xbf05c8d1	-0.52259547
130	0x3e22a1ed	0.15882082
131	0x3e9fed5c	0.31235778
132	0xbe5deef5	-0.21673186
133	0xbf05a3e5	-0.5220321
134	0xbda227bb	-0.07917734
135	0xbea916cc	-0.33025205
136	0x3eaa55e0	0.33268642
137	0xbe88996e	-0.26679558
138	0x3ea3f704	0.32024395
139	0x3e596852	0.21231201
140	0xbe55fef3	-0.20898037
141	0x3f137ca2	0.5761205
142	0xbee010f7	-0.43762943
143	0x3e8ea416	0.27859563
144	0xbe8eec98	-0.27914882
145	0x3d00ef89	0.03147844
146	0x3de44152	0.11145271
147	0x3f6a7ccc	0.91596675
148	0x3d89bf2f	0.067259185
149	0xbe37a0d7	-0.1793245
150	0xbeeb9c5c	-0.4601773
151	0xbf67434a	-0.9033705
152	0xbeb593cc	-0.35464323
153	0x3cc92b0f	0.024556665
154	0x3c222bcf	0.00989814
155	0x3ed98251	0.42482236
156	0x3eda0399	0.4258087
157	0x3e2b107b	0.16705506
158	0x3e069818	0.13143957
159	0xbea4e007	-0.3220217
160	0x3e128613	0.14308958
161	0x3f161e9e	0.5864047
162	0xbe385dc5	-0.1800452
163	0x3f1b15c8	0.6058011
164	0x3d93d377	0.07218068
165	0x3ef1e802	0.4724732
166	0x3d1ed21a	0.038774587
167	0xbe9de70c	-0.30840337
168	0xbe28d419	-0.16487159
169	0xbe2707bd	-0.16311546
170	0x3e50e378	0.20399272
171	0x3ea1414a	0.31495124
172	0xbb37d9d1	-0.0028053413
173	0x3f71281f	0.94201845
174	0x3ef72acb	0.48274836
175	0x3e0eb787	0.13937198
176	0xbe919d1d	-0.2844018
177	0x3eae876a	0.34087688
178	0xbed7dd0e	-0.4216084
179	0x3dfef315	0.12448708
180	0x3d1bc0f7	0.038025822
181	0x3eaadede	0.3337316
182	0x3edb726b	0.4286073
183	0xbf0d5a80	-0.5521622
184	0x3e8edcde	0.27902883
185	0xbe62dc0f	-0.22154258
186	0xbe8cc8a5	-0.2749683
187	0xbd93ad38	-0.07210773
188	0x3db056e0	0.0861032
189	0xbcbb0601	-0.022830011
190	0x3f038590	0.51375675
191	0xbedfaabd	-0.4368495
192	0xbe16461f	-0.14675187
193	0xbe3c8915	-0.18411668
194	0xbeabdd37	-0.3356721
195	0xbdcfeb40	-0.10152292
196	0xbf099d76	-0.5375589
197	0x3bf2e430	0.007412456
198	0x3d0fc0d0	0.03509599
199	0x3f063c22	0.52435505
200	0xbf1da5cf	-0.6158113
201	0x3dc0c598	0.09412688
202	0x3de6b8f2	0.11265744
203	0xbeb0dae2	-0.34541994
204	0xbed3d72c	-0.413751
205	0x39a8208a	0.000320677
206	0x3da8e058	0.08245915
207	0xbef515ec	-0.47868288
208	0x3eaf1998	0.34199214
209	0xbf004c26	-0.50116193
210	0x3e5d92e3	0.21638064
211	0xbe5a25de	-0.21303508
212	0x3eb08c7d	0.34482184
213	0x3ef0d140	0.47034645
214	0xbeafcb61	-0.34334853
215	0x3e5d861d	0.21633191
216	0x3f2ec376	0.68267
217	0x3f33f79d	0.702997
218	0x3bace2cc	0.0052760597
219	0xbf450047	-0.7695355
220	0x3e1d7f99	0.15380706
221	0xbdfcfbfa	-0.12352748
222	0x3e566594	0.20937186
223	0x3ed21e7a	0.41038877
224	0x3e4790e0	0.19488859
225	0xbef583c5	-0.47952095
226	0xbde40ada	-0.11134882
227	0xbf2cf037	-0.6755404
228	0x3ede3b31	0.43404534
229	0x3f4d1472	0.8010932
230	0xbdfb24cf	-0.1226288
231	0xbea60b02	-0.32430273
232	0x3f06e94e	0.52699745
233	0xbe72f4f5	-0.23726256
234	0x3eea2bc9	0.4573653
235	0x3f03b73c	0.5145147
236	0x3c129398	0.008946322
237	0x3e973a74	0.29536784
238	0xbf5765d6	-0.84139764
239	0xbda71b67	-0.081595235
240	0x3f7736c4	0.9656794
241	0x3bc12fcb	0.00589559
242	0x3e517782	0.20455745
243	0x3eab3efc	0.3344649
244	0x3ecc9172	0.39954716
245	0x3e8ca3c7	0.27468702
246	0xbe8c1852	-0.27362305
247	0xbf0a1207	-0.5393376
248	0x3c2751fc	0.010212418
249	0x3ed582b6	0.41701287
250	0x3e8c1bc9	0.27364948
251	0xbcbee507	-0.023302568
252	0xbe5ef013	-0.21771269
253	0x3d163afc	0.036677346
254	0xbe177263	-0.14789729
255	0xbe860b30	-0.2618041

fc2.0.bias f4 [84]
0	0x3d8e8430	0.069588065
1	0x3d8cc79a	0.068740085
2	0x3c43559d	0.011922267
3	0x3d9084bb	0.07056566
4	0xbce4573d	-0.02787363
5	0xbc1d5f26	-0.009605205
6	0xbbd5674b	-0.0065125576
7	0xbccefdb4	-0.02526746
8	0x3d803a1f	0.06261086
9	0xbda0b5b3	-0.078471564
10	0xbc2c03b7	-0.010498933
11	0x3d0e75dd	0.034780372
12	0xbdca1822	-0.09867884
13	0x3bd64854	0.006539384
14	0xbd3e72cd	-0.0464962
15	0xbd27b7db	-0.040946823
16	0xbd911141	-0.07083369
17	0x3d52c655	0.051458675
18	0xbd950b03	-0.07277491
19	0x3d7bc480	0.061466694
20	0x3df38dce	0.118922815
21	0xbc1f9e57	-0.009742341
22	0x3d747a76	0.0596871
23	0xbc43dc3f	-0.011954366
24	0x3d1c299c	0.03812562
25	0x3d3753f1	0.044757787
26	0x3d15a5e9	0.036535177
27	0xbd202cea	-0.039105333
28	0x3d15f915	0.036614496
29	0x3d341444	0.04396464
30	0xbdbdb968	-0.09263879
31	0xbd0662f6	-0.03280922
32	0xbd5e27dd	-0.054237235
33	0xbc91365f	-0.017726121
34	0x3d957322	0.072973505
35	0xbdb9c05b	-0.09069892
36	0xbcf00529	-0.029299336
37	0x3dc0000c	0.09375009
38	0xbdb9b514	-0.09067741
39	0xbd9a1aa8	-0.075246155
40	0x3d86fdef	0.06591403
41	0xbd2fea4c	-0.042948052
42	0xbca2154c	-0.019785546
43	0xbd160743	-0.03662802
44	0xbcc4d673	-0.024028039
45	0x3d2bdca4	0.041958466
46	0x3d590e72	0.05299229
47	0x3cdb7eea	0.026793916
48	0x3cf0f9fd	0.029416079
49	0xbda1889e	-0.07887386
50	0x3d2c9a0d	0.0421391
51	0xbcb47aa0	-0.022031128
52	0xbd0717d9	-0.032981727
53	0xbd5d7fc9	-0.054076944
54	0xbe0f0e69	-0.13970341
55	0x3d0863ae	0.033298187
56	0xbd95981d	-0.07304404
57	0xbd1e77af	-0.038688358
58	0x3d37a4fb	0.044835072
59	0x3c96cefb	0.018409243
60	0x3d6f31e4	0.05839719
61	0x3d1fb8cd	0.0389946
62	0xbda4eb84	-0.080527335
63	0x3d406093	0.0469671
64	0xbcfad0e9	-0.030617194
65	0x3ddf747a	0.10910888
66	0xbdd84ac7	-0.10561138
67	0x3aaa0c2f	0.0012973602
68	0xbcb42a3f	-0.0219928
69	0x3d734f8b	0.05940203
70	0x3ceaea77	0.028676255
71	0x3cc8b557	0.024500532
72	0xbd76c9e6	-0.06025114
73	0xbd158c53	-0.036510777
74	0x3dfbddc8	0.12298161
75	0x3b08640a	0.002081158
76	0x3ce747e7	0.028232528
77	0x3da2d5a4	0.07950905
78	0x3cdf1d3b	0.027235618
79	0x3d68abf3	0.05680461
80	0xbd044f89	-0.032302413
81	0x3be62002	0.0070228586
82	0x3d6ee400	0.058322906
83	0xbcd7f44c	-0.026361607

fc3.weight f4 [10, 84]
0	0x3e93ff71	0.28905824
1	0x3dbad238	0.09122127
2	0x3eadc056	0.33935803
3	0xbf5d4537	-0.8643374
4	0xbef24731	-0.4731994
5	0x3c97ada9	0.018515425
6	0xbf65589b	-0.89588326
7	0xbf32fd1d	-0.6991747
8	0xbe844d59	-0.25840262
9	0x3e8e87cb	0.27837977
10	0x3d2dd33f	0.042437788
11	0xbec5e3ee	-0.3865046
12	0x3ecc04c9	0.398474
13	0xbf87f358	-1.0621138
14	0xbf507f68	-0.81444407
15	0xbec91ea5	-0.39281192
16	0x3e8be628	0.27324033
17	0x3e5ca43a	0.21547022
18	0xbee7ff64	-0.45312035
19	0x3e0edc69	0.13951267
20	0xbc52395b	-0.012831057
21	0xbf259476	-0.6467966
22	0x3ea9a573	0.3313404
23	0x3e59474e	0.21218607
24	0xbf1e2f03	-0.61790484
25	0xbf88d8a8	-1.0691118
26	0xbe5cb8a6	-0.21554813
27	0xbf52ec46	-0.82391775
28	0xbf0eaa40	-0.5572853
29	0x3e8dfe7e	0.27733225
30	0x3ee24436	0.44192666
31	0xbf59e59f	-0.85116
32	0x3ebaed68	0.36509252
33	0x3efe3879	0.4965246
34	0xbf9e6f0c	-1.2377639
35	0xbf385f3d	-0.7202032
36	0x3ee25673	0.4420658
37	0xbf2cf0f9	-0.67555195
38	0x3eafa0e1	0.34302428
39	0xbe36e268	-0.17859805
40	0xbf94577d	-1.1589199
41	0x3eeb192f	0.4591765
42	0x3eac10ec	0.3360666
43	0x3eace1b7	0.33765957
44	0xbf603e7d	-0.8759535
45	0xbf4ff9bb	-0.81240433
46	0xbf1afc5c	-0.6054132
47	0x3e328364	0.17432934
48	0x3f2d8be3	0.67791575
49	0x3e900258	0.28126788
50	0xbe298863	-0.16555934
51	0xbe0445bd	-0.12917228
52	0x3d074355	0.033023197
53	0xbf207c2d	-0.6268948
54	0xbe80e3c5	-0.25173774
55	0x3f3d80ec	0.74024844
56	0xbf0eaa11	-0.5572825
57	0x3e80d429	0.25161865
58	0xbf1d3baa	-0.61419165
59	0xbf1ed757	-0.6204733
60	0xbe8e53f9	-0.2779844
61	0xbebfbc1e	-0.3744821
62	0x3f249ce0	0.6430187
63	0xbf168c7f	-0.5880813
64	0x3d6b954e	0.057515435
65	0xbf4aab27	-0.7916741
66	0xbf888c9e	-1.0667913
67	0x3edae74f	0.427546
68	0x3f001261	0.50028044
69	0xbd153a41	-0.03643251
70	0x3e79042a	0.24317995
71	0x3f299d95	0.66256076
72	0x3d34e5b5	0.04416438
73	0x3ec0f529	0.37687042
74	0x3ec5f1b7	0.38660976
75	0x3e224eea	0.15850416
76	0x3efd969c	0.49528968
77	0xbeaf9326	-0.34291953
78	0xbcdde039	-0.027084457
79	0x3ed4ac03	0.41537485
80	0x3eb2938d	0.34878197
81	0xbf82c17f	-1.02153
82	0xbf61aa8c	-0.8815086
83	0xbf8e8844	-1.1135335
84	0xbf555bac	-0.83343005
85	0x3ea9c92d	0.33161297
86	0xbf0935bc	-0.5359762
87	0xbf1b4c7e	-0.6066359
88	0x3e88b595	0.26701036
89	0x3eea9606	0.45817584
90	0x3ed27983	0.4110833
91	0xbf3b55d7	-0.73177856
92	0x3eef0b7f	0.46688458
93	0xbf21e999	-0.63247067
94	0xbef6047f	-0.48050305
95	0x3f02054e	0.50789344
96	0x3e6a2eed	0.22869463
97	0x3ea0dc04	0.3141786
98	0x3eb50b1c	0.35360038
99	0xbe039601	-0.1285019
100	0xbf08c7ec	-0.53430057
101	0x3de87076	0.11349575
102	0xbe374b2f	-0.17899774
103	0x3dac5678	0.0841493
104	0x3ec7e958	0.39045215
105	0x3ec8abcf	0.3919358
106	0x3ea1743f	0.31534
107	0xbf1ccab7	-0.6124682
108	0x3eb0f37b	0.3456076
109	0x3ea11abd	0.31465712
110	0x3ed88735	0.42290655
111	0x3e9b6e40	0.30357552
112	0x3e3b31e5	0.18280752
113	0xbf27f43d	-0.65607053
114	0x3e6a00d3	0.22851877
115	0xbf4206c5	-0.7579158
116	0xbed9f664	-0.42570794
117	0x3e728fbc	0.23687643
118	0x3e1f3730	0.15548396
119	0x3dcff9a8	0.1015504
120	0xbf1d37b8	-0.61413145
121	0x3e2c6f4c	0.16839331
122	0xbf855ef8	-1.0419607
123	0x3f0379d3	0.51357764
124	0xbeed996f	-0.46406123
125	0x3e4ddfc7	0.20104896
126	0xbf43c4a6	-0.76471937
127	0x3cefc10a	0.029266853
128	0xbee3e11c	-0.44507682
129	0xbd783d13	-0.06060512
130	0x3eba1184	0.36341488
131	0xbf213d15	-0.6298383
132	0x3ecfb398	0.40566707
133	0x3f1a1f46	0.6020397
134	0xbf3b2537	-0.7310366
135	0x3ef22333	0.4729248
136	0xbf981ce6	-1.1883819
137	0x3e7e5702	0.24837878
138	0xbe9707a1	-0.29498008
139	0x3d954c90	0.07289994
140	0x3ed776cc	0.42082822
141	0xbf08a5da	-0.5337807
142	0xbf43f291	-0.76542
143	0x3f180975	0.5938943
144	0xbece4ce2	-0.40293032
145	0xbf53f9a9	-0.82802826
146	0xbf0f0c49	-0.5587812
147	0x3ed8c776	0.42339677
148	0x3ed439cb	0.41450343
149	0x3ec47121	0.3836756
150	0xbf1a2d31	-0.60225207
151	0xbf037a31	-0.51358324
152	0xbeb79522	-0.35855967
153	0xbf13de6e	-0.57761276
154	0xbf2952b5	-0.66141826
155	0xbeacbdec	-0.3373865
156	0xbfa21a39	-1.2664253
157	0x3eb89b4c	0.36055982
158	0x3e7faec6	0.24969015
159	0xbf2e29af	-0.68032354
160	0xbf15075e	-0.58214366
161	0x3f225d40	0.6342354
162	0xbf48b8e9	-0.7840715
163	0xbe0e6117	-0.13904224
164	0xbed5aca2	-0.4173327
165	0x3de92dd3	0.113856934
166	0xbd0dfc61	-0.034664515
167	0xbcafc24a	-0.021454949
168	0xbf66070b	-0.89854497
169	0x3e3f32f8	0.18671787
170	0x3e205f68	0.15661395
171	0xbefac8ea	-0.4898141
172	0x3f0a9d08	0.5414586
173	0x3e69cb5b	0.2283148
174	0xbf465327	-0.7747063
175	0xbefa4995	-0.48884264
176	0x3e3ee18f	0.18640731
177	0x3e275f56	0.16344962
178	0x3effef26	0.49987143
179	0xbef640f7	-0.4809644
180	0xbeff12cf	-0.49819037
181	0xbda69898	-0.08134574
182	0x3eb414cb	0.35172114
183	0xbf56a80b	-0.83850163
184	0x3f09d667	0.53842777
185	0x3e0aa491	0.1353934
186	0x3ea55d02	0.32297522
187	0x3e740760	0.23830938
188	0xbee43a0d	-0.4457554
189	0x3f16ffe9	0.5898424
190	0x3ebb4c0a	0.3658145
191	0xbf0e5ce6	-0.556105
192	0x3e69cedc	0.22832817
193	0x3df58935	0.11989061
194	0xbf3c912e	-0.73659027
195	0x3ec29ba6	0.38009375
196	0xbe28a527	-0.1646925
197	0xbf28a4fb	-0.6587674
198	0xbdb4f317	-0.08835428
199	0xbe633e2e	-0.22191688
200	0xbf6b5e78	-0.9194102
201	0xbe7771d5	-0.24164517
202	0xbf5be965	-0.85903007
203	0x3ec99a11	0.39375356
204	0x3e941dfd	0.2892913
205	0x3e53298a	0.20621315
206	0x3f5974cb	0.84943837
207	0xbd640ad4	-0.05567439
208	0xbec4ab40	-0.38411903
209	0x3ea7c64d	0.3276848
210	0x3e42ef47	0.1903659
211	0xbf5ae0f9	-0.8549953
212	0x3f88ad6a	1.0677922
213	0xbd47c49d	-0.04877149
214	0xbf3ca928	-0.7369561
215	0xbf042fb9	-0.5163532
216	0x3f0c348f	0.547677
217	0xbe54cf4f	-0.20782207
218	0xbeb3f676	-0.35148972
219	0xbf0e88c9	-0.5567747
220	0xbe2022df	-0.15638302
221	0x3f041bac	0.51604724
222	0xbef85fb6	-0.48510522
223	0x3efe8ca5	0.49716678
224	0xbe1c5de6	-0.15270194
225	0x3e9081db	0.28224072
226	0xbf2a354c	-0.66487575
227	0x3e4aa875	0.19790824
228	0xbdced24d	-0.100987054
229	0x3ebb0c30	0.36532736
230	0x3e28d920	0.16489077
231	0xbf8eabcf	-1.1146182
232	0xbec1ac77	-0.37826893
233	0xbdc979d6	-0.098376915
234	0x3ebcc168	0.36866307
235	0x3e77190e	0.24130651
236	0x3f18ee71	0.5973883
237	0x3e3dedcf	0.18547748
238	0xbe7c42d3	-0.24634866
239	0x3f0af6cc	0.5428283
240	0x3e0044d1	0.12526251
241	0x3eeac083	0.4585
242	0xbf8e5e31	-1.1122495
243	0xbf9592ee	-1.1685464
244	0x3e6578d5	0.22409375
245	0xbf4b8e00	-0.7951355
246	0xbf61a3f8	-0.8814082
247	0xbf3b3bab	-0.7313792
248	0xbec96304	-0.39333355
249	0x3eb1d844	0.3473531
250	0x3ccdd8cf	0.025127796
251	0xbf188f29	-0.59593445
252	0xbede6b01	-0.43441013
253	0xbcaed641	-0.021342399
254	0x3edf700b	0.4364017
255	0xbd401a1c	-0.0468999

fc3.bias f4 [10]
0	0xbd6730d2	-0.056443043
1	0xbc7c31a6	-0.0153926965
2	0xbd08b63f	-0.03337693
3	0x3c7b5e4e	0.015342308
4	0xbd863321	-0.06552721
5	0xbe0af145	-0.135686
6	0x3dcd88ce	0.10035859
7	0x3da5b005	0.08090214
8	0x3d23828c	0.03991942
9	0x3d9f44e9	0.077768154
