6_ConvolutionalNeuralNetwork/LeNet/model7.pth (torch, 250410 bytes, 10 tensors)

conv1.0.weight f4 [6, 1, 5, 5]
00000000: 1baa 99be 75f6 823e 9922 ba3d 7b71 1c3f
00000010: 2cde 413e e35d 663e bf3b 4b3f 1edf 603f
00000020: d084 8d3f 71ff c53e a29c 28be a5e9 1a3f
00000030: 5c77 343f 4225 223f 0a41 c9be 6266 aebe
00000040: 3904 b23e d667 a2bd 25f9 073e 9113 5abf
00000050: 346e 18bf f90c 13bf 70c0 43bf caf7 b6be
00000060: f343 56bf 5220 42bf d828 a5be 2df8 c2bd
00000070: 080b 5ebe f254 163e e971 07be 1345 f43e
00000080: fd5a 1a3f c9b6 0b3f bdd5 243f d082 65bd
00000090: 0488 8e3f a0f3 cd3f 86fd 2e3f bd8e 073f
000000a0: 67b1 d5be 3c9e 383f e854 593e ead3 743e
000000b0: 038a 07be a2de 97bf f372 19bf 7d0f 23bf
000000c0: 481c 02bf ab75 0bbf 484a f6be d96f 29be
000000d0: bf33 4dbe 239f 1abd d34d 3abf 2a3e 363f
000000e0: cd1a 3c3f d4cd 713f a51b 883f 4ec4 dcbe
000000f0: 6cbd 023f 3949 4d3f 195f 8a3f f7f8 373f
00000100: b93b 06bf 2594 9ebd f078 2e3f e526 d73e
00000110: ff47 b23e be70 0dbf 930f 04bf cea5 7bbe
00000120: f305 dcbe 0ad2 eebe 5840 5ebf 336c fe3e
00000130: 29c3 073f 5f73 203f 71cd 033f 1962 123f
00000140: b9b3 453e 3cd3 fa3c 64d4 b2be 65ff 47be
00000150: 8042 2abe a4cf 10bf 9f9a afbf 2f90 82bf
00000160: 3915 78bf 328c 3bbf a604 5cbf d01b 2fbf
00000170: 373e 5cbe 6d0a b0bd 85be 16bf 2ea8 02bd
00000180: 36da 253f b992 313f 039a 8a3e 077e 25be
00000190: 2c01 303f 4629 843f 4b48 f43e d613 193f
000001a0: 5749 3d3f ead6 6a3e 7ade d5be 5782 13bf
000001b0: c5d0 34bf ca63 b1be 8897 35be b992 0abf
000001c0: 773d 0ebf 4c72 04bf ce0b aebe 46ad d53e
000001d0: 0604 a7be a92b 61bf 93d3 d2be 1782 8fbe
000001e0: 05b9 513f 3fcf 973d fd8e b0be 173c 103e
000001f0: 3d11 ee3e b4f8 a23e 89db f33e cb90 d2bd
00000200: 0a13 4dbf bddd 14bf 61ec 5b3e 01f5 263c
00000210: 40dd 03bf a5c1 93bf 5897 d93d 13dd 4dbd
00000220: f76c fdbd 6732 47bf 7e49 38bf 0e4e 143f
00000230: 7cb9 9a3e 235f c3be fa74 8abf 9084 11be
00000240: e87d b53d 654c 373f 3a2d c0be 69f6 9abf
00000250: 3261 f3be 6f97 b23e
-0.30012593 0.25578657 0.0908863 0.6111066 0.18932408 0.22496752 0.7938804 0.8784045
1.1056156 0.3867145 -0.16466 0.60512763 0.7049463 0.633381 -0.39307433 -0.34062487
0.34768847 -0.079299614 0.13278635 -0.85186106 -0.59543157 -0.5744167 -0.7646551 -0.35735923
-0.8369743 -0.75830567 -0.32257724 -0.09519992 -0.21683896 0.14680842 -0.13227047 0.4770895
0.6029509 0.54575783 0.6438864 -0.056032956 1.1135259 1.6089973 0.68355596 0.52952176
-0.4173691 0.72116446 0.21223795 0.23908964 -0.13236241 -1.1864817 -0.59941024 -0.6369551
-0.50824404 -0.5447642 -0.48103547 -0.16546573 -0.20039271 -0.03774942 -0.72775 0.71188605
0.73478395 0.94454694 1.0633436 -0.4311852 0.51070285 0.80189854 1.0810272 0.71864265
-0.5243488 -0.077431 0.68153286 0.42021862 0.34820554 -0.55250156 -0.51586264 -0.24574968
-0.4297329 -0.46644622 -0.8681693 0.49691924 0.53032166 0.6267604 0.51485354 0.57180935
0.1930684 0.030618303 -0.34927666 -0.19531019 -0.1662693 -0.56566834 -1.3719062 -1.0200251
-0.96907383 -0.73260796 -0.8594459 -0.68401814 -0.21508108 -0.085957386 -0.5888446 -0.03189867
0.6478609 0.69364506 0.27070627 -0.16161357 0.6875179 1.0325096 0.47711405 0.5979589
0.7394003 0.22933546 -0.417713 -0.5762076 -0.7063106 -0.34646446 -0.17733586 -0.5413013
-0.5556254 -0.51736903 -0.3399338 0.4173376 -0.32620257 -0.87957245 -0.41177043 -0.28028938
0.8192294 0.07412576 -0.3448409 0.14085422 0.46497527 0.3183037 0.4762843 -0.10281523
-0.80107176 -0.58150846 0.2147689 0.010190249 -0.51509476 -1.1543471 0.1062457 -0.05025966
-0.12374299 -0.7781128 -0.7198714 0.579316 0.30219638 -0.3815852 -1.0816948 -0.14210725
0.08861905 0.71600944 -0.37534505 -1.2106448 -0.47535092 0.3488116

conv1.0.bias f4 [6]
00000000: 50ee 30bf 5677 4fbf b013 41bf 286d 363d
00000010: 7052 28bc 7c11 e2be
-0.69113636 -0.8104147 -0.75420666 0.044537693 -0.010273561 -0.44153965

conv2.0.weight f4 [16, 6, 5, 5]
00000000: 7e6f 703e 3bda 9f3e c25f ee3e 3bd8 403e
00000010: c5d9 71be 7e1b da3e 1de1 163f be66 243e
00000020: 1852 44be 8a8a debe b25a ee3e a3e9 833e
00000030: 4beb e6be 9bf1 30bf 6259 183d a48c 633e
00000040: c455 983d bf9f 57bf eda2 7cbe 41f5 113f
00000050: 6f04 dd3c fa29 85be 6111 38bf d642 383c
00000060: 6987 c73e 08f5 3b3e 195a bd3e 004a ca3e
00000070: bec2 8c3d 2094 3ebe 8b6a 7b3e 6f05 ba3e
00000080: e3e7 a03c 4ed6 d0be 6c00 3dbe c499 b43e
00000090: eb7c 383c 8ce8 2dbf f417 c1be f969 c83e
000000a0: 7d5a 9c3d f755 503c d198 31bf a248 363d
000000b0: dd52 0d3f d8d2 b23d d37c 72be 2990 cbbe
000000c0: ee05 7b3e 3d78 ce3e a505 be3e 8379 b73e
000000d0: 8ed9 ef3e 48fd 633e df77 fdbd bc24 e63e
000000e0: 7729 103f 26f8 313e 4731 b8be 1a67 85be
000000f0: 0926 983e b172 b33d 9905 16bf b02b 42bf
00000100: 3ce3 703e c2ee 333e 3226 0a3e 3d22 20bf
00000110: b389 b3be 9d34 da3e 3954 7ab9 a58c febc
00000120: 236e 16bf d2ad 903d c0bd f63e 09b8 94be
00000130: 1a32 bdbe e94d cbbe 353f e63c 6243 fc3d
00000140: f02c b0be 5423 5dbe 1a80 0c3e 2c6b ab3e
00000150: da66 673d ddc3 8abe e587 ab3d 3f8f 783e
00000160: 79ba 9b3a 638e 28bf f4db 58be 9f18 4abd
00000170: bee4 6d3c 1bf9 bbbe 8d14 5abf 568a 94be
00000180: 20fb a5bc eeb9 3ebe 0e62 22bf 8c1e 72bf
00000190: aaef a2be 72ed a8be a190 5ebe 6c47 90bd
000001a0: d8e8 1e3c 8734 97be a7f7 fcbd 8ae3 793e
000001b0: 94a5 883e 70ff e8bd db30 4cbe 96c1 003b
000001c0: ca7f 0e3f 4447 4b3e e991 f5be 4efd e9bd
000001d0: 405a 1b3e bb1a db3e 5066 95bd b542 90be
000001e0: 5dc6 24be 300a 053e 0e5a 8f3e 7c94 b9be
000001f0: b8ed 9abe 6d13 77be 6cc8 adbe 52a4 aabe
00000200: e29d 10be 58e0 08be a62f 3cbe 6539 f0bd
00000210: 6ea5 353e dc3d 383e 9937 72be ec0e 70bd
00000220: fecd fa3d 1b2b 2a3f 4939 883e 5902 37be
00000230: 89af 9f3d 9f73 983e b0a6 063f 436d ef3b
00000240: 293e 3dbe 1996 abbd 87d3 3a3e 5bdd 9a3e
00000250: 520c c4bd 5290 e33d 08a9 803e 27bb 003e
00000260: 1a47 72be 45ac 98be 09d9 82be e358 df3e
00000270: fe0d 833e 2d60 7a3e 25ba a93e d4aa b03e
00000280: 2a09 003d e306 11bf d28f 2ebf 8057 7dbe
00000290: a9d0 423e 368a 27bf 5cce a6bf 5d16 96bf
000002a0: 054b 44bf 2295 b4be e859 743d 1044 e63e
000002b0: f4a4 113e 2181 f0bd 12d7 6cbd 6abe 113e
000002c0: 8907 68bd 75f2 13be 7f72 b4bd af1d a4bd
000002d0: 50b2 2c3e 79a2 e83c fc5a 983d 49dd a93e
000002e0: 715b dd3e 9b6a a2be 32c8 71bf 4c15 39bf
000002f0: 4d60 47be 87e3 963d 6ac5 fcbe 6550 12bf
00000300: 0adb 08bf 7386 2cbf 5bc3 dbbe 2ca8 b93e
00000310: 9520 1d3f 59df 883e feac a6bd b44c f1bd
00000320: 267c 8b3e c845 d13d 6210 92bd 2bb0 16be
00000330: 5e19 d4bd d2ad b03e 7a84 263e d3c0 75bd
00000340: f412 1f3e 4b14 ab3e 6ab3 d5bd 03c5 03bf
00000350: ed1f 82bf 2d11 febe 9294 70bd 6a3f 1cbf
00000360: bdb5 39bf 87a0 44bf 2965 3ebf 3275 fabe
00000370: 31de 843d 9960 bb3e a516 813e 85a9 debd
00000380: 84ff adbd b224 80be 32ab 71be 8b9d 59be
00000390: f883 4abe 3ece 45be 18af 213d c19d 823d
000003a0: 9b5a b73d 9e94 d7bd 0fa7 83be 91e2 283f
000003b0: d594 603f f9dd 5d3f 6eec 453f 04aa b43e
000003c0: 27eb cd3e 9dff 9e3e 43b7 cc3e b2e5 1b3f
000003d0: 9ab4 193f 38ef 7cbe c9fb f0be 0b7e dcbe
000003e0: d87e 93bb 57db 693e 3c85 dabd 48c2 5abe
000003f0: f9c9 41be 6f56 9ebe d39b bbbe b71f 53be
0.23480031 0.31221184 0.46557432 0.18832485 -0.23618229 0.425991 0.58937246 0.16054818
-0.19171941 -0.43465072 0.4655357 0.25764188 -0.4510139 -0.6911866 0.037194617 0.22221619
0.074382335 -0.8422813 -0.24671526 0.5701485 0.026979653 -0.26008588 -0.7190152 0.011246404
0.38970497 0.18355191 0.36982802 0.39509583 0.068730816 -0.18611193 0.24552362 0.3633227
0.019641822 -0.40788502 -0.18457192 0.35273564 0.0112602515 -0.67932963 -0.37713587 0.3914335
0.07634447 0.012715808 -0.69373804 0.04450286 0.55204564 0.087316215 -0.23680429 -0.39758423
0.24513981 0.4032611 0.3711368 0.35834894 0.4684567 0.22264588 -0.12376379 0.449499
0.5631327 0.17379817 -0.35975096 -0.26055223 0.2971652 0.0876211 -0.5860229 -0.7584791
0.23524183 0.17571548 0.13491133 -0.62552243 -0.35065994 0.42618266 -0.00023873233 -0.031072924
-0.58761805 0.070644036 0.48191643 -0.29046658 -0.36952287 -0.39707878 0.028106311 0.1231754
-0.34409285 -0.21595508 0.13720742 0.33480203 0.05649457 -0.27102557 0.08375529 0.24273394
0.0011881135 -0.65842265 -0.21177655 -0.049339887 0.014519868 -0.3671349 -0.8518761 -0.29011792
-0.020261347 -0.18625614 -0.6343087 -0.9457786 -0.31823474 -0.32993656 -0.21734859 -0.07044873
0.009699069 -0.29532263 -0.123519234 0.24403206 0.26688826 -0.11376846 -0.19940512 0.0019646636
0.5566374 0.19851404 -0.47962883 -0.11425267 0.15171146 0.4279383 -0.07294905 -0.28175893
-0.16091295 0.12992167 0.27998394 -0.36246097 -0.3025949 -0.24128504 -0.33941972 -0.3332849
-0.14122728 -0.1336683 -0.18377551 -0.11729697 0.17738888 0.17992347 -0.23654021 -0.05860798
0.12246321 0.66472024 0.26606205 -0.1787199 0.077971525 0.29775712 0.52598095 0.007306726
-0.18480743 -0.08378238 0.18244754 0.30247006 -0.095726624 0.11111511 0.2512896 0.12571393
-0.23659936 -0.2981893 -0.2555621 0.43622503 0.25596613 0.2445075 0.3314983 0.34505332
0.03125874 -0.56651133 -0.681882 -0.2474041 0.1902491 -0.6544527 -1.3031726 -1.1725575
-0.7667697 -0.3527003 0.059656054 0.44973803 0.14223081 -0.117433794 -0.057822295 0.14232793
-0.05664781 -0.14447959 -0.08810901 -0.08013474 0.16864896 0.028397785 0.07439229 0.3317664
0.43233827 -0.3172196 -0.944461 -0.7229812 -0.1947033 0.07367616 -0.49369365 -0.5715392
-0.5345923 -0.67392653 -0.42922482 0.36261117 0.6137784 0.267329 -0.081384644 -0.11782208
0.27243155 0.10218388 -0.07132031 -0.1471564 -0.10356401 0.34507614 0.16261473 -0.059998345
0.15534574 0.3341392 -0.10434611 -0.5147249 -1.0165993 -0.4962248 -0.058735438 -0.6103426
-0.72542936 -0.76807445 -0.7437311 -0.48917538 0.06487692 0.36597136 0.2521259 -0.10872177
-0.08496001 -0.25027996 -0.23600462 -0.21251504 -0.19776905 -0.19316956 0.039473623 0.063777454
0.089528285 -0.10526393 -0.25713393 0.6597071 0.877271 0.8666683 0.7731389 0.35285962
0.4021847 0.31054392 0.39983568 0.6089736 0.600412 -0.2470063 -0.47067097 -0.43064913
-0.004501205 0.22837578 -0.10669944 -0.21363175 -0.18924703 -0.3092532 -0.36642322 -0.20617567

conv2.0.bias f4 [16]
00000000: ccc6 9bbd 16b2 cf3c 6713 c8bc e79b 483d
00000010: f103 9abd ed52 32bd ac52 c3bd fdd6 053e
00000020: 86d9 e2bd db23 063d b2b1 863d 87ae a73d
00000030: e149 97bb e9ac cebc 6b34 26bb 4c76 b23d
-0.07606277 0.025353473 -0.024423314 0.048976805 -0.07520283 -0.043536115 -0.09537253 0.13070293
-0.110766456 0.03274904 0.065768614 0.08187585 -0.0046169613 -0.025228934 -0.0025360833 0.087139696

fc1.0.weight f4 [120, 400]
00000000: ff2d 813e 7d6f 3c3e 6617 6fbf b713 9fbf
00000010: 811f 74be 0e9d 873e f35a 763e 64f4 87be
00000020: d70f 95be fd2b d8bc bd8d 3ebc d753 80be
00000030: 96f7 053d e4b4 ee3d d70c 083e b722 e9be
00000040: 8fda 0ebf 9831 e43b 98e5 893e 0d18 773e
00000050: 9bfd 75bd fcec b0bd 40d1 a23d eaff 743e
00000060: 1e5a 993c e00f 36bd d11b 4c3e 5b1f d23e
00000070: 95ad 4e3e f328 aabd 1043 77be b80f 23bf
00000080: d868 a93c f0ff ce3e 165d 2cbb e7bd 5cbd
00000090: bfc6 6c3e 8129 09bd 01f7 19be 60a9 efbe
000000a0: 55b9 493c c297 f7bc 3244 2fbe 1b7a 30bf
000000b0: e6ae 1f3b acdb 363e fca3 923d 3d6d 58bc
000000c0: d6a8 2b3e d8c7 5f3c 4a29 453e 4c3f 423e
000000d0: 2fbf 9bbd 1068 ebbe c44f 14be 1763 a2bd
000000e0: 5c79 a6be 7d11 bebd cdb0 4fbe 0e95 683e
000000f0: 8df2 acbd 34fa d3bd 3f55 7ebe 7dd7 2f3e
00000100: 7851 8d3e faf3 3b3e a3cb 0bbe dc35 823e
00000110: 3060 39be eed8 353d 4504 f63d 14aa 133d
00000120: 9998 023e c064 4a3e 2108 123e d83b 9abe
00000130: e17a fb3b fd95 1d3e 9fb6 313e 037f a53e
00000140: 9107 34be 9050 1cbe e2c3 e33c 7f96 973d
00000150: 4f95 4c3e 7ed7 a7be 56b1 36be ef4a 66bd
00000160: 3344 a9bd f0b5 aebe 9499 2c3e ca73 a73d
00000170: 8a28 1bbe 769d 13bf 70ee 60bf 827e ba3e
00000180: dd19 d93e 466a d5bd 09fa 94be ac37 9ebe
00000190: 5b15 d8be e5b9 c1bd 0c37 9f3e 1e57 a63e
000001a0: 03ab 643e 188b a8be 4ccc a1be 9e0f 823d
000001b0: f976 b63d 3a4c 2ebd 7112 fe3d ef9a 49be
000001c0: 06b2 4c3d 1bec 7cbc 8314 1cbe 187d a53e
000001d0: 3738 65bd ec7d 4f3c d180 d8bd 9782 9fbe
000001e0: 61fe 4d3e 0bd8 1c3d e995 c03b 1e63 75be
000001f0: 9dce 9dbe a06b e2be ac78 4bbe 1f98 773e
00000200: f408 873e b918 a53e df39 0ebf baa0 7d3c
00000210: 4400 d93d 55a1 013f adc2 c8bd b8a3 3dbd
00000220: 5cf9 e53c 07ae 553e 7e70 e83c 6bc2 46be
00000230: 0bda d6bc d1cf e93c 3fcf 13be 61ca 4fbe
00000240: 9b0d d2be 5d30 a23d 81b3 133c 4f89 c3bd
00000250: 7dca 03bf 0eef 5cbf d1b4 803c 2d75 7d3c
00000260: e5d5 9ebb b942 23bd e71b 7a3d 4868 a7be
00000270: 0382 47be a59f ebbe 62f1 e9bc 91d7 6ebd
00000280: ed3f abbe b014 acbd 337d 84bb 4170 18be
00000290: 6a6c 86be e743 e5bd 76da a93e 8729 053f
000002a0: 5d76 68bd 321a d03d a75e 4d3e c808 e63e
000002b0: 5e19 bb3d a8ac 7a3e 1c03 c43e 0731 6ebe
000002c0: 4fe3 91be 555d b0bd 6f01 713e cd87 7d3e
000002d0: 56dc f0bd 731d adbd 497a 5b3e b3bd fc3e
000002e0: 4764 673f edd1 443d 427e 823e 45ac e63e
000002f0: ba35 343f 4340 c43e 2aba 38bd d688 3fbc
00000300: e3b8 acbd f45f d5be 1941 a8bd 5ab6 1e3e
00000310: d15f 233c 4d95 89be d1a6 47bf ed56 81be
00000320: 215b 7f3e d0a1 2b3e bd1e 32bf d8f9 3ebf
00000330: 620a 133e b70f bd3c 4d3a 0dbe b397 d2be
00000340: 9efc 8cbe c680 0d3d bae7 013e 5a9e f73d
00000350: 2241 3fbd 1107 603e 47ee 0f3e aae5 2e3d
00000360: 7cf7 d8bd 72fb d63e 637b 6ebe 1302 d93e
00000370: 4b94 edbd 10ad b1bc f3e6 0fbc 6c4c 7f3d
00000380: d825 c43e 8b26 8dbe a031 9fbd 9085 c23e
00000390: f1ec d53e 3406 ab3e b6d2 12bf b44b e1bd
000003a0: a017 743d 9518 1e3e e7c6 0d3e 3c8b a3be
000003b0: 6106 eb3d 6790 f6bd 44a8 0cbf be45 c5be
000003c0: 3883 f73d 5b98 e63d d367 91be 0c2b 42bf
000003d0: 49be 88bf 2409 573e 0ec9 433e fd46 1fbe
000003e0: 1eec 1fbf 17fb 54bf 4bbd bcbc d374 3d3e
000003f0: d8d8 d63e d4d6 c83d 5b90 df3b 87d3 f3be
0.25230405 0.18401904 -0.9339508 -1.2427891 -0.23840143 0.2648701 0.24058132 -0.26553643
-0.29113647 -0.026388163 -0.011630473 -0.25063965 0.03270682 0.11655596 0.13286148 -0.45534298
-0.55802244 0.00696392 0.2693298 0.24130268 -0.06005631 -0.08638951 0.079500675 0.23925748
0.018719729 -0.044448733 0.19932486 0.41039547 0.20183404 -0.08308592 -0.24146676 -0.6369586
0.020679876 0.4042964 -0.00263006 -0.053892042 0.2312269 -0.033486847 -0.15035631 -0.4680891
0.012312253 -0.030223731 -0.17115858 -0.6893632 0.0024365722 0.17857236 0.07160184 -0.013209638
0.16763625 0.013658486 0.19254032 0.18969458 -0.07604825 -0.4597783 -0.14483553 -0.07929056
-0.32514465 -0.092806794 -0.20282288 0.2271311 -0.084447004 -0.10350457 -0.24837206 0.17172046
0.27601218 0.18354788 -0.136519 0.25431716 -0.18103099 0.044396333 0.12012533 0.03605087
0.12753524 0.19764996 0.14260913 -0.30123782 0.0076745604 0.15389247 0.1735482 0.32323465
-0.17581011 -0.15265107 0.027803365 0.07401752 0.19978832 -0.32781595 -0.17841086 -0.056223806
-0.08264961 -0.34123182 0.1685546 0.08176382 -0.15152183 -0.5766214 -0.87863827 0.36424643
0.42402545 -0.10420661 -0.29097012 -0.3090185 -0.42203793 -0.09459285 0.31096685 0.3248834
0.22330861 -0.3291862 -0.3160118 0.06350635 0.08909411 -0.042553164 0.12405861 -0.19688009
0.049974464 -0.015437151 -0.152422 0.32322 -0.055961814 0.012664299 -0.10571445 -0.3115432
0.20116569 0.038291972 0.0058772457 -0.23963591 -0.30821696 -0.44222736 -0.19870251 0.24179123
0.26374018 0.32245424 -0.55557054 0.015480215 0.10595754 0.506368 -0.098027565 -0.046298712
0.028073005 0.20867167 0.028373953 -0.19410102 -0.026227018 0.028541477 -0.14434527 -0.20292045
-0.41026005 0.07919381 0.009014965 -0.09547674 -0.5148085 -0.8630227 0.01571122 0.015469831
-0.0048472756 -0.039858554 0.061061766 -0.32696748 -0.1948319 -0.46020237 -0.028557483 -0.05831105
-0.3344721 -0.08402383 -0.004043245 -0.14886571 -0.26254588 -0.11194592 0.33174485 0.5201649
-0.056753505 0.10161246 0.20055638 0.44928575 0.09135698 0.24479926 0.38283622 -0.2326089
-0.28493735 -0.08611552 0.23535703 0.24758835 -0.11760776 -0.084528826 0.21433367 0.4936348
0.90387386 0.048051763 0.25486952 0.45053306 0.7039448 0.38330278 -0.045099415 -0.011690339
-0.08433702 -0.4167477 -0.082155414 0.15499249 0.009971575 -0.2687172 -0.77988917 -0.25261632
0.24937107 0.16760945 -0.6957815 -0.7459998 0.1435943 0.023078782 -0.13791771 -0.41131362
-0.27536482 0.034546636 0.12686053 0.1209075 -0.046692975 0.21877696 0.1405574 0.042699493
-0.10594079 0.41988713 -0.23289256 0.42384395 -0.1160055 -0.021688968 -0.00878309 0.06232874
0.38310122 -0.27568468 -0.07773137 0.37992525 0.41782334 0.3340317 -0.5735277 -0.11000767
0.059592843 0.15439065 0.13845406 -0.31942165 0.11475826 -0.12039261 -0.5494425 -0.38529772
0.12085575 0.11259528 -0.28399524 -0.75846934 -1.068307 0.2099958 0.19119665 -0.15554424
-0.6246966 -0.8319563 -0.02303948 0.18501596 0.41962314 0.098066 0.0068226284 -0.4762232

fc1.0.bias f4 [120]
00000000: 0e79 113d 0657 5c3c 283b 70bd d71b 303d
00000010: cf81 afbb 17d0 c5bc 9d35 9bbd 7b3f d0bd
00000020: 4ec1 0dbc d68c 3d3c 02f0 eabd 4605 003c
00000030: 494f 483d 14a4 1bbc ce3b 083e 4076 04bd
00000040: bc20 0ebc b3af 943d 9be7 a23d a4df a03b
00000050: b15d 493d 9490 763d 1c8a b53d e0b7 b8bd
00000060: 801a b83d f668 28bd 7665 e6bd 5a33 8c3c
00000070: 6323 0f3c b8e5 213d 6b31 8bbd bfc3 05bd
00000080: 9a20 17bd 8b69 a0bd be33 363d ea26 4abd
00000090: c6f8 eb3d 4831 c3bd 56ca a53d 386b fcbd
000000a0: 892d febc 1040 5fbd 076d f5bd 26e3 e3bd
000000b0: 5ed3 083d d758 e8bd a2a0 80bb e13b 18bd
000000c0: a392 90bd 4d18 c73c 5e9c c6bd 0c9d bbbd
000000d0: aa25 913d ddcd 9ebd 973a 943d 43a6 89bd
000000e0: 0d38 d53d f392 0bbe 6f43 3dbd cf74 adbc
000000f0: cfa4 c23c 9325 32bd b1d3 163d c23e 0bbe
00000100: cebd 0f3d f39f 87bd d074 0e3d e2f7 c3bd
00000110: 95b2 9f3d d2d0 d5bd 6b85 61bc 43d4 f9bd
00000120: 4997 45bd c138 fabc b9f1 dabc eba6 f9bd
00000130: c5f7 f93c 18f6 9c3b 5b44 633d 2bbc 433c
00000140: e7f0 b53b ea9c ab3d 3ec4 99bc 487e 61bd
00000150: ddc2 e7bc 8f7d 83bb 3286 92bc 2146 093d
00000160: 9156 b3bc 49fc 343c 2d8d 903d 2b0a 29bd
00000170: 4df0 d43c 4a1d dd3d 1ab9 f8bc b383 ed3b
00000180: 5cc2 72bc c92c 9ebd db0c 64bd d076 9fbd
00000190: ab3d 0cbe 2a50 013d fcef 873d 7adf 2d3d
000001a0: 0e53 2abe a875 f03c 0685 7c3d 86f8 90bd
000001b0: 859f 053d 1f12 f7bc 4aab 98bd c64f 453c
000001c0: 7b61 b8bb f883 28bd 5ad9 2ebd bfc2 cf3c
000001d0: 95ee e53c fcd1 203e 2070 b2bd 9924 e33c
0.035515837 0.013448482 -0.058650166 0.0429953 -0.0053560506 -0.024147077 -0.07578585 -0.10168358
-0.008652044 0.011569222 -0.11471559 0.007813757 0.048903737 -0.0094995685 0.13304064 -0.032339334
-0.008674797 0.072600745 0.079543315 0.0049094725 0.049161617 0.060196474 0.08864233 -0.090194464
0.089894295 -0.041115724 -0.11249821 0.01711433 0.008736464 0.039525717 -0.06796535 -0.03265738
-0.036896326 -0.07832631 0.04448294 -0.049353518 0.11522059 -0.09530884 0.08095233 -0.12325138
-0.031027572 -0.054504454 -0.11983686 -0.111273095 0.0334047 -0.1134507 -0.003925399 -0.03716648
-0.07059219 0.02430358 -0.096977934 -0.09160814 0.07087262 -0.07754109 0.072377376 -0.06721165
0.104110815 -0.13630275 -0.046206888 -0.021173863 0.023760227 -0.043492865 0.03682298 -0.13598159
0.03509312 -0.06622305 0.03477937 -0.09568764 0.07797734 -0.1044022 -0.0137647195 -0.12198689
-0.04823998 -0.03054464 -0.02672659 -0.1219004 0.030513654 0.004790079 0.05548511 0.011946718
0.0055523994 0.08379538 -0.018770333 -0.05505207 -0.02829116 -0.0040127705 -0.017886255 0.033514146
-0.021891864 0.011046478 0.07058177 -0.041269463 0.02599349 0.10796602 -0.0303617 0.007248366
-0.014816847 -0.07723386 -0.055676322 -0.077863336 -0.136954 0.03157059 0.0663757 0.042449452
-0.16633245 0.029352978 0.0616503 -0.07078652 0.032622833 -0.030160008 -0.07454546 0.012042945
-0.005626855 -0.04114148 -0.04268775 0.025361417 0.028067866 0.15705103 -0.087127924 0.027727412

fc2.0.weight f4 [84, 120]
00000000: 5c99 023c 9cb0 fd3e add9 bd3e 04ad 8ebd
00000010: ce99 38bd 5e46 2c3f bd42 b5be e014 733d
00000020: c3fd 54be 0f42 9d3e c684 f9be 5cd7 3dbe
00000030: 0e59 12bf 2ed2 823e e168 4fbe 6c0d fabe
00000040: 9061 f63d ace6 d3bd 185f 933d fb03 373d
00000050: 6c02 913e 2b70 a6be 8f10 4a3d 164e 40bf
00000060: 6786 cbbe be06 203f 24dc aa3e 364c a83b
00000070: 14a6 de3b ffd3 ed3e 17e3 e13b 9fa7 bd3e
00000080: 8e8d 84bd 8bd5 18bb 4cda dcbe a996 e13e
00000090: 78fe f53d 8b99 dc3c e23c f8bd 0beb 78be
000000a0: 1425 41be efb3 cbbc 58ac 99be 9e76 f3bd
000000b0: a72e b8be 30fd 92be abfc b93e 6b47 b23e
000000c0: 03c1 c83d 0950 03be f467 27be a8cb febe
000000d0: 3cc2 7e3e 5fef 7dbf 1746 c3be 670b b8be
000000e0: 8cad a23c 2199 cabe bbac 7d3e a786 253d
000000f0: 7836 a23e af99 6abe 26fa de3e fe75 0abf
00000100: f76a 2a3e 2459 2ebe 9553 933e 0dce 8ebd
00000110: 87c7 0c3e 5449 a5be cb4b 1cbd 8ab4 fd3e
00000120: 2896 33be 9ae8 5ebd 3cff 813d 3e59 3fbf
00000130: 4659 52be ed78 c73e 6e32 993e 5590 9e3e
00000140: 1839 743e aaec 66be a373 d6bd 862d cc3e
00000150: 9676 a73e eaed 6c3d 91a1 1bbf 136a 063f
00000160: 6e3b 81be b627 bb3e 77e8 ed3e edfb 493e
00000170: 9c7e 3c3e 2f80 9cbe 79e7 17be ce5f 2c3e
00000180: 9028 c0be 4ce2 cfbe 85ba 89be 6870 603e
00000190: f3d3 08bf dcd7 363f 987d db3d c143 f9be
000001a0: 3352 12bf 0238 cebe 4f57 d0bc 1e78 d8bd
000001b0: 9d1e 8d3e 4224 a93e 89de da3e e14a 95bc
000001c0: fc8d a9be 0e57 063f fab1 653e 9cdc 973d
000001d0: fc32 dfbd 4d7b 2ebd dcbd 403e ad21 823d
000001e0: 86bf 24be aa68 05be 2b18 62be 1807 d8bd
000001f0: 3f4e f0be 4207 e4be 5701 25bd d39b d33d
00000200: 6ea3 3c3e 220c f9be bd33 2c3e 4d21 9d3e
00000210: 3a33 96be 8bf9 e6be 979f a9bd 6f88 6cbe
00000220: 268f 9a3e 335f 41be dc4e 933e da3f 3c3e
00000230: 1ea8 54be 94de 043f b7d2 d1be eb17 933e
00000240: adca 8cbe 3ceb 0abd 386c e43d f050 453f
00000250: d23c a13d 8a83 16be 1476 c7be 1e01 4dbf
00000260: 084c 9abe d0a5 0cbc 56ac 6abc 4cfd dc3e
00000270: 477f c43e 2fed 0a3e d24c 773d f489 bfbe
00000280: 69cc 233e 6553 053f ca9c 14be e068 083f
00000290: e823 00bc f806 c33e 3952 fabc 54d8 d2be
000002a0: f844 3abe dbf9 27be 479f 313e d95e 8c3e
000002b0: f2c2 ce3c 3194 493f cc0a d23e cef2 0c3e
000002c0: 0308 6bbe 3658 d23e ac4c c2be 3384 ea3d
000002d0: b19b 43bb e4cc 913e 5dc0 bb3e 4e6d d7be
000002e0: 105c 903e e862 68be bf57 65be e32f bcbd
000002f0: 73d2 633d eb44 46bd 0b0c e73e 6dda e8be
00000300: 4c19 16be 6ade 24be a3f5 a6be 9a92 39bd
00000310: f741 0bbf a377 f03c bba8 22bc eae2 ef3e
00000320: 525b 24bf 1ee0 8d3d 6240 b83d 49d3 96be
00000330: ff31 cfbe 1ec6 3abd 0fc5 0e3e afef ddbe
00000340: 8437 633e 6e52 e7be 45d8 633e 39a1 59be
00000350: b814 8e3e abed c73e 8d91 e7be 531f 513e
00000360: 33a8 2c3f 24e4 283f a8df 933c ae3b 42bf
00000370: 84fc 113e a198 b8bd 3581 453e 2610 b53e
00000380: b66e 543e 07ab f6be e502 01be d87f 36bf
00000390: 3e8e c13e 5218 303f d73a 0cbe a1d0 a1be
000003a0: ccd6 e63e 5cb7 79be 68ba d23e 2fe1 c53e
000003b0: a17e 9dbc b2b0 693e 0bfa 52bf 638f 83bd
000003c0: 639f 593f ba3e 5cbd f65e 433e 3643 b03e
000003d0: dfd6 c33e c709 923e fac6 8cbe 4563 ebbe
000003e0: 88e6 863c 99ea ae3e e555 603e 3e87 ad3b
000003f0: 6425 42be 9d62 833a 63a3 0cbe e32a 68be
0.007971134 0.49548805 0.37080136 -0.06966594 -0.045068555 0.6729487 -0.3540248 0.05934608
-0.20799927 0.3071446 -0.4873411 -0.18539184 -0.57167137 0.2555098 -0.20254852 -0.48838365
0.12030327 -0.103467315 0.07195872 0.04468153 0.2832216 -0.32507452 0.049332198 -0.7511915
-0.39750978 0.6251029 0.3337108 0.005136038 0.0067947004 0.46450803 0.0068935263 0.37041947
-0.06472312 -0.002332064 -0.43135297 0.44060257 0.12011427 0.026928684 -0.121209875 -0.24308412
-0.188618 -0.024866072 -0.300143 -0.11887859 -0.35973093 -0.28708792 0.36325583 0.34820113
0.09802439 -0.128235 -0.16348249 -0.49764752 0.24878782 -0.99193376 -0.38139412 -0.359462
0.019858144 -0.39569953 0.24772923 0.040411618 0.3168218 -0.22910188 0.43550223 -0.5408629
0.16642366 -0.17026192 0.28774706 -0.06972895 0.13747989 -0.32282507 -0.03815822 0.49551803
-0.17537749 -0.054421045 0.0634751 -0.7474555 -0.20541868 0.38959447 0.29921287 0.30969492
0.23849905 -0.22551218 -0.10471275 0.39878482 0.3270766 0.05784408 -0.60793406 0.52505606
-0.25240654 0.36553735 0.4646642 0.19725008 0.18407673 -0.30566546 -0.14834394 0.16833422
-0.37530947 -0.40602338 -0.26900116 0.2191788 -0.5344841 0.71423125 0.107173145 -0.48684505
-0.57156676 -0.40277106 -0.025432257 -0.105697855 0.2756242 0.33035475 0.42747906 -0.018224182
-0.33116138 0.52476585 0.22431174 0.07415125 -0.108983964 -0.042598058 0.18822426 0.063540794
-0.16088685 -0.13028207 -0.22079532 -0.10548228 -0.46934697 -0.44536787 -0.04028448 0.103324555
0.18421718 -0.4864207 0.16816612 0.3068947 -0.29335958 -0.4511226 -0.082823925 -0.2309892
0.3018734 -0.18883972 0.28771102 0.18383732 -0.20767257 0.5190213 -0.40981075 0.28729185
-0.2749838 -0.033915743 0.111534536 0.77076626 0.07872929 -0.14698616 -0.38957274 -0.8007983
-0.30136132 -0.008584455 -0.014323315 0.43162 0.38378355 0.13567041 0.060375996 -0.37409937
0.15995945 0.52080375 -0.14512935 0.53285027 -0.007821061 0.38091254 -0.030556785 -0.4118067
-0.18190372 -0.16403906 0.17345916 0.27416113 0.025239442 0.7874175 0.41023862 0.13764498
-0.22952275 0.41082925 -0.3794912 0.11450996 -0.0029847438 0.28476632 0.366702 -0.4207558
0.28195238 -0.2269398 -0.22396754 -0.09188821 0.055620622 -0.04840557 0.45126376 -0.45479146
-0.14658087 -0.16100469 -0.3260928 -0.045305826 -0.5439753 0.029353922 -0.009927924 0.4685281
-0.64201844 0.069275126 0.08996655 -0.29458073 -0.40467831 -0.045599096 0.1394236 -0.43346927
0.22189146 -0.45180076 0.22250469 -0.21252908 0.27750182 0.39048514 -0.45228234 0.20422105
0.6744415 0.65973115 0.018050984 -0.75872314 0.14256483 -0.09013487 0.1928757 0.35363883
0.20745358 -0.48177359 -0.1259876 -0.71288824 0.37803835 0.6878711 -0.1369432 -0.31604484
0.45085752 -0.24386352 0.41157842 0.38648364 -0.01922542 0.2282131 -0.82412785 -0.06423833
0.8500883 -0.05377076 0.19079193 0.34426278 0.3824987 0.28523085 -0.27495557 -0.45974174
0.016467348 0.3416336 0.21907766 0.005295663 -0.18959576 0.0010023896 -0.13734202 -0.2267261

fc2.0.bias f4 [84]
00000000: 4a39 8b3d c221 3e3d 3339 583c 8485 843d
00000010: 804d c7bc 7e5f c3bc 831e eebc 1b43 37bd
00000020: 5a2d 473d a0e4 adbd c528 2b3c e4cb 003d
00000030: d6ef d5bd 81f0 3abc cd47 2dbd 9657 8dbd
00000040: b59e 90bd ec00 583c 9296 a7bd 8eb3 2e3d
00000050: c6dd e03d bc0b 8b3c 4e4e 5d3d 1ddc 9fbc
00000060: 44d1 9c3c e079 5a3d 7bd2 b53c 7fcc 45bd
00000070: 301b 3f3d b62d 163d 961d d0bd 1eaf e4bc
00000080: b2ca 1abd 6b21 9cbc 182c 4f3d 75b8 b5bd
00000090: 9ef8 aabc bf2b d63d 5e46 a7bd 7444 83bd
000000a0: eb2a ac3d 3165 38bd d1dd db3b eaad aebc
000000b0: 3cc1 04bd d2eb 273d 1f96 8e3d 5f2e 253c
000000c0: 4952 023d 7a72 47bd b148 203d 79d8 34bd
000000d0: defc f5bc 2d3e 9ebd 6072 f6bd 524b 013d
000000e0: 3880 9abd fb4f 1dbd f496 b53c 3994 5e3c
000000f0: 0476 873d 0cab 933d f5cf 8abd 768e 403d
00000100: 0d10 02bd 7904 eb3d 56d6 9dbd d08d 6abb
00000110: 65e1 17bc f0f1 873d 2652 843c 9f51 1c3d
00000120: 5f65 1fbd 43fc 14bd a310 fe3d 3bba 3fbb
00000130: 69e2 103d 8eb1 d83d 552c 243d 5a25 353d
00000140: f100 ccbc 0e56 773c d413 8d3d fa0d 13bd
0.067980364 0.046418913 0.013197231 0.064707786 -0.024328947 -0.023849245 -0.029067283 -0.04474173
0.048627235 -0.084908724 0.010446732 0.031444445 -0.10446136 -0.01140988 -0.042304803 -0.06901471
-0.07061521 0.013183814 -0.08183016 0.042651705 0.109798 0.016973369 0.054029755 -0.019514138
0.019142754 0.053338885 0.022195091 -0.048290726 0.046656787 0.036664687 -0.10161893 -0.027915534
-0.03779096 -0.019058904 0.05057916 -0.08873073 -0.020870503 0.10457563 -0.08167718 -0.06409541
0.084066235 -0.04501838 0.006709792 -0.021323163 -0.032410845 0.04099638 0.06962227 0.0100818565
0.031816754 -0.048693158 0.039131824 -0.044151757 -0.030027803 -0.07726703 -0.12033534 0.03156597
-0.07543987 -0.038406353 0.022166707 0.013585144 0.066143066 0.07210359 -0.06777946 0.04701086
-0.03175359 0.114754625 -0.07706897 -0.0035790093 -0.009270047 0.06637943 0.016152453 0.038163777
-0.038915034 -0.036373388 0.12405517 -0.002925529 0.03537217 0.10580741 0.04008134 0.044225074
-0.024902793 0.015096201 0.068885475 -0.035902

fc3.weight f4 [10, 84]
00000000: 81cf 8a3e 5a88 a43d e63b 9c3e d24b 3bbf
00000010: d15d cebe b832 e4bc aa68 59bf 0dc4 24bf
00000020: c356 87be d645 7b3e ef45 d93c 3b31 aebe
00000030: afb4 b13e beac 62bf f82a 3cbf 7d0f 6bbe
00000040: 9c0b 823e 0ac8 4e3e 7ab7 dabe 539e c03d
00000050: 62ad 83bd 7325 0cbf a54c 9c3e d330 383e
00000060: 65f3 0cbf fdd1 6dbf ea9b 67be 3368 3cbf
00000070: 46f6 00bf b178 5d3e f8f8 c23e 6e03 3bbf
00000080: a757 b03e 46a6 e23e 3865 89bf 70e8 26bf
00000090: 7029 ca3e 8638 21bf b862 a13e 0e52 44be
000000a0: 70a3 83bf 210d da3e 72b7 a43e 3f5d 9a3e
000000b0: d8f2 3abf 64e3 38bf 209e 08bf 54d0 113e
000000c0: 3166 1d3f 3fc3 383e dbd9 29be 4c67 fbbd
000000d0: f74e e33c 0ea8 17bf 9fe5 66be 4a8a 303f
000000e0: 8db1 f7be eb9c 5d3e 56df 18bf d173 0abf
000000f0: 6a1c 66be 9958 acbe 20ad 0f3f 24da 0ebf
00000100: 553d 773d 17d0 2cbf 591c 70bf 6fde bf3e
00000110: 6d6e e13e 37a7 31bd 6744 4c3e 979c 143f
00000120: 2a07 233d 72dd b03e a1b8 b03e 47fe 153e
00000130: 2ce7 e03e 1c31 aebe 0a91 b3bc eea9 ba3e
00000140: a9d6 a83e 7bb7 66bf dabb 51bf 395a 81bf
00000150: 1d71 24bf db5e a13e d4db f9be 9875 1ebf
00000160: cc73 9b3e eefd dc3e 5f3e c03e 1bcd 12bf
00000170: 37f5 ef3e 2898 10bf 7fd4 e8be 5f39 f93e
00000180: 8bdc 523e 62bb 8e3e 89b2 bf3e 7f86 21be
00000190: 660e e6be ea53 e83d de6b 24be d67e 8c3d
000001a0: e062 c53e e49e d73e 1abe ab3e abda 17bf
000001b0: e011 ac3e 38bd af3e 145e db3e 1459 933e
000001c0: dd10 613e 74ed 25bf 010b 573e 9ddf 36bf
000001d0: d745 dfbe 2c01 5e3e c794 ff3d 1de7 dd3d
000001e0: a68a 21bf ef87 283e bcb2 65bf ebde 033f
000001f0: f434 f9be 462e 3f3e db99 40bf 3abb 6a3d
00000200: 5297 b6be 912d 59bd 7066 a43e b89d 25bf
00000210: 7754 d93e 8bf0 103f ffd3 35bf fda9 e73e
00000220: ee5e 83bf bfcc 703e 98ec 8fbe 04b5 b93d
00000230: a9c3 d43e 850a eebe 49b8 15bf 7469 1a3f
00000240: 89ab c4be 975a 3abf 946a 06bf b8fe b83e
00000250: 4e35 cd3e d5e2 be3e dc74 0bbf f634 f7be
00000260: 6950 90be 6260 14bf cf90 2dbf b49f 8dbe
00000270: d602 94bf 55ba c43e bc77 753e d19a 0dbf
00000280: 4fe5 1abf 2dab 2c3f 2ff5 24bf 8ae9 39be
00000290: a5f6 c1be 93a4 c33d 5b26 72bd e9ae c1bb
000002a0: 9bca 42bf ab6d 4d3e 32c0 1c3e d694 d8be
000002b0: 8db9 ec3e 7be7 473e eaa3 2fbf 3514 d2be
000002c0: 4285 3c3e 8b0e 2b3e a72b f83e 8970 ebbe
000002d0: ed53 d9be 579e 98bd 8319 9a3e be21 32bf
000002e0: 17b5 f13e 59e6 0e3e 9fea 923e 575b 633e
000002f0: fd83 debe 683b 023f 1013 aa3e a67a fabe
00000300: a901 673e 9fa2 a83d 0e5e 2bbf 9411 b53e
00000310: c0f4 1fbe e60d 11bf dda6 acbd 1629 84be
00000320: 18e7 55bf bd97 59be e136 47bf 6b33 b43e
00000330: 66a9 8d3e 42c9 423e 813a 473f 99c7 14bd
00000340: 37bb a0be 724f a63e 77b3 413e df10 54bf
00000350: b5d2 693f bd9e 59bd 3962 2abf 0ba4 e5be
00000360: 4748 fc3e bd14 45be 1d30 a8be 6cd7 02bf
00000370: a6f3 46be 0627 fd3e 55a8 ecbe cbf7 ee3e
00000380: c81d 23be ce74 8b3e d825 0bbf a8c1 273e
00000390: 917a a2bd f102 a03e 674f 253e 7ae0 7fbf
000003a0: 4d26 b5be b656 c7bd 85b2 b43e 4158 743e
000003b0: 4719 033f f916 4b3e d2c6 69be 7d1d fb3e
000003c0: e096 d13d c465 cf3e f391 83bf 2056 82bf
000003d0: f40b 683e 9c66 4cbf 201b 3abf 6534 1bbf
000003e0: 928d d3be 24d6 b03e d632 f33c 1c1e fcbe
000003f0: 4bfe d0be a235 97bc 49af c73e 6343 20bd
0.27111438 0.080338195 0.3051445 -0.7316257 -0.4030595 -0.027856216 -0.8492533 -0.6436165
-0.2643338 0.24538359 0.026522605 -0.34021935 0.34708163 -0.88544834 -0.73503065 -0.22955127
0.25399482 0.20193496 -0.42718107 0.09405198 -0.064295545 -0.5474464 0.30527225 0.17987375
-0.5505889 -0.9289854 -0.2261807 -0.73596495 -0.50375783 0.21628071 0.38080573 -0.7305211
0.34441873 0.44267482 -1.0734015 -0.6519842 0.3948474 -0.6297687 0.3152063 -0.19171926
-1.0284252 0.42588142 0.32171208 0.30149266 -0.730268 -0.7222197 -0.5336628 0.14239627
0.61484057 0.1804323 -0.16587012 -0.12275562 0.027747614 -0.59240806 -0.22548531 0.6896101
-0.48377648 0.2164189 -0.59715784 -0.5408297 -0.22471777 -0.33661345 0.5612354 -0.55801606
0.060361225 -0.6750502 -0.93793255 0.3747439 0.4402956 -0.04337236 0.19947968 0.5805144
0.039801754 0.3454395 0.3451586 0.1464778 0.4392637 -0.34021842 -0.021919746 0.3645777
0.32976273 -0.9012372 -0.81927264 -1.0105659 -0.642351 0.3151768 -0.48800528 -0.61898184
0.30361784 0.43162483 0.37547585 -0.57344216 0.46866772 -0.5648217 -0.45474622 0.48676583
0.20591943 0.27877337 0.374409 -0.15773962 -0.4493286 0.1134413 -0.16056773 0.068601295
0.38551998 0.4211341 0.33543473 -0.59318036 0.33607388 0.3432405 0.42845213 0.287789
0.21979089 -0.6481545 0.21000291 -0.71434957 -0.4360797 0.21680135 0.12479549 0.10835097
-0.63102186 0.16458105 -0.8972585 0.5151202 -0.48673213 0.18669996 -0.75234765 0.05730746
-0.35662323 -0.05302197 0.32109404 -0.64693785 0.42447254 0.5661704 -0.71026605 0.45246878
-1.0263345 0.23515604 -0.28110194 0.09067729 0.41555527 -0.464924 -0.5848432 0.6031716
-0.3841212 -0.7279448 -0.52506375 0.36131835 0.4007973 0.37282434 -0.5447519 -0.48282593
-0.28186348 -0.5795957 -0.67799085 -0.27660906 -1.1563365 0.3842341 0.23971456 -0.55314356
-0.6050615 0.67448694 -0.6443662 -0.18155494 -0.37883487 0.095528744 -0.05911861 -0.0059107435
-0.760904 0.20061366 0.15307692 -0.42301053 0.46235314 0.19521897 -0.6860949 -0.41031042
0.18410209 0.16704766 0.48470804 -0.45984295 -0.42446843 -0.07452076 0.3009759 -0.69582736
0.47208473 0.13955058 0.28694627 0.22202812 -0.43460074 0.50871897 0.3321767 -0.48921698
0.22559227 0.082341425 -0.6694039 0.35364974 -0.15620708 -0.5666183 -0.08430264 -0.25812596
-0.83555746 -0.2124929 -0.77818114 0.3519548 0.27668303 0.19022086 0.77823645 -0.036323164
-0.31392834 0.32482487 0.18916117 -0.82838243 0.9133714 -0.0531299 -0.66556126 -0.44851717
0.49273893 -0.19246192 -0.32849208 -0.5110996 -0.19428882 0.49443835 -0.46222177 0.46673426
-0.1592933 0.27237552 -0.5435462 0.16382468 -0.07933534 0.31252244 0.16143571 -0.999519
-0.35380784 -0.09733336 0.3529245 0.23861791 0.51210445 0.19832982 -0.2282975 0.49045935
0.10233855 0.4050733 -1.0278915 -1.0182533 0.2266081 -0.7984407 -0.7269764 -0.6062682
-0.41318947 0.34538376 0.029687326 -0.49241722 -0.4081901 -0.018458191 0.3900092 -0.039126765

fc3.bias f4 [10]
00000000: e04e 9abd fb59 07bc bad4 1cbd fe17 5a3c
00000010: a66b 9ebd 3e65 04be 5263 de3d a9ae b53d
00000020: 4605 2e3d bba8 aa3d
-0.075345755 -0.008261199 -0.03828881 0.013311384 -0.07735376 -0.12929246 0.108587876 0.088712044
0.042485498 0.08332964
