6_ConvolutionalNeuralNetwork/LeNet/model1.pth (torch, 250410 bytes, 10 tensors)

conv1.0.weight f4 [6, 1, 5, 5]
000000 6d d5 a8 be 7d 58 48 3e 9b 04 46 3e 6e a8 bd 3e
       -0.3297533 0.19565006 0.19337694 0.37042564
000010 8b 46 a5 3c ef 98 44 3e 47 2f 23 3f ec 46 2c 3f
       0.02017524 0.19198965 0.63744015 0.6729572
000020 91 08 1b 3f 58 7a a3 3e c3 f0 83 bd 62 65 ec 3e
       0.60559946 0.31929278 -0.06442406 0.461711
000030 a6 e4 0e 3f f1 22 0b 3f 68 e7 c7 bc cd 63 6b be
       0.5581764 0.5435019 -0.024402335 -0.2298729
000040 6c dd b2 3e 45 6d 66 3d d0 cf 89 3e 63 62 05 bf
       0.34934556 0.05625655 0.2691636 -0.5210325
000050 d0 0d fd be 15 9a e6 be 89 61 17 bf 64 1a c2 be
       -0.494246 -0.4503943 -0.591332 -0.3791076
000060 8d 5d 6e bf 82 24 1b bf 02 7c aa be e6 b8 2a bd
       -0.931115 -0.6060258 -0.33297735 -0.04168024
000070 d2 2d 46 bc 0f 92 90 3e 64 0f df 3d c1 11 ac 3e
       -0.012095885 0.28236434 0.108916074 0.33607295
000080 50 b2 cf 3e 50 b0 ff 3e 5e 50 eb 3e 8f 3c 45 3e
       0.4056573 0.49939203 0.45959753 0.19261383
000090 14 7d 50 3f 02 90 8e 3f 6a c0 1d 3f a4 93 03 3f
       0.81440854 1.1137698 0.61621726 0.51397157
0000a0 e1 99 04 be e6 0e e3 3e 83 b5 de 3d c7 96 6f 3e
       -0.12949325 0.44347304 0.10874464 0.2339736
0000b0 22 2d 2c be df fc 41 bf e6 f9 bf be 51 56 b0 be
       -0.16814092 -0.75776476 -0.37495345 -0.34440854
0000c0 01 1d db be 7a c7 33 bf df 47 c7 be bb cf c2 39
       -0.42795566 -0.7022625 -0.3892202 0.00037157335
0000d0 3a 82 5c bc a2 4a 09 3e 75 4b 81 bd d5 ae db 3e
       -0.013458783 0.13407376 -0.063132204 0.42906824
0000e0 d0 3a 2c 3f 12 d5 63 3f 58 7f 53 3f 8b c2 66 3d
       0.6727724 0.88996994 0.82616186 0.056337874
0000f0 05 2a dc 3e d0 48 48 3f bc 07 50 3f 9f d3 e0 3e
       0.43000808 0.78236103 0.812618 0.43911454
000100 78 e2 0a be f0 cc fe bd 4e 28 1e 3f fd 10 8f 3e
       -0.13562953 -0.124414325 0.6178025 0.2794265
000110 e3 ff 42 3e e7 f8 89 be 4a 83 8d be 96 fd 97 bd
       0.19042926 -0.2694771 -0.27639228 -0.074214146
000120 c6 1d cd be 03 f1 08 bf 13 f1 61 bf 33 9b 14 3f
       -0.40061778 -0.53492755 -0.88258475 0.58049315
000130 09 3a c1 3e 4d c1 02 3f 58 c3 f6 3e 2d 7b eb 3e
       0.3773959 0.51076204 0.4819591 0.45992413
000140 f4 a9 65 3e 1f a4 24 3c 74 37 80 be 34 c2 51 be
       0.22428113 0.010048895 -0.25042307 -0.20484239
000150 d0 74 a5 be 8f 55 cc be 2a a4 81 bf 7c 20 2c bf
       -0.32315683 -0.39909026 -1.0128224 -0.6723707
000160 73 d1 5a bf cc 9e 40 bf c3 73 1b bf 7c 98 19 bf
       -0.85475844 -0.75242305 -0.60723513 -0.599983
000170 f4 48 a4 be fa 16 e2 bd 5a 6f e0 be d6 cb 2f be
       -0.3208691 -0.11039539 -0.43834955 -0.17167601
000180 f4 8b 9a 3d c7 eb a0 3e 99 10 3d 3e 43 78 7e bd
       0.07546225 0.31429884 0.18463363 -0.06212641
000190 81 7b 1d 3f 68 2f 44 3f e6 02 8f 3e 0b f2 56 3e
       0.61516577 0.76634836 0.279319 0.2099077
0001a0 32 13 33 3e 3b f5 99 3e aa e4 92 be e2 3a c5 be
       0.17487791 0.30069908 -0.28690082 -0.38521487
0001b0 ec 4d 28 bf df 9f bf be 3b 3f 10 bd cb af d8 be
       -0.657439 -0.3742666 -0.03521655 -0.4232162
0001c0 93 13 12 bf cf 71 f4 be ad 13 21 bd df 94 b4 3e
       -0.5706112 -0.4774308 -0.039325405 0.3526983
0001d0 04 7e 52 be c3 e6 5a bf f3 42 bf be ca a7 8c bd
       -0.20555884 -0.85508364 -0.37355766 -0.06867941
0001e0 9d 65 fa 3e 77 d3 86 3d 24 be ce be 75 88 30 bd
       0.4890565 0.065833025 -0.4037944 -0.043098886
0001f0 f0 26 bb 3e 64 32 8b 3e 47 82 d9 3e 17 e9 24 bc
       0.36553144 0.27186882 0.42482206 -0.010065339
000200 d3 84 09 bf 4d 59 0b bf e5 3e 3e 3e fb 29 04 bd
       -0.537183 -0.5443314 0.1857868 -0.0322666
000210 48 f1 0c bf e5 57 5e bf 63 d5 cd bd f9 17 92 3d
       -0.55055666 -0.86852866 -0.10050466 0.07133479
000220 cb 0a 33 be bc ae 27 bf 7e e5 f9 be 27 5b d2 3e
       -0.17484586 -0.65501 -0.488079 0.4108517
000230 56 d2 cc 3e 31 8d b5 be b1 8e 53 bf 8e 07 13 be
       0.40004224 -0.35459283 -0.82639605 -0.1435835
000240 fa f9 83 bd 46 82 01 3f b1 a6 e0 be bd f9 72 bf
       -0.064441636 0.50589406 -0.43877175 -0.9491232
000250 1f a7 ed be 18 48 7f 3e
       -0.46416566 0.24929845

conv1.0.bias f4 [6]
000000 ee 80 0c bf 7c 39 21 bf 95 a7 12 bf 79 67 6d 3e
       -0.5488423 -0.6297834 -0.5728696 0.23184003
000010 28 f3 98 3e c0 d6 cb bd
       0.29873013 -0.0995307

conv2.0.weight f4 [16, 6, 5, 5]
000000 d6 96 82 3e 53 bf 8e 3e 31 3e a9 3e 4a 66 67 3c
       0.25505704 0.27880344 0.3305526 0.014123509
000010 a7 c4 68 be f1 bc 94 3e bc d8 df 3e e3 f1 81 3d
       -0.22731267 0.290504 0.43720043 0.06344964
000020 22 c1 6a be 9f 0a ab be 5c f8 a9 3e c6 ba 65 3e
       -0.22925237 -0.3340654 0.33197296 0.2243453
000030 5a 86 77 be 0e d6 09 bf e3 89 9b bd a7 9c 86 3e
       -0.24172345 -0.53842247 -0.07594659 0.2629139
000040 6a 01 b7 3d 47 e6 1c bf 22 69 a5 be 6c 7a ba 3e
       0.089358166 -0.61288875 -0.32306772 0.36421525
000050 36 63 d4 3d 80 5a 3d be 96 e9 03 bf 58 62 cc bd
       0.103704855 -0.18491554 -0.515283 -0.09979695
000060 b1 c2 9a 3e c8 50 5f 3e 35 f6 9f 3e 07 ab 89 3e
       0.30226663 0.2180816 0.3124253 0.26888296
000070 81 cf 29 bd d3 31 f7 bd 1d 35 20 3e 5a f1 87 3e
       -0.041457657 -0.1207005 0.15645261 0.26551324
000080 4d 00 89 3d aa fb 93 be 87 59 db bd 90 84 88 3e
       0.066895105 -0.28902942 -0.10710435 0.26663637
000090 c3 d0 a7 3d d4 cd c8 be 2d a1 a9 be 1f be 4a 3e
       0.08194115 -0.39219534 -0.3313078 0.19799088
0000a0 8c d9 bf 3d 01 e2 a4 bc cb 26 f1 be 1a 11 96 bd
       0.09367666 -0.020127298 -0.4709991 -0.073274806
0000b0 57 52 c4 3e a1 44 a9 3d d6 76 11 be f3 d0 9e be
       0.3834407 0.08265043 -0.14205489 -0.3101879
0000c0 b5 57 8c 3d d3 b3 97 3e b5 84 8f 3e cd 2a 8d 3e
       0.06852666 0.29629382 0.28030935 0.27571717
0000d0 be 65 ae 3e 00 5b 90 3d 26 45 0e be 04 a5 70 3e
       0.34061998 0.07048607 -0.13893566 0.23500448
0000e0 92 e8 c2 3e 99 4e 31 3e 4f 96 60 be 8d 7d 0f be
       0.38068062 0.17315139 -0.21932338 -0.14012738
0000f0 8a a0 35 3e 57 27 d8 3d 38 3f 9a be ac d2 fb be
       0.17737022 0.105543785 -0.30126357 -0.49184167
000100 83 f6 0d 3e dc 08 7e 3e 4e 26 d6 3d f0 81 cb be
       0.13863568 0.24808067 0.10456525 -0.39747572
000110 bd 41 a2 be b6 07 8b 3e 9e d4 b8 3d 5c 3e 34 3b
       -0.3169078 0.2715432 0.090249285 0.002750299
000120 5b 0c cd be 9d 1b 88 bc 1a 0d c0 3e 5a 45 96 be
       -0.4004849 -0.01661473 0.37509996 -0.29349786
000130 54 62 9a be 38 06 ab be 04 d7 16 3d 5b ab b2 3d
       -0.30153143 -0.33403182 0.03682615 0.0872409
000140 07 c4 80 be 2f a0 3a be 31 b4 a9 3d af 0a 69 3e
       -0.25149557 -0.18225168 0.08286322 0.22757982
000150 91 52 32 3d a4 f3 61 be ee 5c e6 ba 2f 8a 46 3e
       0.043535773 -0.22065598 -0.0017575303 0.1938865
000160 3d a7 be 3d 47 26 c5 be 3d 11 45 be 17 a2 a3 bd
       0.09309242 -0.38505766 -0.19244857 -0.079899006
000170 b7 7f be 3d 32 c3 17 be 52 a1 03 bf 2f c2 81 be
       0.093017034 -0.14820555 -0.5141803 -0.25343463
000180 92 6b 47 bc 85 1c 40 bd 79 d9 b7 be d2 bd 27 bf
       -0.012171643 -0.0469022 -0.35908106 -0.6552402
000190 c8 21 84 be 01 2b 9c be bc c5 38 be a6 1b 22 bd
       -0.25807023 -0.3050156 -0.1804418 -0.03957715
0001a0 97 e5 00 bd c9 ae 27 be a4 e1 0e be 4a 27 d8 3d
       -0.031468954 -0.16375269 -0.13953263 0.10554369
0001b0 7e 05 18 3e fa 51 07 be 21 ad 37 be b5 53 76 bd
       0.14845845 -0.13214865 -0.17937137 -0.060138423
0001c0 78 c2 d7 3e 7c f0 51 3e 2c 63 99 be ce 35 fb bd
       0.42140555 0.20501894 -0.29958475 -0.12266122
0001d0 fa aa 29 3e 37 83 ba 3e 2c e5 7f 3b 79 eb 96 be
       0.16569129 0.36428234 0.003904651 -0.29476526
0001e0 8f f2 d7 bd de 44 21 3e 38 20 7f 3e 87 11 12 be
       -0.10544311 0.15748927 0.24914634 -0.14264499
0001f0 e7 7f 8e be f1 36 6c be 9f e6 9d be db e1 83 be
       -0.27831957 -0.23067833 -0.30840012 -0.25758252
000200 98 16 d7 bc 2b 66 05 be d0 6b 4f be 27 0d 1f be
       -0.02625589 -0.13027255 -0.20255971 -0.15532361
000210 25 87 28 3e 7b ad 38 3e 7f 12 53 be b5 5b 20 be
       0.16457804 0.18034928 -0.20612524 -0.15659983
000220 72 a1 aa 3c 3a c8 04 3f a2 ba 45 3e 6e b5 26 be
       0.020828936 0.5186802 0.19309476 -0.16280147
000230 9d 04 58 bc e6 e0 89 3e 77 d5 01 3f 4a 86 bb 3d
       -0.013184694 0.26929396 0.50716347 0.09156473
000240 d0 c9 57 be 59 9f 08 bd a6 82 88 3e fd 62 99 3e
       -0.21073079 -0.03335509 0.26662177 0.29958335
000250 e4 8f 2a bd 56 d7 0a bd 27 8c c6 3d 43 a3 da 3d
       -0.04164113 -0.033896767 0.09694701 0.10675671
000260 7d 44 9f bc 6f 73 53 bd 62 2a f2 3c 04 05 9c 3e
       -0.019441837 -0.051623758 0.029561225 0.30472577
000270 d5 9a 58 3e 2c 8f ae 3e b9 f0 7e 3e 87 d3 8a 3e
       0.21152814 0.34093606 0.24896516 0.27114508
000280 31 08 ec 3a 31 a8 a0 be c4 fc c6 be 03 90 9d be
       0.0018007812 -0.3137832 -0.3886472 -0.30773935
000290 43 d7 66 3d 04 48 00 bf a5 b7 50 bf 3f c1 50 bf
       0.056357633 -0.5010989 -0.8153022 -0.8154487
0002a0 53 4d 0a bf 46 0c 7c be 0a 6c 79 bd d1 a1 3d 3e
       -0.5402424 -0.24614057 -0.06089405 0.1851876
0002b0 e7 9d 22 3d 72 85 fe bd 76 8d 46 bd 20 c5 00 3d
       0.03970137 -0.124277964 -0.04847475 0.031437993
0002c0 2d 69 3d 3d 94 9e c9 3d e6 6b 69 3d c8 c7 bf 3d
       0.04624288 0.098446995 0.056987666 0.09364277
0002d0 94 45 d9 3d 58 8a dd 3d 3c c5 f4 3d dd e5 20 3e
       0.10608974 0.108174026 0.11951682 0.15712686
0002e0 c0 da 90 3e 2f 03 5a be d9 10 e9 be 67 c8 f6 be
       0.28291893 -0.21290277 -0.45520666 -0.4819977
0002f0 5b 8a 60 be 8a 61 f1 3c 94 3f fa be 6e df 03 bf
       -0.21927778 0.029465456 -0.4887663 -0.515128
000300 a8 54 e4 be 68 a6 ee be eb 51 64 be d1 71 38 3e
       -0.44595838 -0.46611333 -0.22296874 0.18012168
000310 e9 0f c5 3e d7 15 63 3e 90 99 ad bd 82 7a 90 bd
       0.384887 0.221763 -0.08476555 -0.070546165
000320 9a 3c 17 3e 64 ab b6 3d e3 7b e3 3d 5f 4f 4e 3d
       0.14769211 0.08919409 0.11107614 0.050368663
000330 be 80 2a 3d 84 58 77 3e 13 11 08 3e 83 7b 01 3e
       0.041626684 0.2415486 0.13287763 0.12644772
000340 f6 b5 11 3e 55 8c 50 3e 74 d0 bd bd 18 4f 58 be
       0.14229569 0.20366032 -0.09268275 -0.21123922
000350 b8 ea cc be 41 6f 9d be 3b 12 95 bd 94 03 fb be
       -0.40022826 -0.30748942 -0.07278868 -0.49026167
000360 39 b4 fd be 59 37 f4 be 71 79 05 bf a8 07 af be
       -0.4955156 -0.47698477 -0.5213843 -0.3418553
000370 78 0b 29 3d c1 58 4d 3e 0e de 4e 3e 06 d5 b5 bd
       0.041270703 0.20053388 0.20201895 -0.088785216
000380 42 17 f9 bd 37 6d 45 be d2 7d 54 be d9 26 63 be
       -0.12162639 -0.19279943 -0.20751122 -0.22182788
000390 a4 70 71 be 4e ad 3b be 0f 90 6c bd b9 be 15 3d
       -0.23578125 -0.18327829 -0.057754572 0.03655884
0003a0 f3 d3 bf 3d 7e 8a 0f bd a8 ac ec bd c0 f1 dd 3e
       0.09366598 -0.035044186 -0.11556369 0.43348503
0003b0 75 0a 2b 3f 14 85 2a 3f 81 b6 26 3f 75 6f 69 3e
       0.6681283 0.6660931 0.6512223 0.22796424
0003c0 e3 9c a0 3e 66 b5 96 3e d7 b2 bf 3e 10 a4 fa 3e
       0.31369695 0.2943527 0.3744113 0.48953295
0003d0 cd db cb 3e f5 d4 0c be b9 ee a2 be 94 36 c2 be
       0.39816132 -0.13753112 -0.31822756 -0.37932265
0003e0 a6 7f bd bd 31 e0 fa 3d 13 48 bb bd 78 6f 8b be
       -0.09252863 0.12249792 -0.091446064 -0.2723348
0003f0 a3 88 7e be 4d 2d 79 be 87 ea 90 be e7 4c 2e be
       -0.2485681 -0.24333687 -0.2830393 -0.17021523

conv2.0.bias f4 [16]
000000 9d 6e 9f bd 62 8e 09 3d 61 3a a6 bc 63 98 92 3d
       -0.0778477 0.033583052 -0.02029151 0.07157972
000010 3a a2 3d bd d3 43 34 bd c1 fb b6 bd 00 0a f5 3d
       -0.04629729 -0.044009995 -0.08934737 0.11964798
000020 a6 e8 df bd 9e 4a b2 3c b9 28 8e 3d ae f1 9f 3d
       -0.10933046 0.021764096 0.06941361 0.078097686
000030 f3 c3 82 bb 4b df 04 3c 3a b7 87 bc 52 87 7a 3d
       -0.003990644 0.008109878 -0.016566861 0.061164208

fc1.0.weight f4 [120, 400]
000000 ac cd 29 3e 90 72 e8 3c b8 cd 46 bf 06 60 67 bf
       0.16582364 0.02837494 -0.7765765 -0.90380895
000010 31 7f 3e be f9 0c 51 3d 1c 4e 91 3d a8 48 21 be
       -0.18603207 0.051037762 0.07094976 -0.15750372
000020 59 b1 53 be 10 3f be bd 70 73 32 bd 38 ab c5 bd
       -0.20673122 -0.09289372 -0.04356712 -0.09651798
000030 f9 fc ed 3d 72 a8 2d 3d ec 4e a1 3d a2 75 94 be
       0.11620516 0.04239697 0.07876381 -0.28995997
000040 c7 2d ae be 28 b2 e3 3c 09 78 cb 3d 0c e2 b1 3d
       -0.340193 0.027794912 0.09935004 0.08685693
000050 8b 81 a2 bd 18 4c 2c bd 29 64 8e 3c 21 06 cd 3d
       -0.079348646 -0.042064756 0.017381744 0.100109346
000060 dc dd 86 bd 8d 52 cf 3c f9 7f 4d 3e f6 50 84 3e
       -0.06585285 0.025307918 0.20068349 0.25843018
000070 9a be b9 3e af b8 b6 3d 1b f5 21 be 00 0d 7a be
       0.3627823 0.08921944 -0.15816157 -0.24419022
000080 66 69 58 3e 2c a0 8d 3e bb 75 eb bd 90 48 6a 3d
       0.21133956 0.27661264 -0.11497065 0.057198107
000090 eb 34 e0 ba 23 e2 23 3e e4 38 1a 3e a3 e3 dc bd
       -0.0017105615 0.16004233 0.15060765 -0.10785606
0000a0 77 af 21 bc 59 6c 14 bd ad 81 93 bc 9f 1f d1 be
       -0.009868494 -0.03623614 -0.01800617 -0.40844437
0000b0 23 e5 f4 bc 1a ac da 3d 0f 5f cc 3c e7 23 ab 3c
       -0.029894417 0.10677357 0.024947671 0.020891143
0000c0 a9 d0 11 bc 8d 1d 1e bd b6 ec ee 3d 4d 0c 28 3c
       -0.008899846 -0.0386024 0.11666243 0.010256839
0000d0 4c 41 b9 bd 28 f2 90 be 33 1f e7 3d 8d e6 6d bd
       -0.090456575 -0.2830975 0.11285248 -0.0580812
0000e0 f1 8d 2e be e2 6c 14 be ba 37 1d be 74 e7 32 bd
       -0.17046334 -0.1449466 -0.15353289 -0.043677762
0000f0 d4 53 44 bc 60 13 bc 3b aa 72 5e bd 3f 1b 4e 3c
       -0.011982877 0.0057396144 -0.05430857 0.012579738
000100 57 59 1d bd 28 b3 38 3d f9 70 87 bd 5a 78 b8 3d
       -0.03841528 0.04509273 -0.06613345 0.0900733
000110 7d 30 02 be f4 5d 4b 3d 7f fe 98 3d 72 52 00 3c
       -0.1271381 0.049650148 0.07470416 0.0078321565
000120 41 2d 95 3d 91 5b 11 3e 71 36 4e 3c 4a 11 84 3c
       0.07284022 0.14195086 0.012586222 0.016121525
000130 6f 25 0a 3e b7 b2 3c 3e a9 53 e2 3d 7d 4b b2 3d
       0.13490842 0.1842755 0.11051113 0.087058045
000140 bf b1 97 3c d8 01 9b bd ec 82 02 bd 7b 65 6d 3d
       0.018517373 -0.07568711 -0.031863138 0.057958107
000150 9c 58 8d 3e 18 6b 8d be dd a6 e0 bd 42 d0 ae bd
       0.27606666 -0.2762077 -0.10969327 -0.08535816
000160 3b be dd bd 03 bc 96 be 14 ba d3 3c fd f9 93 3d
       -0.10827299 -0.29440317 0.025845565 0.07225416
000170 80 0a 5f bd 4a a8 43 be 6e fe c7 be 54 60 4f 3e
       -0.054453373 -0.19107166 -0.39061302 0.2025159
000180 68 ec 3d 3e 77 fb 8c bd 8f 36 b2 bd 31 e5 28 bd
       0.18547213 -0.068839006 -0.087018125 -0.0412342
000190 ad 89 88 bc 7c ac 0e 3e 2d 4d 8e 3e e0 43 56 3e
       -0.016667211 0.13932985 0.27793255 0.2092433
0001a0 a8 e9 73 bd 2e 03 91 bc 5a c1 0d bd 77 da 11 3d
       -0.059549004 -0.017701712 -0.034608223 0.035608735
0001b0 66 22 95 3d a7 25 09 bd eb 9e 74 3c 2f f8 91 bd
       0.072819516 -0.033483174 0.014930467 -0.071274154
0001c0 14 f5 1b 3c 6b 3a 65 bd fe 6f 3a be 06 51 25 3e
       0.00951888 -0.055963915 -0.18206784 0.16144189
0001d0 65 e7 c6 3b d1 0f 0a 3d 4c 8d 87 bd 6d 99 80 be
       0.006070065 0.03370649 -0.06618747 -0.25117055
0001e0 63 f6 cc 3d e4 d5 3b bb f7 b5 90 3b 7e 1d e0 bd
       0.10007932 -0.0028661424 0.004416223 -0.10943125
0001f0 a8 ec 1d bd 98 4e e2 bd 32 7d 53 bd 37 67 60 3e
       -0.03855577 -0.11050147 -0.051633067 0.21914373
000200 44 5e 60 3e 31 72 12 3e 87 c1 11 be 83 62 e4 3d
       0.2191096 0.14301373 -0.14233981 0.11151602
000210 fd 0e 79 3e 39 63 ab 3e aa f1 31 3e b0 71 a9 3d
       0.24322124 0.33474138 0.17377344 0.08273637
000220 65 33 99 3d 3b 9e c4 3d 55 03 a6 3d ec 15 3b 3c
       0.07480506 0.096004926 0.08106104 0.011418801
000230 35 20 7a bc 9c 24 22 bc b4 21 e9 bd 67 8a 1a be
       -0.015266468 -0.009896424 -0.113833815 -0.15091859
000240 07 81 0b bf 8d 5a 0c bc 1d 9c 8b bd 10 7b 80 bd
       -0.54493755 -0.008566511 -0.068168856 -0.06273472
000250 51 cc a9 be 04 5e 0a bf 61 44 6e 3d 5c 91 58 bc
       -0.33163694 -0.54049706 0.05817068 -0.01321825
000260 2f 84 8c bc c6 ff ac 3b d0 ba 55 3d 4b 6d 23 be
       -0.017152874 0.005279514 0.05218011 -0.1595966
000270 d7 75 4c be 7a 05 d0 be 30 ce 3d be cd d6 e0 bd
       -0.19966827 -0.40629178 -0.18535686 -0.1097847
000280 a8 49 26 be 2f 33 61 bc a9 b7 03 3c 20 b6 b1 bd
       -0.16239035 -0.013745113 0.008039393 -0.08677316
000290 60 2a ab bd d0 2f c4 bc 25 aa cb 3d 29 ff 8d 3e
       -0.08357692 -0.02394858 0.09944562 0.27733734
0002a0 ab 8c 56 bd 19 68 0b 3d 72 3a bd bc c1 3a 25 3e
       -0.052380245 0.034034822 -0.023099158 0.16135694
0002b0 09 5b 48 3e f8 6e 86 3e 95 63 25 3e dc 6a 97 bc
       0.19565977 0.26256537 0.16151269 -0.018483572
0002c0 58 ea 26 be a8 2a 44 be b9 85 db bd 38 be 10 3e
       -0.16300333 -0.19156897 -0.10718865 0.14135063
0002d0 77 16 63 3c 89 10 fd bd a0 b7 46 3e 36 d3 87 3e
       0.0138603365 -0.123566695 0.19405985 0.2652833
0002e0 15 50 d4 3e 66 bd e4 3d f7 b9 30 3e 49 33 ad 3e
       0.41467348 0.111689374 0.1725844 0.3382819
0002f0 7d a0 13 3f 0c fe cc 3e a4 73 1d bd 00 f4 00 bc
       0.5766676 0.40037572 -0.03844036 -0.007870674
000300 6e ee 7b bd 7c af 85 be 51 8b 85 be 88 c4 b7 3d
       -0.06150668 -0.26110446 -0.26082852 0.08973032
000310 e8 9d 01 3d ec 9a 40 be 57 82 9d be 34 b3 a3 be
       0.03164473 -0.18809098 -0.30763504 -0.3197266
000320 86 2b 0b 3e a1 f3 4d 3d 15 1a 83 be dc 15 c3 be
       0.13590822 0.05028117 -0.25605837 -0.38102615
000330 57 81 86 3d b1 d2 60 bd bc 59 85 bd 00 28 b1 be
       0.06567638 -0.05488843 -0.06511256 -0.3460083
000340 0c d2 93 be 0c 8e 24 be d1 2f e5 3c ce 5e 90 3d
       -0.2887119 -0.16069812 0.027976902 0.070493326
000350 f1 2c 97 3d cf 60 6c 3d a3 f4 19 3d 71 04 95 3d
       0.07381619 0.05770951 0.03758682 0.07276238
000360 6d ba ea bd c0 ce 8e 3e 37 10 09 be fe b8 2e 3e
       -0.11461339 0.27892113 -0.13385092 0.17062756
000370 73 b7 dd 3c 73 e4 15 bb 49 cd 52 3d 80 41 b9 3d
       0.027065014 -0.0022871762 0.051465306 0.09045696
000380 e9 7e 81 3d cb 16 05 be 31 b1 4d 3d e6 13 ad 3e
       0.06323034 -0.12996976 0.05021781 0.33804244
000390 ee 4a 72 3e 5d 8f a6 3d 8e c2 4e be b7 9a a2 3d
       0.23661396 0.08132813 -0.20191404 0.07939666
0003a0 db 09 4e 3e f2 5d 82 3e a6 f7 a5 3e 1a 7d f9 bd
       0.20120947 0.254623 0.32415503 -0.12182064
0003b0 79 04 bd 3d 2c 6a d8 3c 0c 36 c2 bd 24 e6 3f be
       0.09229369 0.026417814 -0.09482965 -0.18740135
0003c0 8a bd 70 3d 27 98 d5 3c c2 30 bb bd ba 63 b7 be
       0.05877451 0.026073528 -0.09140159 -0.35818273
0003d0 56 d2 3f bf 58 ca b5 3d 77 8c f5 bc be c8 2d be
       -0.7493032 0.08876485 -0.029974205 -0.16971108
0003e0 a3 73 d6 be 42 7f 16 bf 3d 3a 84 3c 86 de 17 3e
       -0.418851 -0.5878793 0.016141051 0.1483098
0003f0 ad 72 8f 3e 26 cd 38 3e 9b 1b 86 bd 70 43 82 be
       0.28017178 0.18047008 -0.06548234 -0.25442076

fc1.0.bias f4 [120]
000000 22 45 28 3d c8 40 07 3c 70 99 ed bc 23 6f 40 3d
       0.041081555 0.008255191 -0.029003829 0.04698099
000010 4b bd 67 3c 2e 38 99 ba 38 c1 5d bd 26 84 9f bd
       0.014144252 -0.0011689716 -0.054139346 -0.07788877
000020 20 b6 c8 bc 78 8c b3 3c 1e 5b a3 bd 3a fb f2 b9
       -0.024500906 0.021917567 -0.079763636 -0.00046345015
000030 a4 1c f4 3c d8 a4 bb 35 9f 43 ab 3d ef 7c 85 bc
       0.029798813 1.3980562e-06 0.08362507 -0.016294925
000040 5b 47 ff bb cb 7e 85 3d 99 9a 9e 3d c3 ab b8 3b
       -0.0077904887 0.065183245 0.07744331 0.00563571
000050 17 6a 2c 3c 85 04 88 3d f1 21 a6 3d ad 7f 7e bd
       0.010523341 0.06641487 0.081119426 -0.06213348
000060 65 1c 83 3d e3 9d 36 bd 57 70 8b bd fb a3 d9 3c
       0.064019 -0.044584166 -0.068085365 0.02656745
000070 03 16 09 bc 84 88 35 3d 5a d3 16 bd 0a a1 0e 3b
       -0.008367064 0.044319645 -0.036822654 0.0021763467
000080 e9 ad 50 3c 8a e2 a4 bd b6 3e f0 3c 67 7f 13 bc
       0.012736776 -0.080510214 0.029326778 -0.009002543
000090 15 f2 1c 3d e6 95 1a bd 68 64 67 3d 89 a7 82 bd
       0.038316805 -0.03774061 0.05649224 -0.06379611
0000a0 ed 25 3e bc 23 38 9d bc ad f4 97 bd 73 9f 92 bd
       -0.011605722 -0.019191807 -0.07419715 -0.07159319
0000b0 56 d3 d1 3c 87 c9 98 bd f2 75 70 3c 1d 14 c8 bc
       0.025613468 -0.07460313 0.014676558 -0.024423653
0000c0 3e 4a fd bc 26 13 45 3d 6f e6 75 bd df 0c 87 bd
       -0.03091919 0.048113964 -0.06003421 -0.06594252
0000d0 6d 8d 6f 3c d9 a7 04 bd f4 a2 54 3d 35 cd 18 bd
       0.014621121 -0.032386634 0.051913217 -0.037305076
0000e0 54 79 8d 3d d9 6d 84 bd 97 b2 f3 bc 81 ee 02 bd
       0.06907907 -0.06466264 -0.029748244 -0.031965736
0000f0 5b c0 81 3c 3a 9f e0 ba d6 1e 18 3d 61 28 7b bd
       0.015838793 -0.0017137297 0.037138782 -0.061317805
000100 43 f1 85 3c bc 76 15 bd 8c 56 1f 3b 7a 23 5a bd
       0.016350394 -0.036490187 0.002431306 -0.05325649
000110 5e a8 38 3d 29 51 8e bd 61 6f ea bc 41 ce b5 bd
       0.045082442 -0.06949074 -0.028617563 -0.088772304
000120 02 8c 8b 3c 63 73 be bc 06 ad 83 3a c0 88 77 bd
       0.017034534 -0.02324838 0.0010046072 -0.06043315
000130 a6 dc 38 3c a7 2b b7 3c e1 af 4e 3d a6 e0 08 bc
       0.011283075 0.022359682 0.0504607 -0.008354342
000140 4c ba 53 bc f3 2d 83 3d 4a 58 21 bd 71 63 38 3a
       -0.012922835 0.064052485 -0.03939084 0.0007033861
000150 d7 92 cb bc 13 dc f7 bc 27 8c f4 3b 39 6c f9 bb
       -0.024850292 -0.030256307 0.0074629965 -0.007611778
000160 49 9f 86 bb 66 58 64 3c f0 52 d8 3c 9f 13 27 bd
       -0.0041083437 0.013937091 0.026406735 -0.040790197
000170 ee b4 90 3c 75 3b 65 3d a4 e1 80 3b 47 25 9d 3c
       0.017664399 0.055964906 0.0039331485 0.019182814
000180 bd b1 fd bb f5 cd 79 bd 1b 3f 55 bc f5 b1 09 bd
       -0.0077421353 -0.06098743 -0.013015534 -0.03361698
000190 54 ad a1 bd 4a 08 d9 3c 20 62 88 3d 57 b7 e7 3c
       -0.07894388 0.02649321 0.06659341 0.028285665
0001a0 98 d7 82 bd 70 16 1e 3d c1 af 38 3d 6f 41 76 bd
       -0.063887775 0.038595617 0.045089487 -0.060120996
0001b0 99 21 88 3c f6 88 c0 3c 64 de 28 bd 38 39 06 bc
       0.016617583 0.023502808 -0.041227713 -0.008192353
0001c0 f9 eb 62 3c d9 11 a5 3b db bf 9f bb cc a1 8d bc
       0.013850206 0.005037528 -0.004875166 -0.017289065
0001d0 95 84 0d 3d 9a 38 98 3d 2a 7e ae bd ea de 0c 3d
       0.03455027 0.07432671 -0.08520158 0.034392275

fc2.0.weight f4 [84, 120]
000000 f6 95 fc 3d 8a 52 80 3e ef ad c0 3e 19 a3 1c bd
       0.1233329 0.25062972 0.376327 -0.03824148
000010 1d 50 b2 3c 50 7e dc 3e 39 84 3b be 59 44 f3 3d
       0.021766717 0.4306512 -0.18312158 0.11878271
000020 d2 48 35 be 3f 21 81 3e 3b 4e bd be 41 bd 28 be
       -0.1770356 0.25220677 -0.36973748 -0.16478445
000030 04 88 e2 be 34 6f cd 3d 98 25 3e be 3f c2 b6 be
       -0.44244397 0.10030976 -0.18569028 -0.35695073
000040 df 80 9c bd f7 dc 16 bd 42 04 f3 3b d4 c9 8a 3d
       -0.07641768 -0.036831822 0.007416279 0.06776777
000050 c8 bd 82 3e 5a 38 99 be e0 a5 82 3d c0 4e 14 bf
       0.25535417 -0.29925805 0.063792944 -0.5793266
000060 07 4f 95 be b2 94 db 3e 2e 65 79 3e 15 4c 82 bd
       -0.29161856 0.42886883 0.24355003 -0.06362168
000070 87 34 9b 3d ac 25 bf 3e ee b7 1e 3d e8 23 c2 3e
       0.07578378 0.3733343 0.038749628 0.3791802
000080 2b 69 5d bc ae 41 5a bc 59 61 b0 be 71 1b 94 3e
       -0.0135138435 -0.013321323 -0.3444927 0.28927186
000090 08 f7 e5 3d b6 5f 3a bd c2 c7 d0 3d 75 74 45 be
       0.11228758 -0.045501433 0.10194351 -0.19282706
0000a0 32 7c 53 be 48 d3 06 3d 4d 47 4f be 1f 38 ea bd
       -0.20652846 0.032916337 -0.20242043 -0.114364855
0000b0 44 08 97 be 14 2f 81 be 48 be 6b 3e 63 cd 8e 3e
       -0.29498494 -0.2523123 0.23021805 0.27891073
0000c0 4b 2d cd 3d e7 27 8b bc 66 52 0c bd 61 9b ad be
       0.100184046 -0.0169868 -0.03425827 -0.33907607
0000d0 8c 3d 63 3e 3a 2a 27 bf 4f 2b a3 be fa ce 64 be
       0.22191447 -0.6529881 -0.3186898 -0.2234458
0000e0 f2 e2 5c bc 86 10 59 be 07 57 0d 3e e4 b3 9d bc
       -0.013481842 -0.2119771 0.1380273 -0.019250818
0000f0 c9 b9 29 3e 7e e2 a4 be a2 d4 7f 3e f1 c5 81 be
       0.16574778 -0.3220405 0.24983457 -0.2534633
000100 20 05 a3 3d 57 ec 90 bd b9 e3 8b 3e ad e2 47 bd
       0.07959962 -0.07076328 0.27322176 -0.04880016
000110 de b5 10 3e 62 14 78 bd 39 88 05 bd 0e a7 ad 3e
       0.14131877 -0.060566314 -0.032600615 0.33916515
000120 f6 9d 51 be d0 55 9a 3d e2 d3 cc bd 8c 0f 03 bf
       -0.20470414 0.07535899 -0.10001351 -0.511956
000130 be d0 13 be a7 44 d7 3e 65 ad 92 3e 91 67 1a 3e
       -0.14435098 0.42044565 0.28647915 0.1507857
000140 a6 b6 80 3e c7 13 35 be 90 82 04 be e1 3a ba 3e
       0.2513935 -0.17683326 -0.1294043 0.36373046
000150 d6 10 20 3e a4 d4 a5 3c 27 2a ec be 1a f5 ba 3e
       0.15631422 0.020242997 -0.4612591 0.36515123
000160 6d b7 0a be 39 db 96 3e d7 1f ee 3e 10 62 ff 3d
       -0.13546534 0.2946413 0.46508667 0.12469876
000170 3d b1 1d 3e fc 3a 79 be 86 a7 95 bd e4 4f 56 3d
       0.15399642 -0.24338907 -0.07307343 0.052322283
000180 7a 41 95 be da 2e 83 be 3d e5 21 be 24 05 14 3e
       -0.29151517 -0.25621682 -0.15810104 0.14455086
000190 4a be 89 be 52 ef 00 3f b1 06 12 3d 47 e7 86 be
       -0.26902992 0.50365174 0.035650913 -0.26348326
0001a0 92 fb fa be 47 90 92 be 08 f5 3e 3d ef 87 ed bd
       -0.49020058 -0.286257 0.0466204 -0.11598193
0001b0 86 3f b1 3d 96 b4 45 3e cd 2b cb 3e a6 1f 78 3d
       0.08654694 0.1930717 0.39681855 0.060577057
0001c0 2c 15 85 be 3e 30 f1 3e 93 68 4d 3e 5a 3a 56 3d
       -0.25992715 0.47107118 0.20059423 0.052301742
0001d0 94 9c 87 bb 36 71 d5 bc 16 12 eb 3d 34 c6 ea 3d
       -0.0041385386 -0.02605496 0.11478059 0.114635855
0001e0 3f 3e 25 be 9d 56 3e be a7 19 42 be 65 04 df bc
       -0.16137026 -0.18587728 -0.18955098 -0.027223775
0001f0 5f f2 cf be 9a e8 a4 be 93 ca 87 bd 3a 4b 9c 3d
       -0.40614602 -0.3220871 -0.06630435 0.07631536
000200 d6 ab 2b 3e 75 4b 90 be 2d 8b 03 3e c4 a2 9b 3e
       0.16764769 -0.2818257 0.1284606 0.30397618
000210 1a 8a 6a be a5 c4 45 be ed a0 a5 bd 94 36 02 3d
       -0.22904244 -0.19313295 -0.08087335 0.03179033
000220 dd 71 2f 3e 9d 24 11 be 24 bb 94 3e 12 d0 31 3e
       0.17133279 -0.14174123 0.29049027 0.17364529
000230 80 b7 26 be 1c 0e c8 3e 6b b7 c5 be 0d 2a 89 3e
       -0.16280937 0.39073265 -0.386165 0.26789895
000240 fe d6 5b be 3e ea 51 be a0 a1 f2 3d ba c5 c4 3e
       -0.21468732 -0.20499513 0.11847234 0.38432103
000250 17 4c 4d 3d b4 89 ed bd 42 83 8c be 42 77 00 bf
       0.050121393 -0.115985304 -0.27443892 -0.50181973
000260 59 07 6b be 95 dc cf bc e2 c5 80 bd 56 72 98 3e
       -0.22952022 -0.025373736 -0.06287743 0.2977473
000270 b2 42 9a 3e e3 70 b8 3d 3c 20 09 3d 83 d2 93 be
       0.3012901 0.090059064 0.033478007 -0.28871545
000280 8e 1e 03 3e 9d 55 86 3e e3 6c c2 bc bd 0d e3 3e
       0.12804624 0.26237193 -0.023733562 0.4434642
000290 42 05 d2 bc 94 04 8e 3e 52 22 5c be 87 cb c3 be
       -0.025637273 0.27737868 -0.21497467 -0.38241217
0002a0 1a d0 6e be 20 46 95 bd a6 92 01 be 26 cd 48 3e
       -0.23321572 -0.07288766 -0.12653598 0.19609508
0002b0 ef fb 48 bd 72 63 c2 3e 1a 4f 93 3e c5 06 df 3d
       -0.049068388 0.37966496 0.28771287 0.10889963
0002c0 4a 1c fe bd 14 b5 79 3e de 95 96 be 23 40 97 3d
       -0.124077395 0.24385482 -0.29411215 0.0738528
0002d0 b1 94 b6 bc 69 83 92 3e 36 40 a4 3e f3 6e 4f be
       -0.022287698 0.28615883 0.3208024 -0.20257168
0002e0 05 d3 29 3e ab 26 3d be ee 22 25 be 46 da d0 bd
       0.16584404 -0.18471782 -0.16126606 -0.10197882
0002f0 e4 40 95 3d 77 72 47 bd e8 8e b7 3e aa 81 32 be
       0.072877675 -0.048693147 0.35851216 -0.17432275
000300 88 67 11 be 05 59 dc bd 2f 60 49 be 75 48 2e 3d
       -0.1419965 -0.10759167 -0.19665597 0.04254957
000310 f7 fb 01 bf d6 04 b9 bd 1f 4f 0d be b1 d0 d0 3e
       -0.5077509 -0.090341255 -0.13799714 0.4078422
000320 b2 a2 19 bf d2 b0 3a bd 52 26 66 bb f6 7a 2a be
       -0.6001388 -0.045578785 -0.0035118056 -0.16648468
000330 aa 36 ac be bd c1 8c bd d1 36 85 3e 7b b1 d2 be
       -0.33635455 -0.0687289 0.26018384 -0.41151032
000340 db e6 5b bd 16 75 8b be f4 c0 ca 3d bf 9c e1 bd
       -0.053686958 -0.27237767 0.09900084 -0.11016225
000350 ce ac bb 3d 7d ba 72 3e a5 56 f7 be c9 0c e7 3d
       0.09163819 0.23703952 -0.48308292 0.112817355
000360 c2 57 f9 3e b7 ff f0 3e 7f d7 09 bc 76 ae 17 bf
       0.48699766 0.47070095 -0.008413195 -0.5925058
000370 e9 d5 02 3e 9e 02 b7 bd 9b 57 57 3e ca db 83 3e
       0.12776913 -0.08936046 0.21029513 0.25753623
000380 6d a2 a6 3e 3b 5e b0 be cb 61 89 bd 74 70 09 bf
       0.32545796 -0.34446892 -0.06708106 -0.53687215
000390 ce a2 6f 3e bc 9c bc 3e f8 47 f9 bd 86 0c 46 be
       0.23401949 0.3683833 -0.1217193 -0.19340715
0003a0 af 65 aa 3e 3a db 5a be e9 16 8a 3e df 25 fe bd
       0.33280703 -0.21372691 0.26970604 -0.12409567
0003b0 e8 14 9e bd 21 d3 14 3e eb 3e 1d bf e8 a0 93 bd
       -0.07718831 0.14533664 -0.6142413 -0.07208425
0003c0 50 eb f8 3e 90 80 be 3c 40 4a 56 3e ef 5b a1 3e
       0.4861703 0.023254663 0.20926762 0.31515452
0003d0 7f 81 b8 3e 2c b6 7a 3e 4d b7 85 be e5 f0 a9 be
       0.36036298 0.24483556 -0.2611641 -0.331916
0003e0 b0 3b 08 3d 9a 06 52 3e fc 9e 46 3e 17 ad eb 3c
       0.033260047 0.20510331 0.19396585 0.02876906
0003f0 72 ab 09 be 54 d2 38 bd 39 90 0d be 49 49 1c be
       -0.13444307 -0.04512246 -0.13824548 -0.15262331

fc2.0.bias f4 [84]
000000 11 64 a0 3d e7 c5 d2 3c 37 55 02 3d 84 3c 47 3d
       0.07831586 0.025729133 0.03181955 0.048641697
000010 df fa 83 3c 74 73 03 3b 68 8e 4e bd 30 db b1 bc
       0.016110836 0.002005783 -0.050428778 -0.021710962
000020 13 b7 b4 3c df f7 8e bd 5c c7 10 3d 52 f9 03 bc
       0.022059953 -0.069808714 0.035346374 -0.008055048
000030 c9 d2 ab bd eb ec 70 bc 99 4c d7 bc a6 17 22 bd
       -0.083898135 -0.014704923 -0.026281642 -0.039573334
000040 dc 0b 48 bd 5a 71 8b 3c c8 b0 9a bd 0c 21 52 3d
       -0.048839435 0.017021824 -0.075532496 0.051301047
000050 be bd e1 3d ea 51 d3 3c 8a 3e c7 3d d6 8c 8a bc
       0.110225186 0.025795896 0.09728725 -0.016912859
000060 a4 e5 9f 3c b0 1a c2 3d 56 8c 6c 3c c3 9b 06 bd
       0.01951868 0.094777465 0.014437756 -0.03286339
000070 df 5d 73 3d f6 e1 79 3d 7b 08 b4 bd 10 97 48 bd
       0.059415694 0.06100651 -0.0879068 -0.04897219
000080 9a 60 3f bd e9 aa ff 3c d3 12 3d 3d 51 35 82 bd
       -0.046722986 0.031209426 0.04616053 -0.063578255
000090 4b 03 37 bd ae 00 a4 3d 26 ec 6a bd a8 68 4e bd
       -0.044680875 0.08007942 -0.057354115 -0.050392777
0000a0 55 dd a0 3d 43 42 40 bd c8 d4 a4 3c 7a e1 86 bc
       0.07854716 -0.046938192 0.020120993 -0.016464937
0000b0 5e 45 04 bc 9c 53 28 3d e4 5f 46 3d fc b7 7d 3b
       -0.008073179 0.04109536 0.048431292 0.00387144
0000c0 29 ba 7b 3d 50 d6 b4 bd 97 14 4c 3d 38 51 63 bd
       0.061456833 -0.08829939 0.049824324 -0.055497378
0000d0 d7 56 6f bb c8 4e 97 bc db 25 db bd 96 81 0d 3d
       -0.0036520266 -0.018470183 -0.1070058 0.03454741
0000e0 5e 6d 98 bd c9 4d 5e bd a4 a9 8a 3d b2 c0 cc bb
       -0.07442735 -0.0542734 0.06770638 -0.006248557
0000f0 b1 ba a9 3d aa 05 9b 3d e6 bc 23 bd d1 e7 3b 3c
       0.08287562 0.0756944 -0.03997507 0.011468844
000100 52 76 60 bd 13 5c da 3d ea e5 63 bd 54 b5 b8 3c
       -0.05480034 0.10662093 -0.055639185 0.022547401
000110 42 97 55 3c 7a 60 82 3d c0 c3 86 bc c1 78 7b 3d
       0.013036551 0.06366058 -0.016450763 0.061394457
000120 1a 92 28 3b 61 33 82 3b b2 2a e0 3d a3 d7 32 3c
       0.002572185 0.00397341 0.109456435 0.01091567
000130 80 1e 06 3d db 75 b8 3d 7b 82 66 3d 41 91 43 3d
       0.03274393 0.09006854 0.05627678 0.047745947
000140 af 26 6c bc 5b d2 6e 3b 4a df 29 3d 5b 0f 23 bd
       -0.01441352 0.00364413 0.04147271 -0.039809566

fc3.weight f4 [10, 84]
000000 4c fc 8c 3e 2f 70 35 3c 77 d2 6a 3e 45 ef da be
       0.27536237 0.01107411 0.22931848 -0.42760673
000010 f3 b3 87 be 84 f7 d1 bd 8e 5d 24 bf 45 47 ae be
       -0.26504478 -0.10252288 -0.64205253 -0.3403875
000020 40 55 85 be 1a 43 45 3e f6 11 af bc 6d f8 aa be
       -0.26041603 0.19263878 -0.02137087 -0.3339266
000030 66 d7 66 3e 59 cf fe be cd 24 ac be 6f 26 48 be
       0.22543105 -0.4976757 -0.33621827 -0.19545911
000040 da 36 97 3e 27 61 37 3e f1 8a d4 be d0 34 0f 3b
       0.29534036 0.17908154 -0.41512254 0.0021851547
000050 8e 0b f3 bd a1 aa a6 be f1 51 84 3e a0 41 14 3e
       -0.11867438 -0.32552055 0.25843766 0.14478159
000060 d0 2e f3 be 1e 27 0e bf 5a a8 17 be 01 6a 0c bf
       -0.47496653 -0.5552844 -0.14810315 -0.5484925
000070 c3 fb cb be d3 97 12 3e da ee 90 3e 52 f2 ac be
       -0.39840516 0.14315729 0.2830723 -0.33778626
000080 db f1 96 3e 11 3f b5 3e a7 82 44 bf 9a 01 d8 be
       0.29481396 0.35399678 -0.7676186 -0.42188722
000090 3d b6 a3 3e 76 d0 fd be 8e 77 a8 3e 2b 28 3b be
       0.31974974 -0.49573106 0.32903713 -0.18277042
0000a0 4d d6 16 bf ef 18 aa 3e 91 f8 93 3e 03 3b 97 3e
       -0.5892075 0.33222148 0.2890058 0.2953721
0000b0 52 4e 90 be 3a 54 c5 be 2e c9 af be 04 9e 01 3e
       -0.28184754 -0.38540822 -0.34333175 0.12657934
0000c0 d4 7e df 3e 30 58 e7 3a bd 96 48 bc 13 df 50 bd
       0.4365145 0.0017650183 -0.01224297 -0.05099399
0000d0 4f 98 9e 3d 5b b5 c6 be d4 69 80 bd 76 b2 f8 3e
       0.07743894 -0.38810238 -0.06270185 0.48573655
0000e0 bf 0a a7 be 39 7b 5c 3e b0 17 f3 be 3f c8 a5 be
       -0.32625386 0.2153138 -0.4747901 -0.32379338
0000f0 71 a0 e8 bd 21 12 4a be 10 ec d1 3e 34 89 de be
       -0.11358727 -0.19733478 0.41000414 -0.43464053
000100 69 c6 08 3e 1b 50 06 bf ef 42 12 bf 92 4c 7c 3e
       0.13356937 -0.5246598 -0.5713338 0.24638584
000110 fe e2 c5 3e 17 32 15 bc 21 55 36 3e 8d c2 ea 3e
       0.38649744 -0.009106181 0.17805912 0.45851555
000120 06 db dc 3d 05 34 90 3e ab 5f 82 3e 81 d5 29 3e
       0.10783963 0.28164688 0.25463614 0.16585352
000130 af 5a ba 3e b9 7d 94 be 2c d6 0a 3d 14 b4 95 3e
       0.3639731 -0.2900217 0.033895656 0.2923895
000140 34 a9 a3 3e aa d5 2c bf 55 2a f4 be d9 c4 1a bf
       0.3196503 -0.67513525 -0.47688547 -0.60456616
000150 2d d8 dc be ba ff 6a 3e f1 f7 8b be 7f 39 c7 be
       -0.4313368 0.22949114 -0.27337602 -0.38911054
000160 05 7b b1 3e 79 d2 b0 3e fd 3b 88 3e bd db 9f be
       0.3466417 0.34535578 0.26608267 -0.31222335
000170 be 19 9b 3e a3 3f a2 be 71 eb 82 be 0a be ab 3e
       0.30293077 -0.31689176 -0.25570253 0.33543426
000180 19 15 ce 3d 22 c7 7b 3e d0 f2 b6 3e df e4 06 bd
       0.10062618 0.24587682 0.35732126 -0.032933112
000190 c7 a2 b8 be 6f ed 06 3e d8 1c 91 bb 6e 6c c0 3d
       -0.3606169 0.13176511 -0.0044284873 0.09395681
0001a0 1f 66 9d 3e bd ee c3 3e c4 c5 a9 3e 84 53 a3 be
       0.30741975 0.3826808 0.33158696 -0.31899655
0001b0 88 e7 a6 3e ef d1 ac 3e ec d8 a7 3e cd 24 8a 3e
       0.3259852 0.33753917 0.32782686 0.26981202
0001c0 38 45 15 3e f6 eb 12 bf bb 78 2c 3e a8 02 0c bf
       0.14577186 -0.573913 0.1684293 -0.54691553
0001d0 31 fb b4 be 5f 17 72 3e bb ac e8 3d 7a 41 da 3d
       -0.35347894 0.23641728 0.11361071 0.1065702
0001e0 d7 97 17 bf 15 cb 2c 3e f0 6a 14 bf d8 cf bd 3e
       -0.59216064 0.16874345 -0.57975674 0.37072635
0001f0 d7 bf ba be f0 c0 9a 3d 5d 13 f2 be 10 4b 33 bd
       -0.36474487 0.07556331 -0.47280398 -0.043772757
000200 a7 56 ff bd 0b 8c b7 bd 1f b4 7a 3e 8c e8 f4 be
       -0.124676995 -0.08962258 0.24482773 -0.4783367
000210 86 4b 83 3e ee 7f ef 3e b0 a5 c6 be 37 da c5 3e
       0.25643557 0.4677729 -0.38798285 0.38643047
000220 5c 0c 2b bf bd b0 57 3e ab 00 42 be 02 11 bf bc
       -0.66815734 0.21063514 -0.18945567 -0.02332354
000230 eb 9c c2 3e ef 49 ab be 88 03 9f be 36 83 b9 3e
       0.38010344 -0.33454844 -0.31057382 0.36232919
000240 6b 1d ac be 8c 3c ac be 1d 1e dc be 58 ab 75 3e
       -0.33616194 -0.33639944 -0.42991725 0.23991144
000250 f6 73 43 3e fb 04 ae 3e 80 67 8d be 6d 38 d2 be
       0.19087204 0.33988175 -0.27618027 -0.41058674
000260 78 41 7e be 87 5c e7 be 44 dc 04 bf e4 72 62 be
       -0.24829662 -0.4518778 -0.518986 -0.2211414
000270 df 64 32 bf b2 4c c4 3e dc fd 56 3e 56 d5 a3 be
       -0.6968517 0.38339764 0.20995277 -0.319987
000280 1e 7a e5 be b7 0b 0e 3f 39 2d bb be cd 13 5f be
       -0.4481973 0.55486625 -0.3655794 -0.21784897
000290 57 8f 60 be 31 ab 2f 3e 7a 85 9a bd a6 46 ba 3d
       -0.2192968 0.17155148 -0.0754499 0.09095506
0002a0 8c 36 e1 be 48 74 65 3e 90 62 c0 3d 21 2b a9 be
       -0.43986928 0.22407639 0.09393799 -0.33040717
0002b0 60 58 b2 3e b2 e4 24 3e c9 2b 94 be 21 1c 25 be
       0.3483305 0.16102865 -0.28939655 -0.16124012
0002c0 48 fe 59 3e 02 cb eb 3d 6c e0 bc 3e b0 a2 62 be
       0.21288407 0.1151333 0.3688997 -0.22132373
0002d0 b2 20 75 be bb 0a 7c bd 98 1d 2e 3e 7e 19 cb be
       -0.23938254 -0.06153367 0.17003477 -0.39667886
0002e0 0e 70 95 3e d6 d3 b1 3d 70 72 30 3e 73 a8 16 3e
       0.29187053 0.086829826 0.17231154 0.14712696
0002f0 1e aa 95 be 2d a0 c4 3e d6 c0 9e 3e ad f8 af be
       -0.29231352 0.38403454 0.31006497 -0.34369412
000300 0e 3e 46 3e cc 64 0c 3e ac d2 a5 be 7c e7 8b 3e
       0.1935961 0.13710326 -0.32387292 0.27325046
000310 c7 12 47 3b 55 68 c7 be 18 a9 ae bd 9b 22 f9 bd
       0.0030376182 -0.38946787 -0.08528346 -0.121648036
000320 2a a0 1b bf 8a 3c 0c be f0 68 02 bf 19 7d 6d 3e
       -0.60791266 -0.13694969 -0.5094137 0.23192252
000330 9d 7c 6f 3e 3e c0 25 3e fd 3d fd 3e e3 df 82 3c
       0.2338738 0.16186616 0.49461356 0.015975898
000340 68 d8 79 be ba 06 9a 3e 06 d3 20 3e fb 33 1a bf
       -0.24398959 0.30083257 0.15705499 -0.60235566
000350 94 6b 0c 3f 29 d8 07 3d 6a 62 c4 be 46 f8 ae be
       0.5485165 0.03316513 -0.38356334 -0.34173793
000360 89 80 d2 3e e8 75 83 bd 06 08 ae be 32 ff bd be
       0.4111369 -0.06418973 -0.33990496 -0.3710876
000370 2f 89 0d be e9 b8 d5 3e 2c 43 8e be 37 22 c0 3e
       -0.13821863 0.41742638 -0.27785623 0.37526104
000380 fa 38 a6 bd f7 8f 57 3e 57 f2 80 be 8d c5 38 3e
       -0.08116336 0.21051012 -0.2518489 0.1804411
000390 96 18 96 bd 62 04 21 3e 3f bf c5 3d b0 1d 25 bf
       -0.07328908 0.15724328 0.09655618 -0.64498425
0003a0 11 ae 3f be 77 8a c3 bd ff 94 93 3e 18 32 5b 3e
       -0.18718745 -0.095478944 0.28824612 0.21405828
0003b0 51 23 b1 3e dd 39 32 3e 45 30 3e be 3d 38 ba 3e
       0.34597257 0.17404886 -0.18573101 0.3637103
0003c0 88 51 b7 3b a4 3f 9d 3e af 6b 29 bf 8a bc 17 bf
       0.005594436 0.30712616 -0.6617994 -0.5927206
0003d0 78 96 3e 3e 72 3b 03 bf aa ec d5 be 14 34 bd be
       0.18612087 -0.5126258 -0.41782123 -0.36953795
0003e0 c3 aa c8 be 42 c4 94 3e a7 36 4d 3d 6a b8 33 be
       -0.3919278 0.29055983 0.05010095 -0.17550817
0003f0 5c fe bf be 3e e8 f5 3a 20 cb 81 3e 16 e0 7c bd
       -0.37498748 0.001876123 0.25350285 -0.061737143

fc3.bias f4 [10]
000000 d8 ec 99 bd 4c b7 1e 3b 80 9f aa bc b1 cc b5 ba
       -0.075158775 0.002421814 -0.020828009 -0.0013870207
000010 93 61 a9 bd f7 8a ff bd 3b 06 c1 3d fc 21 a1 3d
       -0.08270564 -0.12477677 0.094250165 0.0786781
000020 75 dd 62 3d b1 ce a9 3d
       0.05538698 0.082913764
