6_ConvolutionalNeuralNetwork/LeNet/model8.pth (torch, 250410 bytes, 10 tensors)

conv1.0.weight f4 [6, 1, 5, 5]
-0.29828817 0.24035479 0.04169408 0.5757196 0.16131395 0.22822168 0.8050368 0.9022092
1.1289746 0.36225712 -0.18949308 0.60510564 0.70517814 0.6119348 -0.4660165 -0.3700691
0.31811193 -0.117281005 0.08276448 -0.91461694 -0.611475 -0.59507006 -0.78965515 -0.3591149
-0.83153856 -0.7653196 -0.3204131 -0.11121808 -0.25534248 0.12574376 -0.1489493 0.49577323
0.62134975 0.5383492 0.65779054 -0.07902718 1.1398743 1.6412778 0.6676052 0.5170999
-0.44344428 0.7319078 0.18091184 0.213101 -0.15628706 -1.2302715 -0.6376872 -0.68424934
-0.5282762 -0.5321545 -0.5003009 -0.20107849 -0.25914726 -0.073464155 -0.78832436 0.7383381
0.73086464 0.95142794 1.0731378 -0.4940628 0.52657515 0.7960033 1.0844465 0.7060959
-0.58755666 -0.060468 0.68814355 0.40589592 0.3169993 -0.60626113 -0.52805686 -0.24382253
-0.43402058 -0.4630613 -0.85721153 0.48901236 0.5603974 0.6240669 0.4965689 0.58128756
0.19411418 0.051152233 -0.35764349 -0.20418791 -0.1428829 -0.5625006 -1.397443 -1.0618001
-0.9850965 -0.7008214 -0.86826795 -0.68995756 -0.2129103 -0.08244274 -0.5682409 -0.010292516
0.7147503 0.74310076 0.30330428 -0.13648854 0.7276276 1.0966809 0.5098914 0.63209903
0.78260267 0.26203778 -0.39238566 -0.5731263 -0.6934699 -0.33175147 -0.16202031 -0.5343505
-0.5433822 -0.4907298 -0.34754318 0.40651137 -0.3655596 -0.8966996 -0.39829376 -0.27770278
0.81466913 0.050128814 -0.33947632 0.17834371 0.48902678 0.3305949 0.49862257 -0.097399734
-0.80452853 -0.56897676 0.21584485 0.0187373 -0.5149868 -1.1814393 0.12105936 -0.06143284
-0.10753274 -0.7927175 -0.7499691 0.58546233 0.2934161 -0.37939134 -1.1274525 -0.16054985
0.088043585 0.7149162 -0.36791092 -1.2362152 -0.48621953 0.34265968
00000000: 3ab9 98be 911f 763e 69c7 2a3d 5c62 133f
00000010: 7c2f 253e f2b2 693e e416 4e3f 2ff7 663f
00000020: 3d82 903f c479 b93e 790a 42be 34e8 1a3f
00000030: 8e86 343f c2a7 1c3f b799 eebe b279 bdbe
00000040: 91df a23e 0631 f0bd 6c80 a93d 5624 6abf
00000050: a089 1cbf 8356 18bf d726 4abf e8dd b7be
00000060: b6df 54bf fceb 43bf 300d a4be 4ec6 e3bd
00000070: 40bc 82be f9c2 003e 2a86 18be fdd5 fd3e
00000080: c710 1f3f 41d1 093f f664 283f 01d9 a1bd
00000090: 67e7 913f 6415 d23f 2de8 2a3f a960 043f
000000a0: 210b e3be 4f5e 3b3f f440 393e 2637 5a3e
000000b0: b709 20be 8979 9dbf 783f 23bf f72a 2fbf
000000c0: 1c3d 07bf 473b 08bf b813 00bf 85e7 4dbe
000000d0: f3ae 84be 6074 96bd a0cf 49bf ba03 3d3f
000000e0: f219 3b3f c890 733f 945c 893f cdf5 fcbe
000000f0: a1cd 063f dfc6 4b3f 25cf 8a3f b3c2 343f
00000100: 1d6a 16bf 4bad 77bd 2d2a 303f 97d1 cf3e
00000110: bb4d a23e ee33 1bbf bc2e 07bf 9dac 79be
00000120: f237 debe 5f16 edbe 3772 5bbf d45f fa3e
00000130: 3476 0f3f d9c2 1f3f 473e fe3e 43cf 143f
00000140: dec5 463e 0185 513d 0c1d b7be a316 51be
00000150: e54f 12be 0a00 10bf 6adf b2bf 11e9 87bf
00000160: 492f 7cbf 0869 33bf cf46 5ebf 0fa1 30bf
00000170: 2805 5abe bdd7 a8bd 3c78 11bf f1a1 28bc
00000180: e0f9 363f da3b 3e3f b34a 9b3e a7c3 0bbe
00000190: cd45 3a3f 0a60 8c3f 3e88 023f 3ed1 213f
000001a0: a658 483f d129 863e c6e6 c8be 68b8 12bf
000001b0: 3e87 31bf 54db a9be a7e8 25be 32cb 08bf
000001c0: 191b 0bbf f040 fbbe 2ef1 b1be 4222 d03e
000001d0: a12a bbbe 1b8e 65bf 29ed cbbe 0f2f 8ebe
000001e0: 288e 503f df53 4d3d d7cf adbe bc9f 363e
000001f0: b861 fa3e bc43 a93e 754b ff3e 8379 c7bd
00000200: 95f5 4dbf 76a8 11bf 6f06 5d3e f77e 993c
00000210: 2dd6 03bf 6739 97bf f8ed f73d 00a1 7bbd
00000220: 203a dcbd 89ef 4abf fafd 3fbf dce0 153f
00000230: a33a 963e 953f c2be 5d50 90bf 2e67 24be
00000240: 3250 b43d c004 373f d25e bcbe 4d3c 9ebf
00000250: c4f1 f8be 1771 af3e

conv1.0.bias f4 [6]
-0.73087466 -0.81568605 -0.75423515 0.007824437 -0.070495225 -0.45946896
00000000: 9a1a 3bbf cdd0 50bf 8e15 41bf 1132 003c
00000010: cd5f 90bd 843f ebbe

conv2.0.weight f4 [16, 6, 5, 5]
0.20256984 0.2960144 0.48556772 0.21409246 -0.25430775 0.43116742 0.6014022 0.17722937
-0.1949009 -0.45360616 0.4667684 0.24460332 -0.4764012 -0.7106436 0.072793044 0.20377126
0.06572639 -0.85891175 -0.23356082 0.59942627 -0.02615388 -0.3000752 -0.7504117 0.008629943
0.39535677 0.15726656 0.38181373 0.42894325 0.079572804 -0.21467647 0.2420915 0.36590412
0.009441554 -0.43594682 -0.18845588 0.33686858 -0.0148268305 -0.7104603 -0.38851345 0.41943875
0.047149368 0.01005734 -0.71361643 0.04793185 0.5610975 0.032757957 -0.26900467 -0.4210416
0.250797 0.40294668 0.36207974 0.352478 0.48630387 0.24877568 -0.12809047 0.46203223
0.55552214 0.16402636 -0.38894373 -0.27401814 0.30686432 0.05671779 -0.63788086 -0.81087726
0.25151628 0.15350613 0.11834846 -0.669565 -0.3707747 0.43823782 -0.059955243 -0.07523768
-0.63426906 0.06066874 0.49165598 -0.28654194 -0.3897718 -0.42453948 0.015646711 0.13021153
-0.34348893 -0.21824405 0.1389607 0.3309599 0.041211214 -0.26808208 0.09834111 0.24608956
-0.01964443 -0.6982446 -0.19699278 -0.037056647 0.012022602 -0.39219388 -0.88295174 -0.26451272
0.00067432085 -0.18871306 -0.6546289 -0.9760022 -0.33521086 -0.34566048 -0.24063377 -0.07402343
0.01630839 -0.3134596 -0.12263463 0.25750598 0.28222167 -0.14039324 -0.20206314 0.007641068
0.5578078 0.18698493 -0.5197073 -0.100941256 0.1423411 0.42070875 -0.08319615 -0.29222998
-0.14275905 0.12565015 0.28517938 -0.39359444 -0.31321418 -0.24154471 -0.34066278 -0.35755676
-0.16412657 -0.14355205 -0.18112762 -0.11067418 0.17164414 0.18203633 -0.25099424 -0.04322059
0.13870087 0.6738539 0.2749363 -0.18284678 0.10450391 0.30283114 0.5274165 -0.002460271
-0.18695496 -0.07489982 0.18003368 0.31685382 -0.09515933 0.13085192 0.26996824 0.1446431
-0.24272463 -0.3216322 -0.28808096 0.46259847 0.28004628 0.2389779 0.332856 0.33766672
0.059847146 -0.5578903 -0.6757996 -0.23663981 0.19550622 -0.6563387 -1.3412553 -1.226901
-0.82723933 -0.37960464 0.08659525 0.47120947 0.1308918 -0.14238201 -0.07064153 0.17543729
-0.043271482 -0.16557613 -0.11145107 -0.1031583 0.19809236 0.031382747 0.05867649 0.3366436
0.43416953 -0.30259976 -0.9888809 -0.738748 -0.20912018 0.07111944 -0.48093984 -0.5745693
-0.5734311 -0.7331879 -0.45752412 0.3776466 0.61667097 0.25253478 -0.08034214 -0.110574484
0.2891344 0.12679067 -0.058877062 -0.15124044 -0.1186119 0.3759968 0.18862174 -0.056082703
0.1593367 0.33383572 -0.09714375 -0.5301505 -1.0510656 -0.5184948 -0.07946657 -0.6189121
-0.74586695 -0.82147056 -0.82337844 -0.5380563 0.07039023 0.3666854 0.23355229 -0.13315511
-0.08883793 -0.27210447 -0.26247677 -0.22710179 -0.1941628 -0.1933124 0.038518313 0.053355236
0.081121586 -0.120628566 -0.271286 0.6763642 0.89594775 0.8822601 0.78360593 0.37139636
0.40265444 0.3064729 0.40624848 0.6327414 0.6223421 -0.26555908 -0.4879833 -0.43952185
-0.003522613 0.22918703 -0.13819057 -0.22809689 -0.18958576 -0.31299305 -0.3706921 -0.22844061
00000000: 786e 4f3e 338f 973e 559c f83e 0e3b 5b3e
00000010: a034 82be fac1 dc3e 7ff5 193f 9e7b 353e
00000020: 1a94 47be 113f e8be 45fc ee3e 4b79 7a3e
00000030: dcea f3be bdec 35bf 8514 953d 6aa9 503e
00000040: 8f9b 863d a4e1 5bbf 912a 6fbe 0074 193f
00000050: a940 d6bc 75a3 99be fb1a 40bf 9b64 0d3c
00000060: 346c ca3e 7c0a 213e 177d c33e 739e db3e
00000070: 11f7 a23d 26d4 5bbe d6e6 773e c957 bb3e
00000080: bfb0 1a3c 6c34 dfbe 94fa 40be 0a7a ac3e
00000090: 3cec 72bc bae0 35bf 3ceb c6be adc0 d63e
000000a0: b21f 413d 8bc7 243c 91af 36bf 3054 443d
000000b0: 16a4 0f3f 352d 063d fbba 89be c492 d7be
000000c0: 7768 803e 074f ce3e 8462 b93e ff77 b43e
000000d0: d2fc f83e 0dbf 7e3e 262a 03be 7d8f ec3e
000000e0: b336 0e3f 87f6 273e a223 c7be 1b4c 8cbe
000000f0: 521d 9d3e ea50 683d 294c 23bf a795 4fbf
00000100: bec6 803e b630 1d3e ad60 f23d 9d68 2bbf
00000110: 2ed6 bdbe b560 e03e a193 75bd 3616 9abd
00000120: 755f 22bf c97f 783d 55ba fb3e a0b5 92be
00000130: 2b90 c7be 3d5d d9be 882d 803c 2c56 053e
00000140: c8dd afbe 5e7b 5fbe b74b 0e3e 9373 a93e
00000150: 17cd 283d 0e42 89be 1067 c93d e7fe 7b3e
00000160: 5bed a0bc 28c0 32bf 7ab8 49be b6c8 17bd
00000170: 73fa 443c a3cd c8be 2009 62bf 366e 87be
00000180: e8c4 303a ff3d 41be c295 27bf 48db 79bf
00000190: c2a0 abbe 69fa b0be b368 76be 9999 97bd
000001a0: 2c99 853c c77d a0be dd27 fbbd d3d7 833e
000001b0: 5c7f 903e 3fc3 0fbe a4e9 4ebe ed61 fa3b
000001c0: 7ecc 0e3f fa78 3f3e 8a0b 05bf 4aba cebd
000001d0: dec1 113e 2367 d73e be62 aabd 2b9f 95be
000001e0: 6e2f 12be 6faa 003e 0803 923e 3685 c9be
000001f0: 9c5d a0be 7f57 77be 5a6b aebe ae11 b7be
00000200: cc10 28be 4fff 12be 8579 39be 25a9 e2bd
00000210: 7bc3 2f3e bb67 3a3e 5182 80be 1308 31bd
00000220: 9a07 0e3e b081 2c3f 73c4 8c3e 303c 3bbe
00000230: 2506 d63d af0c 9b3e c504 073f 7f3c 21bb
00000240: 1f71 3fbe 1465 99bd c05a 383e aa3a a23e
00000250: e5e2 c2bd 0cfe 053e 4739 8a3e 521d 143e
00000260: ce8c 78be faac a4be 597f 93be b5d9 ec3e
00000270: 3a62 8f3e 9fb6 743e 1a6c aa3e a7e2 ac3e
00000280: 4822 753d e6d1 0ebf 3401 2dbf b551 72be
00000290: c832 483e d005 28bf 41ae abbf 180b 9dbf
000002a0: f5c5 53bf 8a5b c2be da58 b13d 5e42 f13e
000002b0: 8008 063e 97cc 11be 82ac 90bd d5a5 333e
000002c0: 703d 31bd ca8c 29be 7540 e4bd a944 d3bd
000002d0: b9d8 4a3e 328b 003d c256 703d 8d5c ac3e
000002e0: 784b de3e 5bee 9abe 4c27 7dbf 971e 3dbf
000002f0: 9a23 56be 12a7 913d bf3d f6be f916 13bf
00000300: 61cc 12bf 34b2 3bbf 9a40 eabe e55a c13e
00000310: 26de 1d3f 3d4c 813e 6b8a a4bd e074 e2bd
00000320: 6d09 943e 6ad5 013e 1329 71bd c6de 1abe
00000330: ccea f2bd a782 c03e 0f26 413e fab6 65bd
00000340: 2929 233e 84ec aa3e 4df3 c6bd f1b7 07bf
00000350: 5189 86bf 13bc 04bf 5ebf a2bd 0671 1ebf
00000360: 23f1 3ebf e54b 52bf eec8 52bf 0fbe 09bf
00000370: c128 903d 30be bb3e 5528 6f3e d059 08be
00000380: a9f0 b5bd 4751 8bbe 5b63 86be 5f8d 68be
00000390: 9dd2 46be b0f3 45be 61c5 1d3d 058b 5a3d
000003a0: 1323 a63d 1c0c f7bd 00e6 8abe 3426 2d3f
000003b0: d55c 653f ccdb 613f 669a 483f aa27 be3e
000003c0: b928 ce3e 04ea 9c3e cdff cf3e 57fb 213f
000003d0: d051 1f3f 5cf7 87be f2d8 f9be 0209 e1be
000003e0: a4db 66bb 01b0 6a3e d481 0dbe 3b92 69be
000003f0: c522 42be a040 a0be 5bcb bdbe 56ec 69be

conv2.0.bias f4 [16]
-0.0843273 0.017662836 -0.020296006 0.044597868 -0.08286627 -0.04172694 -0.08059966 0.13076094
-0.11409068 0.040369313 0.062166747 0.0690539 -0.011301016 -0.04029899 -0.0052257595 0.0920832
00000000: cbb3 acbd a7b1 903c cf43 a6bc 41ac 363d
00000010: cab5 a9bd dee9 2abd 6f11 a5bd 32e6 053e
00000020: 60a8 e9bd 4b5a 253d 8fa2 7e3d 226c 8d3d
00000030: e627 39bc 8e10 25bd d93c abbb 1e96 bc3d

fc1.0.weight f4 [120, 400]
0.22201991 0.19125721 -0.93974745 -1.281368 -0.28550825 0.26216793 0.25373247 -0.29764518
-0.34713486 -0.051769193 -0.012492068 -0.29693577 0.011082555 0.06857528 0.12124623 -0.51813596
-0.5992113 -0.00057621195 0.24224606 0.29922035 -0.0544948 -0.10306344 0.095967725 0.22389239
0.03393892 -0.071977474 0.1936625 0.43366477 0.21826419 -0.07646103 -0.25619617 -0.6526262
0.046776403 0.41096503 -0.006028232 -0.08093045 0.2639307 -0.053211562 -0.18168607 -0.5323238
-0.008989893 -0.06291426 -0.21063553 -0.742309 0.017385654 0.22468445 0.13450581 0.01722384
0.16025634 0.009164085 0.19925955 0.1872297 -0.07127431 -0.46871534 -0.13116662 -0.09170328
-0.3283068 -0.091386415 -0.20214361 0.23454836 -0.07183552 -0.105001874 -0.2549057 0.20762834
0.25661635 0.17860645 -0.18050046 0.24089634 -0.22249098 0.066645935 0.12944664 0.032023124
0.15051904 0.22850709 0.14685208 -0.29236442 -0.02633689 0.12337145 0.17774233 0.3715517
-0.20275484 -0.17798494 0.026329545 0.09197452 0.24810147 -0.3151795 -0.18077476 -0.043569088
-0.034638587 -0.37397417 0.23376583 0.09198291 -0.16097048 -0.62839 -0.9998314 0.33702707
0.41772354 -0.13279963 -0.27766752 -0.30574578 -0.41850972 -0.10302147 0.28281605 0.31884655
0.26218575 -0.34424916 -0.35465226 0.048222646 0.08591418 0.005574246 0.17030336 -0.22886388
0.04330043 -0.015153277 -0.09336573 0.3737875 -0.047417466 -0.018483404 -0.10446232 -0.30858663
0.2316073 0.01802166 -0.027009742 -0.23815195 -0.33695188 -0.47064036 -0.23254167 0.21084802
0.25158915 0.32808673 -0.5685456 -0.013974906 0.07852052 0.5489272 -0.100779235 -0.06959566
0.0046167634 0.21520573 0.03943334 -0.20148931 -0.015406709 0.028072992 -0.12879054 -0.1506157
-0.4086307 0.110531144 -0.002380676 -0.12150134 -0.53821427 -0.8981675 0.016117668 -0.006762383
-0.0013231852 -0.016835757 0.09368897 -0.36022606 -0.20397502 -0.4825745 -0.00514092 -0.040641844
-0.27105582 -0.06930551 -0.0009944778 -0.17086053 -0.29614747 -0.16846742 0.3337308 0.5257523
-0.07242773 0.14213191 0.22470692 0.5084262 0.10698669 0.23782475 0.43365481 -0.27627555
-0.32823917 -0.109741434 0.28433183 0.26479465 -0.14071292 -0.105034426 0.20351431 0.54410785
0.91997147 0.014443678 0.22718963 0.45866528 0.73010087 0.40912655 -0.043033555 -0.04238978
-0.08888569 -0.42860967 -0.13351668 0.17651418 -0.014994084 -0.25572175 -0.79850733 -0.2695208
0.22064608 0.20981282 -0.7194131 -0.76549363 0.13548473 0.02821229 -0.11133354 -0.4234548
-0.2715363 0.04403889 0.14579725 0.14448848 -0.047371052 0.2035237 0.13121222 -4.246644e-06
-0.13866861 0.42613876 -0.28586048 0.4630515 -0.11705416 -0.035167955 0.015331578 0.028379764
0.45430505 -0.29119617 -0.14193013 0.32739463 0.40739435 0.33920434 -0.6105759 -0.12634613
0.06610096 0.17490207 0.1442576 -0.3542987 0.11689078 -0.13112934 -0.5831523 -0.3909411
0.16721597 0.14812215 -0.2763794 -0.79282296 -1.1490409 0.17301975 0.16248026 -0.19736125
-0.6743889 -0.8707386 -0.044235736 0.1406744 0.4116714 0.07306368 0.020253567 -0.4880049
00000000: 3059 633e eed8 433e 4a93 70bf de03 a4bf
00000010: 232e 92be e03a 863e 39e9 813e f364 98be
00000020: a9bb b1be ef0b 54bd 88ab 4cbc f707 98be
00000030: 9b93 353c 3271 8c3d f24f f83d 8fa4 04bf
00000040: e965 19bf ee0c 17ba 5a0f 783e 6933 993e
00000050: f035 5fbd ed12 d3bd ba8a c43d 0c44 653e
00000060: 8903 0b3d ed68 93bd 764f 463e 4f09 de3e
00000070: a680 5f3e 9a97 9cbd 252c 83be 8312 27bf
00000080: 9d98 3f3d 026a d23e 7a88 c5bb ddbe a5bd
00000090: ed21 873e 5ef4 59bd ea0b 3abe 5f46 08bf
000000a0: 584a 13bc 31d9 80bd d7b0 57be f607 3ebf
000000b0: 5c6c 8e3c ae13 663e e4bb 093e 0319 8d3c
000000c0: 3d1a 243e f524 163c b20a 4c3e 24b9 3f3e
000000d0: 44f8 91bd 75fb efbe 8b50 06be eece bbbd
000000e0: d417 a8be cd28 bbbd bcfe 4ebe 722d 703e
000000f0: 801e 93bd 390b d7bd 0083 82be 869c 543e
00000100: 3863 833e 9ce4 363e 1dd5 38be 88ad 763e
00000110: add4 63be aa7d 883d a98d 043e ae2a 033d
00000120: aa21 1a3e c3fd 693e 6460 163e cab0 95be
00000130: 76c0 d7bc 2caa fc3d 1602 363e 063c be3e
00000140: f79e 4fbe af41 36be 0fb1 d73c 235d bc3d
00000150: 500e 7e3e 355f a1be 051d 39be 8075 32bd
00000160: 31e1 0dbd 8b79 bfbe 4f60 6f3e 8961 bc3d
00000170: 72d5 24be 2bde 20bf f3f4 7fbf d08e ac3e
00000180: dcdf d53e a0fc 07be 702a 8ebe b68a 9cbe
00000190: e846 d6be ecfc d2bd 44cd 903e db3f a33e
000001a0: 363d 863e 6d41 b0be fb94 b5be 1c85 453d
000001b0: c6f3 af3d 2aa8 b63b 0164 2e3e 4b5b 6abe
000001c0: cb5b 313d 7345 78bc 8836 bfbd 1361 bf3e
000001d0: d138 42bd 826a 97bc 57f0 d5bd 11ff 9dbe
000001e0: 772a 6d3e 29a2 933c 8943 ddbc 1bde 73be
000001f0: f584 acbe c6f7 f0be 671f 6ebe 8be8 573e
00000200: 4bd0 803e fcfa a73e 348c 11bf 01f7 64bc
00000210: 5ecf a03d 7e86 0c3f 5865 cebd 2b88 8ebd
00000220: 3848 973b e45e 5c3e db84 213d 3753 4ebe
00000230: 6c6c 7cbc 55f9 e53c abe1 03be 013b 1abe
00000240: 0b38 d1be 275e e23d 1e05 1cbb b2d5 f8bd
00000250: 69c8 09bf 4eee 65bf 3309 843c fb96 ddbb
00000260: ba6e adba 24eb 89bc 01e0 bf3d 8d6f b8be
00000270: d4de 50be 0114 f7be 2a75 a8bb 1078 26bd
00000280: d4c7 8abe 0cf0 8dbd 2359 82ba 10f6 2ebe
00000290: a4a0 97be b982 2cbe c3de aa3e b497 063f
000002a0: fd54 94bd 078b 113e 9219 663e 3828 023f
000002b0: d61b db3d 5588 733e 0108 de3e fd73 8dbe
000002c0: f70e a8be 1ec0 e0bd f193 913e 2a93 873e
000002d0: 0c17 10be 4a1c d7bd 0e66 503e a74a 0b3f
000002e0: 4083 6b3f 2da5 6c3c 66a4 683e 2dd6 ea3e
000002f0: e4e7 3a3f 0979 d13e f443 30bd e8a0 2dbd
00000300: b309 b6bd ba72 dbbe 99b8 08be 22c0 343e
00000310: bfa9 75bc f6ed 82be fa6a 4cbf a1fe 89be
00000320: 0cf1 613e 2cd9 563e 752b 38bf 64f7 43bf
00000330: 82bc 0a3e 761d e73c d702 e4bd 11cf d8be
00000340: ce06 8bbe 2062 343d e04b 153e caf4 133e
00000350: 2608 42bd 8468 503e 7f5c 063e 657e 8eb6
00000360: 25ff 0dbe dc2e da3e 4e5c 92be 1615 ed3e
00000370: 17ba efbd 460c 10bd 4d31 7b3c ae7c e83c
00000380: ac9a e83e aa17 95be 2256 11be 45a0 a73e
00000390: fe95 d03e 31ac ad3e b44e 1cbf e160 01be
000003a0: f15f 873d 8719 333e 44b8 133e a466 b5be
000003b0: 6f64 ef3d c546 06be 7849 15bf 6f29 c8be
000003c0: aa3a 2b3e 55ad 173e 9a81 8dbe 72f6 4abf
000003d0: c613 93bf 172c 313e 3a61 263e 1119 4abe
000003e0: c0a4 2cbf bae8 5ebf 8830 35bd f30c 103e
000003f0: 98c6 d23e 69a2 953d cfea a53c c7db f9be

fc1.0.bias f4 [120]
0.013970145 -0.011229162 -0.05583027 0.065746196 0.0066968985 -0.02241779 -0.07218952 -0.11490355
-0.032877363 0.020217273 -0.097817264 -0.00043553326 0.039469562 -0.0025421244 0.12865864 -0.0119282305
-0.014967452 0.08031378 0.07957367 0.018771892 0.030841433 0.054428957 0.07958777 -0.08666966
0.09309548 -0.032879017 -0.14119913 0.016221743 0.007924512 0.03432542 -0.08270669 -0.019130167
-0.04742237 -0.072210304 0.056548804 -0.034397937 0.11808764 -0.08622796 0.07640712 -0.117315084
-0.0485076 -0.05070434 -0.122367084 -0.11732505 0.022567643 -0.1312329 0.016916048 -0.03381322
-0.07707681 0.015302758 -0.08362008 -0.08989687 0.062591225 -0.060552523 0.06580359 -0.08694652
0.08618292 -0.1272295 -0.043858405 -0.021299308 0.019843634 -0.036610596 0.0108486945 -0.16219342
0.033974014 -0.05007708 0.029468045 -0.1272118 0.08360341 -0.11790127 -0.02051665 -0.11567614
-0.04603085 -0.0114536695 -0.016796784 -0.1367612 0.043760814 0.012090865 0.06356168 -0.0067648133
0.008712484 0.09163832 -0.025916733 -0.05949469 -0.02605298 0.011980697 -0.0025080207 0.031330448
-0.018989066 0.010211097 0.09314319 -0.028588213 0.017703678 0.11505284 -0.020113224 -0.0029641425
-0.015694307 -0.0836008 -0.072705775 -0.07744577 -0.11611883 0.027439862 0.061320446 0.057790376
-0.13330959 0.044009827 0.047249053 -0.077112846 0.04487386 -0.051172417 -0.07920506 -0.002404212
-0.017094953 -0.0549719 -0.012272709 0.041406713 0.031990994 0.17732368 -0.085696466 0.031391535
00000000: 09e3 643c 85fa 37bc 48ae 64bd f1a5 863d
00000010: a871 db3b 83a5 b7bc 19d8 93bd 8d52 ebbd
00000020: 6aaa 06bd b29e a53c 6b54 c8bd 4958 e4b9
00000030: d6aa 213d c599 26bb 17bf 033e a06e 43bc
00000040: 0b3a 75bc 8d7b a43d 85f7 a23d 83c7 993c
00000050: 2ca7 fc3c e6f0 5e3d eafe a23d dd7f b1bd
00000060: d8a8 be3d 26ac 06bd 8196 10be 76e3 843c
00000070: d0d5 013c d098 0c3d 2062 a9bd deb6 9cbc
00000080: f63d 42bd ffe2 93bd b89f 673d dae4 0cbd
00000090: efd7 f13d 4998 b0bd 567b 9c3d e442 f0bd
000000a0: e8af 46bd 5baf 4fbd 989b fabd 1e48 f0bd
000000b0: c7df b83c eb61 06be 8693 8a3c bb7f 0abd
000000c0: 72da 9dbd 6bb8 7a3c 0141 abbd da1b b8bd
000000d0: d42f 803d ec05 78bd 08c4 863d 0411 b2bd
000000e0: ac80 b03d 7348 02be dfa4 33bd e37b aebc
000000f0: 1e8f a23c fef4 15bd b9be 313c 0816 26be
00000100: 5628 0b3d a01d 4dbd f866 f13c cf43 02be
00000110: 4438 ab3d 3976 f1bd 8912 a8bc 9de7 ecbd
00000120: d88a 3cbd 2ca8 3bbc 6999 89bc 210b 0cbe
00000130: 8a3e 333d c318 463c a02c 823d 5eab ddbb
00000140: cebe 0e3c dfac bb3d 544f d4bc b4b0 73bd
00000150: 0f6d d5bc af4a 443c 9b5d 24bb 5b54 003d
00000160: f58e 9bbc 724c 273c dbc1 be3d d431 eabc
00000170: 4e07 913c d3a0 eb3d 7dc4 a4bc 0f42 42bb
00000180: 5991 80bc e536 abbd c4e6 94bd e39b 9ebd
00000190: b6cf edbd 90c9 e03c 262b 7b3d 9ab5 6c3d
000001a0: 4f82 08be a643 343d 3988 413d 57ed 9dbd
000001b0: a7cd 373d 2b9a 51bd 4336 a2bd fc8f 1dbb
000001c0: b70a 8cbc 372a 61bd 7913 49bc 169a 293d
000001d0: fd08 033d 5794 353e a181 afbd 6994 003d

fc2.0.weight f4 [84, 120]
0.022075105 0.53138566 0.39398164 -0.04927534 -0.048088692 0.7151338 -0.36775103 0.056092467
-0.17356184 0.34793708 -0.48491976 -0.16173646 -0.5789415 0.27720016 -0.1900446 -0.49388057
0.16498548 -0.102895394 0.09275026 0.064470425 0.32726878 -0.28687435 0.094740026 -0.7738808
-0.38176864 0.66796106 0.32254067 0.029561384 -0.010843335 0.51317066 -0.007763218 0.33292952
-0.07163581 0.008295501 -0.42878467 0.49715453 0.1398578 0.036255293 -0.13233918 -0.21192622
-0.20090738 0.012586116 -0.3183444 -0.09071158 -0.418199 -0.28744942 0.39199245 0.39038083
0.11270811 -0.13382055 -0.1538208 -0.5179009 0.25806147 -1.0186093 -0.3593219 -0.3314003
0.016099803 -0.40739632 0.2796489 0.065223396 0.37225863 -0.22501022 0.46356693 -0.56629866
0.1894038 -0.15342167 0.30298245 -0.05768772 0.16810085 -0.3363165 -0.01584601 0.51416457
-0.16085477 -0.08011144 0.11057391 -0.76465285 -0.22635584 0.3931087 0.30893987 0.35685194
0.22035205 -0.25716788 -0.080284335 0.3854866 0.33877072 0.071408615 -0.60939217 0.54808575
-0.22015242 0.36157116 0.47162905 0.24168928 0.19203562 -0.28078142 -0.12019575 0.19848172
-0.36228308 -0.4064918 -0.2832702 0.21713816 -0.611316 0.7624658 0.12199932 -0.4981405
-0.57461363 -0.38780245 -0.028710028 -0.051336236 0.28766227 0.34859255 0.39253488 -0.025735844
-0.3152875 0.5398763 0.2324287 0.08565189 -0.07525478 -0.02135903 0.18396118 0.08530202
-0.1514597 -0.11041704 -0.25083923 -0.10064121 -0.4826921 -0.46175367 -0.04716268 0.12421259
0.2000165 -0.5295641 0.17254546 0.3119931 -0.25555992 -0.5009302 -0.07780531 -0.25432482
0.29289773 -0.22919631 0.29502684 0.19593787 -0.20450215 0.54317856 -0.41027936 0.2595113
-0.27512208 -0.034580473 0.11683309 0.8426588 0.07720338 -0.16156049 -0.4133281 -0.84683263
-0.32232988 -0.017583443 0.0038941468 0.40865135 0.38029596 0.1663655 0.06121936 -0.3434269
0.14663403 0.55346584 -0.16302179 0.56369513 0.0016708672 0.3907475 -0.025744079 -0.40712
-0.16052519 -0.17596848 0.15264148 0.26597628 0.004713134 0.84484506 0.4403478 0.16016364
-0.24707073 0.39666122 -0.38636163 0.104994155 0.013732012 0.29842788 0.37616915 -0.45154598
0.2799628 -0.20660068 -0.24104063 -0.06673134 0.060163174 0.0012250905 0.4765637 -0.47051948
-0.14974573 -0.1926301 -0.3088621 -0.056366675 -0.5406537 0.008024608 -0.0049872007 0.49901336
-0.61384606 0.0573549 0.098984 -0.31475648 -0.4421655 -0.027982123 0.09717293 -0.44010186
0.2696651 -0.43915716 0.21070804 -0.20802805 0.2966995 0.41657254 -0.43832752 0.2000323
0.68106556 0.6484007 0.024412554 -0.80747 0.15153572 -0.10329945 0.19527307 0.34937394
0.19084541 -0.4774531 -0.11785818 -0.712663 0.402155 0.7179785 -0.16391219 -0.3419053
0.4940893 -0.2311676 0.43699855 0.44388565 -0.014707288 0.22789341 -0.87683815 -0.06779109
0.9008067 -0.012517827 0.21024989 0.3271796 0.39580262 0.2888803 -0.25398928 -0.45773846
0.012641862 0.37474623 0.23972747 -0.015845483 -0.20161782 0.024113342 -0.14054334 -0.25689408
00000000: dad6 b43c e408 083f f6b7 c93e f0d4 49bd
00000010: a6f8 44bd 0213 373f dd49 bcbe 37c1 653d
00000020: 32ba 31be cf24 b23e 6747 f8be 3e9e 25be
00000030: 8335 14bf 2eed 8d3e 0d9b 42be eadd fcbe
00000040: f4f1 283e d2ba d2bd d9f3 bd3d 1209 843d
00000050: c68f a73e 32e1 92be 0f07 c23d 0d1d 46bf
00000060: 2e77 c3be 7fff 2a3f 0d24 a53e b72a f23c
00000070: 3ea8 31bc 275f 033f 9862 febb bd75 aa3e
00000080: ccb5 92bd dae9 073c aa89 dbbe 0a8b fe3e
00000090: e236 0f3e 6e80 143d ec83 07be 3003 59be
000000a0: aaba 4dbe ff35 4e3c 0afe a2be fec6 b9bd
000000b0: 2e1e d6be 922c 93be 3cb3 c83e ffdf c73e
000000c0: 82d3 e63d 4108 09be 3383 1dbe 2795 04bf
000000d0: a220 843e ca61 82bf 0af9 b7be 4dad a9be
000000e0: bce3 833c 4096 d0be 242e 8f3e d893 853d
000000f0: af98 be3e 1469 66be a558 ed3e f3f8 10bf
00000100: 12f3 413e 921a 1dbe 8420 9b3e f549 6cbd
00000110: a122 2c3e ad31 acbe 7ecf 81bc 4aa0 033f
00000120: 1db7 24be 7711 a4bd 9374 e23d 4ac0 43bf
00000130: d3c9 67be 8b45 c93e 5e2d 9e3e 4cb5 b63e
00000140: f8a3 613e 82ab 83be 1d6c a4bd 805e c53e
00000150: 5b73 ad3e ae3e 923d 2001 1cbf 594f 0c3f
00000160: a36f 61be db1f b93e 5d79 f13e 657d 773e
00000170: fca4 443e 95c2 8fbe 3029 f6bd cb3e 4b3e
00000180: 2b7d b9be b11f d0be cb08 91be 7759 5e3e
00000190: 357f 1cbf f530 433f c8da f93d 460c ffbe
000001a0: e119 13bf 0b8e c6be 4b31 ebbc f245 52bd
000001b0: 7848 933e b97a b23e 55fa c83e fad3 d2bc
000001c0: 5d6d a1be 5535 0a3f ca01 6e3e 426a af3d
000001d0: 2e1f 9abd 22f9 aebc 5260 3c3e d3b2 ae3d
000001e0: 4018 1bbe 5422 e2bd 006e 80be fb1c cebd
000001f0: 6b23 f7be fa6a ecbe a82d 41bd 2c63 fe3d
00000200: 20d1 4c3e 8391 07bf c2af 303e 8fbd 9f3e
00000210: c0d8 82be f63c 00bf 6458 9fbd dd36 82be
00000220: b1f6 953e 70b2 6abe c20d 973e f0a3 483e
00000230: 0369 51be c00d 0b3f 2310 d2be aade 843e
00000240: cddc 8cbe 41a4 0dbd 3046 ef3d 7db8 573f
00000250: ce1c 9e3d 1d70 25be be9f d3be 06ca 58bf
00000260: 6c08 a5be 270b 90bc f134 7f3b c03a d13e
00000270: 27b6 c23e b85b 2a3e 27c1 7a3d a7d5 afbe
00000280: 3b27 163e f0af 0d3f 2fef 26be 534e 103f
00000290: 0001 db3a 0e10 c83e 3fe5 d2bc 0872 d0be
000002a0: b760 24be 1531 34be 0c4e 1c3e 0b2e 883e
000002b0: a270 9a3b c447 583f 4475 e13e f001 243e
000002c0: 1c00 7dbe 2e17 cb3e 31d1 c5be 2d07 d73d
000002d0: 3cfc 603c 8acb 983e 3e99 c03e 0931 e7be
000002e0: 4957 8f3e 218f 53be 5bd3 76be 71aa 88bd
000002f0: a96d 763d 3793 a03a 2800 f43e eee7 f0be
00000300: f256 19be d340 45be 2c23 9ebe bee0 66bd
00000310: 4868 0abf a579 033c ac6b a3bb ae7e ff3e
00000320: 0425 1dbf f9ec 6a3d 20b8 ca3d c327 a1be
00000330: 8463 e2be c43a e5bc 9a02 c73d 0855 e1be
00000340: 8b11 8a3e 35d9 e0be d9c3 573e 4e05 55be
00000350: ffe8 973e ff48 d53e 776c e0be 44d5 4c3e
00000360: 505a 2e3f 97fd 253f d6fc c73c 5bb6 4ebf
00000370: 2e2c 1b3e a98e d3bd aaf5 473e 24e1 b23e
00000380: fb6c 433e bc74 f4be a15f f1bd 1571 36bf
00000390: 43e7 cd3e 70cd 373f 99d8 27be 360e afbe
000003a0: 46f9 fc3e 33b7 6cbe 46be df3e fb44 e33e
000003b0: d6f6 70bc e45c 693e 7778 60bf 0ed6 8abd
000003c0: 459b 663f 9217 4dbc bf4b 573e 1684 a73e
000003d0: a4a6 ca3e 1ee8 933e e20a 82be b25c eabe
000003e0: d01f 4f3c bdde bf3e 1e7b 753e 63ce 81bc
000003f0: e774 4ebe 5889 c53c 98ea 0fbe 9f87 83be

fc2.0.bias f4 [84]
0.08585313 0.05411124 0.009871414 0.06378515 -0.027546449 -0.016732346 -0.023385506 -0.037168458
0.060825057 -0.085892215 0.010799638 0.0405436 -0.09557595 -0.008514415 -0.050136983 -0.050925866
-0.06599868 0.01729609 -0.09186573 0.03937089 0.12849753 0.0066267555 0.068218954 -0.02116298
0.029536452 0.05112086 0.019868843 -0.0458518 0.03696901 0.03471622 -0.101735085 -0.034894798
-0.056572486 -0.014928078 0.0674214 -0.09838349 -0.038696717 0.092439435 -0.073616296 -0.045707535
0.06411105 -0.037565332 -0.020850444 -0.030139992 -0.021060288 0.05561654 0.049817104 -0.01022196
0.04710162 -0.07316144 0.033302113 -0.05093104 -0.033271547 -0.052723203 -0.12762935 0.028633486
-0.066799596 -0.037001498 0.045018755 0.030678075 0.056407567 0.06806505 -0.07559792 0.051837068
-0.03842883 0.10350645 -0.08697476 0.0013218462 -0.008894622 0.04847994 0.010737237 0.03136054
-0.04599346 -0.02581431 0.14129283 -0.0003881001 0.024559641 0.09463887 0.046310898 0.052007273
-0.03707685 0.0037899213 0.07968665 -0.03759651
00000000: c4d3 af3d bfa3 5d3d b6bb 213c caa1 823d
00000010: 17a9 e1bc 4612 89bc f692 bfbc f43d 18bd
00000020: b223 793d 42e8 afbd f7f0 303c 0c11 263d
00000030: 53bd c3bd 0b80 0bbc 705c 4dbd a497 50bd
00000040: 512a 87bd 88b0 8d3c 1a24 bcbd 5f43 213d
00000050: db94 033e 4125 d93b 61b6 8b3d fc5d adbc
00000060: 6ef6 f13c 1b64 513d fcc3 a23c 19cf 3bbd
00000070: d16c 173d 9832 0e3d 7c5a d0bd d9ed 0ebd
00000080: 8db8 67bd e694 74bc 3b14 8a3d 497d c9bd
00000090: 7380 1ebd e350 bd3d 24c4 96bd d337 3bbd
000000a0: a74c 833d 1bde 19bd 8dce aabc 25e8 f6bc
000000b0: a086 acbc 2bce 633d 050d 4c3d 027a 27bc
000000c0: a1ed 403d aad5 95bd cc67 083d 119d 50bd
000000d0: bf47 08bd 49f4 57bd 45b1 02be c690 ea3c
000000e0: 3ace 88bd e28e 17bd 9665 383d 9650 fb3c
000000f0: 9f0b 673d b065 8b3d 15d3 9abd 1b53 543d
00000100: 8d67 1dbd 31fb d33d d31f b2bd cc41 ad3a
00000110: c0ba 11bc e792 463d 3ceb 2f3c e973 003d
00000120: a363 3cbd 8878 d3bc 11af 103e ea79 cbb9
00000130: 4d31 c93c 06d2 c13d 7fb0 3d3d 9405 553d
00000140: e5dd 17bd 5460 783b c132 a33d ccfe 19bd

fc3.weight f4 [10, 84]
0.281273 0.10218883 0.31546524 -0.7905431 -0.418631 -0.04180706 -0.85975605 -0.68577135
-0.27141222 0.2569834 0.039255403 -0.3670168 0.35972574 -0.9655459 -0.78425044 -0.37122262
0.25870165 0.19625033 -0.4528601 0.113807224 -0.061124414 -0.58245224 0.3063757 0.18321148
-0.5935755 -0.9545165 -0.23875622 -0.7855298 -0.52014804 0.23465595 0.39769897 -0.81144094
0.35248786 0.45286125 -1.1606225 -0.6853777 0.40303248 -0.667495 0.32315227 -0.23048891
-1.1033286 0.4376072 0.34467143 0.29911935 -0.76312166 -0.8007549 -0.54143363 0.1416339
0.64021033 0.18272099 -0.1882723 -0.15971842 0.00974834 -0.6391295 -0.23031567 0.7086315
-0.5121619 0.22907165 -0.6110112 -0.54039747 -0.2460072 -0.3503973 0.5852076 -0.58822596
0.058311634 -0.7178901 -0.97972673 0.386029 0.4601806 -0.016898448 0.21316092 0.60740125
0.031716675 0.3491367 0.35590333 0.14912832 0.45999226 -0.3531555 -0.009662833 0.3791147
0.33084285 -0.9123359 -0.8482035 -1.0429026 -0.7275811 0.32934323 -0.49734506 -0.6070096
0.27461356 0.45197746 0.39790645 -0.64536756 0.48492715 -0.5819823 -0.47942483 0.5043252
0.21491627 0.30470508 0.3616832 -0.14273328 -0.490333 0.1137893 -0.15553966 0.079964496
0.3941816 0.40154967 0.3248751 -0.6113532 0.34917066 0.32004452 0.42806113 0.30303016
0.21430501 -0.59575325 0.22976357 -0.73303574 -0.44436094 0.22875221 0.14797221 0.10964058
-0.61392945 0.17481266 -0.9720937 0.53706264 -0.4680584 0.20089 -0.7490473 0.057086594
-0.379787 -0.043684483 0.32172292 -0.6276343 0.41265705 0.58832955 -0.71259266 0.46145305
-1.089005 0.2558583 -0.28765392 0.08407673 0.4286939 -0.4853539 -0.6436881 0.60926765
-0.3520186 -0.7861464 -0.5418098 0.41129804 0.41635388 0.38837332 -0.5599526 -0.4837236
-0.32514068 -0.5654951 -0.6514017 -0.30063733 -1.1911075 0.37089968 0.24811657 -0.601179
-0.5953588 0.6582658 -0.7059609 -0.14996123 -0.40228674 0.11245895 -0.03688766 -0.0048530763
-0.8211731 0.1920539 0.14013802 -0.4490007 0.51051515 0.19827913 -0.6994494 -0.4382737
0.17982388 0.1506144 0.48216859 -0.45192415 -0.4435172 -0.078966126 0.3338885 -0.74211246
0.4894427 0.1403711 0.29303557 0.22595859 -0.4319196 0.5527894 0.3440223 -0.5162
0.22677504 0.12846893 -0.6807066 0.36349824 -0.1338317 -0.6314175 -0.100788146 -0.24078852
-0.86083484 -0.23112366 -0.79805917 0.36677608 0.272558 0.19592932 0.80063087 -0.036187835
-0.3240034 0.32329684 0.16516966 -0.82435393 0.9708168 -0.043120667 -0.66847557 -0.4809198
0.513692 -0.1848016 -0.33462355 -0.50334793 -0.17003693 0.4970725 -0.4718691 0.46445844
-0.14952989 0.27004194 -0.57945585 0.17588626 -0.103759676 0.3317878 0.15554774 -1.0282748
-0.35218465 -0.09834004 0.35836813 0.23021956 0.54454154 0.18319742 -0.25408542 0.4974424
0.09741212 0.43308812 -1.0585538 -1.0624596 0.21382406 -0.783274 -0.7730441 -0.6771839
-0.39403105 0.34501916 0.0217691 -0.5203323 -0.42330632 -0.020405872 0.40464905 -0.04049694
00000000: 0403 903e 6148 d13d a984 a13e 0861 4abf
00000010: cd56 d6be e13d 2bbd f918 5cbf b68e 2fbf
00000020: 8bf6 8abe 5493 833e 46ca 203d a0e9 bbbe
00000030: f92d b83e 042e 77bf a3c4 48bf e410 bebe
00000040: 8b74 843e d9f5 483e 47dd e7be c313 e93d
00000050: 985d 7abd 971b 15bf 47dd 9c3e ca9b 3b3e
00000060: 90f4 17bf 315b 74bf 837c 74be 7b18 49bf
00000070: 6c28 05bf a649 703e 339f cb3e 98ba 4fbf
00000080: 4a79 b43e 6edd e73e 478f 94bf ea74 2fbf
00000090: 465a ce3e f4e0 2abf 3774 a53e 4905 6cbe
000000a0: df39 8dbf 0d0e e03e c678 b03e 2c26 993e
000000b0: f15b 43bf 46fe 4cbf 659b 0abf 7a08 113e
000000c0: d3e4 233f 361b 3b3e 74ca 40be 3a8d 23be
000000d0: 80b7 1f3c fe9d 23bf dfd7 6bbe e068 353f
000000e0: 0b1d 03bf c291 6a3e 3b6b 1cbf 7d57 0abf
000000f0: 50e9 7bbe 4667 b3be 2ad0 153f fa95 16bf
00000100: 2ed8 6e3d a5c7 37bf 5fcf 7abf 98a5 c53e
00000110: cb9c eb3e 9d6e 8abc db46 5a3e a67e 1b3f
00000120: 58e9 013d 0cc2 b23e f638 b63e 18b5 183e
00000130: 1b84 eb3e ccd0 b4be dc50 1ebc 521b c23e
00000140: 3c64 a93e d88e 69bf dd23 59bf d57d 85bf
00000150: c142 3abf ad9f a83e 03a4 febe fb64 1bbf
00000160: 269a 8c3e 9769 e73e 65ba cb3e cf36 25bf
00000170: 5f48 f83e cbfc 14bf 2c77 f5be 751b 013f
00000180: 0313 5c3e 4e02 9c3e 8a2e b93e ac28 12be
00000190: ed0c fbbe 5d0a e93d ca45 1fbe 6dc4 a33d
000001a0: 2cd2 c93e eb97 cd3e 0756 a63e a581 1cbf
000001b0: 7fc6 b23e e0dc a33e d42a db3e c526 9b3e
000001c0: c672 5b3e 4983 18bf 2447 6b3e 3ba8 3bbf
000001d0: 4783 e3be 053e 6a3e 0786 173e 3e8b e03d
000001e0: 7b2a 1dbf 1702 333e 22db 78bf f07c 093f
000001f0: 5aa5 efbe 1cb6 4d3e 90c1 3fbf a2d3 693d
00000200: 7173 c2be 80ee 32bd deb8 a43e a4ac 20bf
00000210: c947 d33e c49c 163f 796c 36bf 9343 ec3e
00000220: 8464 8bbf dcff 823e 6047 93be 6c30 ac3d
00000230: c47d db3e 4e80 f8be bec8 24bf f7f8 1b3f
00000240: c83b b4be e440 49bf 0cb4 0abf a895 d23e
00000250: 562c d53e ded8 c63e 0e59 0fbf 9faa f7be
00000260: d778 a6be 49c4 10bf 43c2 26bf 23ed 99be
00000270: 3676 98bf 90e6 bd3e 4512 7e3e dee6 19bf
00000280: 6f69 18bf 1c84 283f dbb9 34bf 708f 19be
00000290: 87f8 cdbe e150 e63d 8417 17bd 8e06 9fbb
000002a0: 6638 52bf c7a9 443e 5780 0f3e 6be3 e5be
000002b0: 1fb1 023f af09 4b3e 1e0f 33bf 6965 e0be
000002c0: c023 383e a93a 1a3e cdde f63e 9a62 e7be
000002d0: b014 e3be feb8 a1bd 6ff3 aa3e 15fb 3dbf
000002e0: 3c98 fa3e 71bd 0f3e c208 963e b061 673e
000002f0: 9124 ddbe 9b83 0d3f b123 b03e af25 04bf
00000300: b737 683e 5c8d 033e ca42 2ebf 711c ba3e
00000310: 2d0b 09be 94a4 21bf 046a cebd 4491 76be
00000320: ac5f 5cbf aeab 6cbe 9b4d 4cbf 13ca bb3e
00000330: b98c 8b3e b2a1 483e 25f6 4c3f b239 14bd
00000340: c6e3 a5be 2a87 a53e 3c22 293e dc08 53bf
00000350: 7387 783f 4c9f 30bd 3721 2bbf 1f3b f6be
00000360: 5281 033f a13c 3dbe c753 abbe 69db 00bf
00000370: 291e 2ebe 4980 fe3e d498 f1be 7fcd ed3e
00000380: 5d1e 19be f042 8a3e 3857 14bf 871b 343e
00000390: f47f d4bd 17e0 a93e e847 1f3e 829e 83bf
000003a0: 8c51 b4be 8166 c9bd 077c b73e adbe 6b3e
000003b0: 1367 0b3f 1b98 3b3e 7c17 82be c5b0 fe3e
000003c0: 0180 c73d babd dd3e b17e 87bf adfe 87bf
000003d0: b2f4 5a3e a584 48bf 38e6 45bf ed5b 2dbf
000003e0: 70be c9be 5aa6 b03e 1d55 b23c 7f34 05bf
000003f0: 9bbb d8be 372a a7bc 292e cf3e 1fe0 25bd

fc3.bias f4 [10]
-0.076171234 -0.005122618 -0.03673936 0.010149373 -0.069642454 -0.13217042 0.10804515 0.08161475
0.04180631 0.08261919
00000000: aaff 9bbd a2db a7bb 037c 16bd 8e49 263c
00000010: b4a0 8ebd af57 07be c746 dd3d a225 a73d
00000020: 183d 2b3d 4034 a93d
