6_ConvolutionalNeuralNetwork/LeNet/model0.pth (torch, 250410 bytes, 10 tensors)

conv1.0.weight f4 [6, 1, 5, 5]
-0.23909937 0.20649885 0.17463188 0.3150309 0.06547074 0.24333006 0.6405161 0.6490971
0.5596617 0.416484 0.016148271 0.42617917 0.49772763 0.4899466 0.092322096 -0.1282212
0.35037166 0.027706154 0.20540783 -0.4404026 -0.30881578 -0.30398673 -0.50968885 -0.39793217
-0.9258555 -0.3872234 -0.25365308 -0.0032873023 -0.008024415 0.30503482 0.23092602 0.32493937
0.4628584 0.5482092 0.45460558 0.31575584 0.816879 1.0627917 0.58340317 0.4960624
0.075644866 0.50567985 0.19448705 0.24497087 -0.16958189 -0.43382925 -0.12618373 -0.106494404
-0.30550042 -0.6444191 -0.33356288 -0.01198637 -0.030136423 0.1904274 0.19773754 0.36534807
0.6230778 0.8458322 0.82397443 0.26730245 0.509708 0.76464 0.71172065 0.34474686
-0.008975076 0.03812015 0.6133346 0.21040621 0.09344605 -0.15296096 0.0030486933 0.10699045
-0.3039765 -0.47845358 -0.7408621 0.5200941 0.33424094 0.4815113 0.43736324 0.36369118
0.1874257 0.03731419 -0.21873373 -0.24004208 -0.40699142 -0.3333129 -0.86284536 -0.5631352
-0.80516297 -0.71005464 -0.49741185 -0.5056491 -0.3162375 -0.11894449 -0.3381003 -0.21703468
-0.08831145 0.19108328 0.18109027 0.0084883785 0.5006811 0.59085757 0.1100885 0.0020303489
-0.081152774 0.264774 -0.26943776 -0.402555 -0.70963544 -0.4829018 0.009543288 -0.38987195
-0.6677552 -0.5265625 -0.032873582 0.2505089 -0.28941047 -0.8812755 -0.3504689 -0.0031194764
0.24988268 -0.078289784 -0.4565587 -0.07379883 0.32428187 0.29421368 0.45353568 0.07460618
-0.40552342 -0.50659555 0.21233533 -0.027526055 -0.5542569 -0.77119327 -0.21898149 0.0932458
-0.25631496 -0.6732302 -0.4472472 0.28100803 0.37992725 -0.39023125 -0.72456783 -0.14222243
-0.10797844 0.41378596 -0.43528566 -0.7759525 -0.3781771 0.2701664
00000000: 77d6 74be 6f74 533e b3d2 323e bb4b a13e
00000010: 8615 863d 842b 793e ddf8 233f 3a2b 263f
00000020: fd45 0f3f 643d d53e 6149 843c 2834 da3e
00000030: 28d6 fe3e 48da fa3e 5e13 bd3d 6b4c 03be
00000040: ea63 b33e 04f8 e23c 6e56 523e 737c e1be
00000050: 1a1d 9ebe 26a4 9bbe f87a 02bf c4bd cbbe
00000060: de04 6dbf 2542 c6be d1de 81be c86f 57bb
00000070: d678 03bc 862d 9c3e df77 6c3e 745e a63e
00000080: c7fb ec3e 7057 0c3f 10c2 e83e c0aa a13e
00000090: fb1e 513f 8f09 883f e959 153f e4fb fd3e
000000a0: b2eb 9a3d 3c74 013f 9d27 473e a5d9 7a3e
000000b0: e0a6 2dbe de1e debe 4f36 01be bd19 dabd
000000c0: 8d6a 9cbe a6f8 24bf c1c8 aabe 7b62 44bc
000000d0: a9e0 f6bc 66ff 423e b67b 4a3e e70e bb3e
000000e0: 0782 1f3f 7688 583f fdef 523f dedb 883e
000000f0: 397c 023f 72bf 433f 5333 363f a982 b03e
00000100: 320c 13bc e023 1c3d 7f03 1d3f ba74 573e
00000110: a560 bf3d cca1 1cbe 96cc 473b cf1d db3d
00000120: cfa2 9bbe def7 f4be 23a9 3dbf e324 053f
00000130: a121 ab3e a688 f63e 13ee df3e bb35 ba3e
00000140: 86ec 3f3e c4d6 183d bcfb 5fbe 97cd 75be
00000150: 2e61 d0be fda7 aabe 6fe3 5cbf a129 10bf
00000160: 291f 4ebf 24c6 35bf c4ac febe 3872 01bf
00000170: e2e9 a1be 2b99 f3bd 7c1b adbe 573e 5ebe
00000180: a2dc b4bd 56ab 433e ba6f 393e d712 0b3c
00000190: a32c 003f 7142 173f 1476 e13d 9a0f 053b
000001a0: 6d33 a6bd 7590 873e bff3 89be b01b cebe
000001b0: abaa 35bf e83e f7be 735b 1c3c 4c9d c7be
000001c0: 01f2 2abf cdcc 06bf 73a6 06bd b442 803e
000001d0: 9c2d 94be 459b 61bf a970 b3be 2170 4cbb
000001e0: 3fe1 7f3e 6556 a0bd 10c2 e9be d723 97bd
000001f0: 4608 a63e 2da3 963e d435 e83e 20cb 983d
00000200: c4a0 cfbe 3fb0 01bf 6f6e 593e 527e e1bc
00000210: c8e3 0dbf ec6c 45bf af3c 60be a7f7 be3d
00000220: b73b 83be d058 2cbf 96fd e4be 49e0 8f3e
00000230: d385 c23e 64cc c7be 477d 39bf c2a2 11be
00000240: cd23 ddbd c1db d33e c3dd debe d3a4 46bf
00000250: 6ea0 c1be 4053 8a3e

conv1.0.bias f4 [6]
-0.5291922 -0.5601807 -0.49637353 0.28154168 0.32659298 0.013120503
00000000: 2479 07bf 0168 0fbf ac24 febe 3b26 903e
00000010: 3237 a73e 61f7 563c

conv2.0.weight f4 [16, 6, 5, 5]
0.26906508 0.27124488 0.32595277 0.045289174 -0.1493595 0.29509354 0.3864695 0.042279515
-0.21052091 -0.3058228 0.31429976 0.18471618 -0.183781 -0.47034785 -0.13762107 0.26839998
0.088338 -0.49575812 -0.2975098 0.2820971 0.09478136 -0.16032921 -0.40024114 -0.10603679
0.2738404 0.22178021 0.30770427 0.27907437 -0.0009845119 -0.059900418 0.14713451 0.23609975
0.07586579 -0.26812938 -0.12007845 0.24118336 0.07845084 -0.31804508 -0.31245932 0.117670916
0.07752675 -0.012339272 -0.37832886 -0.10319879 0.32712036 0.039738536 -0.119977765 -0.25567284
0.032973856 0.2691266 0.26224324 0.26312667 0.33918282 0.10876432 -0.0717821 0.21783735
0.341066 0.16503078 -0.19358508 -0.14009213 0.16534926 0.088132344 -0.25721407 -0.4170574
0.06909068 0.25314796 0.090555936 -0.31044883 -0.28473124 0.21545044 0.06771813 -0.008997451
-0.32541803 -0.0058607915 0.3532912 -0.27705353 -0.2819442 -0.31229478 0.049626473 0.09546139
-0.21585953 -0.1633428 0.094829634 0.23034704 0.083534375 -0.17016761 0.003967135 0.19236578
0.124098144 -0.28483626 -0.13414323 -0.05895778 0.12571041 -0.06955493 -0.40442282 -0.1835229
0.02655267 0.009857871 -0.24956258 -0.54927397 -0.2480628 -0.29151675 -0.17787433 -0.03701079
-0.027797222 -0.15992276 -0.12970999 0.079149865 0.1455011 -0.09557807 -0.18068752 -0.068858266
0.36296055 0.20452301 -0.24717875 -0.10339627 0.16100304 0.31380728 0.013351832 -0.29682595
-0.0446259 0.16501191 0.2112307 -0.114716135 -0.29630232 -0.22923644 -0.29800415 -0.25216085
-0.014093048 -0.1142799 -0.22296405 -0.15757369 0.14713028 0.19024985 -0.15855454 -0.19711728
-0.0036114408 0.4543531 0.18252194 -0.12868102 -0.024470832 0.24314746 0.4353436 0.07604624
-0.2361684 0.019881405 0.28177276 0.24439628 -0.0648274 -0.10179306 0.13154449 0.18840188
0.08219109 0.038134478 0.11190843 0.25958854 0.18981418 0.34757814 0.2358314 0.24283722
-0.02555063 -0.25648737 -0.2752307 -0.27685663 0.01990459 -0.41805544 -0.6692526 -0.70411724
-0.49130982 -0.2211558 -0.07303829 0.1357912 0.014183934 -0.11537807 -0.017360529 0.08885198
0.14753513 0.20322765 0.1329615 0.15347062 0.08066651 0.10702818 0.1363525 0.13768528
0.24114485 -0.18190363 -0.3344433 -0.3483662 -0.18286902 0.027034853 -0.41302785 -0.41911897
-0.3910076 -0.42558664 -0.16704719 0.13864762 0.33058524 0.19811493 -0.06139952 -0.01998307
0.18486436 0.17453769 0.21689953 0.14106676 0.108275235 0.22334217 0.111432284 0.14343013
0.14750169 0.17198835 -0.08269721 -0.17233878 -0.28992084 -0.2579336 -0.08389843 -0.41963768
-0.41185874 -0.40379974 -0.48265636 -0.29830986 0.025662461 0.14427581 0.16318986 -0.077838555
-0.079353385 -0.20247154 -0.2256905 -0.25163668 -0.2717541 -0.19568434 -0.06882482 0.03394059
0.0742086 -0.032994747 -0.07839444 0.35882428 0.5759368 0.57771087 0.59609485 0.19228494
0.2677106 0.2616143 0.3644887 0.43798745 0.29677108 -0.10268652 -0.2776849 -0.37030295
-0.1614929 0.034755263 -0.0969631 -0.2949172 -0.27267236 -0.2447154 -0.27415308 -0.14748178
00000000: e6c2 893e 9ce0 8a3e 48e3 a63e 2481 393d
00000010: b2f1 18be 8016 973e 55df c53e 492d 2d3d
00000020: cb92 57be ce94 9cbe e6eb a03e 3d26 3d3e
00000030: 1631 3cbe 6fd1 f0be 8aec 0cbe b96b 893e
00000040: 8eea b43d 02d4 fdbe 3453 98be 086f 903e
00000050: bb1c c23d 572d 24be 68ec ccbe d129 d9bd
00000060: cf34 8c3e 5a1a 633e 6a8b 9d3e d6e2 8e3e
00000070: bd0a 81ba 245a 75bd 6eaa 163e 22c4 713e
00000080: 865f 9b3d 4148 89be b1eb f5bd c5f8 763e
00000090: d6aa a03d ced6 a2be abfa 9fbe 73fd f03d
000000a0: 58c6 9e3d a82a 4abc 52b4 c1be e359 d3bd
000000b0: 527c a73e e0c4 223d e7b6 f5bd 8de7 82be
000000c0: 980f 073d f6ca 893e bf44 863e 8ab8 863e
000000d0: 5fa9 ad3e d4bf de3d 7e02 93bd c110 5f3e
000000e0: 34a0 ae3e d4fd 283e 2b3b 46be 5074 0fbe
000000f0: 5151 293e bb7e b43d 90b1 83be 8c88 d5be
00000100: 6a7f 8d3d 9c9c 813e 6475 b93d 26f3 9ebe
00000110: 4bc8 91be 0a9f 5c3e ceaf 8a3d 0b6a 13bc
00000120: 319d a6be e20b c0bb 96e2 b43e f6d9 8dbe
00000130: fd5a 90be 1ae5 9fbe 2145 4b3d 4381 c33d
00000140: 480a 5dbe 5643 27be 0a36 c23d 18e0 6b3e
00000150: 1214 ab3d 6b40 2ebe befe 813b 89fb 443e
00000160: 2b27 fe3d 0fd6 91be d85c 09be b77d 71bd
00000170: 3bba 003e d172 8ebd 8210 cfbe 6ded 3bbe
00000180: fc84 d93c e882 213c 558d 7fbe 389d 0cbf
00000190: 2d04 7ebe af41 95be b024 36be a098 17bd
000001a0: 00b7 e3bc cbc2 23be b2d2 04be 5319 a23d
000001b0: 3efe 143e 6fbe c3bd 2606 39be 9005 8dbd
000001c0: f7d5 b93e 7b6e 513e 6d1c 7dbe 6cc1 d3bd
000001d0: fbdd 243e 59ab a03e a4c1 5a3c 92f9 97be
000001e0: a6c9 36bd e2f8 283e dc4c 583e 4bf0 eabd
000001f0: f0b4 97be f5bc 6abe 0094 98be 3a1b 81be
00000200: 87e6 66bc 950b eabd b050 64be ff5a 21be
00000210: 52a9 163e dbd0 423e 1f5c 22be 1dd9 49be
00000220: ecad 6cbb f8a0 e83e 08e7 3a3e f5c4 03be
00000230: 0e77 c8bc a6fb 783e 5be5 de3e 22be 9b3d
00000240: 21d6 71be 54de a23c 8544 903e 0543 7a3e
00000250: 3ac4 84bd e178 d0bd 99b3 063e 6cec 403e
00000260: cd53 a83d e632 1c3d 3f30 e53d cae8 843e
00000270: a65e 423e c3f5 b13e c97d 713e 52aa 783e
00000280: 8e4f d1bc 5052 83be 0aeb 8cbe 27c0 8dbe
00000290: f30e a33c 5d0b d6be 2354 2bbf 0741 34bf
000002a0: f68c fbbe ab76 62be 1995 95bd d90c 0b3e
000002b0: bb63 683c 564b ecbd ab37 8ebc 07f8 b53d
000002c0: 7313 173e e91a 503e 0f27 083e 6727 1d3e
000002d0: 7c34 a53d 9731 db3d fd9f 0b3e 5ffd 0c3e
000002e0: adee 763e f244 3abe 273c abbe 0e5d b2be
000002f0: 0442 3bbe 3278 dd3c 6378 d3be c396 d6be
00000300: 2632 c8be 7ee6 d9be 6b0e 2bbe a4f9 0d3e
00000310: 7842 a93e a4de 4a3e 107e 7bbd 89b3 a3bc
00000320: 154d 3d3e 02ba 323e e91a 5e3e ce73 103e
00000330: 68bf dd3d cfb3 643e 9c36 e43d 59df 123e
00000340: af0a 173e b71d 303e 285d a9bd 9479 30be
00000350: 8170 94be df0f 84be f1d2 abbd c0da d6be
00000360: 26df d2be d7be cebe bc1e f7be 12bc 98be
00000370: 153a d23c 0abd 133e 3e1b 273e d269 9fbd
00000380: 0784 a2bd b354 4fbe 691b 67be 86d6 80be
00000390: 5a23 8bbe 7a61 48be 07f4 8cbd 4a05 0b3d
000003a0: aefa 973d 8025 07bd 448d a0bd d1b7 b73e
000003b0: 9870 133f dce4 133f ac99 183f 58e6 443e
000003c0: 5d11 893e 4ff2 853e 439e ba3e e43f e03e
000003d0: 61f2 973e 4f4d d2bd b72c 8ebe 5998 bdbe
000003e0: 655e 25be 895b 0e3d 9794 c6bd 63ff 96be
000003f0: b69b 8bbe ac96 7abe cb5d 8cbe 7705 17be

conv2.0.bias f4 [16]
-0.069739185 0.034780093 -0.012765529 0.068443775 -0.048244547 -0.04770773 -0.08315679 0.107687175
-0.08991072 0.01111037 0.06169349 0.06826375 0.008499451 0.030159682 -0.014034597 0.05289871
00000000: 6bd3 8ebd 9275 0e3d 8226 51bc 402c 8c3d
00000010: 139c 45bd 2e69 43bd 1b4e aabd 188b dc3d
00000020: 1d23 b8bd 4508 363c 50b2 7c3d ddcd 8b3d
00000030: 4841 0b3c 7011 f73c 5ef1 65bc 51ac 583d

fc1.0.weight f4 [120, 400]
0.09744276 0.06906983 -0.65835667 -0.6356649 -0.118227854 -0.00631884 0.004038978 -0.14819507
-0.1495394 -0.060433522 -0.038741533 -0.09125589 0.19961096 -0.021306455 0.08938353 -0.19801913
-0.17948022 0.12798525 0.04282182 0.108569585 -0.031999975 0.0027867623 -0.008498703 0.048060253
-0.016224856 0.031839095 0.1358101 0.14721231 0.22703478 0.028335283 -0.076301046 -0.12951188
0.23295136 0.24934994 -0.09507514 0.032384932 -0.043252934 0.2414703 0.22353207 -0.031712342
-0.014864303 -0.05252391 0.038751427 -0.24213341 0.012464358 0.08068364 -0.050520387 -0.06715621
-0.06549634 -0.007953663 0.06858627 0.021738302 -0.11059408 -0.26521328 0.13996542 -0.044454712
-0.10184676 -0.16808671 -0.13362643 -0.05907137 0.0111289155 0.0029703958 0.07179339 0.025837272
0.030787023 0.050452676 -0.05183079 0.13605164 -0.091029495 0.059280146 0.049515318 -0.0041681766
0.06498138 0.09917873 0.052979 -0.019776989 0.120688595 0.18720792 0.11998145 0.07272043
0.0439802 -0.045812346 -0.06494426 0.05367243 0.23321046 -0.15448895 -0.09022888 -0.109123245
-0.06948984 -0.23593722 0.02795484 0.037582736 -0.068752035 -0.13360761 -0.2725019 0.10094309
0.17244308 -0.014348285 -0.074806646 -0.029778762 0.019921534 0.08874688 0.26425707 0.20711377
-0.06361014 0.06861832 -0.022002188 0.03351727 0.066133685 0.0131710125 0.043627393 -0.016965495
-0.006529792 -0.042182196 -0.13301554 0.12763244 0.03685998 -0.020744912 -0.04924978 -0.1770759
0.08722758 0.031665947 0.01221131 -0.07408841 -0.03047112 -0.06595557 -0.016384998 0.21697156
0.19218905 0.08210145 -0.09547739 0.1051638 0.30983067 0.3142039 0.27372578 0.10168917
0.06730199 0.06818857 0.08540951 0.069634825 0.017434249 -0.029432492 -0.111649394 -0.07332538
-0.41892874 0.011596319 -0.08066805 -0.067108385 -0.251781 -0.4489627 0.008492397 -0.006932762
-0.037882037 0.03033486 0.054356623 -0.07204291 -0.19477741 -0.44533956 -0.21585365 -0.09494558
-0.07545238 -0.062450383 0.04856241 -0.05959236 0.023578297 -0.036632072 0.04422871 0.24979928
-0.086099744 0.040238414 -0.05300561 0.15708968 0.24416097 0.25402606 0.14935222 -0.047060803
-0.06321069 -0.15328465 -0.08186859 0.021227302 -0.007867757 -0.13285561 0.23762456 0.17783946
0.30903822 0.09267483 0.08519082 0.32156175 0.4911588 0.3703077 -0.009242176 -0.03870358
-0.045197416 -0.19991049 -0.20424868 0.10801852 0.016067402 -0.20841853 -0.23959427 -0.2266583
0.061953362 0.08483148 -0.22331214 -0.24255222 0.07278789 -0.06172999 -0.05289897 -0.32583633
-0.23493794 -0.11713253 0.00817577 0.018934112 0.18980269 -0.025714977 0.08849625 0.075429
-0.096964896 0.3378633 -0.14972433 0.13903616 0.02582085 0.0048153675 0.062179737 0.07337716
0.05438464 -0.08075338 0.058076084 0.29202476 0.15669064 0.03621522 -0.11404535 0.11840401
0.28373817 0.28648272 0.38784477 -0.03121661 0.034497987 0.012097024 0.019372918 -0.11629502
0.052719817 -0.03373669 -0.041488625 -0.16457567 -0.4799015 0.06331154 -0.07053747 -0.14128698
-0.3148014 -0.46071577 0.045209955 0.09405135 0.24062695 0.19017287 -0.107901715 -0.15115584
00000000: 1290 c73d 7c74 8d3d 108a 28bf efba 22bf
00000010: 7221 f2bd 460e cfbb 6759 843b 73c0 17be
00000020: db20 19be 2489 77bd 71af 1ebd 5ee4 babd
00000030: d166 4c3e e08a aebc b60e b73d 87c5 4abe
00000040: aac9 37be 910e 033e ef65 2f3d bb59 de3d
00000050: 6812 03bd 1da2 363b 253e 0bbc d4da 443d
00000060: fde9 84bc b669 023d ce11 0b3e d3be 163e
00000070: ce7b 683e 651f e83c b943 9cbd c39e 04be
00000080: cd8a 6e3e 9755 7f3e c1b6 c2bd 10a6 043d
00000090: fd29 31bd fe43 773e 97e5 643e cde4 01bd
000000a0: 6889 73bc 5023 57bd d1b9 1e3d d2f1 77be
000000b0: 4e37 4c3c 773d a53d 77ee 4ebd 3289 89bd
000000c0: f222 86bd 1550 02bc f576 8c3d 8614 b23c
000000d0: 267f e2bd 09ca 87be 1853 0f3e 2516 36bd
000000e0: 0995 d0bd ec1e 2cbe 5ed5 08be d2f4 71bd
000000f0: 0e56 363c f9aa 423b 6a08 933d b0a8 d33c
00000100: 1135 fc3c 77a7 4e3d 864c 54bd 1f51 0b3e
00000110: ac6d babd bdcf 723d 93d0 4a3d 3395 88bb
00000120: f514 853d 381e cb3d 8200 593d 5a03 a2bc
00000130: 952b f73d 6fb3 3f3e d6b8 f53d 73ee 943d
00000140: 9524 343d baa5 3bbd 7f01 85bd 9fd7 5b3d
00000150: b9ce 6e3e 5a32 1ebe ebc9 b8bd 027c dfbd
00000160: b050 8ebd 8799 71be 8c01 e53c 5bf0 193d
00000170: decd 8cbd 6fd0 08be 5e85 8bbe 40bb ce3d
00000180: eb94 303e 1215 6bbc 3a34 99bd 97f2 f3bc
00000190: 7c32 a33c edc0 b53d b44c 873e a215 543e
000001a0: 0846 82bd c387 8c3d ef3d b4bc 6849 093d
000001b0: 1971 873d 3bcb 573c a3b2 323d 39fb 8abc
000001c0: def7 d5bb 3dc7 2cbd 3a35 08be 14b2 023e
000001d0: 7efa 163d 3cf1 a9bc 23ba 49bd 6253 35be
000001e0: 60a4 b23d 27b4 013d f211 483c aabb 97bd
000001f0: 929e f9bc b713 87bd d539 86bc cb2d 5e3e
00000200: 35cd 443e ce24 a83d a689 c3bd 1e60 d73d
00000210: 20a2 9e3e 55df a03e c925 8c3e 6942 d03d
00000220: a0d5 893d 73a6 8b3d 2eeb ae3d b49c 8e3d
00000230: 45d2 8e3c 691c f1bc 70a8 e4bd 9e2b 96bd
00000240: d47d d6be 7dfe 3d3c 4a35 a5bd 1f70 89bd
00000250: 70e9 80be 70de e5be b223 0b3c 392c e3bb
00000260: 322a 1bbd d080 f83c 0da5 5e3d 3c8b 93bd
00000270: bb73 47be 8c03 e4be bd08 5dbe d472 c2bd
00000280: c786 9abd f9cb 7fbd 61e9 463d 1e17 74bd
00000290: 4627 c13c 830b 16bd 2a29 353d 62cb 7f3e
000002a0: 1055 b0bd 09d1 243d 691c 59bd 1edc 203e
000002b0: 5505 7a3e b40f 823e caef 183e d4c2 40bd
000002c0: 9b74 81bd a7f6 1cbe b8aa a7bd e1e4 ad3c
000002d0: c4e7 00bc 4d0b 08be da53 733e 8c1b 363e
000002e0: 423a 9e3e 4dcc bd3d 8678 ae3d bea3 a43e
000002f0: 2b79 fb3e f998 bd3e 7f6c 17bc a587 1ebd
00000300: ed20 39bd 56b5 4cbe 9126 51be d038 dd3d
00000310: c99f 833c ab6b 55be 3358 75be 1d19 68be
00000320: cfc2 7d3d 21bc ad3d f0ab 64be 9c5f 78be
00000330: d111 953d 96d8 7cbd 97ac 58bd 05d4 a6be
00000340: 9293 70be 2ee3 efbd aaf3 053c b61b 9b3c
00000350: a35b 423e 37a8 d2bc 863d b53d 857a 9a3d
00000360: 8895 c6bd 6bfc ac3e 5651 19be 7f5f 0e3e
00000370: 3f86 d33c 3bca 9d3b 2eb0 7e3d c446 963d
00000380: 6ec2 5e3d 0762 a5bd 30e1 6d3d 4584 953e
00000390: 8373 203e 6956 143d 9c90 e9bd cd7d f23d
000003a0: 2146 913e ddad 923e 9793 c63e fab9 ffbc
000003b0: c34d 0d3d 9932 463c f4b3 9e3c 152c eebd
000003c0: bcf0 573d 7c2f 0abd faef 29bd 8686 28be
000003d0: a6b5 f5be 7ba9 813d f375 90bd 89ad 10be
000003e0: a62d a1be f0e2 ebbe 132e 393d ff9d c03d
000003f0: e966 763e adbc 423e 93fb dcbd 99c8 1abe

fc1.0.bias f4 [120]
0.04647838 -0.0043789092 -0.017441865 0.040558495 0.009821591 0.01595075 -0.05118749 -0.072388895
-0.022331754 0.02867394 -0.049831357 -0.014859456 0.017010631 0.019676412 0.062368125 -0.016052114
-0.007879863 0.044439003 0.078642495 0.017157296 0.0018172513 0.050195035 0.055696227 -0.050272554
0.055934086 -0.035138752 -0.060910676 0.043628294 -0.013972629 0.05643699 -0.030702166 0.031054715
0.018833645 -0.0618227 0.032486 0.012284426 0.03410439 -0.026974894 0.038234975 -0.05876413
-0.0025915639 -0.0043894043 -0.047723852 -0.048706964 0.0350546 -0.064201556 -0.002071687 -0.00574348
-0.0127075985 0.04299471 -0.050009884 -0.048477724 -0.020922668 -0.012141549 0.03563808 -0.015297017
0.05530009 -0.05253667 -0.03859952 -0.033300504 -0.0014387047 0.001983617 0.03707274 -0.0518401
0.01913001 -0.04615138 0.0033219305 -0.013556442 0.036118902 -0.06933487 -0.0251068 -0.07106305
0.015820362 -0.02708016 -0.013297804 -0.040460028 -0.025167216 0.016827468 0.030754512 -0.012073723
-0.0074646315 0.059600443 -0.046327773 0.004229169 -0.012445161 -0.020518843 0.013485973 -0.0035156105
-0.014390624 0.017167712 0.006352589 -0.050615616 0.019691851 0.030431345 0.00686575 0.014260626
-0.011684743 -0.07194852 0.0013686735 -0.031767048 -0.048843905 0.025174187 0.069933355 0.03362501
-0.052239053 0.017270008 0.04336599 -0.055721328 0.036492955 0.047649156 -0.007675552 -0.024813665
0.0127087645 0.0031458351 -0.0038831604 -0.030632965 0.033611167 0.06960744 -0.07458801 0.031019974
00000000: 1d60 3e3d f47c 8fbb 3ee2 8ebc aa20 263d
00000010: bdea 203c 26ab 823c f9a9 51bd a140 94bd
00000020: 15f1 b6bc 9ce5 ea3c f71b 4cbd 1375 73bc
00000030: e159 8b3c 6d30 a13c b875 7f3d b97f 83bc
00000040: 8a1a 01bc ac05 363d 510f a13d 758d 8c3c
00000050: d630 ee3a 4f99 4d3d ba21 643d 98ea 4dbd
00000060: 241b 653d a7ed 0fbd 797d 79bd 95b3 323d
00000070: 74ed 64bc 792a 673d 1c83 fbbc 7566 fe3c
00000080: 0449 9a3c cd39 7dbd 0a10 053d 9e44 493c
00000090: 0bb1 0b3d 74fa dcbc 479c 1c3d a8b2 70bd
000000a0: 3ad7 29bb fed4 8fbb 167a 43bd f480 47bd
000000b0: 6a95 0f3d 1b7c 83bd 24c5 07bb cd33 bcbb
000000c0: 8833 50bc 391b 303d 2ad7 4cbd 9490 46bd
000000d0: 0466 abbc 59ed 46bc 3cf9 113d 57a0 7abc
000000e0: 5982 623d b130 57bd 881a 1ebd 1c66 08bd
000000f0: eb92 bcba 92ff 013b 96d9 173d 4956 54bd
00000100: 8ab6 9c3c 3b09 3dbd bfb4 593b d71b 5ebc
00000110: 6af1 133d 71ff 8dbd c7ac cdbc 8189 91bd
00000120: b499 813c 36d7 ddbc 08df 59bc 6ab9 25bd
00000130: 7a2b cebc c2d9 893c e3f0 fb3c ddd0 45bc
00000140: de99 f4bb 981f 743d 31c2 3dbd d794 8a3b
00000150: cae6 4bbc 2217 a8bc 45f4 5c3c 2866 66bb
00000160: a7c6 6bbc 4da3 8c3c 6129 d03b 5252 4fbd
00000170: ce50 a13c 284b f93c 16fa e03b 67a5 693c
00000180: 5d71 3fbc bf59 93bd 1065 b33a 2a1e 02bd
00000190: 8c10 48bd 193a ce3c 3839 8f3d 61ba 093d
000001a0: 9ef8 55bd d579 8d3c 89a0 313d 0c3c 64bd
000001b0: a379 153d c32b 433d 3283 fbbb 0746 cbbc
000001c0: 6c38 503c 5b2a 4e3b 9f7c 7ebb fcf1 fabc
000001d0: ddab 093d 588e 8e3d 99c1 98bd 9a1d fe3c

fc2.0.weight f4 [84, 120]
0.15713067 0.16863415 0.33140895 -0.031898838 0.019984197 0.2742905 -0.12645078 0.13285145
-0.15916498 0.22143507 -0.3250934 -0.14530507 -0.33829534 0.06284542 -0.15305252 -0.28885433
-0.13139482 -0.017888648 -0.017111309 0.0640506 0.24622309 -0.2777055 0.08791983 -0.5389694
-0.256836 0.36373872 0.22980635 -0.05288386 0.07119137 0.32440302 0.038441423 0.26187056
-0.00887338 0.0026239988 -0.31066522 0.21200424 0.10508802 -0.03374142 0.13837534 -0.14315125
-0.19291888 0.082617104 -0.19548067 -0.10463509 -0.25705576 -0.2821632 0.15929262 0.21384774
0.09255985 0.019712126 -0.04413003 -0.24941783 0.20836446 -0.5357903 -0.25498486 -0.18831268
-0.008898845 -0.14963514 0.08671929 -0.05883165 0.1473838 -0.28423157 0.24049477 -0.20600931
0.07433176 -0.046434205 0.24091224 -0.021897877 0.14305547 -0.0011955417 -0.0240594 0.24685185
-0.17792384 0.098157026 -0.07186908 -0.43104458 -0.097344525 0.39324364 0.26398987 0.13474493
0.2432621 -0.17823938 -0.09613807 0.29792273 0.12188126 -1.2567772e-05 -0.39947894 0.3314889
-0.03420275 0.18908529 0.44533306 0.12642482 0.094407566 -0.21209039 -0.070186816 0.040047962
-0.2750797 -0.20146318 -0.11110179 0.09830612 -0.22230977 0.41585875 0.009694746 -0.17651358
-0.43367636 -0.19563049 0.056461275 -0.059848197 0.06210774 0.15540038 0.33984283 0.08981357
-0.22803691 0.4042908 0.18008918 0.050928432 -0.042037565 -0.01936749 0.07280054 0.11294695
-0.09388328 -0.16430368 -0.18488295 0.02794472 -0.33915988 -0.2718256 -0.077216774 -0.0070315683
0.18163244 -0.15115741 0.10299925 0.2839437 -0.17541564 -0.15376891 -0.08296387 0.06362722
0.110343546 -0.19438848 0.3196369 0.18155368 -0.12696312 0.3644754 -0.33633092 0.19637427
-0.18735778 -0.21071568 0.13537948 0.2901067 0.08431249 -0.094801955 -0.24944504 -0.44522005
-0.18055885 -0.039193757 -0.052427832 0.26430833 0.2986057 0.09226829 0.054803334 -0.22930747
0.14916109 0.19619459 0.026327983 0.41128662 -0.07185187 0.27179146 -0.2084631 -0.3083521
-0.20070219 -0.017683318 -0.2235344 0.1560632 -0.114870824 0.28117895 0.26125842 0.11532038
-0.100077055 0.14957814 -0.24544577 0.033201355 -0.016762048 0.27417353 0.30346236 -0.106994696
0.08366969 -0.17768703 -0.14115013 -0.059611265 0.083712 -0.095144376 0.33912945 -0.09804376
-0.14294772 -0.14641348 -0.15154468 0.054724656 -0.45465824 -0.13403493 -0.13769649 0.4086146
-0.5063366 -0.0046500107 -0.055449434 -0.14015141 -0.23565243 -0.057936206 0.22828808 -0.37750226
-0.07486665 -0.2677736 0.08323506 -0.10824671 -0.00878769 0.17213932 -0.39216056 0.0843559
0.39919278 0.40608123 0.01565869 -0.49739102 0.07667315 -0.08426926 0.24018729 0.23988953
0.30001634 -0.2708507 -0.025205297 -0.44463 0.2149088 0.2995108 -0.111094885 -0.18819582
0.2925184 -0.17708217 0.22619464 -0.20024987 -0.065159574 0.1480458 -0.49392068 -0.061347734
0.34807482 0.083457604 0.16776335 0.2828246 0.31882203 0.1553514 -0.2828622 -0.25222296
0.021516431 0.18154666 0.19184113 0.0024435895 -0.14835377 -0.07172307 -0.1398415 -0.058931217
00000000: dde6 203e 6eae 2c3e 6fae a93e 5ba8 02bd
00000010: e6b5 a33c ce6f 8c3e 507c 01be 360a 083e
00000020: 25fc 22be e0bf 623e a472 a6be daca 14be
00000030: 0c35 adbe 19b5 803d cdb9 1cbe b7e4 93be
00000040: 5d8c 06be 378b 92bc 042d 8cbc f62c 833d
00000050: e821 7c3e 6a2f 8ebe 500f b43d e6f9 09bf
00000060: 0280 83be f63b ba3e 5b52 6b3e bf9c 58bd
00000070: c8cc 913d 2718 a63e c174 1d3d e613 863e
00000080: a761 11bc 65f7 2b3b 830f 9fbe a417 593e
00000090: 6338 d73d 7134 0abd 44b2 0d3e 3e96 12be
000000a0: 878c 45be 2833 a93d 162c 48be ec4a d6bd
000000b0: d09c 83be b277 90be 9b1d 233e e7fa 5a3e
000000c0: 0590 bd3d 537b a13c b1c1 34bd 6367 7fbe
000000d0: 7e5d 553e 8e29 09bf 608d 82be 0ad5 40be
000000e0: 76cc 11bc f439 19be e299 b13d 75f9 70bd
000000f0: c7eb 163e cd86 91be 4344 763e 1bf4 52be
00000100: 403b 983d cb31 3ebd b3b1 763e 2d63 b3bc
00000110: 227d 123e b9b3 9cba 3818 c5bc bbc6 7c3e
00000120: ab31 36be 8d06 c93d 1930 93bd e0b1 dcbe
00000130: 915c c7bd 3b57 c93e ae29 873e 93fa 093e
00000140: b319 793e 6284 36be 09e4 c4bd 5489 983e
00000150: e29c f93d 2bda 52b7 8188 ccbe eab8 a93e
00000160: 2f18 0cbd 939f 413e b202 e43e 8275 013e
00000170: c158 c13d 392e 59be 1bbe 8fbd 5509 243d
00000180: 3fd7 8cbe 5d4c 4ebe 5689 e3bd b854 c93d
00000190: 2ca5 63be 70eb d43e b6d6 1e3c fabf 34be
000001a0: d40a debe 5c53 48be f043 673d 6223 75bd
000001b0: b064 7e3d 4721 1f3e e1ff ad3e 2df0 b73d
000001c0: 8282 69be 34ff ce3e 4c69 383e 559a 503d
000001d0: 952f 2cbd 92a8 9ebc 7318 953d bb50 e73d
000001e0: e145 c0bd 393f 28be f551 3dbe 53ec e43c
000001f0: 5da6 adbe ba2c 8bbe d423 9ebd 1269 e6bb
00000200: dbfd 393e 02c9 1abe 45f1 d23d 1261 913e
00000210: 28a0 33be 9975 1dbe f6e8 a9bd fd4e 823d
00000220: ccfb e13d c60d 47be 73a7 a33e 35e9 393e
00000230: 9f02 02be 859c ba3e 9133 acbe 5616 493e
00000240: b8da 3fbe dac5 57be eba0 0a3e de88 943e
00000250: 07ac ac3d 8727 c2bd 856e 7fbe e2f3 e3be
00000260: 6be4 38be a289 20bd 91be 56bd 6c53 873e
00000270: d9e2 983e 28f7 bc3d 7679 603d 94cf 6abe
00000280: afbd 183e 3ce7 483e c8ad d73c 2994 d23e
00000290: 1327 93bd 4028 8b3e 5a77 55be 54e0 9dbe
000002a0: e084 4dbe 9bdc 90bc 34e6 64be 08cf 1f3e
000002b0: 6541 ebbd b0f6 8f3e aac3 853e 172d ec3d
000002c0: 33f5 ccbd 032b 193e 2356 7bbe 25fe 073d
000002d0: 9050 89bc 7960 8c3e 6b5f 9b3e 0920 dbbd
000002e0: 045b ab3d 97f3 35be a989 10be f12a 74bd
000002f0: 3271 ab3d 0edb c2bd 60a2 ad3e 2bcb c8bd
00000300: e360 12be 6aed 15be 872e 1bbe f626 603d
00000310: f7c8 e8be 7440 09be 4f00 0dbe ef35 d13e
00000320: 479f 01bf 1e5f 98bb f21e 63bd da83 0fbe
00000330: df4e 71be 844e 6dbd 5ac4 693e fa47 c1be
00000340: b053 99bd 9f19 89be 2577 aa3d 73b0 ddbd
00000350: 3efa 0fbc 4a45 303e 45c9 c8be c9c2 ac3d
00000360: ff62 cc3e e1e9 cf3e a746 803c 09aa febe
00000370: d006 9d3d 5d95 acbd a8f3 753e 9aa5 753e
00000380: be9b 993e f1ac 8abe 577b cebc 8ba6 e3be
00000390: 0d11 5c3e 7b59 993e b785 e3bd 68b6 40be
000003a0: f9c4 953e 0755 35be 919f 673e 4d0e 4dbe
000003b0: 6272 85bd 5199 173e 2ce3 fcbe c347 7bbd
000003c0: dd36 b23e d2eb aa3d 28ca 2b3e 63ce 903e
000003d0: a43c a33e 7014 1f3e 50d3 90be 5e23 81be
000003e0: 3a43 b03c 5ee7 393e 0072 443e a124 203b
000003f0: 0dea 17be 8ce3 92bd 9c32 0fbe dc61 71bd

fc2.0.bias f4 [84]
0.08096528 0.03330926 0.039240886 0.055736262 0.01921585 0.014873135 -0.05554815 -0.011398897
0.039127197 -0.07088478 0.021713503 0.0034985973 -0.077412434 -0.015534932 -0.020530133 -0.043879326
-0.041799866 0.02603355 -0.08587868 0.05678161 0.10100566 0.034973763 0.08907914 -0.024502404
0.015705245 0.09602564 0.009514324 -0.04535037 0.07236456 0.047442198 -0.08479862 -0.047871526
-0.049837407 0.0302609 0.046117842 -0.050259415 -0.052963603 0.08777845 -0.048031997 -0.045401167
0.09454998 -0.05747194 0.01856546 -0.026522888 -0.0020681948 0.055671085 0.03536027 0.014231202
0.050362844 -0.08378745 0.05536773 -0.060566157 0.015309737 -0.019818498 -0.102705486 0.038603824
-0.087400176 -0.041538514 0.07662688 0.011331657 0.09588233 0.0926871 -0.024482794 0.016735958
-0.065789334 0.10714636 -0.059736688 0.02913859 0.019189503 0.06526609 -0.030559527 0.07717278
0.010089528 0.005540437 0.1030619 0.011783986 0.028004937 0.09590288 0.056493443 0.033748705
-0.023061823 0.014260867 0.044284906 -0.048343323
00000000: 20d1 a53d 4a6f 083d 0dbb 203d b54b 643d
00000010: 8f6a 9d3c 73ae 733c 7586 63bd 70c2 3abc
00000020: d743 203d 0a2c 91bd 84e0 b13c b948 653b
00000030: 698a 9ebd 3a86 7ebc cf2e a8bc cfba 33bd
00000040: 5636 2bbd 5044 d53c 29e1 afbd d593 683d
00000050: 0edc ce3d a640 0f3d 206f b63d 44b9 c8bc
00000060: 49a8 803c 17a9 c43d f8e1 1b3c 4fc1 39bd
00000070: df33 943d c052 423d e6aa adbd ef14 44bd
00000080: 4f22 4cbd b5e5 f73c 10e6 3c3d d1dc 4dbd
00000090: 5df0 58bd 30c5 b33d 33bd 44bd 93f6 39bd
000000a0: 6ba3 c13d b267 6bbd 9716 983c 8746 d9bc
000000b0: 8d8a 07bb 5d07 643d eed5 103d fd29 693c
000000c0: 4549 4e3d c198 abbd 46c9 623d 3814 78bd
000000d0: b1d5 7a3c 675a a2bc 4157 d2bd 0b1f 1e3d
000000e0: ddfe b2bd 4a24 2abd 8eee 9c3d 6aa8 393c
000000f0: f45d c43d bcd2 bd3d 2490 c8bc d919 893c
00000100: 8fbc 86bd 8d6f db3d 75ae 74bd 0db4 ee3c
00000110: 4e33 9d3c 3aaa 853d f957 fabc c30c 9e3d
00000120: 8c4e 253c 8e8c b53b 1e12 d33d 9f11 413c
00000130: 9c6a e53c bb68 c43d ab65 673d 153c 0a3d
00000140: 26ec bcbc 69a6 693c 1764 353d a603 46bd

fc3.weight f4 [10, 84]
0.24681282 0.062204257 0.22085784 -0.26275462 -0.27195045 -0.11414083 -0.49760592 -0.33298725
-0.18372868 0.19409467 -0.048291188 -0.33419836 0.18961318 -0.38749936 -0.22802362 -0.23578209
0.27219838 0.1536795 -0.37559414 0.006950678 -0.2161182 -0.32684976 0.19347066 0.11672546
-0.38177708 -0.47648165 -0.17439955 -0.45517144 -0.3366963 0.14622465 0.26611522 -0.2922079
0.24981233 0.26210174 -0.62027586 -0.37970525 0.30410814 -0.45957175 0.28655908 -0.12696946
-0.42721775 0.2677042 0.24653456 0.23292026 -0.2072837 -0.32682157 -0.29930913 0.11525658
0.34029406 -0.05588379 -9.740945e-05 -0.10372776 0.0681671 -0.32358915 -0.019185478 0.3908592
-0.28933796 0.22246592 -0.38834864 -0.26260427 -0.040459223 -0.21099098 0.36173832 -0.32394484
0.13760918 -0.3962298 -0.44079953 0.19101423 0.310266 0.06146668 0.18874842 0.37636653
0.12329588 0.20541169 0.1962369 0.12177718 0.32053143 -0.30618376 0.051106986 0.27690786
0.28272942 -0.50530374 -0.33014876 -0.46708205 -0.37589025 0.21849866 -0.2316479 -0.27410522
0.30070376 0.30500442 0.21050265 -0.22004084 0.2962345 -0.27107146 -0.21706505 0.27675673
0.06348855 0.20552327 0.31670964 -0.039093044 -0.32427725 0.11039801 0.012207739 0.07289742
0.25150424 0.30760187 0.30157533 -0.27934024 0.30427483 0.30141753 0.2438618 0.22999752
0.111176684 -0.46866414 0.14515369 -0.4391774 -0.3655828 0.22367235 0.09480359 0.09122615
-0.5203025 0.15270749 -0.45565405 0.3240684 -0.26958236 0.0662734 -0.36896437 -0.10744457
-0.07745661 -0.057758264 0.19499323 -0.38788697 0.16937256 0.3922491 -0.33796236 0.32288757
-0.55239844 0.20765659 -0.18999866 -0.00478782 0.32187727 -0.30826056 -0.21200296 0.30213442
-0.29208487 -0.28039676 -0.33905745 0.20677668 0.15329684 0.30639157 -0.19473906 -0.38509667
-0.25046596 -0.3655895 -0.40050462 -0.21685883 -0.55728006 0.33208904 0.17013308 -0.2702322
-0.39142737 0.4413174 -0.28892687 -0.16486584 -0.24025497 0.19255087 -0.01625143 0.06815188
-0.3012366 0.19658954 0.07763975 -0.2760584 0.2875229 0.11702903 -0.17119762 -0.12325265
0.19127396 0.10653392 0.31700194 -0.13969228 -0.19036472 -0.04157912 0.092201516 -0.280248
0.21914065 0.08156899 0.118199624 0.12728162 -0.25087342 0.32138136 0.28587252 -0.2391417
0.1472798 0.12438366 -0.22412845 0.2314241 0.043049067 -0.30888328 -0.087809876 -0.06655307
-0.47441787 -0.1303915 -0.39618513 0.15828234 0.2046623 0.12814468 0.37177315 0.011391026
-0.21739003 0.26626524 0.11896197 -0.45623973 0.43320847 0.023198517 -0.2986365 -0.29107025
0.3482097 -0.033775635 -0.27048314 -0.28480294 -0.12048413 0.36623126 -0.2055428 0.3013343
-0.06103116 0.18353495 -0.18771724 0.13616876 -0.054462913 0.09455443 0.07205373 -0.46307126
-0.13801762 -0.09251971 0.24937673 0.18783641 0.2646908 0.14090459 -0.14768188 0.3118175
0.004998404 0.2578049 -0.5138669 -0.4184802 0.15394738 -0.3810929 -0.28117046 -0.3262391
-0.30172017 0.23715281 0.03939185 -0.11370244 -0.28959468 0.014660874 0.2158409 -0.080736354
00000000: 80bc 7c3e e4c9 7e3d 8f28 623e c687 86be
00000010: 173d 8bbe abc2 e9bd 34c6 febe 4e7d aabe
00000020: 5f23 3cbe c1c0 463e fbcc 45bd 0c1c abbe
00000030: f529 423e 5166 c6be 067f 69be dc70 71be
00000040: 965d 8b3e 295e 1d3e e04d c0be 83c2 e33b
00000050: 174e 5dbe da58 a7be 2c1d 463e c20d ef3d
00000060: 4978 c3be 67f5 f3be cc95 32be 3b0c e9be
00000070: 7563 acbe eabb 153e 4140 883e 469c 95be
00000080: cece 7f3e 3332 863e 66ca 1ebf ba68 c2be
00000090: 10b4 9b3e fd4c ebbe dfb7 923e 4804 02be
000000a0: 49bc dabe 8610 893e 8e73 7c3e a682 6e3e
000000b0: 2e42 54be 2855 a7be 0c3f 99be a40b ec3d
000000c0: 063b ae3e 67e6 64bd 4d48 ccb8 386f d4bd
000000d0: 319b 8b3d 7aad a5be dd2a 9dbc b21e c83e
000000e0: 1b24 94be 1bce 633e a2d5 c6be 1174 86be
000000f0: 92b8 25bd 050e 58be c435 b93e 19dc a5be
00000100: 6ce9 0c3e a2de cabe 7ab0 e1be 3c99 433e
00000110: 2fdb 9e3e 7cc4 7b3d 4447 413e 1db3 c03e
00000120: 8d82 fc3d 7157 523e 53f2 483e 5066 f93d
00000130: b21c a43e 1ec4 9cbe 8f55 513d dec6 8d3e
00000140: e9c1 903e 965b 01bf 4209 a9be 6125 efbe
00000150: b074 c0be 1dbe 5f3e 1b35 6dbe 8557 8cbe
00000160: d8f5 993e 8a29 9c3e 028e 573e 6352 61be
00000170: 0cac 973e e1c9 8abe 4d46 5ebe 0fb3 8d3e
00000180: 4906 823d b174 523e c427 a23e 0720 20bd
00000190: ab07 a6be 5a18 e23d f802 483c 3e4b 953d
000001a0: 2ac5 803e fe7d 9d3e 1568 9a3e af05 8fbe
000001b0: e9c9 9b3e 6653 9a3e e8b6 793e 7884 6b3e
000001c0: 9ab0 e33d bff4 efbe 2ba3 143e dcdb e0be
000001d0: ab2d bbbe 5d0a 653e 6228 c23d c7d4 ba3d
000001e0: 8b32 05bf 5a5f 1c3e 7d4b e9be 4bec a53e
000001f0: b306 8abe 59ba 873d e6e8 bcbe e60b dcbd
00000200: 92a1 9ebd ee93 6cbd 4eac 473e 1f99 c6be
00000210: 0070 2d3e e0d4 c83e 6709 adbe 8551 a53e
00000220: fc69 0dbf eea3 543e 028f 42be 25e3 9cbb
00000230: 19cd a43e 54d4 9dbe 4e17 59be 5db1 9a3e
00000240: 268c 95be 2a90 8fbe f098 adbe 44bd 533e
00000250: d9f9 1c3e 5bdf 9c3e ad69 47be 642b c5be
00000260: 133d 80be 8c2e bbbe f10e cdbe 3e10 5ebe
00000270: e8a9 0ebf 9307 aa3e 5e37 2e3e e05b 8abe
00000280: 2b69 c8be 5bf4 e13e 39ee 93be 97d2 28be
00000290: 6605 76be 0e2c 453e b821 85bc 3693 8b3d
000002a0: af3b 9abe c54e 493e 9701 9f3d 8757 8dbe
000002b0: 3436 933e ebac ef3d 6e4e 2fbe e36b fcbd
000002c0: 52dd 433e 752e da3d 144e a23e 7e0b 0fbe
000002d0: f8ee 42be de4e 2abd 26d4 bc3d aa7c 8fbe
000002e0: 6866 603e a50d a73d a512 f23d 1d56 023e
000002f0: 7b72 80be 198c a43e e25d 923e 90e1 74be
00000300: 84d0 163e dcbc fe3d ee81 65be 70fa 6c3e
00000310: 3854 303d f325 9ebe aad5 b3bd fa4c 88bd
00000320: e6e6 f2be 5985 05be c7d8 cabe c414 223e
00000330: fe92 513e 5c38 033e 0d59 be3e 6da1 3a3c
00000340: 7e9b 5ebe eb53 883e 55a2 f33d 4198 e9be
00000350: 80cd dd3e d10a be3c e2e6 98be 2907 95be
00000360: 8b48 b23e 5258 0abd c47c 8abe b1d1 91be
00000370: 62c0 f6bd aa82 bb3e d079 52be 7d48 9a3e
00000380: cffb 79bd 96f0 3b3e f338 40be d36f 0b3e
00000390: 8114 5fbd c1a5 c13d e890 933d ad17 edbe
000003a0: 7e54 0dbe f97a bdbd 9d5c 7f3e 3058 403e
000003b0: 8d85 873e 4b49 103e eb39 17be 8ba6 9f3e
000003c0: a7c9 a33b 01ff 833e c88c 03bf 0943 d6be
000003d0: 62a4 1d3e 9c1e c3be 93f5 8fbe d008 a7be
000003e0: 117b 9abe 30d8 723e 5959 213d d3dc e8bd
000003f0: c145 94be 2a34 703c 6605 5d3e 1a59 a5bd

fc3.bias f4 [10]
-0.0868911 -0.010827592 -0.016259614 0.006157926 -0.089592874 -0.11391613 0.09921234 0.0664323
0.05746742 0.09042611
00000000: f6f3 b1bd 3666 31bc e232 85bc 6dc8 c93b
00000010: 787c b7bd dc4c e9bd d72f cb3d a80d 883d
00000020: f562 6b3d 5331 b93d
