6_ConvolutionalNeuralNetwork/LeNet/model17.pth (torch, 250424 bytes, 10 tensors)

conv1.0.weight f4 [6, 1, 5, 5]
-0.14808348 0.30988497 -0.05859231 0.7101993 0.21796954 0.28748533 0.9918504 1.1981102
1.4537916 0.4465718 -0.30268863 0.6651508 0.8289854 0.6171508 -0.73869216 -0.43775597
0.29157817 -0.24445304 -0.16151588 -1.1541908 -0.55929744 -0.65686655 -0.8634172 -0.3774956
-0.648189 -0.81134176 -0.40266752 -0.120175205 -0.33861244 0.0601297 -0.37432468 0.5418938
0.9019297 0.722785 0.8135521 -0.24548483 1.3006434 2.0265872 0.72001255 0.54373103
-0.50431687 0.8966891 0.1874045 0.14787102 -0.15232477 -1.395514 -0.7473299 -0.9126088
-0.5309173 -0.35078377 -0.5910935 -0.3356554 -0.4375145 -0.19016925 -0.9893974 0.924928
0.8349427 1.1390405 1.2731998 -0.70503753 0.49554327 0.757204 1.27456 0.8334285
-0.8723882 0.033970594 0.855751 0.49982086 0.3224667 -0.7241322 -0.55377483 -0.24920009
-0.40353873 -0.3359271 -0.6520919 0.37365735 0.6656827 0.7629356 0.5963412 0.563475
0.1692492 0.10635033 -0.31533244 -0.16263568 -0.15637688 -0.5986908 -1.6080234 -1.2386785
-1.0847856 -0.6924334 -0.97654295 -0.7436301 -0.15373345 -0.1708558 -0.67855763 0.078550145
0.9673807 0.9682532 0.35317725 -0.15833168 0.63491607 1.2455668 0.6305002 0.7802836
0.87803656 0.26724645 -0.38550696 -0.73039937 -0.7837319 -0.40666744 -0.075539544 -0.5174249
-0.63938975 -0.5219503 -0.4849595 0.5196919 -0.5035728 -1.0886834 -0.5165331 -0.39946786
0.9751265 -0.0622451 -0.393251 0.3204956 0.5618073 0.3674914 0.524719 -0.17078254
-0.918527 -0.5534995 0.18129855 0.008284656 -0.54305416 -1.3511243 0.28505144 -0.2045317
-0.069360934 -0.79695433 -0.8538917 0.7125581 0.23151435 -0.3518056 -1.3101207 -0.13811615
0.22361018 0.8908107 -0.2886699 -1.2821057 -0.4206296 0.45923233
00000000: 32a3 17be 3ea9 9e3e 7dfe 6fbd 9fcf 353f
00000010: 6833 5f3e 4731 933e e8e9 7d3f ad5b 993f
00000020: d815 ba3f 0fa5 e43e 01fa 9abe 5347 2a3f
00000030: 6338 543f 98fd 1d3f ee1a 3dbf 8d21 e0be
00000040: bc49 953e e651 7abe 6b64 25be 86bc 93bf
00000050: 1e2e 0fbf 6828 28bf e908 5dbf 1a47 c1be
00000060: b7ef 25bf 18b4 4fbf 702a cebe 6b1e f6bd
00000070: 9c5e adbe 8f4a 763d 7ca7 bfbe 8db9 0a3f
00000080: dde4 663f 7008 393f f344 503f 6060 7bbe
00000090: 7c7b a63f 9bb3 0140 be52 383f f531 0b3f
000000a0: e91a 01bf 6b8d 653f f7e6 3f3e 806b 173e
000000b0: 06fb 1bbe 34a0 b2bf 0351 3fbf bba0 69bf
000000c0: 32ea 07bf ee99 b3be e751 17bf 06db abbe
000000d0: e701 e0be babb 42be 2649 7dbf 15c8 6c3f
000000e0: cebe 553f 14cc 913f 36f8 a23f 577d 34bf
000000f0: d9b7 fd3e 1fd8 413f c824 a33f 925b 553f
00000100: d554 5fbf c024 0b3d 7f12 5b3f 85e8 ff3e
00000110: 5b1a a53e ba60 39bf 30c4 0dbf 4f2e 7fbe
00000120: a19c cebe a3fe abbe 7fef 26bf 0450 bf3e
00000130: 2e6a 2a3f bf4f 433f d1a9 183f e63f 103f
00000140: aa4f 2d3e 34ce d93d 4173 a1be f889 26be
00000150: 4321 20be cd43 19bf b6d3 cdbf 048d 9ebf
00000160: 41da 8abf 5143 31bf b8fe 79bf 8b5e 3ebf
00000170: 4d6c 1dbe d3f4 2ebe f4b5 2dbf e6de a03d
00000180: 43a6 773f 71df 773f a6d3 b43e b321 22be
00000190: dc89 223f bc6e 9f3f 7668 213f aac0 473f
000001a0: 01c7 603f 87d4 883e 2b61 c5be 74fb 3abf
000001b0: a7a2 48bf b736 d0be 7ab4 9abd f575 04bf
000001c0: 0caf 23bf 899e 05bf 9d4c f8be 870a 053f
000001d0: 26ea 00bf fa59 8bbf 833b 04bf 0d87 ccbe
000001e0: e4a1 793f b8f4 7ebd 3258 c9be 0018 a43e
000001f0: 9ad2 0f3f d527 bc3e fc53 063f 9ee1 2ebe
00000200: 9624 6bbf 25b2 0dbf 54a6 393e 5ebc 073c
00000210: 9905 0bbf a4f1 acbf 43f2 913e c270 51be
00000220: 1b0d 8ebd 3305 4cbf a598 5abf 356a 363f
00000230: 1912 6d3e dd1f b4be 09b2 a7bf 526e 0dbe
00000240: 11fa 643e 2c0c 643f 8bcc 93be 0a1c a4bf
00000250: c35c d7be 8020 eb3e

conv1.0.bias f4 [6]
-0.9629505 -0.971088 -0.8237901 -0.14547916 -0.35763526 -0.7180844
00000000: ed83 76bf 3999 78bf e8e3 52bf 7df8 14be
00000010: f81b b7be 61d4 37bf

conv2.0.weight f4 [16, 6, 5, 5]
0.072923124 0.24010015 0.5353113 0.39475587 -0.22609673 0.5266911 0.779125 0.29648927
-0.21402751 -0.61803657 0.53658664 0.26883385 -0.6103442 -0.92217165 0.11695829 0.22971632
0.13623321 -1.0925353 -0.19942524 0.7310165 -0.055742066 -0.30474943 -1.0119967 0.08982623
0.46967766 -0.059204426 0.37775663 0.47883815 0.15928452 -0.31735814 0.36950982 0.4960531
-0.020555055 -0.6453491 -0.26627305 0.29865786 -0.09154158 -0.89984316 -0.60049266 0.49009433
0.040317625 0.18700752 -1.0238031 0.017161764 0.66217846 0.01633703 -0.3663 -0.51214343
0.36401495 0.43861997 0.27246833 0.37733594 0.5422745 0.33651376 -0.18029386 0.59396654
0.6888355 0.23324957 -0.5577606 -0.44608605 0.42726177 -0.010768702 -0.8446816 -1.0619912
0.20615943 0.21448989 0.25543165 -0.8986312 -0.49704385 0.53314096 -0.15822394 -0.033208832
-0.8070082 0.14578137 0.5950135 -0.23906827 -0.46221995 -0.49007916 0.025564648 0.24424715
-0.4344307 -0.2861829 0.18714888 0.4302242 0.069366105 -0.3077432 0.1977382 0.3303099
0.0007313714 -0.74424094 -0.25083315 -0.0077655013 -0.013537438 -0.43099433 -1.132113 -0.1995371
0.03704281 -0.27495515 -0.79763037 -1.0754706 -0.38524705 -0.37469277 -0.24452077 -0.026955431
0.14139454 -0.48278233 -0.15147786 0.31151494 0.4694077 -0.12535515 -0.18289386 0.06944625
0.6852609 0.2733307 -0.621367 -0.104027145 0.09604511 0.51348126 -0.16019563 -0.33996022
-0.08367838 0.15558648 0.3354395 -0.6298493 -0.31397653 -0.23124029 -0.3463709 -0.41442466
-0.27591878 -0.12886646 -0.14295986 -0.04513959 0.14627291 0.25075293 -0.20875901 -0.0010324206
0.17342044 0.79574037 0.41910776 -0.21780321 0.16426462 0.2673806 0.56304824 -0.07115148
-0.21468602 -0.09194723 0.19774508 0.39021918 -0.1712226 0.21919568 0.36061698 0.33894938
-0.17879643 -0.39713788 -0.42385828 0.48364857 0.40152076 0.23416162 0.34732997 0.33911118
0.12264533 -0.5866037 -0.75846523 -0.07978342 0.43703532 -0.8341252 -1.7993497 -1.6836845
-1.1052879 -0.39707598 0.13528521 0.72472876 0.21462694 -0.2247268 -0.085628845 0.26914936
0.03503232 -0.21892396 -0.19287877 -0.18958113 0.22647464 0.06965865 0.012911869 0.46865565
0.5644703 -0.3216292 -1.2946793 -0.8610763 -0.08367898 0.31460473 -0.43337956 -0.4662284
-0.7339806 -1.0092238 -0.494804 0.479908 0.83349395 0.3276907 -0.052668057 -0.1004143
0.28522405 0.20076896 0.05221292 -0.122231856 -0.16076106 0.41899595 0.25472772 -0.055375177
0.17168376 0.45303398 -0.14622624 -0.7637122 -1.4653021 -0.7224998 -0.06309231 -0.7165933
-0.87508535 -0.9875284 -1.1946212 -0.8281733 0.07788569 0.42441648 0.2678418 -0.16076574
-0.07511239 -0.31712428 -0.27902102 -0.24151939 -0.13297409 -0.1820954 0.10919739 0.08768749
0.09860775 -0.22149749 -0.45412785 0.8525885 1.1027077 1.0368809 0.8199051 0.33991423
0.43232465 0.28782314 0.37463745 0.7744216 0.7649641 -0.33955792 -0.59540296 -0.56710905
0.0060055256 0.28468305 -0.13385469 -0.22396488 -0.17246331 -0.3187604 -0.42604673 -0.23990898
00000000: b858 953d d0dc 753e 290a 093f 711d ca3e
00000010: e785 67be 3ad5 063f bc74 473f 71cd 973e
00000020: 072a 5bbe a537 1ebf be5d 093f 97a4 893e
00000030: 843f 1cbf 7113 6cbf d487 ef3d c13a 6b3e
00000040: b880 0b3e 32d8 8bbf 2136 4cbe e623 3b3f
00000050: cb51 64bd 1e08 9cbe 1c89 81bf d1f6 b73d
00000060: 9779 f03e 5780 72bd 5169 c13e 462a f53e
00000070: 7b1b 233e c47c a2be 6430 bd3e acfa fd3e
00000080: 1363 a8bc 9935 25bf f154 88be afe9 983e
00000090: 277a bbbd 1f5c 66bf e3b9 19bf a5ed fa3e
000000a0: 1824 253d e67e 3f3e fb0b 83bf d496 8c3c
000000b0: 8784 293f 3cd5 853c ac8b bbbe d51b 03bf
000000c0: 2b60 ba3e cc92 e03e f880 8b3e 2d32 c13e
000000d0: 80d2 0a3f 884b ac3e f49e 38be 310e 183f
000000e0: 8657 303f fad8 6e3e 66c9 0ebf 6465 e4be
000000f0: 0ec2 da3e 366f 30bc 0e3d 58bf 54ef 87bf
00000100: 751b 533e 3da3 5b3e f0c7 823e b20c 66bf
00000110: 887c febe ed7b 083f 7505 22be fc05 08bd
00000120: 1798 4ebf b647 153e ce52 183f 50ce 74be
00000130: 18a8 ecbe a8eb fabe f46c d13c ed1b 7a3e
00000140: b36d debe 9186 92be f5a3 3f3e 5946 dc3e
00000150: d10f 8e3d 8490 9dbe e27b 4a3e 611e a93e
00000160: 81b9 3f3a 9386 3ebf 346d 80be bf75 febb
00000170: 21cc 5dbc 4aab dcbe 14e9 90bf 7453 4cbe
00000180: 34ba 173d ecc6 8cbe 8131 4cbf 05a9 89bf
00000190: 1a3f c5be bbd7 bfbe a763 7abe a3d1 dcbc
000001a0: bbc9 103e 3f2f f7be 031d 1bbe e37e 9f3e
000001b0: 3556 f03e 1a5d 00be 8748 3bbe d639 8e3d
000001c0: 426d 2f3f 00f2 8b3e e811 1fbf 2f0c d5bd
000001d0: 4cb3 c43d 8273 033f 530a 24be 440f aebe
000001e0: 925f abbd 1052 1f3e babe ab3e ce3d 21bf
000001f0: 88c1 a0be 41ca 6cbe 8757 b1be 782f d4be
00000200: 3a45 8dbe 92f5 03be 1264 12be 4ae4 38bd
00000210: 91c8 153e b062 803e ecc4 55be 4952 87ba
00000220: 2195 313e a4b5 4b3f 4b95 d63e ce07 5fbe
00000230: fc34 283e 1ce6 883e ee23 103f deb7 91bd
00000240: a7d6 5bbe d44e bcbd b07d 4a3e cfca c73e
00000250: fa54 2fbe d574 603e caa2 b83e c68a ad3e
00000260: 6916 37be a855 cbbe f403 d9be c9a0 f73e
00000270: 2194 cd3e 10c8 6f3e 3cd5 b13e fb9f ad3e
00000280: 7a2d fb3d a92b 16bf c72a 42bf 7d65 a3bd
00000290: 18c3 df3e 3b89 55bf 1751 e6bf f982 d7bf
000002a0: 137a 8dbf 8b4d cbbe 3588 0a3e d387 393f
000002b0: 2ac7 5b3e c81e 66be 2d5e afbd f2cd 893e
000002c0: 0d7e 0f3d 9a2d 60be 0382 45be 8e21 42be
000002d0: f8e8 673e 32a9 8e3d 4e8c 533c a2f3 ef3e
000002e0: 2081 103f 95ac a4be 0db8 a5bf 7f6f 5cbf
000002f0: e35f abbd df13 a13e ede3 ddbe 7db5 eebe
00000300: 27e6 3bbf 3f2e 81bf f356 fdbe 80b6 f53e
00000310: dc5f 553f 13c7 a73e 76ba 57bd 03a6 cdbd
00000320: e308 923e 6196 4d3e 37dd 553d b254 fabd
00000330: 8c9e 24be a386 d63e ac6b 823e 15d1 62bd
00000340: decd 2f3e 12f4 e73e 55bc 15be a582 43bf
00000350: 058f bbbf bff5 38bf 8b36 81bd a972 37bf
00000360: 9805 60bf a9ce 7cbf 59e9 98bf 2a03 54bf
00000370: 8882 9f3d 1e4d d93e 8f22 893e c69f 24be
00000380: 86d4 99bd 1d5e a2be d8db 8ebe dc50 77be
00000390: 5c2a 08be 3777 3abe e2a2 df3d 8095 b33d
000003a0: dcf2 c93d 3dd0 62be 7283 e8be 3d43 5a3f
000003b0: 8725 8d3f 83b8 843f 4de5 513f 3d09 ae3e
000003c0: a859 dd3e 8e5d 933e 7bd0 bf3e 7e40 463f
000003d0: b0d4 433f 89da adbe 546c 18bf 0f2e 11bf
000003e0: 00ca c43b fac1 913e 3411 09be 0d57 65be
000003f0: 399a 30be 9034 a3be cc22 dabe b3aa 75be

conv2.0.bias f4 [16]
-0.09050579 0.0052638985 -0.021503098 0.008568564 -0.09418442 -0.06354543 -0.09299006 0.12989487
-0.1040213 0.025761612 0.038478225 0.05545766 -0.012585313 -0.06543326 7.791243e-05 0.09749451
00000000: 1a5b b9bd c87c ac3b 4427 b0bc 2a63 0c3c
00000010: c3e3 c0bd 1b24 82bd 9371 bebd 2903 053e
00000020: 1f09 d5bd 040a d33c 589b 1d3d 9227 633d
00000030: a132 4ebc df01 86bd eb64 a338 34ab c73d

fc1.0.weight f4 [120, 400]
0.12653288 0.30474284 -0.923701 -1.3499655 -0.46887636 0.32876638 0.3343434 -0.46882355
-0.47083148 -0.06201615 0.020253178 -0.52991664 -0.09661851 0.0910681 0.08581824 -0.5878985
-0.72833836 -0.034551386 0.27214703 0.4010807 -0.08762086 -0.12548548 0.071689524 0.29316965
0.048965376 -0.04019586 0.26308972 0.49568555 -0.04350335 -0.1976829 -0.3793156 -0.76167667
0.026216503 0.55633086 0.21361023 -0.22814684 0.35477164 -0.26764354 -0.36682662 -0.7533066
0.14526221 -0.0074404124 -0.3746616 -0.79970396 0.090570815 0.23965599 0.10019734 -0.0116647165
0.20575921 0.10689291 0.31296656 0.3674596 0.029946463 -0.6453635 -0.33984953 -0.09500041
-0.3798555 -0.0022069293 -0.23337272 0.4059455 -0.21634617 -0.071113214 -0.3323371 0.23961154
0.35660693 0.4298582 -0.2791964 0.2970706 -0.22144301 0.18584524 0.019514835 0.11635883
0.21752647 0.44075426 0.27288422 -0.55701053 -0.22190471 0.120341346 0.2741612 0.4652217
-0.29104644 -0.3132676 0.04983875 0.114052325 0.146536 -0.295059 -0.24029507 0.013891608
0.055085696 -0.58673096 0.38233504 0.10263022 -0.07706569 -0.8789464 -1.5013057 0.33985105
0.5778744 -0.058184825 -0.36999023 -0.46193898 -0.71009153 -0.37471136 0.32116196 0.38488105
0.5574744 -0.4639485 -0.60933983 0.042721488 0.102554865 -0.03936257 0.22746597 -0.32967907
0.08035334 -0.008585641 -0.10906662 0.43489528 -0.08644858 -0.09139982 -0.091914006 -0.34510478
0.29960847 -0.10791137 0.006711319 -0.28812134 -0.54396564 -0.9973562 -0.19896623 0.13131087
0.12008457 0.5847523 -0.8352079 -0.18738684 -0.019428626 0.6974057 -0.25618294 0.034947943
-0.11520427 0.25542322 -0.073766254 -0.5011409 -0.07061687 0.05444337 -0.08711139 -0.084798455
-0.38060746 0.19736485 0.077436455 -0.22356737 -0.65425336 -1.0261923 0.105904706 -0.07296764
-0.018226497 -0.05396382 -0.10476154 -0.43136033 -0.35973683 -0.49918237 0.19911161 -0.045305528
-0.27342007 -0.1589603 0.05175602 -0.22270833 -0.3125903 -0.43469253 0.47407213 0.74456406
-0.025454123 0.104271546 0.13777086 0.57253665 0.04115371 0.36391646 0.55908054 -0.675458
-0.3771861 0.06675143 0.41346025 0.4367693 -0.28362092 -0.1943297 0.27564797 0.6608442
1.059391 0.023388952 0.18530348 0.5378898 0.75118446 0.47713333 -0.12256968 -0.028724322
-0.1341198 -0.7135723 -0.037201494 0.19856639 -0.003137711 -0.30425304 -1.0292351 -0.33517542
0.2301673 0.44446063 -1.0480702 -0.829409 0.07133858 0.058140695 -0.055222068 -0.4543899
-0.105033144 0.19628166 0.15790343 0.20114896 -0.12947874 0.2648287 0.28380975 -0.07034407
-0.14124346 0.48876712 -0.35176498 0.58260655 -0.36200178 0.03808763 -0.11620532 0.0077993
0.6463511 -0.44632444 -0.1413941 0.3715743 0.43004936 0.50111395 -0.95736223 -0.3550046
-0.0360691 -0.0026232156 -0.10175512 -0.45726228 0.0033577501 -0.33409473 -0.81260145 -0.56500393
0.1254479 0.26772252 -0.2953727 -1.086982 -1.302966 0.26117438 0.24116442 -0.23535386
-0.8317524 -0.93780774 -0.04801614 0.24304865 0.4822256 0.05131367 0.21337165 -0.68559086
00000000: d691 013e 4107 9c3e ab77 6cbf abcb acbf
00000010: 9010 f0be 1154 a83e 0f2f ab3e a409 f0be
00000020: d310 f1be a604 7ebd fee9 a53c 9ea8 07bf
00000030: eddf c5bd e981 ba3d 79c1 af3d 8480 16bf
00000040: 6274 3abf c185 0dbd db56 8b3e 735a cd3e
00000050: 9172 b3bd 447f 00be f5d1 923d 551a 963e
00000060: eb8f 483d 6aa4 24bd b2b3 863e 7fca fd3e
00000070: 9230 32bd 636d 4abe a835 c2be 3efd 42bf
00000080: fec3 d63c b36b 0e3f a4bc 5a3e 539f 69be
00000090: a1a4 b53e 9308 89be b3d0 bbbe b4d8 40bf
000000a0: 9ebf 143e b4ce f3bb a5d3 bfbe 66b9 4cbf
000000b0: 317d b93d 6168 753e 4334 cd3d 5e1d 3fbc
000000c0: 8bb2 523e acea da3d 273d a03e aa23 bc3e
000000d0: 4952 f53c 8b36 25bf c200 aebe 938f c2bd
000000e0: 6c7c c2be 21a2 10bb 42f9 6ebe 17d8 cf3e
000000f0: da89 5dbe cea3 91bd 1728 aabe ba5c 753e
00000100: 2f95 b63e 6016 dc3e d5f2 8ebe a319 983e
00000110: f5c1 62be 374e 3e3e 93dd 9f3c 8a4d ee3d
00000120: 42bf 5e3e 8baa e13e 7bb7 8b3e 3e98 0ebf
00000130: fd3a 63be 8675 f63d db5e 8c3e 8a31 ee3e
00000140: 0a04 95be 9c64 a0be b823 4c3d 4494 e93d
00000150: 880d 163e f911 97be e90f 76be a199 633c
00000160: 8aa1 613d 0034 16bf 6bc1 c33e cb2f d23d
00000170: 9ed4 9dbd a202 61bf c92a c0bf f500 ae3e
00000180: 94ef 133f 3653 6ebd 5c6f bdbe 4483 ecbe
00000190: 8fc8 35bf 2bda bfbe 576f a43e 210f c53e
000001a0: a4b6 0e3f a88a edbe b2fd 1bbf bafc 2e3d
000001b0: 4908 d23d a53a 21bd d7ec 683e b2cb a8be
000001c0: 4b90 a43d caaa 0cbc 525e dfbd 98aa de3e
000001d0: f40b b1bd d42f bbbd 693d bcbd 93b1 b0be
000001e0: 4866 993e a300 ddbd a0ea db3b a484 93be
000001f0: 5541 0bbf bc52 7fbf cebd 4bbe 5b76 063e
00000200: e6ee f53d 54b2 153f 2fd0 55bf 56e2 3fbe
00000210: c828 9fbc 2e89 323f 692a 83be 9325 0f3d
00000220: 37f0 ebbd d5c6 823e c312 97bd c54a 00bf
00000230: 949f 90bd 0300 5f3d 7567 b2bd d0aa adbd
00000240: fbde c2be 031a 4a3e 0197 9e3d d8ee 64be
00000250: 267d 27bf 455a 83bf 91e4 d83d 0f70 95bd
00000260: bc4f 95bc 2b09 5dbd 388d d6bd 43db dcbe
00000270: 6d2f b8be d594 ffbe eae3 4b3e 4a92 39bd
00000280: b7fd 8bbe 7dc6 22be 1ffe 533d a70d 64be
00000290: d60b a0be 0590 debe 95b9 f23e c09b 3e3f
000002a0: 2a85 d0bc 528c d53d ce13 0d3e c391 123f
000002b0: cb90 283d 4253 ba3e e71f 0f3f d1ea 2cbf
000002c0: 891e c1be f9b4 883d 10b1 d33e 3aa0 df3e
000002d0: c336 91be 5dfe 46be bb21 8d3e 162d 293f
000002e0: 209a 873f 309a bf3c 32c0 3d3e 25b3 093f
000002f0: a04d 403f d24a f43e d005 fbbd 454f ebbc
00000300: b356 09be adac 36bf 9860 18bd fd54 4b3e
00000310: 0ea2 4dbb 0ec7 9bbe fabd 83bf 1d9c abbe
00000320: fab0 6b3e 5890 e33e 2a27 86bf 2654 54bf
00000330: f619 923d f024 6e3d 8930 62bd cba5 e8be
00000340: 9e1b d7bd 0ffe 483e 70b1 213e fef9 4d3e
00000350: 1396 04be a197 873e 834f 913e 8d10 90bd
00000360: 20a2 10be af3f fa3e 8a1a b4be b425 153f
00000370: 4c58 b9be c601 1c3d 0efd edbd 4591 ff3b
00000380: 4477 253f a384 e4be 9dc9 10be fd3e be3e
00000390: 6e2f dc3e 0149 003f b115 75bf 2ac3 b5be
000003a0: 31bd 13bd 41ea 2bbb fd64 d0bd 481e eabe
000003b0: b30d 5c3b 770e abbe a606 50bf 19a4 10bf
000003c0: 6a75 003e ed12 893e 173b 97be 3a22 8bbf
000003d0: 97c7 a6bf a6b8 853e cef3 763e 9a00 71be
000003e0: baed 54bf 2b14 70bf 92ac 44bd bfe1 783e
000003f0: 46e6 f63e 482e 523d 197e 5a3e e282 2fbf

fc1.0.bias f4 [120]
0.00739014 -0.010578396 -0.0709419 0.039205924 0.021274714 -0.06009708 -0.091823354 -0.12913105
-0.09371267 0.014085861 -0.15404588 0.0010241533 0.07055519 0.007296826 0.13987492 -0.05804462
0.004198134 0.0872881 0.10024015 0.031943828 0.035094038 0.06458786 0.09935614 -0.13149044
0.10150871 -0.01570778 -0.19208798 -0.026663175 0.02087043 0.025992315 -0.119365446 -0.07405479
-0.12233871 -0.062432706 0.043757983 -0.06949584 0.19311963 -0.12589158 0.060313467 -0.1816271
-0.037508562 -0.07565809 -0.19103688 -0.14333239 0.041543357 -0.2118084 0.024317015 -0.04293101
-0.11472984 -0.009056132 -0.12407679 -0.12939997 0.09331538 -0.1293132 0.055930927 -0.098852284
0.08380507 -0.15772457 -0.06722556 -0.04862195 0.04684165 -0.034409925 0.008917139 -0.24391145
0.022884663 -0.09226774 0.036685333 -0.12848811 0.108350076 -0.14485663 0.019748174 -0.16087645
-0.06338301 -0.006902738 -0.020242536 -0.20131737 0.06362801 -0.011169227 0.028622504 -0.0005893252
0.052473772 0.12246293 -0.01605969 -0.14487894 -0.02083949 0.03262207 0.011897795 0.014695819
-0.068909705 0.0072233574 0.14253928 -0.011384352 0.025626466 0.13749178 -0.021297287 0.01190102
-0.031831697 -0.101833165 -0.09235043 -0.090946905 -0.14890693 -0.0038281153 0.09620348 0.102751255
-0.18246551 0.07300499 0.06277737 -0.07550451 0.029538404 -0.030810535 -0.09689327 0.04100468
-0.0510533 -0.08813203 -0.052436773 0.061416175 -0.015610614 0.23923357 -0.074333906 0.06959609
00000000: fd28 f23b 0251 2dbc fd49 91bd 6496 203d
00000010: 4f48 ae3c 5b28 76bd e20d bcbd ee3a 04be
00000020: 6eec bfbd 62c8 663c 34be 1dbe e23c 863a
00000030: 3d7f 903d 371a ef3b 5f3b 0f3e 32c0 6dbd
00000040: 8090 893b 1ac4 b23d b54a cd3d 88d7 023d
00000050: c4be 0f3d a446 843d 3b7b cb3d 6ea5 06be
00000060: cce3 cf3d 9aad 80bc b6b2 44be bb6c dabc
00000070: 77f8 aa3c d6ed d43c df75 f4bd 0aaa 97bd
00000080: b88c fabd 70b9 7fbd 923b 333d d653 8ebd
00000090: 27c1 453e b9e9 00be 410b 773d 74fc 39be
000000a0: 94a2 19bd a1f2 9abd 2c9f 43be bac5 12be
000000b0: 5e29 2a3d 4de4 58be 7a34 c73c 6dd8 2fbd
000000c0: 7af7 eabd 2c60 14bc f91b febd 6d81 04be
000000d0: 221c bf3d ae6a 04be d417 653d 1173 cabd
000000e0: fea1 ab3d 8d82 21be 8ead 89bd cf27 47bd
000000f0: 08dd 3f3d 6cf1 0cbd 3119 123c ecc3 79be
00000100: 9e78 bb3c def6 bcbd 5c43 163d 6392 03be
00000110: a5e6 dd3d 4c55 14be ecc6 a13c ccbc 24be
00000120: f4ce 81bd 5d30 e2bb add3 a5bc 2426 4ebe
00000130: 674f 823d 22ff 36bc be79 ea3c f27c 1aba
00000140: bdee 563d d8cd fa3d 9c8f 83bc 255b 14be
00000150: 94b7 aabc b89e 053d f8ee 423c bbc6 703c
00000160: 8820 8dbd eab1 ec3b d1f5 113e 6f85 3abc
00000170: 98ee d13c a5ca 0c3e a677 aebc 7ffc 423c
00000180: f461 02bd e88d d0bd 3922 bdbd 5f42 babd
00000190: 0f7b 18be 1ee1 7abb 5506 c53d 406f d23d
000001a0: 3dd8 3abe a483 953d 6c91 803d 1ca2 9abd
000001b0: 86fa f13c 6066 fcbc fb6f c6bd 86f4 273d
000001c0: 441d 51bd 917e b4bd f1c7 56bd 878f 7b3d
000001d0: a9c3 7fbc a5f9 743e 603c 98bd 6588 8e3d

fc2.0.weight f4 [84, 120]
-0.09146122 0.5819192 0.51690304 -0.052684218 -0.16413158 0.81845486 -0.45977286 -0.07320174
-0.17108953 0.51084644 -0.4711171 -0.21848148 -0.68296236 0.16156149 -0.15285905 -0.6168486
0.30433494 -0.121419445 0.12444429 0.07354343 0.3490574 -0.25973406 0.038738538 -0.9382122
-0.5833121 0.81535107 0.48461112 0.14226684 -0.03979519 0.6372999 -0.020262947 0.15013096
-0.09254565 0.06537852 -0.5247693 0.83508235 0.15094924 0.16049351 -0.3621643 -0.09269825
-0.27338633 -0.0059050377 -0.43265477 -0.09238339 -0.48916125 -0.28346133 0.42140055 0.4380052
0.062533446 -0.23800938 -0.1899727 -0.664476 0.23195705 -1.2103946 -0.3913104 -0.2713786
0.06323699 -0.5017742 0.18975218 0.1699331 0.5176964 0.028089548 0.7594471 -0.7095271
0.23647349 -0.2653177 0.3348829 -0.07874797 0.13940266 -0.45786473 0.05012064 0.6186791
-0.03365123 -0.08274639 0.35749137 -1.0704207 -0.49045184 0.57277554 0.41523933 0.50950533
0.21587414 -0.31807014 -0.13235767 0.1297001 0.5349378 0.058888834 -0.7489583 0.38451555
-0.3455673 0.48653087 0.58679926 0.30998737 0.19847636 -0.23398522 -0.046714656 0.33890775
-0.28736642 -0.6192225 -0.24551365 0.18660747 -0.9223042 0.97042155 0.12256541 -0.8076423
-0.75742346 -0.46552238 -0.102860905 0.057372045 0.48944533 0.57331437 0.5904668 -0.15356405
-0.4074717 0.44899172 0.2644089 0.028501512 -0.24911545 -0.044235446 0.1793087 0.18811995
-0.08780109 0.11359496 -0.3108096 -0.13011076 -0.5370194 -0.42106453 0.010272361 0.050140746
0.19783396 -0.6872338 0.14428605 0.2780161 -0.3319335 -0.4940077 -0.10225291 -0.39559683
0.471992 -0.34806922 0.31023163 0.16488445 -0.29455176 0.63592196 -0.4800778 0.18779293
-0.3033578 0.13168573 0.15033777 1.1437156 -0.021675868 -0.19792189 -0.54634553 -1.0988852
-0.44364938 0.0511138 0.011853553 0.33885282 0.44803625 0.030423624 0.22249076 -0.38660106
0.093459874 0.7788383 -0.20942885 0.709672 0.0012769615 0.5988551 0.020656962 -0.21121408
-0.08777663 -0.18460228 0.3567924 0.5061963 -0.09730755 1.2179213 0.54830223 0.12450475
-0.43202373 0.24512543 -0.5097761 0.11643688 0.117136024 0.48581675 0.47468904 -0.67754483
0.34891135 -0.22512597 -0.27566132 -0.05102086 0.075478755 -0.06441504 0.53614676 -0.47931483
-0.15277989 -0.22377816 -0.3972445 -0.22377846 -0.5850007 -0.070770875 0.015020487 0.6578066
-0.6377873 0.117263086 0.07274817 -0.34125945 -0.5386912 0.10578627 0.07713304 -0.55196947
0.4555073 -0.60148156 -0.01848004 -0.32119152 0.41453695 0.52705973 -0.27934763 0.26995715
0.744779 0.84934574 -0.06903674 -0.79585546 0.18177414 -0.22579123 0.16592261 0.61913806
0.17775702 -0.66945684 -0.23675449 -0.7317595 0.5069336 0.8066453 -0.23351781 -0.3760314
0.64008164 -0.20277126 0.45321774 0.6527459 0.09721751 0.3292488 -1.1146605 -0.172653
1.1370453 -0.011905965 0.21417421 0.35707352 0.41496775 0.32423607 -0.2669513 -0.6463011
0.0045509804 0.56978995 0.3565505 -0.035414584 -0.24093464 0.025935795 -0.17718497 -0.28865722
00000000: 0550 bbbd a8f8 143f c253 043f 68cb 57bd
00000010: 1c12 28be 4286 513f 5967 ebbe cbea 95bd
00000020: 1832 2fbe d5c6 023f 4336 f1be 9cb9 5fbe
00000030: 9fd6 2ebf 6070 253e 1587 1cbe cae9 1dbf
00000040: cad1 9b3e c2aa f8bd a6dc fe3d f09d 963d
00000050: a7b7 b23e ddfb 84be 4dac 1e3d ad2e 70bf
00000060: f153 15bf d9ba 503f f31e f83e 66ae 113e
00000070: 4800 23bd 1626 233f 7bfe a5bc eebb 193e
00000080: 9388 bdbd 2ce5 853d 4857 06bf f5c7 553f
00000090: 7092 1a3e 6958 243e 996d b9be 95d8 bdbd
000000a0: 4bf9 8bbe 0c7f c1bb ed84 ddbe 8133 bdbd
000000b0: 5873 fabe d821 91be d0c1 d73e 3842 e03e
000000c0: 8911 803d bbb8 73be 3488 42be 191b 2abf
000000d0: 2686 6d3e 36ee 9abf d659 c8be 23f2 8abe
000000e0: 6582 813d 4674 00bf 654e 423e f102 2e3e
000000f0: c087 043f 0d1c e63c 206b 423f 91a3 35bf
00000100: 1b26 723e b9d7 87be c575 ab3e 9e46 a1bd
00000110: 92bf 0e3e 3f6d eabe 4d4b 4d3d c161 1e3f
00000120: dfd5 09bd f076 a9bd 1c09 b73e 8c03 89bf
00000130: 811c fbbe 6ba1 123f 409a d43e f16e 023f
00000140: 1c0e 5d3e 17da a2be c588 07be 1ad0 043e
00000150: aff1 083f 6b35 713d bbbb 3fbf 39df c43e
00000160: 32ee b0be 931a f93e 7a38 163f aab6 9e3e
00000170: 633d 4b3e d299 6fbe de57 3fbd 5185 ad3e
00000180: b121 93be 5e85 1ebf ee67 7bbe 0716 3f3e
00000190: 211c 6cbf 8c6d 783f 9303 fb3d a5c1 4ebf
000001a0: 81e6 41bf f358 eebe bda8 d2bd f3fe 6a3d
000001b0: 9498 fa3e bbc4 123f d528 173f e53f 1dbe
000001c0: 21a0 d0be 3ee2 e53e 9a60 873e 017c e93c
000001d0: 1f18 7fbe 3a30 35bd b39c 373e 84a2 403e
000001e0: 0fd1 b3bd 79a4 e83d 7022 9fbe c13b 05be
000001f0: 1a7a 09bf c595 d7be 684d 283c 6260 4d3d
00000200: fc94 4a3e 8eee 2fbf b9bf 133e 2058 8e3e
00000210: 30f3 a9be 94ee fcbe f969 d1bd ab8b cabe
00000220: efa8 f13e 2136 b2be aed6 9e3e 78d7 283e
00000230: 7dcf 96be c8cb 223f c2cc f5be ca4c 403e
00000240: b751 9bbe a0d8 063e 25f2 193e 4665 923f
00000250: 9791 b1bc 09ac 4abe 4ddd 0bbf 45a8 8cbf
00000260: 0326 e3be b45c 513d 6835 423c 1e7e ad3e
00000270: 0265 e53e f73a f93c 9ed4 633e 93f0 c5be
00000280: e467 bf3d f261 473f 8474 56be 10ad 353f
00000290: b85f a73a 914e 193f ca38 a93c 8148 58be
000002a0: 3cc4 b3bd 6108 3dbe 7ead b63e 1596 013f
000002b0: 2e49 c7bd d8e4 9b3f 895d 0c3f 59fc fe3d
000002c0: 3732 ddbe 2902 7b3e b080 02bf 7576 ee3d
000002d0: 03e5 ef3d f9bc f83e 710a f33e 9473 2dbf
000002e0: 82a4 b23e 6c87 66be 7b23 8dbe 40fb 50bd
000002f0: 9b94 9a3d 08ec 83bd ea40 093f c168 f5be
00000300: 5572 1cbe 1a26 65be a263 cbbe 2e26 65be
00000310: 9bc2 15bf 52f0 90bd 7d18 763c 0366 283f
00000320: 0746 23bf a127 f03d fefc 943d 8fb9 aebe
00000330: abe7 09bf 79a6 d83d edf7 9d3d df4d 0dbf
00000340: 4138 e93e b2fa 19bf 7463 97bc 3773 a4be
00000350: 303e d43e 63ed 063f a706 8fbe d337 8a3e
00000360: d6a9 3e3f b96e 593f 2263 8dbd 2fbd 4bbf
00000370: 0023 3a3e d135 67be 9ee7 293e d57f 1e3f
00000380: f005 363e 8661 2bbf c56f 72be 9754 3bbf
00000390: 67c6 013f 4e80 4e3f 4b1f 6fbe 3087 c0be
000003a0: 64dc 233f 45a3 4fbe 280c e83e 5b1a 273f
000003b0: f919 c73d 4c93 a83e 32ad 8ebf f3cb 30be
000003c0: b38a 913f 3d11 43bc 7c50 5b3e 57d2 b63e
000003d0: a776 d43e 4502 a63e d7ad 88be fd73 25bf
000003e0: 6420 953b c1dd 113f ca8d b63e e20e 11bd
000003f0: 92b7 76be 4e77 d43c fa6f 35be e1ca 93be

fc2.0.bias f4 [84]
0.07969738 0.0681026 0.010714371 0.10081622 -0.027680214 0.004174333 0.02795162 -0.060401533
0.0788088 -0.09370368 -0.007768804 0.037875686 -0.11781811 0.0129034575 -0.042077314 -0.017612735
-0.07358734 0.03696407 -0.1261416 0.050867293 0.12435903 -0.035079956 0.039275553 0.0040848893
0.027912712 0.035143048 0.016078757 -0.052772887 0.025458597 0.029028391 -0.092207976 -0.042960856
-0.09118833 -0.038476445 0.09909008 -0.14105915 -0.018905068 0.10020159 -0.11683197 -0.06338145
0.067593254 -0.0795261 -0.03826135 -0.0420595 -0.06872011 0.06867344 0.038988464 0.026803631
0.02671823 -0.0628176 0.013852002 -0.038699135 -0.035791982 -0.07585602 -0.15084642 0.011600004
-0.08449341 -0.05541177 0.01112785 -0.0058265408 0.05984139 0.05291328 -0.08961367 0.07482149
-0.029106427 0.10285275 -0.115891665 0.011938316 -0.060984086 0.05350504 0.027699022 -0.0055710017
-0.05232885 -0.07171334 0.09670061 0.0029809729 0.02053717 0.08908952 0.048595265 0.04718564
-0.064763844 -0.004434682 0.0823437 -0.025700986
00000000: 6138 a33d 6079 8b3d 548b 2f3c bc78 ce3d
00000010: 9ec1 e2bc d8c8 883b ccfa e43c 9967 77bd
00000020: 8266 a13d b7e7 bfbd 7491 febb 8923 1b3d
00000030: 9f4a f1bd 0669 533c 4359 2cbd 9548 90bc
00000040: f6b4 96bd a367 173d 432b 01be 395a 503d
00000050: f2af fe3d 00b0 0fbd 67df 203d 89da 853b
00000060: 33a9 e43c 28f2 0f3d 99b7 833c 6228 58bd
00000070: 8c8e d03c f3cc ed3c 89d7 bcbd b9f7 2fbd
00000080: f2c0 babd 7a99 1dbd bdef ca3d cf71 10be
00000090: cdde 9abc 7e36 cd3d 9a45 efbd 22ce 81bd
000000a0: 556e 8a3d 94de a2bd efb7 1cbd 9546 2cbd
000000b0: 21bd 8cbd a9a4 8c3d 5eb2 1f3d 4a93 db3c
000000c0: 31e0 da3c 84a6 80bd 82f3 623c fc82 1ebd
000000d0: 9d9a 12bd 675a 9bbd 7c77 1abe f10d 3e3c
000000e0: e20a adbd 74f7 62bd 9651 363c 91ec bebb
000000f0: 3f1c 753d 98bb 583d 5f87 b7bd 023c 993d
00000100: 9a70 eebc 76a4 d23d 9c58 edbd ed98 433c
00000110: 73ca 79bd 1a28 5b3d 0fe9 e23c f38c b6bb
00000120: c756 56bd 72de 92bd f80a c63d 6d5c 433b
00000130: 913d a83c 9174 b63d d40b 473d bb45 413d
00000140: e8a2 84bd cf50 91bb d0a3 a83d e08a d2bc

fc3.weight f4 [10, 84]
0.31586576 0.18969505 0.3272096 -1.0819595 -0.54728496 0.014685947 -0.9117276 -0.7940175
-0.12540308 0.2740323 0.038824838 -0.33530998 0.45580912 -1.3021215 -1.1030294 -0.76671356
0.25596675 0.19261494 -0.4800171 0.18492013 0.002759617 -0.76732266 0.32183516 0.21360461
-0.7567751 -1.2173774 -0.24263139 -1.0578833 -0.55279535 0.3257523 0.47721142 -1.0645982
0.3627218 0.5327492 -1.4615356 -0.9309728 0.47555074 -0.8029596 0.32494622 -0.23789483
-1.4614625 0.5375979 0.42553574 0.34552902 -1.1880616 -1.0314999 -0.76246053 0.20098595
0.7299891 0.36271247 -0.29005355 -0.28017277 0.012934159 -0.8522371 -0.32881847 0.8289084
-0.66198504 0.3087717 -0.7695429 -0.6521345 -0.32665685 -0.48305452 0.69628364 -0.6447599
0.050489824 -0.9651445 -1.2333272 0.5448696 0.5231507 0.039209563 0.25681713 0.7320344
-0.004268141 0.35751328 0.41549525 0.17497315 0.6290621 -0.40257385 -0.0062452597 0.45333785
0.32467774 -1.0865245 -1.0932024 -1.21204 -1.0968655 0.34686953 -0.6819265 -0.6362145
0.25271228 0.49427807 0.46954903 -0.82948226 0.49415833 -0.8647728 -0.5017788 0.54116887
0.27390134 0.36987433 0.36761495 -0.1718194 -0.61797804 0.13404898 -0.23117262 0.10079835
0.43739265 0.43301144 0.32517385 -0.718613 0.37531585 0.32729888 0.46836367 0.35939282
0.1707774 -0.82158023 0.26586092 -0.7741318 -0.4861329 0.2759629 0.18169606 0.10844648
-0.623191 0.19769655 -1.1719028 0.5566417 -0.49608797 0.21650618 -0.9473773 0.0013263944
-0.5278065 0.0008060053 0.38363692 -0.6810223 0.463453 0.6848507 -0.90454525 0.5231699
-1.469118 0.33196136 -0.36046553 0.13570039 0.48742032 -0.64712876 -0.9798955 0.6564734
-0.38765317 -0.9348519 -0.58923477 0.520789 0.46148637 0.41180578 -0.7271302 -0.56396306
-0.4185208 -0.7153729 -0.6748939 -0.5024888 -1.6818303 0.38262996 0.28146726 -0.87610775
-0.61981046 0.6677041 -0.9964887 -0.086236015 -0.5188623 0.087472685 0.01135183 -0.0637508
-1.1931221 0.171978 0.19496949 -0.5847864 0.6800799 0.26001224 -1.0160458 -0.79064256
0.16560668 0.18456624 0.55145526 -0.59350216 -0.6646926 -0.10194684 0.4166872 -1.0225481
0.6934271 0.14195289 0.4030984 0.27042535 -0.5354822 0.7007906 0.4260278 -0.6524447
0.20631728 0.12570854 -0.9225288 0.42652965 -0.22887748 -0.8395407 -0.09631817 -0.30414972
-1.0877265 -0.29859504 -1.043238 0.44462624 0.3209069 0.20669995 0.9888773 -0.1028641
-0.4910381 0.36097425 0.21864155 -1.0141488 1.3134356 -0.107766934 -0.87307423 -0.5994251
0.62484276 -0.21850164 -0.380584 -0.6522095 -0.20388523 0.5265918 -0.6333454 0.55089045
-0.21136923 0.27869225 -0.89310294 0.21422231 -0.3035443 0.46975136 0.22241975 -1.4006759
-0.4625298 -0.14004585 0.40276864 0.29025745 0.7576934 0.20589903 -0.25237256 0.70415765
0.15559937 0.5319016 -1.3237418 -1.3535659 0.23794056 -0.9194108 -1.2515137 -0.9632566
-0.37373778 0.37393627 0.0304413 -0.7982338 -0.5825857 -0.039914448 0.46183634 -0.08334679
00000000: 28b9 a13e 6b3f 423e 0488 a73e a67d 8abf
00000010: de1a 0cbf 549d 703c fb66 69bf bb44 4bbf
00000020: aa69 00be f64d 8c3e cb06 1f3d c0ad abbe
00000030: d05f e93e ebab a6bf 1130 8dbf 5747 44bf
00000040: 130e 833e da3c 453e cdc4 f5be b45b 3d3e
00000050: b1da 343b 426f 44bf 94c7 a43e 2bbb 5a3e
00000060: 03bc 41bf 06d3 9bbf 5d74 78be b868 87bf
00000070: ff83 0dbf 01c9 a63e 0e55 f43e c144 88bf
00000080: acb6 b93e 4062 083f 9913 bbbf 3c54 6ebf
00000090: 637b f33e c38e 4dbf 5a5f a63e b49a 73be
000000a0: 3411 bbbf 04a0 093f d2df d93e 2ee9 b03e
000000b0: 6712 98bf 3008 84bf 9d30 43bf 43cf 4d3e
000000c0: 91e0 3a3f 73b5 b93e e681 94be ce72 8fbe
000000d0: cbe9 533c 362c 5abf e55a a8be 5733 543f
000000e0: da77 29bf 5317 9e3e c300 45bf 49f2 26bf
000000f0: 913f a7be ec52 f7be a53f 323f fc0e 25bf
00000100: 6bce 4e3d b613 77bf aadd 9dbf 937c 0b3f
00000110: 34ed 053f 359a 203d 897d 833e 9b66 3b3f
00000120: c3db 8bbb fb0b b73e cbbb d43e 292c 333e
00000130: 370a 213f 291e cebe 09a5 ccbb e61b e83e
00000140: 293c a63e 3c13 8bbf 0eee 8bbf 2024 9bbf
00000150: 1766 8cbf e298 b13e bc92 2ebf f4de 22bf
00000160: 8163 813e 0412 fd3e bb68 f03e f358 54bf
00000170: 5202 fd3e c061 5dbf 9374 00bf 0b8a 0a3f
00000180: cc3c 8c3e 2b60 bd3e 0738 bc3e 6df1 2fbe
00000190: cf33 1ebf 2344 093e 84b8 6cbe 5e6f ce3d
000001a0: eef1 df3e adb3 dd3e 307d a63e 06f7 37bf
000001b0: 6629 c03e b893 a73e 5dcd ef3e 5602 b83e
000001c0: 45e0 2e3e 1553 52bf ec1e 883e 802d 46bf
000001d0: 69e6 f8be 024b 8d3e 880e 3a3e 3019 de3d
000001e0: 7289 1fbf f770 4a3e e900 96bf 1280 0e3f
000001f0: 3eff fdbe ccb3 5d3e 5287 72bf 69da ad3a
00000200: 541e 07bf 1a4a 533a 0f6c c43e 7a57 2ebf
00000210: b649 ed3e 6052 2f3f 4790 67bf 76ee 053f
00000220: 0f0c bcbf d7f6 a93e f08e b8be 0bf5 0a3e
00000230: 288f f93e 3baa 25bf 6eda 7abf a40e 283f
00000240: 7a7a c6be 7452 6fbf 17d8 16bf 6e52 053f
00000250: f147 ec3e 35d8 d23e 3425 3abf e25f 10bf
00000260: 5c48 d6be ae22 37bf d9c5 2cbf 1ba3 00bf
00000270: 3746 d7bf 13e8 c33e 7a1c 903e 9948 60bf
00000280: e6ab 1ebf a8ee 2a3f e219 7fbf 829c b0bd
00000290: 29d4 04bf e124 b33d 07fd 393c c88f 82bd
000002a0: 3ab8 98bf 001b 303e 15a6 473e 90b4 15bf
000002b0: b719 2e3f 5320 853e ca0d 82bf 8d67 4abf
000002c0: cc94 293e effe 3c3e 2c2c 0d3f c2ef 17bf
000002d0: 4b29 2abf 81c9 d0bd 0658 d53e dbe2 82bf
000002e0: 7084 313f 195c 113e ea62 ce3e 3175 8a3e
000002f0: 5d15 09bf 0367 333f 5120 da3e 9e06 27bf
00000300: d644 533e bdb9 003e d92a 6cbf 1862 da3e
00000310: dc5e 6abe 24ec 56bf 7642 c5bd 83b9 9bbe
00000320: 9f3a 8bbf 73e1 98be d388 85bf 0da6 e33e
00000330: e94d a43e 27a9 533e 1027 7d3f 6aaa d2bd
00000340: 5969 fbbe 9ed1 b83e 92e3 5f3e a1cf 81bf
00000350: a81e a83f e9b4 dcbd cb81 5fbf ec73 19bf
00000360: b2f5 1f3f e5be 5fbe e8db c2be 34f7 26bf
00000370: 4ac7 50be b8ce 063f ed22 22bf 2807 0d3f
00000380: 2d71 58be c0b0 8e3e 65a2 64bf 185d 5b3e
00000390: 296a 9bbe 4083 f03e 01c2 633e 5949 b3bf
000003a0: b5d0 ecbe 2e68 0fbe b137 ce3e a09c 943e
000003b0: 32f8 413f 32d7 523e fa36 81be ad43 343f
000003c0: 7155 1f3e b42a 083f 5f70 a9bf a641 adbf
000003d0: b1a6 733e 825e 6bbf 9a31 a0bf fc97 76bf
000003e0: 8f5a bfbe 9374 bf3e 0860 f93c 0d59 4cbf
000003f0: 5624 15bf 557d 23bd d075 ec3e b9b1 aabd

fc3.bias f4 [10]
-0.05869531 -0.009629815 -0.035249967 0.010443351 -0.052401192 -0.15105493 0.11079723 0.07482912
0.010367617 0.08413647
00000000: 7e6a 70bd 5fc6 1dbc 4562 10bd 971a 2b3c
00000010: a2a2 56bd 25ae 1abe a8e9 e23d 0240 993d
00000020: f0dc 293c be4f ac3d
