6_ConvolutionalNeuralNetwork/LeNet/model18.pth (torch, 250424 bytes, 10 tensors)

conv1.0.weight f4 [6, 1, 5, 5]
000000 7f 03 1d be 64 80 88 3e 5e 04 02 be 71 3b 37 3f
       -0.15333365 0.26660454 -0.12696978 0.71575075
000010 a5 e4 7d 3e 82 b3 9b 3e c5 02 7d 3f bc 38 98 3f
       0.24794252 0.3041039 0.9883235 1.1892314
000020 49 26 bc 3f 0d ba eb 3e dd 05 99 be 47 4c 2d 3f
       1.4699184 0.46040383 -0.29887286 0.67694515
000030 d7 3c 58 3f 46 4b 1f 3f a1 04 40 bf 57 03 e7 be
       0.84467834 0.62224233 -0.75007063 -0.45119736
000040 13 a9 95 3e 36 1f 82 be b9 a3 32 be 1a 8b 94 bf
       0.29230556 -0.25414437 -0.17445268 -1.160495
000050 93 c0 12 bf 94 dd 2d bf 0a c2 60 bf 7c 6a ce be
       -0.57325095 -0.67916226 -0.8779608 -0.40315616
000060 0f 60 28 bf 59 e3 53 bf 5a 23 d4 be 1f 35 01 be
       -0.65771574 -0.8276878 -0.4143322 -0.1261792
000070 3e dd b7 be 3e bd 5d 3d 65 b5 c8 be 43 fe 0c 3f
       -0.35910982 0.054135554 -0.39200893 0.5507547
000080 b9 ea 6b 3f 32 1a 38 3f 8a 10 59 3f fa eb 85 be
       0.92155033 0.7191497 0.8479086 -0.26156598
000090 04 04 a9 3f 33 e9 03 40 91 f7 35 3f 34 0b 10 3f
       1.320435 2.0611084 0.7108088 0.56267095
0000a0 17 3e 00 bf df 25 6f 3f 03 48 62 3e 04 d8 13 3e
       -0.5009474 0.9341716 0.22097783 0.14437872
0000b0 41 14 10 be f3 42 b4 bf 71 42 37 bf b5 ec 63 bf
       -0.14070226 -1.4082931 -0.71585757 -0.8903306
0000c0 b2 82 0a bf 59 54 ab be 2e 33 19 bf f9 23 b5 be
       -0.54105675 -0.3346279 -0.5984372 -0.35379007
0000d0 f2 fe f1 be 40 37 45 be 2b 8a 7c bf 59 41 6d 3f
       -0.4726482 -0.19259357 -0.9864833 0.9267784
0000e0 e7 56 51 3f 0d 5a 94 3f a6 41 a8 3f 1a d6 33 bf
       0.8177323 1.1589981 1.3145034 -0.7024857
0000f0 41 c6 f9 3e c1 0e 40 3f 27 55 a5 3f 0e 86 5c 3f
       0.48784068 0.7502251 1.2916611 0.8614205
000100 21 23 5e bf 68 5c 20 3d 9a e8 5d 3f 69 00 f9 3e
       -0.8677235 0.039150625 0.86683047 0.48633125
000110 42 17 a4 3e 22 18 3b bf ca 98 0d bf 1b 1f 80 be
       0.32048994 -0.730837 -0.5531126 -0.25023732
000120 89 b1 d5 be a2 6b aa be 54 04 2c bf ad ca c5 3e
       -0.4173701 -0.33285242 -0.67194104 0.38631192
000130 1e f8 31 3f 47 52 43 3f 84 b0 1a 3f 8a a2 16 3f
       0.6951922 0.7629742 0.6042559 0.58841765
000140 2a 3c 30 3e 3c 48 c2 3d 30 dc ab be 6e 5e 2a be
       0.17210451 0.09486434 -0.33566427 -0.16637585
000150 c0 54 15 be 3a 75 15 bf 3f 75 d1 bf 9b 50 a2 bf
       -0.14583111 -0.58382 -1.6363906 -1.2680849
000160 0d bd 8d bf 17 f2 30 bf 2f ab 7a bf b6 09 45 bf
       -1.1073319 -0.691194 -0.97917455 -0.7696794
000170 17 c1 25 be 04 51 46 be e4 eb 2d bf e4 42 a0 3d
       -0.16186939 -0.19366843 -0.67938066 0.078252584
000180 42 fe 78 3f 7c 49 7a 3f a9 27 b4 3e 9f c7 12 be
       0.97262967 0.9776838 0.35186508 -0.14333962
000190 aa 51 23 3f d9 56 a1 3f 58 27 26 3f a7 ad 51 3f
       0.63796484 1.2604629 0.64903784 0.819056
0001a0 f8 d1 69 3f 1f 9a 89 3e 6d d7 b8 be 9c 5b 39 bf
       0.9133601 0.26875398 -0.36101857 -0.7240541
0001b0 b1 a2 43 bf 4e 92 c7 be 7d 3c 5d bd 1c 2f f5 be
       -0.7642012 -0.3897881 -0.054012764 -0.47887504
0001c0 98 f9 1c bf 11 94 ff be 63 a8 f5 be 58 5c 0b 3f
       -0.6131835 -0.49917653 -0.4798003 0.5443778
0001d0 97 1f 04 bf 92 9a 8b bf 35 28 01 bf 7e 85 d1 be
       -0.516107 -1.0906546 -0.50451976 -0.4092216
0001e0 03 4b 7f 3f 3b 80 b3 bd 89 b0 cb be a2 b6 ab 3e
       0.99723834 -0.087646924 -0.39783123 0.33537775
0001f0 7d 68 0f 3f 15 32 bf 3e c0 51 0a 3f 45 ca 25 be
       0.5601881 0.37342897 0.5403099 -0.16190441
000200 e1 e4 67 bf ef 4c 08 bf 83 0d 39 3e 58 be 6b 3c
       -0.90583616 -0.5324239 0.1807156 0.014388643
000210 77 25 07 bf 6a a5 aa bf 60 d6 9f 3e 36 37 5f be
       -0.5279154 -1.333173 0.31218243 -0.21798405
000220 ed 7a 84 bd b8 ba 44 bf 38 d9 53 bf 60 68 3d 3f
       -0.06468759 -0.7684741 -0.82753325 0.7398739
000230 9d 83 6f 3e d1 d7 b4 be ce 3f a8 bf bb c2 ff bd
       0.2339005 -0.35320905 -1.3144472 -0.12488314
000240 be 22 80 3e c4 e5 65 3f 12 de 9a be 82 5d a4 bf
       0.25026506 0.8980372 -0.3024755 -1.2841036
000250 4e 28 ce be e0 e9 ef 3e
       -0.40265125 0.4685812

conv1.0.bias f4 [6]
000000 ba 2a 7e bf fe 71 81 bf 7a 86 5b bf 94 c8 0a be
       -0.99283946 -1.0112913 -0.8575207 -0.13553077
000010 88 6e d1 be f8 de 42 bf
       -0.4090464 -0.76121473

conv2.0.weight f4 [16, 6, 5, 5]
000000 64 47 82 3d 4c 93 81 3e 7e d6 0e 3f 43 fd d6 3e
       0.06361273 0.2530769 0.5579604 0.41990098
000010 c6 b9 81 be 86 91 04 3f 5b f6 4b 3f 07 59 a0 3e
       -0.25337046 0.5178455 0.79672784 0.31317922
000020 41 7f 52 be fb 69 27 bf 8a 73 0e 3f 6c cf 8c 3e
       -0.20556356 -0.6539609 0.5564505 0.27502
000030 e4 11 1d bf b2 e8 68 bf 10 e6 fc 3d a3 c6 7d 3e
       -0.61355424 -0.90980065 0.123485684 0.24782805
000040 74 26 06 3e c3 e4 8c bf b3 55 2b be 96 8f 3d 3f
       0.13100606 -1.1007313 -0.1673191 0.7404722
000050 ec e0 74 bd 42 b1 a3 be 1c 27 83 bf 88 7c 9d 3d
       -0.059784815 -0.31971174 -1.024631 0.07689768
000060 be b6 e5 3e a2 7a a7 bd 71 2d ca 3e ee 19 00 3f
       0.44865984 -0.08177687 0.39487794 0.50039566
000070 21 ca 23 3e ac 63 b1 be 85 90 c1 3e 75 5b 00 3f
       0.15995075 -0.34646356 0.37805572 0.5013955
000080 66 fb d5 bc 28 d7 2a bf 92 f9 90 be f3 65 9e 3e
       -0.026120853 -0.6673455 -0.28315407 0.30937156
000090 e3 8c ce bd 5c 89 61 bf e2 7b 18 bf 48 34 ff 3e
       -0.10085466 -0.8810022 -0.5956403 0.49844575
0000a0 04 00 2a 3d a3 5d 32 3e b8 35 87 bf c9 e0 cb 3c
       0.04150392 0.17418532 -1.0563269 0.02488746
0000b0 59 92 2b 3f 76 59 68 3c 69 df c8 be 9d 25 08 bf
       0.67020184 0.014181485 -0.39232948 -0.53182393
0000c0 08 c8 ae 3e 7e 5c dd 3e 82 b5 76 3e 4b 90 c5 3e
       0.34136987 0.43234628 0.24092677 0.3858665
0000d0 30 c2 0f 3f 58 ae b7 3e bd 6c 4b be ae ef 14 3f
       0.5615568 0.358752 -0.19865699 0.5817822
0000e0 29 82 35 3f 59 f2 74 3e a5 56 0e bf e1 ef e8 be
       0.70901734 0.23920573 -0.5560096 -0.45495513
0000f0 3b 57 ea 3e 3e e0 b8 bb 15 cd 5c bf 39 49 83 bf
       0.45769677 -0.005641966 -0.8625043 -1.0256721
000100 97 b8 51 3e a7 42 69 3e fb 3e 82 3e 16 78 6f bf
       0.20480572 0.22779332 0.25438675 -0.9354261
000110 31 8c 01 bf ae 36 09 3f 21 62 28 be 86 0f 2d bd
       -0.5060454 0.5359906 -0.16443683 -0.042251132
000120 44 3a 4e bf f1 d5 06 3e cb 59 13 3f 22 b1 80 be
       -0.80557656 0.1316755 0.5755889 -0.25135142
000130 7f 60 fd be 0e c2 04 bf c8 b7 2d 3c 00 8d 72 3e
       -0.49487683 -0.51858604 0.010602899 0.236866
000140 f5 bc ed be c6 06 a3 be f8 c4 2a 3e 1f c4 d3 3e
       -0.46433225 -0.31841105 0.166767 0.41360566
000150 d0 a5 05 3d 5f ca ac be 4c 83 39 3e 67 2b a0 3e
       0.032628834 -0.33748147 0.18116492 0.31283113
000160 16 16 e9 bc cb 3a 49 bf 2f 6a 8a be c3 6d 4f bc
       -0.028452914 -0.78605336 -0.27034137 -0.012660447
000170 73 63 91 bc 13 80 e6 be 3f fd 95 bf 29 2b 64 be
       -0.017747616 -0.45019588 -1.171791 -0.2228209
000180 cc 51 e3 3c 86 94 9b be 48 af 4f bf 13 44 8a bf
       0.027748965 -0.30386752 -0.8112683 -1.0802025
000190 0e e2 d6 be 5e ca c9 be 66 58 84 be 58 97 f7 bc
       -0.4196934 -0.39412206 -0.25848693 -0.030223534
0001a0 59 62 1c 3e 8f a6 0a bf c4 e1 2e be 93 3a 99 3e
       0.15271892 -0.541604 -0.1707831 0.299275
0001b0 20 7e e8 3e 3d 5b 1a be 11 54 6f be ed 75 67 3d
       0.45408726 -0.15073867 -0.23371913 0.056508947
0001c0 c1 59 29 3f ae 52 76 3e 4f 08 28 bf 1c 81 0d be
       0.6615258 0.24054977 -0.6563768 -0.13818783
0001d0 23 d8 ab 3d 66 4f ff 3e 90 2b 37 be 44 a2 b3 be
       0.08390834 0.49865264 -0.17887712 -0.35084736
0001e0 31 4d e4 bd cb dc 04 3e 33 cc 9d 3e f0 58 1e bf
       -0.111475356 0.12974851 0.30819854 -0.6185446
0001f0 f3 a2 ac be 8d 99 81 be 77 8a c5 be db ca e6 be
       -0.3371807 -0.25312462 -0.38582203 -0.4507664
000200 55 2a a1 be e1 20 10 be 57 36 2f be a9 1c 9b bd
       -0.3147761 -0.14075042 -0.17110573 -0.07573826
000210 20 18 de 3d ef 26 68 3e e3 63 62 be 5e 89 17 bd
       0.10844445 0.22671102 -0.22108416 -0.036996238
000220 48 c1 1f 3e be 99 46 3f 5f 47 cc 3e 16 dd 70 be
       0.15601075 0.7757834 0.39898202 -0.23521838
000230 c0 0e 04 3e 18 0e 7b 3e c1 fb 08 3f 05 43 b9 bd
       0.12896252 0.24517095 0.53509146 -0.09045986
000240 34 c3 5a be aa 37 fc bd 31 e4 25 3e c0 83 b7 3e
       -0.21363527 -0.123153046 0.1620033 0.35842705
000250 42 89 2a be 6c 69 61 3e 39 4f c0 3e e8 15 c2 3e
       -0.16653922 0.22012872 0.37560442 0.37907338
000260 e4 f4 1e be db f9 c4 be af c2 d3 be fb 4c fc 3e
       -0.15523106 -0.38471875 -0.4135947 0.4927748
000270 e5 d7 d6 3e 6c 5e 74 3e e5 54 b9 3e 67 0e b2 3e
       0.4196159 0.23864144 0.36197582 0.34776613
000280 a6 b3 d6 3d f4 4f 1a bf 1b 05 45 bf 4e 6f 83 bd
       0.10483484 -0.6027825 -0.76960915 -0.06417714
000290 08 d5 e9 3e df 7b 63 bf ed 25 ed bf 4a 0b da bf
       0.45670342 -0.8886089 -1.8527199 -1.7034695
0002a0 dc e9 90 bf 2a 73 e1 be c3 e9 18 3e 72 82 41 3f
       -1.1321368 -0.44033176 0.14932923 0.7558967
0002b0 e2 ea 68 3e 3d f2 62 be c9 e5 d2 bd 3f 22 96 3e
       0.2274585 -0.22162719 -0.10297734 0.29323003
0002c0 a1 b1 81 3d 11 50 5e be 48 50 38 be 36 4a 45 be
       0.06332708 -0.2171023 -0.17999375 -0.1926659
0002d0 0b 9e 6f 3e 3b d2 92 3d c3 c8 f5 3b 2e 49 00 3f
       0.23400132 0.071690045 0.0075007393 0.50111663
0002e0 3b a0 10 3f 55 a5 b4 be 1d 66 aa bf 5d 29 5a bf
       0.5649449 -0.35282388 -1.3312413 -0.85219365
0002f0 42 fa 7a bd f9 3a a4 3e 95 e6 e4 be ff 61 ec be
       -0.06127382 0.32076243 -0.4470717 -0.46168515
000300 c3 4e 3b bf e4 ee 84 bf 0f 67 0a bf 18 02 03 3f
       -0.73167056 -1.0385404 -0.54063505 0.5117507
000310 9f 6d 5f 3f 74 53 b5 3e 9a 00 0e bd 55 a5 d5 bd
       0.87276644 0.35415232 -0.034668542 -0.10431925
000320 5a 1b 94 3e 0f cb 64 3e be 7e 97 3d 33 41 e7 bd
       0.28927118 0.22343086 0.07397221 -0.11291733
000330 ab f9 15 be c7 b0 d4 3e 54 f6 83 3e 19 74 7e bd
       -0.14646022 0.4154112 0.2577387 -0.062122438
000340 dc b7 35 3e bc df f3 3e 97 f8 2b be 6d e6 4b bf
       0.17745918 0.47631633 -0.16794048 -0.79648477
000350 ee 6a bc bf 40 32 38 bf 81 0a 93 bd 09 48 3b bf
       -1.4720132 -0.71951675 -0.07179738 -0.7315679
000360 2e 97 63 bf 2d 86 7c bf 8d 0c 99 bf 48 9d 5e bf
       -0.88902557 -0.98642236 -1.1956955 -0.8695874
000370 cb 86 d7 3d 72 70 e4 3e 27 35 8d 3e a3 a8 16 be
       0.105237566 0.4461704 0.27579615 -0.14712767
000380 c5 18 61 bd 3e 05 9e be 0e d7 89 be db bc 6d be
       -0.054955263 -0.30863374 -0.26921886 -0.23216574
000390 fa c6 ec bd 53 81 2d be b4 72 12 3e 42 4c f0 3d
       -0.11561389 -0.16943865 0.14301568 0.11733295
0003a0 fa fb e9 3d 95 c5 5b be 35 f6 e2 be 45 b5 64 3f
       0.11425014 -0.2146209 -0.44328466 0.89339095
0003b0 09 3e 91 3f df b7 86 3f 5f 1b 57 3f 45 bd b9 3e
       1.1347057 1.0524863 0.8402614 0.36277214
0003c0 ad bc e6 3e 94 31 98 3e cf 9c c5 3e e3 35 4e 3f
       0.45065823 0.29725325 0.38596198 0.80550975
0003d0 28 29 4e 3f ec 44 b9 be 74 fd 1a bf 06 25 13 bf
       0.8053155 -0.36185396 -0.6054299 -0.5747837
0003e0 97 ac 02 3c 2d 49 93 3e cc b9 0d be b1 8a 64 be
       0.007975719 0.28766766 -0.13840407 -0.22318532
0003f0 4c a9 1f be 03 9e a0 be 8b 51 d3 be 76 44 5d be
       -0.15591925 -0.31370553 -0.4127315 -0.21608147

conv2.0.bias f4 [16]
000000 2e eb e3 bd a4 e9 97 3c b1 35 89 bc 1e 36 a2 3c
       -0.11128841 0.018544026 -0.016749235 0.019801196
000010 16 de b2 bd 82 0a 6f bd 84 54 c0 bd 40 a3 0e 3e
       -0.08733766 -0.05835963 -0.0939112 0.13929462
000020 2c 0f ec bd 7e 70 f3 3c 01 c8 49 3d 8d 4d 60 3d
       -0.11526331 0.029716726 0.049263004 0.05476146
000030 b2 d3 a4 bc 7c 2a 39 bd 03 25 3c 3c 51 52 cb 3d
       -0.020120475 -0.045206532 0.011483434 0.0992781

fc1.0.weight f4 [120, 400]
000000 05 0f 1b 3e 1b 01 a4 3e b1 88 6b bf d1 e6 aa bf
       0.15142448 0.32032093 -0.9200545 -1.335169
000010 74 6d f2 be 26 17 b1 3e 38 ce b2 3e c0 1e eb be
       -0.4734913 0.34587973 0.34922957 -0.45921898
000020 8a e6 f1 be 84 3c 79 bd 16 78 d4 3c 1a 88 07 bf
       -0.472462 -0.060848728 0.025936168 -0.5294205
000030 7c 9b bb bd 61 b1 01 3e a1 00 a7 3d 75 b1 1d bf
       -0.09160516 0.12665321 0.08154417 -0.615989
000040 b8 48 37 bf 64 f8 95 bd f9 fb 94 3e 58 6a d8 3e
       -0.71595335 -0.073227674 0.2909849 0.42268634
000050 3e 0f 4b bd f2 fb 04 be 4a 1f ce 3d 62 81 9f 3e
       -0.049575083 -0.12986735 0.10064562 0.311534
000060 f4 c5 82 3d 5c 78 22 bd e7 41 91 3e 4e c1 0b 3f
       0.06385413 -0.039665565 0.28370592 0.54591835
000070 85 2a 96 bc 68 f2 49 be 95 a3 b2 be 82 42 39 bf
       -0.018330822 -0.19721377 -0.34890428 -0.7236711
000080 c7 2d 0c 3d c8 6e 12 3f 44 18 6d 3e bf 09 6f be
       0.034223344 0.5720029 0.23153788 -0.23343562
000090 b3 d6 b5 3e 7b 0a 95 be 31 d1 c4 be bd 57 4f bf
       0.35515365 -0.29109558 -0.3844085 -0.80993253
0000a0 0a d1 30 3e 41 11 06 3c 3b 37 c7 be 5b e6 46 bf
       0.17267242 0.008182825 -0.38909325 -0.77695245
0000b0 38 6d db 3d ab 8e 8e 3e 8b d7 18 3e e7 d5 69 3d
       0.10714191 0.27843222 0.14925973 0.05708876
0000c0 34 09 78 3e 7c 62 0b 3e c2 30 9a 3e dc 5c c8 3e
       0.2422226 0.13611788 0.30115324 0.39133346
0000d0 b1 b9 70 3d 02 68 22 bf 19 71 c0 be ba 41 85 bd
       0.05877084 -0.63439953 -0.37586287 -0.06506677
0000e0 37 68 bc be 19 29 59 3d 5b ee 6b be cc 11 dc 3e
       -0.3679826 0.05301771 -0.23040144 0.42982328
0000f0 76 45 52 be 76 be 86 bd 36 90 a3 be 28 1b 74 3e
       -0.2053431 -0.06579296 -0.31945962 0.23838484
000100 eb c9 9e 3e 12 70 e2 3e 52 37 80 be 4c b7 96 3e
       0.31013426 0.44226128 -0.25042206 0.2943672
000110 fc 82 77 be ba d1 01 3e b9 d3 08 3d e2 ae 1d 3e
       -0.2417106 0.1267766 0.03340504 0.15398744
000120 34 57 64 3e 59 44 ee 3e 54 b5 90 3e d1 eb 14 bf
       0.2229889 0.4653652 0.28263342 -0.5817233
000130 b6 9f 50 be da 73 0d 3e c0 40 96 3e 78 56 e5 3e
       -0.20373425 0.13813725 0.29346275 0.44792533
000140 91 de a9 be 7a 36 9f be 30 38 78 3d 4f 66 f2 3d
       -0.33177617 -0.3109625 0.06060046 0.1183592
000150 ef 3b 41 3e b5 42 8c be 58 84 5f be 57 2a 2d 3d
       0.18870519 -0.27394643 -0.21827829 0.042276707
000160 e3 86 a9 3d d2 bb 22 bf 53 6f b2 3e f5 c2 e8 3d
       0.08277681 -0.6356784 0.3485056 0.1136531
000170 e3 9d 40 bd 6c ac 67 bf 13 aa cb bf b4 0a aa 3e
       -0.047025573 -0.9049747 -1.5911278 0.3321129
000180 bc 25 15 3f e8 47 c0 bd 51 8d be be 32 7f d6 be
       0.58260703 -0.09388715 -0.3721719 -0.41893917
000190 69 d2 36 bf 23 63 b9 be 1c ec b1 3e e4 72 cd 3e
       -0.7141481 -0.36208448 0.3475045 0.40126717
0001a0 09 72 10 3f 32 5f ee be c2 45 1d bf c3 20 86 3d
       0.56424004 -0.46557003 -0.61434567 0.065492176
0001b0 8a 57 00 3e a4 4c 13 bd cd 85 64 3e 93 98 9f be
       0.12533394 -0.035961762 0.22316666 -0.31171092
0001c0 b1 6a d0 3d 06 4e 8a 3b ff 42 99 bd 9c 4d e8 3e
       0.101766 0.004220727 -0.074834816 0.4537171
0001d0 25 ba b7 bd 12 9e 83 bd a5 4c b5 bd 57 18 97 be
       -0.08971051 -0.06426634 -0.088525094 -0.29510757
0001e0 63 0d 88 3e 77 91 06 be 82 2b d0 3c c3 21 a2 be
       0.26572713 -0.13141428 0.025411371 -0.31666383
0001f0 77 86 07 bf 4c 65 7c bf f6 6c 33 be fb 7c f2 3d
       -0.5293955 -0.98592067 -0.17522034 0.118402444
000200 bd 47 ae 3d 37 eb 0c 3f 89 26 52 bf b6 50 47 be
       0.08509777 0.5504641 -0.8209005 -0.19464383
000210 d9 2a b3 3a fd 7a 3a 3f c7 a9 8e be 0c dc 7c 3d
       0.0013669386 0.72843915 -0.27863905 0.06173329
000220 f6 f4 fb bd 18 41 83 3e 05 53 83 bd a7 58 0c bf
       -0.12302582 0.256356 -0.06412319 -0.5482277
000230 23 aa 85 bd 9c f6 aa 3d a3 cd 86 bd 22 89 c8 bd
       -0.06526592 0.08347818 -0.06582191 -0.09791781
000240 2f 53 de be 24 bc 29 3e ff 20 8d 3d 65 b3 56 be
       -0.4342284 0.16575676 0.06891059 -0.20966871
000250 32 91 27 bf c2 81 84 bf 0d a7 a7 3d b7 38 73 bd
       -0.65455925 -1.0352099 0.08186159 -0.05938026
000260 20 ea a3 3c 46 14 51 bc 38 f8 e5 bd 04 95 de be
       0.0200091 -0.012761181 -0.112289846 -0.43473065
000270 5f d7 c0 be df ca ec be 38 79 84 3e e9 42 f3 bc
       -0.37664315 -0.46248528 0.25873733 -0.029694991
000280 9d 7a 8d be 61 a7 35 be ba 9c bc 3d 59 59 57 be
       -0.2763261 -0.17739631 0.09209581 -0.21030177
000290 ed 26 a2 be c6 4d 00 bf bc 11 fe 3e bd ca 44 3f
       -0.31670323 -0.5011867 0.49622905 0.76871854
0002a0 83 61 c7 b9 43 16 0f 3e 3c ef f9 3d 1b 71 0c 3f
       -0.0003802889 0.13973336 0.122038335 0.54860085
0002b0 19 2a dc 3c ae dd c8 3e 27 91 1a 3f b8 93 22 bf
       0.026875542 0.39231628 0.60377735 -0.6350665
0002c0 c6 5f b3 be da c6 9e 3d aa 6a c5 3e 2c 9d c7 3e
       -0.35034007 0.07752772 0.3855794 0.389871
0002d0 d0 e8 81 be a6 d7 35 be b7 18 a4 3e 01 45 29 3f
       -0.25372934 -0.17758045 0.32050106 0.66120917
0002e0 b1 75 86 3f 2d c9 2f 3d 30 08 48 3e 7d aa 0e 3f
       1.0504667 0.042916466 0.19534373 0.55728894
0002f0 5b 79 42 3f 5c e1 ed 3e aa c3 ef bd 35 41 d7 3b
       0.75966424 0.46460998 -0.11707242 0.0065690526
000300 08 e5 07 be 24 d7 35 bf 71 48 8b bd 09 0e 47 3e
       -0.13270962 -0.71031404 -0.068009265 0.19438948
000310 5a 70 61 3c f3 ab 97 be 13 cc 76 bf df e4 a9 be
       0.013759697 -0.29623374 -0.9640514 -0.33182427
000320 ff 5d 7d 3e 43 2c f3 3e 5f 99 83 bf b9 f4 49 bf
       0.24742888 0.47494707 -1.028118 -0.7888904
000330 1d fb ae 3d e0 f4 ab 3d 81 e5 e3 bc 57 1d d0 be
       0.0854399 0.083963156 -0.027819397 -0.40647385
000340 3c 12 1e bd af 34 69 3e 1a 24 35 3e c3 e3 60 3e
       -0.03859161 0.22774003 0.17689553 0.21961884
000350 08 86 fc bd d3 6f a0 3e 42 aa 9d 3e 36 fe bf bd
       -0.12330252 0.31335315 0.3079396 -0.09374659
000360 f0 0d bb bd da d4 e1 3e 36 08 9f be 69 d1 1a 3f
       -0.09133518 0.44107705 -0.31060952 0.60475785
000370 5e 99 ae be 56 f0 34 3d 61 03 e9 bd 37 55 4e bb
       -0.34101385 0.044174515 -0.113775976 -0.0031483897
000380 81 9c 2c 3f e9 5f d1 be ce 1a f2 bd cb 22 be 3e
       0.67426306 -0.40893486 -0.11821519 0.3713592
000390 59 6e de 3e e6 f6 fe 3e 6d aa 79 bf 75 c7 bb be
       0.43443564 0.49797744 -0.97525674 -0.3667561
0003a0 83 e3 72 bb 67 01 d1 3c 1d ce f3 bd 12 29 db be
       -0.0037061877 0.025513364 -0.11904547 -0.42804772
0003b0 ff cb 96 3b 96 40 ba be 4a 08 5d bf 11 13 21 bf
       0.004601955 -0.363774 -0.86340773 -0.6291972
0003c0 83 19 0d 3e 93 02 98 3e f6 47 93 be 8a 3d 95 bf
       0.13779263 0.29689464 -0.2876584 -1.1659405
0003d0 78 94 af bf 8c 06 5d 3e d3 f1 68 3e 17 ab 6c be
       -1.3717184 0.21584529 0.22748499 -0.2311214
0003e0 22 0e 52 bf 2c 57 6b bf e8 2f f8 bc 40 42 80 3e
       -0.82052815 -0.9192989 -0.030296281 0.25050545
0003f0 23 7c f7 3e 50 9a 6c 3d 75 34 74 3e 63 3c 29 bf
       0.48336896 0.05776435 0.23848136 -0.6610777

fc1.0.bias f4 [120]
000000 21 da ca 3c 75 2a 05 3b 65 6d 8d bd f4 34 9d 3c
       0.024762215 0.0020319496 -0.06905631 0.01919029
000010 92 f5 1b 3c 0f 59 23 bd 1e 3c df bd cf 6e f5 bd
       0.009518998 -0.039879855 -0.10900138 -0.11984026
000020 b4 b6 7b bd 61 92 ef 3b af 87 1a be 38 b1 be 3b
       -0.061453536 0.007311151 -0.15090822 0.005819466
000030 37 b0 1d 3d a0 88 dc ba b2 61 19 3e 14 32 e5 bc
       0.03849813 -0.0016825385 0.14978674 -0.02797798
000040 5f a9 52 bb 02 da a4 3d cc c9 fd 3d a8 fa 0c 3d
       -0.003214441 0.08049394 0.12392005 0.034418732
000050 cd e5 49 3d d3 3b 37 3d 62 d3 b6 3d 2b a7 c8 bd
       0.04929142 0.044734787 0.08927037 -0.0979751
000060 0d a5 cd 3d dc f8 b4 ba 47 b8 36 be 3a 97 10 bc
       0.100412466 -0.0013807076 -0.17843734 -0.008825118
000070 bd 1c 0c 3d 76 9e 74 3d 0a 6e f1 bd a1 5b 28 bd
       0.034207094 0.059721433 -0.117885664 -0.04110301
000080 d7 b2 e7 bd 05 e8 50 bd ff 58 1a 3d 4e cd 8d bd
       -0.11313408 -0.05100252 0.03768253 -0.069239244
000090 09 4a 48 3e 0e c7 06 be a6 56 32 3d 6b cf 3b be
       0.19559492 -0.13161871 0.043539666 -0.18340842
0000a0 45 ee 5f bd 4f f8 9c bd 8c e8 4d be 1c 45 0c be
       -0.05467059 -0.076645486 -0.20108241 -0.13698238
0000b0 4a 75 4c 3d 5a f3 59 be cc a4 1d 3d f6 27 5f bd
       0.049916543 -0.21284238 0.03848724 -0.05448147
0000c0 eb f9 12 be 35 f3 4f bc d7 8c 04 be c2 cf f5 bd
       -0.14353149 -0.012692262 -0.12944351 -0.12002517
0000d0 17 68 f4 3d 5c 6c ef bd 3f 13 1c 3d 00 cb bf bd
       0.11933916 -0.1169059 0.038104292 -0.09364891
0000e0 8c 11 c3 3d 52 d7 27 be dc 83 72 bd d0 0f 2b bd
       0.09524831 -0.16390732 -0.059207782 -0.041763127
0000f0 2d d3 b8 3c db 40 06 bd bb bd b9 3c 79 c6 87 be
       0.022561634 -0.032776695 0.022673478 -0.2651861
000100 91 83 9c 3c 82 88 cc bd 63 2a 16 3d db 27 19 be
       0.019105705 -0.09986974 0.036661517 -0.1495661
000110 b7 40 06 3e f2 bd 18 be d2 39 a5 3b 0a 43 19 be
       0.13110624 -0.14916208 0.005042293 -0.1496698
000120 72 0e c2 bd 67 1b d8 bb 9b 48 1f bc 3a 50 5c be
       -0.094754115 -0.0065950635 -0.0097219 -0.21514979
000130 5b 34 71 3d 79 29 5a 3b 23 fc 3a 3d 76 32 9f 3c
       0.05888782 0.003328888 0.045650613 0.019433241
000140 94 c6 61 3d 2c c6 10 3e f0 7d 51 bc e0 74 1d be
       0.05512102 0.14138097 -0.0127863735 -0.15376616
000150 2a 07 14 bd 67 14 0c 3d 62 60 cb 3c fa 8d fd 3c
       -0.036139645 0.034199145 0.024826232 0.030951489
000160 39 f4 c5 bd d7 55 43 bc 55 12 1c 3e 9f b6 ad bb
       -0.096657224 -0.011922321 0.15241368 -0.005301311
000170 09 97 6a 3c b1 0f 18 3e 26 e0 4e bd a1 e2 d3 bb
       0.014318236 0.14849736 -0.050506733 -0.0064662253
000180 d8 08 86 bc 8e 1d d3 bd c1 79 d1 bd c0 0e db bd
       -0.016361639 -0.103083715 -0.10228301 -0.10696173
000190 9c 04 16 be 9d 33 19 3c 9a 78 c9 3d 29 33 ae 3d
       -0.14650196 0.0093506845 0.09837456 0.08505852
0001a0 33 10 47 be 3b 54 b4 3d c0 82 74 3d ab 3d 97 bd
       -0.19439773 0.08805128 0.059695005 -0.07384809
0001b0 64 aa 60 3d 6d 18 68 bd 5a 86 db bd 2d 8c 78 3d
       0.054849997 -0.05666392 -0.10718985 0.060680557
0001c0 d9 15 8c bd 12 ee d5 bd 2e c1 1e bd 02 26 6d 3d
       -0.068401046 -0.10445799 -0.03875845 0.057897575
0001d0 42 b7 2d 3b ff b0 78 3e ba a9 b1 bd 00 81 81 3d
       0.0026506935 0.24286269 -0.08674951 0.06323433

fc2.0.weight f4 [84, 120]
000000 b0 e0 1a be c4 8a 09 3f 6a af fd 3e 5c 96 91 bd
       -0.15124774 0.53727365 0.49547893 -0.07108757
000010 1f bd 46 be 52 b5 50 3f f5 23 05 bf e4 36 16 be
       -0.19408081 0.8152667 -0.5200799 -0.14669377
000020 32 46 3d be d3 18 f1 3e 16 2a 06 bf 97 e9 71 be
       -0.18483809 0.47089252 -0.5240797 -0.23624264
000030 43 7f 3e bf 99 b6 1b 3e fa 7c 25 be 7d 9f 26 bf
       -0.74412936 0.15206374 -0.16160956 -0.6508711
000040 d4 e5 96 3e 66 65 29 be 87 91 cb 3d 52 70 3b 3d
       0.2947222 -0.16542587 0.099398665 0.045761414
000050 eb 9b ab 3e 44 15 91 be 1b 83 ce 3c 07 5b 7f bf
       0.33517393 -0.28336537 0.025209 -0.9974827
000060 92 7d 1a bf 68 82 57 3f ff 0b ef 3e 8c 72 23 3e
       -0.60347855 0.8418336 0.4668884 0.15961665
000070 9e 4b 85 bd ed 3a 23 3f 89 0f b1 bc 66 22 01 3e
       -0.065085635 0.6376179 -0.021613853 0.12610778
000080 3c 58 01 be 5d 8e 35 3d 29 5a 0a bf 07 dc 52 3f
       -0.12631315 0.04432522 -0.54043823 0.82366985
000090 0b d5 f0 3d 2d ad 11 3e bf c2 ca be 9d 8e e2 bd
       0.11759385 0.14226218 -0.39601704 -0.110623576
0000a0 44 ef 90 be d1 df 9c bc e2 b8 ef be 2e 93 a0 bd
       -0.28307545 -0.019149693 -0.46820742 -0.07840572
0000b0 a5 8e 0c bf ac 41 96 be c3 f9 db 3e 03 c4 b4 3e
       -0.5490516 -0.2934698 0.4296399 0.35305795
0000c0 dd 6f dd 3c 11 c3 8b be 5f 43 80 be c7 56 38 bf
       0.02703088 -0.2729726 -0.250514 -0.7200741
0000d0 79 a0 2e 3e 27 d6 a1 bf 2c 5c da be 49 4a 9e be
       0.17053403 -1.2643479 -0.42648447 -0.3091605
0000e0 8a 5b 2f 3d 36 b8 0d bf 90 86 57 3e 7a 6c 12 3e
       0.042811908 -0.5535921 0.21047425 0.14299193
0000f0 24 c7 01 3f d5 5e 64 3d cc db 3a 3f 70 b6 3c bf
       0.5069449 0.0557545 0.72991633 -0.7371588
000100 66 3a 42 3e be a5 a1 be e8 1b 9c 3e 5b 6d b8 bd
       0.1896759 -0.31571764 0.3049004 -0.09005233
000110 38 a3 ef 3d 2f 29 01 bf 79 a5 4b 3c 32 92 1d 3f
       0.117010534 -0.50453466 0.0124295885 0.615512
000120 eb 1b 01 bd 8d cd da bd ed 18 a8 3e 73 4c 92 bf
       -0.031520765 -0.10683737 0.32831517 -1.142958
000130 f3 b2 0b bf bc f1 08 3f 83 5c bd 3e 0b c5 fe 3e
       -0.5456993 0.5349386 0.36984643 0.49759707
000140 c7 2f 6b 3e f4 5b 9e be b9 2c 31 be 06 be fb 3d
       0.22967444 -0.3092953 -0.17302217 0.122921035
000150 5a e8 01 3f 62 d3 f8 3c a4 a9 3e bf 56 74 b8 3e
       0.50745165 0.030374233 -0.744776 0.36026257
000160 05 a0 c7 be c0 62 d3 3e e0 a5 0b 3f 37 c7 82 3e
       -0.38989273 0.41286278 0.5454998 0.25542614
000170 bd 9f 18 3e 6e 4f 84 be 87 81 b2 bd 8b 9c b4 3e
       0.14904685 -0.2584185 -0.08716112 0.35275683
000180 d8 6b 8c be 82 d5 29 bf de a0 9c be 4e 08 04 3e
       -0.27426028 -0.6634141 -0.30591482 0.12893793
000190 3c 23 7c bf 1b 7d 78 3f f2 14 cf 3d 40 8f 4c bf
       -0.98491263 0.97065896 0.10111417 -0.7990608
0001a0 16 db 3d bf 44 cc 01 bf e1 1c 05 be 3f 31 81 3d
       -0.74162424 -0.5070231 -0.12999298 0.06308221
0001b0 a3 c0 01 3f ca 8a 07 3f f0 1a 0f 3f 66 dc 34 be
       0.50684565 0.5294615 0.5590048 -0.176622
0001c0 58 ad e8 be fb 33 df 3e 80 13 58 3e 5f 99 aa bc
       -0.4544475 0.43594345 0.21101189 -0.020825086
0001d0 a9 7d 5d be b4 6c a4 bd 3e 92 0a 3e c5 09 23 3e
       -0.21629967 -0.08028546 0.1353235 0.15921696
0001e0 30 35 c5 bd 3d cb 1c 3e 0b 4c 9d be 64 29 e6 bd
       -0.09629285 0.15311904 -0.3072208 -0.112383634
0001f0 0a e7 07 bf 4c ae dc be 11 93 2f 3b 3e ef 7c 3d
       -0.5308691 -0.43101728 0.002679054 0.061751597
000200 1d 07 5e 3e e2 6a 30 bf 20 40 1d 3e 3a ac 95 3e
       0.21682401 -0.6891309 0.15356493 0.2923296
000210 e4 28 a5 be 87 7a 02 bf 04 f2 dc bd 86 9d e4 be
       -0.3225776 -0.5096821 -0.10788348 -0.4465143
000220 88 a8 f2 3e fd 73 af be 57 11 a4 3e ff 08 2b 3e
       0.47394204 -0.3426818 0.3204448 0.1670265
000230 0d c7 8c be bb ff 28 3f 42 74 ee be 34 57 28 3e
       -0.27495614 0.66015214 -0.46573073 0.16439515
000240 06 e6 9f be 29 eb 29 3e bd 33 41 3e d7 fc 93 3f
       -0.3123018 0.16593613 0.18867393 1.1561536
000250 92 75 67 bc e7 c8 51 be 51 e2 09 bf f7 66 92 bf
       -0.014127152 -0.20486794 -0.53860956 -1.1437672
000260 1a d4 e2 be 5e ec 18 3d 25 20 ab 3c 9f 09 99 3e
       -0.44302446 0.037334792 0.020889351 0.29890153
000270 46 1a ef 3e d6 49 66 3c 5c 92 62 3e b9 1d c4 be
       0.46699733 0.01405569 0.22126144 -0.38303927
000280 12 16 bb 3d f4 84 4f 3f ee 49 3f be d1 fc 37 3f
       0.09135069 0.81062245 -0.18680546 0.7187014
000290 01 7e d8 3b 1e 50 16 3f b5 67 10 3d c5 b9 2e be
       0.0066068177 0.58716 0.035255153 -0.17063053
0002a0 df 77 8d bd 59 66 42 be 98 6b c8 3e f5 1b 06 3f
       -0.06907629 -0.18984355 0.39144588 0.5238641
0002b0 d0 72 ec bd 03 e9 a1 3f 6c 54 10 3f 90 43 f4 3d
       -0.11545336 1.2649235 0.5637882 0.11926949
0002c0 cf 81 e5 be 64 58 97 3e 6d 91 04 bf a4 f8 0a 3e
       -0.448256 0.29559624 -0.517844 0.13571411
0002d0 ee 53 f1 3d 97 27 ec 3e 3f b4 fa 3e 94 5a 35 bf
       0.117835864 0.46123955 0.48965642 -0.70841336
0002e0 3c 13 ae 3e 84 9a 6a be 56 74 91 be d2 d6 46 bd
       0.3399905 -0.22910506 -0.2840907 -0.048544712
0002f0 90 34 a1 3d f1 27 6b bd 0b 74 0d 3f de 36 fe be
       0.078713536 -0.057411138 0.5525519 -0.49651235
000300 e2 1c 1c be d1 cb 77 be 19 e2 c0 be 2f 7b 6d be
       -0.15245393 -0.24198844 -0.376725 -0.23191522
000310 e0 e5 1a bf 72 85 f1 bc 44 2d 2b 3d 67 63 2a 3f
       -0.6050701 -0.029482577 0.041791216 0.66557926
000320 9f 70 1e bf c7 e6 11 3e 4a f5 ad 3d 39 e4 ab be
       -0.61890596 0.14248191 0.08494051 -0.33572558
000330 45 b4 00 bf 07 54 14 3e 00 b3 9f 3d 2a 6e 0c bf
       -0.5027507 0.14485179 0.077978134 -0.54855597
000340 98 b2 e6 3e 75 b9 17 bf 5b a4 b1 3b 4f eb 94 be
       0.4505813 -0.5926736 0.005421204 -0.29085776
000350 98 47 da 3e 3a 15 08 3f 47 b7 8b be 81 96 99 3e
       0.42632747 0.5315739 -0.27288267 0.29997638
000360 89 fa 44 3f 3e 3b 5c 3f 57 36 ad bd db ea 4a bf
       0.76944786 0.86027896 -0.0845763 -0.7926461
000370 c6 05 45 3e 80 8f 67 be d1 d1 2c 3e e8 f1 24 3f
       0.19240484 -0.22613335 0.16876914 0.6443162
000380 b7 9e 08 3e 98 6b 2b bf 34 71 70 be b3 51 35 bf
       0.13341795 -0.6696105 -0.23480684 -0.7082779
000390 57 f5 01 3f 5e d6 55 3f c7 43 6d be 88 d3 be be
       0.50764984 0.83530223 -0.23170386 -0.3727076
0003a0 54 91 23 3f 07 15 3d be f8 97 eb 3e bf 74 2b 3f
       0.6389363 -0.18465053 0.4601438 0.66975015
0003b0 7a 11 b6 3d 20 2c ae 3e c5 f0 89 bf dd f4 2c be
       0.08890052 0.3401804 -1.0776602 -0.16890283
0003c0 d2 2c 9d 3f 7e 77 79 bd aa a7 88 3e 0e 1d c8 3e
       1.2279303 -0.060904972 0.26690418 0.39084667
0003d0 b8 df d6 3e 36 ca b9 3e f4 34 89 be 28 16 1e bf
       0.4196756 0.36287087 -0.26798213 -0.6175256
0003e0 62 9d ec 3c 1a 89 0f 3f e1 d1 b6 3e 3f 5d 05 bd
       0.02888364 0.56068575 0.35707 -0.03255963
0003f0 20 77 5d be 82 2b 2e 3d 27 fb 2d be 35 6f 91 be
       -0.21627474 0.04252196 -0.16990338 -0.28405157

fc2.0.bias f4 [84]
000000 b1 b6 34 3d e6 3e a5 3d 50 d3 8f 3c d7 50 b7 3d
       0.04411954 0.080686375 0.017556816 0.08950966
000010 02 f5 dd bc 9b a5 c3 bb 29 df 30 3c ee ae 9a bd
       -0.027094368 -0.0059706694 0.010795393 -0.075528964
000020 74 10 9e 3d 96 c0 96 bd db ea a3 bc e8 4a ff 3c
       0.07717982 -0.073609516 -0.020009449 0.031163648
000030 32 61 bf bd 9b d9 b3 3c 85 27 db bc 0e 12 1e bd
       -0.093447104 0.021954348 -0.026752243 -0.038591437
000040 5e ac b6 bd 31 86 30 3d 63 d6 d3 bd 5a 14 5d 3d
       -0.08919595 0.043096725 -0.103436254 0.053974487
000050 62 81 f2 3d 5a ca 4b bc d4 8e 80 3d bf 2d 1f bb
       0.11841084 -0.012438381 0.06277242 -0.0024288741
000060 c6 f4 06 3d 96 b9 f4 3c 25 4f f6 3c 0b 65 7c bd
       0.032948278 0.02987365 0.030067036 -0.0616198
000070 bd ad de 3c c0 e4 ee 3b 12 8a 01 be e1 07 9b bd
       0.027182454 0.0072904527 -0.12650326 -0.07569862
000080 c1 e4 b7 bd 3b 00 84 bd 89 05 9f 3d e8 cb f2 bd
       -0.08979178 -0.064453565 0.077647276 -0.11855298
000090 75 4f 9d bc a3 20 e9 3d 2c 35 e4 bd 37 e2 8c bd
       -0.019202927 0.11383178 -0.11142954 -0.068790846
0000a0 84 43 a9 3d 76 28 66 bd 35 6e 01 bd 5d bb 37 bd
       0.08264831 -0.05619093 -0.031599242 -0.044856418
0000b0 c7 b2 2c bd 0f 82 62 3d c5 3b 71 3d 6d 64 0f 3c
       -0.042162683 0.055299815 0.05889489 0.008751971
0000c0 80 ad 0e 3d 24 6d 54 bd ba eb 2a 3d 3b e2 d8 bc
       0.03483343 -0.051861897 0.041728713 -0.026475063
0000d0 ea b5 31 bd 42 9b 8a bd 1c 3b 14 be c1 74 cc 3c
       -0.043386377 -0.06767894 -0.14475673 0.024958016
0000e0 6d c3 a4 bd 9e c6 59 bd 37 8d c4 3c 8f 64 08 3a
       -0.08045087 -0.05316793 0.023993118 0.00052029727
0000f0 14 2b 2d 3d 23 58 76 3d cf fb b0 bd 19 a5 82 3d
       0.04227741 0.060142647 -0.08641779 0.06379146
000100 fd db 95 bc e5 43 db 3d 67 91 df bd f6 a8 9a bc
       -0.018293375 0.10706309 -0.10916405 -0.018879395
000110 47 14 2c bd 8e 73 71 3d 3f b0 56 3d f2 81 56 3c
       -0.042011525 0.058948092 0.052414175 0.013092505
000120 c3 49 57 bd d9 86 23 bd ea ef 06 3e 75 86 63 bc
       -0.05256058 -0.039923523 0.13177457 -0.0138870375
000130 b1 bc d3 3c 64 85 a5 3d 3f ba 1c 3d c9 fe 17 3d
       0.025846811 0.08082083 0.038263556 0.037108216
000140 6a 4e 6a bd a3 ec 36 3c 6b fa 9c 3d a3 9e 0a 3c
       -0.057203688 0.011164817 0.07664951 0.0084606735

fc3.weight f4 [10, 84]
000000 70 3d a2 3e 4d d8 32 3e 4d 7a ab 3e 56 81 89 bf
       0.31687498 0.17465325 0.33491746 -1.0742595
000010 f9 05 0b bf 32 a5 30 3c b4 b9 71 bf ba 8c 44 bf
       -0.5430599 0.010781573 -0.94423985 -0.7677723
000020 f8 16 0f be 59 e0 8e 3e f0 c7 2c 3d d6 77 b0 be
       -0.13973606 0.2790554 0.042182863 -0.34466428
000030 40 e2 f5 3e 5d 5d aa bf 59 10 8c bf 79 64 40 bf
       0.48024178 -1.3309742 -1.0942489 -0.7515331
000040 ea 37 83 3e 0d b4 45 3e 4e eb f8 be b4 e7 3b 3e
       0.25628597 0.19306965 -0.48617023 0.18350106
000050 5d cb b3 3b d1 53 47 bf 9c 55 ab 3e 30 08 5c 3e
       0.0054868893 -0.7786227 0.33463752 0.21487498
000060 e5 1b 4b bf 46 40 a0 bf e5 60 6d be 14 99 86 bf
       -0.7933944 -1.2519615 -0.23181494 -1.0515466
000070 8f 90 16 bf 76 36 a6 3e 9e 16 fd 3e ec 0c 86 bf
       -0.5881433 0.32463425 0.49431318 -1.0472693
000080 0b 6b b9 3e 41 72 0a 3f 81 96 be bf c8 0f 6d bf
       0.3621448 0.5408059 -1.488968 -0.92602205
000090 95 d8 f7 3e 88 f4 54 bf 7b 56 ab 3e 8e c3 6c be
       0.48407426 -0.83185625 0.33464417 -0.23121473
0000a0 84 9b c0 bf 44 d5 06 3f 50 df dd 3e 13 54 b0 3e
       -1.504746 0.5266917 0.43334436 0.34439144
0000b0 b8 02 98 bf 31 34 88 bf 7f 44 49 bf 06 45 56 3e
       -1.187583 -1.0640928 -0.7862014 0.20924768
0000c0 a0 be 40 3f 8b 79 b8 3e 44 9b 9a be 99 28 9e be
       0.7529087 0.3603023 -0.30196583 -0.3089035
0000d0 25 ea 09 3d e2 77 61 bf ff 24 a6 be fc be 5b 3f
       0.033670563 -0.8807355 -0.324501 0.85838294
0000e0 14 0d 35 bf 95 52 a1 3e a9 4e 3f bf b0 65 29 bf
       -0.7072308 0.31508318 -0.747294 -0.6617079
0000f0 73 5e b9 be e6 2f f2 be 47 37 39 3f cd 0d 26 bf
       -0.36204872 -0.4730217 0.7234997 -0.6486481
000100 76 b3 82 3d 99 fa 7b bf 59 f8 a1 bf c0 ca 0b 3f
       0.06381886 -0.98429257 -1.2653915 0.54606247
000110 b1 f4 07 3f 4d bd bb 3c 86 d4 80 3e 88 24 3e 3f
       0.53107744 0.022917414 0.25162143 0.7427449
000120 bf f3 77 ba 37 6c be 3e f2 dc d7 3e 04 60 36 3e
       -0.0009458623 0.37191936 0.42160755 0.17810065
000130 fa b5 21 3f 1d 20 cd be 55 7e ef 3b 8e aa e9 3e
       0.631683 -0.40063563 0.007308761 0.45637935
000140 5c 68 a7 3e 06 6c 8f bf 6f 02 8c bf ad c6 9f bf
       0.32696807 -1.1204841 -1.0938243 -1.2482506
000150 6e a1 86 bf 96 80 b6 3e 17 b1 2d bf ec ae 1d bf
       -1.0518014 0.35644978 -0.6784834 -0.61595035
000160 04 ee 85 3e bf 1d fb 3e 33 dc 02 3f 76 58 57 bf
       0.26158154 0.49046132 0.5111725 -0.84119356
000170 91 b3 01 3f ef 81 5e bf 22 68 fe be 73 f5 08 3f
       0.5066462 -0.8691701 -0.49688822 0.53499526
000180 80 aa 8d 3e bb 20 c1 3e 11 3a bf 3e 8b 42 40 be
       0.27669144 0.37720284 0.3734899 -0.18775384
000190 a9 48 15 bf 50 fa 0d 3e b2 a3 80 be 49 6e fe 3d
       -0.58313996 0.13865018 -0.2512489 0.12423379
0001a0 c4 14 e1 3e e5 7e e6 3e c4 05 ac 3e e9 dc 36 bf
       0.43961155 0.45018688 0.3359815 -0.7143083
0001b0 11 0e c7 3e 48 5c b4 3e 06 34 f2 3e ef f3 b6 3e
       0.3887792 0.35226655 0.47305316 0.35732982
0001c0 ba a1 47 3e 10 2a 59 bf 37 5f 88 3e 32 74 49 bf
       0.19495288 -0.8482981 0.26635143 -0.78692925
0001d0 7c 2f f6 be ed 0b 8f 3e c1 01 3b 3e 81 d7 d4 3d
       -0.48083103 0.27938786 0.18262388 0.103926666
0001e0 ad 34 1b bf dc 7a 4e 3e 6c d5 93 bf 82 e1 12 3f
       -0.6062725 0.20164055 -1.1549506 0.5737535
0001f0 21 6b 00 bf 34 2a 5f 3e 43 4b 75 bf a3 6b 17 3c
       -0.50163466 0.21793443 -0.95817965 0.009241971
000200 3f 67 f7 be f3 20 2b 3c 27 dd c8 3e 2b ef 2f bf
       -0.48320958 0.010444867 0.39231226 -0.68724316
000210 09 cf f1 3e 40 1e 2f 3f af de 65 bf 45 dc 02 3f
       0.47228268 0.6840553 -0.89792913 0.51117355
000220 90 3f be bf 2b 85 ae 3e 95 4e a8 be c6 10 15 3e
       -1.4863148 0.34085974 -0.32872453 0.1455718
000230 1b cf 02 3f 9b 49 26 bf 6e 11 74 bf 93 ce 2a 3f
       0.5109727 -0.64956063 -0.95339096 0.6672146
000240 fb 74 ce be cc ff 6a bf 00 8e 1b bf 60 f0 0b 3f
       -0.40323624 -0.91796565 -0.6076355 0.5466366
000250 e0 6c f1 3e eb b9 d2 3e 79 94 35 bf b9 f7 0d bf
       0.47153378 0.4115747 -0.70929676 -0.5545612
000260 15 6e c0 be ae 8b 36 bf f1 56 32 bf 41 7e f2 be
       -0.37583986 -0.71306884 -0.6966391 -0.4736195
000270 78 f2 da bf 6f 62 ca 3e 21 c2 95 3e be 8e 58 bf
       -1.7105246 0.39528224 0.2924967 -0.8459281
000280 d5 d7 1f bf 4e a0 2a 3f 7b 58 74 bf 98 e7 a8 bd
       -0.6243871 0.66650856 -0.9544751 -0.08247298
000290 86 13 02 bf cf af d8 3d 39 1b 80 3c 70 94 3e bb
       -0.5081104 0.10580408 0.01563798 -0.0029080175
0002a0 03 bf 9f bf 81 a3 34 3e 52 1b 57 3e f7 ce 1a bf
       -1.2480167 0.17640497 0.21006516 -0.60472053
0002b0 41 8b 31 3f 44 e2 8a 3e a0 ac 83 bf e2 43 52 bf
       0.6935311 0.27125752 -1.0287056 -0.8213483
0002c0 d5 60 44 3e f4 d7 4a 3e c1 bc 14 3f d1 d4 16 bf
       0.19177563 0.19808942 0.58100516 -0.5891848
0002d0 b8 79 30 bf 6e 90 d5 bd 24 b5 d6 3e ad 8d 87 bf
       -0.6893573 -0.104279384 0.41935074 -1.0590111
0002e0 bc 2b 3b 3f 98 1a 25 3e c9 8d db 3e 48 c5 94 3e
       0.7311361 0.16123426 0.4288161 0.29056764
0002f0 72 b0 07 bf 78 90 38 3f f3 c9 df 3e c4 6a 28 bf
       -0.5300361 0.7209544 0.43708763 -0.6578791
000300 40 cd 5c 3e ad ef 0a 3e ff f7 71 bf 8e 19 db 3e
       0.21562672 0.13567992 -0.94519037 0.42792934
000310 f0 7d 56 be 46 7e 59 bf 5b f2 bc bd d7 2c a5 be
       -0.20946479 -0.849583 -0.09225913 -0.32260773
000320 23 cf 8e bf 8c 1b 9f be cc 16 87 bf 0a 14 e4 3e
       -1.1156963 -0.31075704 -1.0553832 0.4454654
000330 16 bd a8 3e 5f 1d 60 3e 7e b3 81 3f 29 96 c7 bd
       0.3295676 0.21886204 1.0132902 -0.09745438
000340 db dd 02 bf fe 1d c1 3e 39 3e 6f 3e 99 36 81 bf
       -0.51119775 0.37718195 0.2336358 -1.0094787
000350 95 33 b1 3f 1f 20 f5 bd ef f3 6c bf 2c ca 18 bf
       1.3843867 -0.11969017 -0.92559713 -0.5968349
000360 3b 2c 27 3f ee d8 4e be 41 5a b8 be 0e ea 2b bf
       0.65301865 -0.2019994 -0.36006358 -0.67154014
000370 41 0e 39 be 4e 3a 09 3f 83 f7 26 bf 83 b4 10 3f
       -0.18071844 0.5360459 -0.6522142 0.5652544
000380 8c e5 55 be 21 1f a5 3e 5b 14 67 bf e2 b1 61 3e
       -0.20888346 0.32250312 -0.90265435 0.22040513
000390 e3 00 9c be aa 50 fc 3e ae ca 7d 3e bb 73 b6 bf
       -0.30469427 0.49280292 0.24784347 -1.4254068
0003a0 d3 f4 f6 be 08 73 12 be 19 df d6 3e f0 7d 9b 3e
       -0.4823366 -0.14301693 0.41967085 0.3036952
0003b0 09 6c 4a 3f fe e3 5f 3e dc 4b 7e be 78 a7 42 3f
       0.790711 0.21864316 -0.24833626 0.7603679
0003c0 c9 ff 34 3e 85 d9 0b 3f 34 5c ae bf 64 75 ad bf
       0.176757 0.54628783 -1.3621888 -1.355145
0003d0 0d 76 87 3e e5 5c 70 bf fb 7f a6 bf 27 75 80 bf
       0.26457253 -0.93891746 -1.3007807 -1.0035752
0003e0 b0 cd c1 be 4c a6 c3 3e 60 63 f5 3c 3b 31 4f bf
       -0.3785224 0.38212812 0.029954612 -0.80934495
0003f0 f7 26 14 bf 6f ad 79 bd 4c 5e ed 3e db 02 d6 bd
       -0.57871956 -0.060956415 0.46361005 -0.104497634

fc3.bias f4 [10]
000000 fa 49 67 bd 39 ac 6e bb 2a aa c0 bc 3f d3 e1 bb
       -0.056467034 -0.003641857 -0.02351864 -0.0068916376
000010 73 8f 47 bd a2 7c 17 be 4e 88 cc 3d ad 58 97 3d
       -0.04872079 -0.14793637 0.099869356 0.073899604
000020 63 33 99 3c 30 ba 9b 3d
       0.01870126 0.07603872
