6_ConvolutionalNeuralNetwork/LeNet/model14.pth (torch, 250424 bytes, 10 tensors)

conv1.0.weight f4 [6, 1, 5, 5]
00000000: 0d53 4bbe 1714 933e decd 2dbd f81e 273f
00000010: e763 633e 4d36 813e 53d4 683f fa36 8c3f
00000020: 4177 ae3f 38b8 de3e dc36 88be 3eda 2a3f
00000030: 47ec 4d3f b74d 1c3f 71f3 26bf 95aa cdbe
00000040: fb10 a03e 4bd5 60be 8cf0 bebd c79c 89bf
00000050: b79c 0dbf 964b 23bf 601e 63bf 95fd c0be
00000060: 358e 37bf d999 51bf 0008 bebe 383b e4bd
00000070: faf1 a5be 794c a23d 4cf0 9bbe 37f6 0a3f
00000080: 00ac 4d3f f800 243f 9daf 473f ee35 47be
00000090: 9960 a33f ee30 f43f e1c9 313f 0102 0d3f
000000a0: 1b7d fdbe d352 593f 123e 383e 462c 133e
000000b0: 99d8 10be 7a09 afbf 21ac 39bf bf4e 5dbf
000000c0: 8d5f 14bf 7c99 cbbe 8c3c 0dbf 5303 95be
000000d0: 316d cabe 2a71 10be fd5e 6cbf 05ce 5f3f
000000e0: 91b3 483f 1624 893f 6834 9e3f ae2f 25bf
000000f0: 479d 043f 9ad2 4d3f f7e1 9f3f f2bd 4f3f
00000100: a193 48bf 5dc2 9c3c 5702 583f de20 f03e
00000110: 9282 a83e 0f96 30bf b020 05bf f99c 59be
00000120: 11ce d4be 18d4 babe 2d2c 34bf d35c c43e
00000130: 7793 203f a2ec 363f 738d 0f3f 3365 163f
00000140: e636 293e fa35 863d 6e8f b2be ead5 27be
00000150: 0468 06be 3dc9 19bf 7792 c8bf 0cc7 99bf
00000160: feb7 85bf 6a9d 34bf dc2f 75bf a050 3dbf
00000170: d767 1abe ad79 ffbd 567b 29bf cca5 753d
00000180: 90cc 6c3f 963b 6f3f 4d08 b23e 7e66 32be
00000190: 038b 323f 49fe 9e3f 74b5 173f 39eb 393f
000001a0: 7e3c 613f 9687 903e 575a babe d425 2cbf
000001b0: d60e 40bf df93 bdbe bb9e dabd 3273 08bf
000001c0: 845e 15bf 7146 f9be 4517 debe db9e f33e
000001d0: 8619 eebe 94b7 81bf b759 f2be 8abb c0be
000001e0: 3989 6e3f 1c5c 03bc 1a75 b8be bad7 8b3e
000001f0: f9f4 063f ff3a bd3e 55b6 043f d034 10be
00000200: 9f2d 60bf b709 11bf 06c5 553e 251c 9a3c
00000210: 54a0 02bf b5ee a3bf 42d0 753e 4276 1fbe
00000220: d5bc b3bd 9299 49bf d3c6 56bf 5ab1 2e3f
00000230: 11ef 753e 851c c6be 826d a2bf 52f1 21be
00000240: 9153 2c3e bf2c 4f3f ef5a aabe f327 a5bf
00000250: c63e ecbe 5301 ca3e
-0.198559 0.28726265 -0.04243266 0.6528163 0.22206078 0.2523674 0.9094898 1.0954278
1.3630143 0.43499923 -0.26604354 0.6673926 0.80438656 0.61056083 -0.6521521 -0.40169206
0.31262955 -0.21956365 -0.093232244 -1.075097 -0.5531725 -0.6378721 -0.88718224 -0.37693468
-0.71701366 -0.8187538 -0.3711548 -0.111441076 -0.32411176 0.07924742 -0.3045677 0.54281944
0.80340576 0.6406398 0.7800234 -0.19454166 1.2763854 1.9077432 0.6944867 0.5508118
-0.4950951 0.84892005 0.17992428 0.14372358 -0.14145125 -1.3674767 -0.7252827 -0.8644828
-0.579583 -0.39765537 -0.5517051 -0.291041 -0.3953643 -0.14105669 -0.9233244 0.87423736
0.78398997 1.0714138 1.2359743 -0.6452588 0.51802486 0.8039948 1.2490834 0.8114921
-0.78350264 0.019135648 0.8437857 0.46900076 0.32912117 -0.6897897 -0.52003 -0.21251287
-0.41563466 -0.3648994 -0.70379907 0.3835207 0.62725013 0.71454823 0.5607521 0.5874817
0.16524848 0.06553264 -0.34875053 -0.16390195 -0.13125616 -0.6007269 -1.5669698 -1.2013869
-1.0446775 -0.70552695 -0.9577615 -0.7395115 -0.15078674 -0.1247438 -0.6620382 0.05997257
0.9249964 0.93450296 0.34771958 -0.1742191 0.69743365 1.2421352 0.5926125 0.72624546
0.8798293 0.28228444 -0.3639705 -0.6724522 -0.7502264 -0.3702688 -0.10674807 -0.53300774
-0.58347344 -0.48686555 -0.43377128 0.47582135 -0.46503848 -1.0134149 -0.47334072 -0.3764308
0.93178135 -0.008017566 -0.3602684 0.27313024 0.5271755 0.36959073 0.51840717 -0.14082646
-0.8756961 -0.5665545 0.2087594 0.018812248 -0.5102589 -1.2807223 0.24005225 -0.15572456
-0.08776251 -0.78749955 -0.8389713 0.68239367 0.24016978 -0.38693634 -1.2689669 -0.15814713
0.16828753 0.8092765 -0.33272502 -1.2902817 -0.46141642 0.39454135

conv1.0.bias f4 [6]
00000000: 19b9 69bf 79a2 70bf 84cd 52bf d768 c2bd
00000010: 8b97 89be 0b7a 28bf
-0.9129806 -0.93997914 -0.8234484 -0.09492653 -0.2687343 -0.6581122

conv2.0.weight f4 [16, 6, 5, 5]
00000000: 3731 a03d dcb1 6e3e 7e61 0b3f 6104 b83e
00000010: 9c63 8bbe bc64 063f a50e 353f 6839 8a3e
00000020: 5997 56be 4791 1abf 7be6 063f b035 533e
00000030: f1c7 1dbf 2fcd 5bbf 89d4 bf3d 08e8 533e
00000040: 6873 713d bc67 80bf d8b5 56be b536 303f
00000050: 25ae 4cbc 7cb2 95be 8620 65bf 51cf 7b3d
00000060: f63d eb3e da44 8ebc e972 bf3e ef21 fa3e
00000070: 6846 fa3d cbf6 acbe 59ad b43e 1739 de3e
00000080: 406d c6bc 68a8 17bf 1284 82be b8d1 a23e
00000090: 5c81 02be df71 5dbf 100e 08bf 2fbe ea3e
000000a0: bb2e d63c 2adb bc3d 824f 65bf 733b 213d
000000b0: 8464 233f 8b01 6a3d e9fa a1be b3ce efbe
000000c0: 1512 aa3e b1fc e83e db63 a03e 1319 b63e
000000d0: 929d 073f 14c7 a93e 8d4b 37be 1e16 1a3f
000000e0: eee9 253f 127c 323e 3d64 ffbe fd99 cbbe
000000f0: b6a1 d53e d8f9 9bbc 1b3e 56bf aeec 7cbf
00000100: 073d 5f3e b589 553e 37cb 423e d4c5 50bf
00000110: da72 eabe d849 023f 0327 7fbd a98d b1bc
00000120: f520 3cbf 95e1 e23d d449 143f 4e8d 81be
00000130: ee19 e7be 945c e8be 8171 0f3d 605f 733e
00000140: 14d3 d4be 5d81 85be 1b00 513e b24e cc3e
00000150: dd31 373d d31d 97be 3b0e 3a3e 3fca a23e
00000160: 1950 13bc 6e7e 41bf 6895 74be a365 b9bc
00000170: 8c91 ecbc dd16 f2be 0cd2 8bbf 3a6c 81be
00000180: 7304 253c 75cb 89be 6fb5 49bf b5bc 8dbf
00000190: d0e0 c4be 2a31 b8be 6823 84be 6778 dcbc
000001a0: b2f6 0b3e e2a7 e5be 2362 e2bd 4c22 993e
000001b0: b6a5 c83e 2a02 0fbe 2193 48be f239 9f3d
000001c0: 366a 223f 0940 803e a8a7 17bf b9d9 e6bd
000001d0: ab1e db3d 6a95 e83e c3b2 05be 8454 b4be
000001e0: 4554 00be 290c 0c3e cb5d a03e ff1c 11bf
000001f0: e431 b7be fd87 75be 3f54 a8be e996 dabe
00000200: 404d 80be fe9e ecbd 4f20 27be 57d4 33bd
00000210: 61eb 123e 3375 733e afab 48be b0c7 97bc
00000220: fe3a 383e db1d 413f d4ca c13e ee52 50be
00000230: 8f27 003e c2f7 853e 2552 063f 66fc 30bd
00000240: ac3d 60be f6c6 e2bd c136 2b3e 693a b53e
00000250: 30e3 1fbe 4fa8 253e 4866 ae3e 6251 893e
00000260: 3b84 4ebe 86f5 bebe 7720 c9be 3d4a f13e
00000270: f1a2 b93e c83e 743e c8e2 b23e 86b0 a63e
00000280: f719 b03d 1ed2 11bf 294f 34bf 91c3 e7bd
00000290: 473c bb3e 0dcc 3fbf 7e4a d0bf fd5e c7bf
000002a0: cb71 87bf 3f08 d3be 790c 363e 7175 2d3f
000002b0: f72c 3c3e 5483 54be 0544 d3bd df57 803e
000002c0: 6dbc 8b3c 4d84 42be 3f0d 20be 5040 28be
000002d0: 9473 483e ba30 6f3d 9ecc 0e3d c726 dd3e
000002e0: 3a63 023f a54d 9dbe 81ef 95bf faed 4cbf
000002f0: 719b 01be a5a5 6e3e d3b4 ccbe b6f0 f5be
00000300: 4fe7 33bf 71c2 76bf ec1c 03bf 3ae1 f53e
00000310: 8b85 473f a1f1 953e 4064 87bd c3e9 ebbd
00000320: 8575 9d3e add6 343e 7abc 513c 102c f9bd
00000330: f240 19be b9e5 d03e 41e4 673e 0158 40bd
00000340: 1655 3e3e cd8b d03e 594b ddbd 6aa5 2dbf
00000350: 43ce a5bf 8c47 22bf ea7f 88bd ca7b 2cbf
00000360: 3f85 55bf 12df 76bf 50dd 8cbf d461 46bf
00000370: a8d5 d53d d81f dd3e bb4b 813e b47f 32be
00000380: a281 cabd a4b4 a2be 6f9b 8fbe 8d3f 81be
00000390: 9576 21be f747 3ebe d847 cb3d 772e a83d
000003a0: 55de b23d cd0c 35be 45bf c4be c049 4b3f
000003b0: d982 833f 8868 7d3f 7aa0 533f eacf bc3e
000003c0: 3ea9 d53e 7941 953e 5dc4 d23e 35bd 403f
000003d0: 57a8 3b3f ea05 a5be e563 11bf 715b 03bf
000003e0: aa75 cb3c 3a88 8f3e 7a1a 09be 41ef 6cbe
000003f0: 392d 42be 7d99 a9be 2fa8 cfbe fbff 67be
0.07821887 0.23310035 0.54445636 0.3594084 -0.27224433 0.5249746 0.7072547 0.26996922
-0.20956172 -0.60377926 0.52695435 0.20625949 -0.6163321 -0.8585996 0.0936671 0.20693982
0.05894795 -1.0031657 -0.20967805 0.68833476 -0.012492691 -0.29237735 -0.8950275 0.06147701
0.4594571 -0.017366815 0.37392357 0.48854014 0.1222046 -0.33782038 0.35288504 0.4340293
-0.024222016 -0.5924134 -0.25491387 0.31800628 -0.12744659 -0.8650188 -0.5314646 0.45848224
0.02614533 0.0922149 -0.89574444 0.039363336 0.6382525 0.057130378 -0.31636742 -0.46837386
0.3321692 0.45505288 0.31326184 0.35566005 0.5297481 0.33159697 -0.17899914 0.6019
0.64810073 0.17430142 -0.49881163 -0.3976592 0.41724938 -0.019040033 -0.83688515 -0.98798645
0.21800624 0.20853312 0.19022833 -0.8155186 -0.4579075 0.50893927 -0.062293064 -0.021673994
-0.7348779 0.110781826 0.5792515 -0.2530312 -0.4513697 -0.45383132 0.035020355 0.23766851
-0.4156729 -0.2607526 0.20410196 0.3990379 0.044725288 -0.29514942 0.18169491 0.31794927
-0.008991265 -0.7558354 -0.23885119 -0.022631472 -0.028877996 -0.47283068 -1.0923476 -0.25277883
0.010071862 -0.26913038 -0.7879247 -1.1073214 -0.38452768 -0.3597501 -0.25808263 -0.026912881
0.13668326 -0.44854647 -0.11053874 0.2990898 0.39188927 -0.1396567 -0.19587375 0.07774724
0.63443315 0.25048855 -0.592402 -0.11271996 0.10699209 0.45426494 -0.13056473 -0.3522073
-0.12532146 0.13676514 0.31321558 -0.5668487 -0.3578025 -0.23977657 -0.32876775 -0.4269326
-0.25058937 -0.11553763 -0.16320919 -0.043903675 0.14347602 0.23775177 -0.19596742 -0.018527836
0.17991254 0.7543618 0.37850058 -0.20344135 0.1251509 0.26165587 0.5246909 -0.043209456
-0.21898526 -0.11073105 0.16720106 0.35396126 -0.15614009 0.16177486 0.3406241 0.26819903
-0.2016763 -0.37296695 -0.3928258 0.47126952 0.36257127 0.23852074 0.34938645 0.32556552
0.085987024 -0.5696124 -0.7043329 -0.11316598 0.36569425 -0.7492073 -1.6272733 -1.5575863
-1.0581602 -0.4121723 0.17778195 0.67757326 0.18376528 -0.20753223 -0.10315708 0.2506704
0.017057622 -0.18995781 -0.15630053 -0.16430783 0.1957534 0.05839608 0.034863107 0.43193647
0.5093266 -0.307233 -1.1713716 -0.80050623 -0.12656952 0.23305376 -0.39981708 -0.4803521
-0.70274824 -0.96390444 -0.51216006 0.48023397 0.77938145 0.2928591 -0.06610918 -0.11519196
0.30753723 0.17660017 0.012801284 -0.121666074 -0.14966181 0.40800264 0.22645666 -0.046958927
0.18587145 0.4073166 -0.10805387 -0.67830527 -1.2953571 -0.6339042 -0.06665023 -0.6737639
-0.8340644 -0.9643413 -1.1005039 -0.77493024 0.10441142 0.43188357 0.2525309 -0.17431527
-0.09888007 -0.31778443 -0.28048274 -0.25243798 -0.15767892 -0.1858214 0.099258125 0.082119875
0.08733813 -0.17680664 -0.38427177 0.7940941 1.0274307 0.9898763 0.8266674 0.36877376
0.41730684 0.29151514 0.41165438 0.75288707 0.7330374 -0.32231075 -0.5679305 -0.51311404
0.02483638 0.2803362 -0.13389006 -0.23138143 -0.18962564 -0.33124915 -0.40558 -0.22656243

conv2.0.bias f4 [16]
00000000: ce14 bbbd 252d 0e3c 4cb0 00bc 4d19 483c
00000010: e522 b6bd 1b3a 7cbd 9fd1 abbd e7da 013e
00000020: 7f71 f7bd ddba ea3c 1bb9 813d 2e63 6a3d
00000030: bf7e 60bb d1fa 75bd c489 01bc 3c38 ce3d
-0.091348276 0.0086777555 -0.007854532 0.012213063 -0.08893374 -0.06157885 -0.083895914 0.12681161
-0.120821945 0.028653556 0.06334134 0.05722349 -0.0034255234 -0.06005365 -0.007906381 0.100693196

fc1.0.weight f4 [120, 400]
00000000: 5a40 4d3e 5ff9 8f3e fe41 71bf 6229 b3bf
00000010: af5a 04bf 7a26 aa3e 4b21 a73e 6b24 d0be
00000020: eac0 d7be 8d3e afbc ab69 003d 4734 f1be
00000030: beca abbd 171c eb3d b4a7 9c3d 1cb1 17bf
00000040: 35a1 2cbf 830c 8e3c 230f 903e 1705 cb3e
00000050: eaac 40bb ebd7 03be 06ef dc3d 5e8e 983e
00000060: a253 b33c 78fb 78bd c9d7 4f3e b46c c63e
00000070: 54de 923d d336 26be 35ec acbe 0d51 42bf
00000080: dcc5 b03c a097 fd3e 2be0 3c3e b503 3ebe
00000090: 2d58 ae3e 668f 76be 68b3 bdbe 718b 30bf
000000a0: 0b3d fa3d ffeb 02bd 7823 9dbe c616 4ebf
000000b0: b0e8 de3d 6a89 623e 03ed 723d 6b6d 53bd
000000c0: 7a82 2b3e 6a45 703d ff96 ca3e 7919 9b3e
000000d0: 9a7a 323c 55c6 17bf 7c2c a3be cf1c fabd
000000e0: 6cf5 c2be 1805 20bd ca18 85be b86e c83e
000000f0: 151d 05be 87ac f1bd 01cb 9bbe 0e7a 4a3e
00000100: 6cbd a13e f725 a93e 8a0b 63be 2409 8b3e
00000110: f682 99be 0eb0 273e 6d20 d73d 593b c83d
00000120: 6527 523e eac2 b13e b076 773e 6067 cdbe
00000130: 6d7b febd a9d6 1b3e 6ce7 8c3e 8d84 c53e
00000140: 0a98 9fbe c143 88be a145 313d 823d bb3d
00000150: 027f 1e3e 23fe c2be 5c58 66be 3659 7d3c
00000160: 9551 8e3d bc17 00bf 474a 813e 7cb9 9e3d
00000170: c0b4 00be 02eb 59bf 9569 b3bf 4578 973e
00000180: f414 053f 4aae b9bd 6535 b7be a24a e3be
00000190: f0cf 19bf 6a24 5abe 68c3 ac3e 15e7 c03e
000001a0: adea ca3e d14f e8be e852 06bf 7c83 643d
000001b0: b453 e33d 97f8 5abd d40c 183e 9082 9dbe
000001c0: 84c6 a43d 9d3c d33b 130d edbd 0d43 9a3e
000001d0: a0b2 bbbd c93a 7dbd ff48 bebd a822 bdbe
000001e0: e991 373e a96d 8abd d271 ac3c cae5 84be
000001f0: c103 fabe 489c 52bf 8c77 75be f4e0 343e
00000200: ad05 1e3e 22bf e33e 20cb 34bf de09 07be
00000210: ac84 763c 3da8 203f 73ed 82be a867 993b
00000220: 46a2 8fbd 87a5 8b3e d6b1 c5bd 6496 c9be
00000230: 5b70 a2bd 6ab6 743d 63ed a1bd 4d89 d4bd
00000240: 1aec afbe c3c2 da3d f7fd 77bb 25e5 45be
00000250: f977 24bf 7bac 8cbf ab23 0f3e c00b 90bc
00000260: 6a59 dd3c 35fd 30bd 96c6 b0bd 14d6 f6be
00000270: 63a1 87be 404b 00bf f5cc 133e 6f76 523c
00000280: dbc1 9abe c866 04be 4b94 113d 6297 26be
00000290: f5fd a8be bd6a c4be 48d5 e73e 1a0f 2d3f
000002a0: a9c3 1fbd 66b4 133e 2930 4c3e bcd4 0f3f
000002b0: d6d5 de3d ac79 af3e 371f 063f 589d 05bf
000002c0: 150d bdbe 0ec8 00bc 369d b93e afc9 c93e
000002d0: ecd0 3ebe 0a05 20be b908 893e 6673 103f
000002e0: 9230 823f b08b 353d bcf5 403e 58da 093f
000002f0: 5009 293f 8d51 c23e 8add aabd 022c d7bb
00000300: 9b47 d8bd c344 29bf a140 d6bd c2f3 213e
00000310: 4763 06bc a78b a0be e5de 7ebf a31b bfbe
00000320: 7003 9e3e 1d1c c13e bad4 76bf ae61 55bf
00000330: 27d1 eb3d dccd b43d 9e06 67bd 4c65 e8be
00000340: b240 31be 266f 2e3e ff69 493e a1b5 253e
00000350: d864 d2bd f019 823e 74bc 833e 170a 50bd
00000360: a42a e5bd 0a44 e93e 063b b6be 9e3b 123f
00000370: 3d49 4ebe 99e5 4d3c 1da4 1dbd bada 9cbc
00000380: 47dc 1b3f 4786 d0be c4e9 cabd b126 d23e
00000390: 6dea ec3e 2f9e d43e 69a4 51bf ccb1 99be
000003a0: 0fae 4bbc 8456 403d 590a 35bd 566f d0be
000003b0: c753 913d 70dc 8ebe e08f 44bf 16f3 f6be
000003c0: 114b 1c3e ac01 733e b62d 92be d3b1 80bf
000003d0: 70b2 a5bf 9046 493e 3a7d 503e 79bb 79be
000003e0: 9a09 40bf 7093 65bf fab0 a6bd beb9 4c3e
000003f0: d7e4 de3e f3bb 3cbc 1ef4 9e3d ac42 24bf
0.2004408 0.28119943 -0.9424132 -1.3997004 -0.5170087 0.3323248 0.32642588 -0.40652785
-0.4213937 -0.021392131 0.031350773 -0.47110197 -0.083882794 0.11479967 0.07649174 -0.5925462
-0.6743348 0.01733995 0.28136548 0.3965232 -0.002939994 -0.12875335 0.107877776 0.29796118
0.021890465 -0.060786694 0.20297159 0.3875481 0.07171312 -0.16231851 -0.33773962 -0.75904924
0.021578722 0.49529743 0.18444888 -0.18556102 0.34051648 -0.2407814 -0.3705094 -0.6896277
0.12218674 -0.031963345 -0.30691123 -0.805035 0.10884225 0.22122732 0.059308063 -0.05161802
0.16748992 0.05865995 0.39568326 0.30292872 0.010893488 -0.59287006 -0.31869876 -0.12212526
-0.38077867 -0.039067358 -0.25995475 0.39146972 -0.12999375 -0.11800485 -0.30428317 0.19773123
0.3158983 0.33036777 -0.2217237 0.2715541 -0.29982728 0.16375753 0.105042316 0.09776945
0.2052284 0.3471902 0.2416637 -0.4011793 -0.12425885 0.15218605 0.2752031 0.3857769
-0.31170684 -0.26614192 0.043279294 0.09142591 0.15478137 -0.38084516 -0.22494644 0.015463164
0.06949154 -0.50036216 0.25251982 0.07750222 -0.1256895 -0.8512422 -1.4016596 0.29583946
0.51985097 -0.09066446 -0.35782924 -0.44392878 -0.6008291 -0.21302953 0.33742833 0.37676302
0.39632168 -0.45373395 -0.52470255 0.055789456 0.110999495 -0.05345973 0.14848644 -0.30763674
0.08045676 0.0064464347 -0.11574759 0.3012928 -0.091649294 -0.06182364 -0.09291267 -0.36940503
0.17926754 -0.06759197 0.021050368 -0.25956565 -0.4883099 -0.82269716 -0.23971385 0.17663938
0.15431853 0.4448176 -0.70622444 -0.13187358 0.01504628 0.6275671 -0.25571784 0.0046815462
-0.07013373 0.27274725 -0.0965306 -0.3937255 -0.07931586 0.059744276 -0.07906606 -0.103777505
-0.3435982 0.10681679 -0.0037840584 -0.19325693 -0.64245564 -1.0990137 0.1397845 -0.017583728
0.027020175 -0.043210227 -0.08631627 -0.48210204 -0.26490316 -0.5011482 0.14433654 0.01284562
-0.30226025 -0.12929833 0.035541814 -0.16268685 -0.33006254 -0.38362685 0.45279908 0.6760117
-0.039004955 0.14424285 0.19940247 0.5618398 0.1088063 0.34272516 0.5239138 -0.5219321
-0.36924043 -0.007860197 0.36252755 0.39411685 -0.18634385 -0.15626922 0.26764467 0.56426084
1.0171072 0.04432267 0.1884374 0.5384879 0.66029835 0.37952843 -0.083430365 -0.0065665254
-0.10560533 -0.6612055 -0.10461546 0.15815642 -0.0082023805 -0.31356546 -0.9955886 -0.37325773
0.30861998 0.3771676 -0.96418345 -0.8335217 0.11514502 0.08828327 -0.056402795 -0.45389783
-0.17309836 0.17034587 0.1966934 0.16182567 -0.10273141 0.25410414 0.25729716 -0.050790872
-0.11189774 0.45559722 -0.35591906 0.5712222 -0.20145126 0.012566947 -0.03848659 -0.019147266
0.6088299 -0.40727445 -0.099078685 0.41045144 0.46272603 0.41526935 -0.81891495 -0.3001846
-0.0124316355 0.046957508 -0.04419932 -0.40709943 0.070960574 -0.27902555 -0.76782036 -0.48232335
0.1526301 0.23731107 -0.285505 -1.0054268 -1.294508 0.19655824 0.2036027 -0.24387921
-0.7501465 -0.89678097 -0.08139224 0.1999273 0.43533966 -0.01151942 0.077614054 -0.64164233

fc1.0.bias f4 [120]
00000000: da91 823b a851 a33c 734b 1ebd 0244 283d
00000010: cc70 313c 7c85 03bd a7a3 d2bd be98 02be
00000020: 7548 17bd e090 893b 2288 1fbe 2e70 c83a
00000030: 8b6d 183d 8644 cdbb c4e8 0b3e 8581 2abd
00000040: c0b0 033c 0aae b63d 8962 a13d 3839 323d
00000050: 0689 583d 6a84 333d a05b a93d 3dd2 bdbd
00000060: 24fd d63d 1af7 87bc 7cbd 33be f114 99bb
00000070: be6c e53c 1742 5e3d 434e d9bd 769e 3ebd
00000080: 525f c0bd f371 8dbd 5088 253d 374d 63bd
00000090: 5c31 443e 8d67 f0bd 35ab 873d 5392 1cbe
000000a0: 388f 20bd dd8d 8fbd d082 40be c708 08be
000000b0: dbbf b63c 9f1d 3cbe 4408 ff3c 4315 47bd
000000c0: 5051 e2bd 8621 1abc 8f36 d7bd 3521 d5bd
000000d0: eafb d33d 9244 d8bd 0f65 7b3d 7927 debd
000000e0: d446 a13d c7b8 15be aff3 85bd 5d97 eebc
000000f0: 5036 0c3d 39ae f7bc b264 403d ba0d 70be
00000100: 5127 203d 1c76 abbd 1555 173d 3c52 24be
00000110: a0cb e33d 1483 07be 85ee 963c e978 22be
00000120: 678f c9bd 82ac eabb 3168 2c3c b8dd 3ebe
00000130: 99f2 8a3d 418d 3439 627a 623d a139 023d
00000140: cd07 0e3d 3476 ee3d 3270 81bb 2a02 c8bd
00000150: 242f 6bbc a00b 1a3c 6bbe 3a3c 8bf7 503c
00000160: eb0f 79bd 2e65 013c 7b7c 0c3e 7ff8 04bd
00000170: dab0 173d b022 113e 0ede 04bd 79f6 0a3a
00000180: 20eb a4bb 8e72 c4bd 30f1 ecbd e617 c7bd
00000190: ed64 20be f2a2 663c a038 b53d a16a a53d
000001a0: 3c1d 34be d49f 3b3d 924b 983d 13bb a2bd
000001b0: 054d 983c 845f 4bbd 32a8 f2bd 2cfc 303d
000001c0: 80ba 78bd 2c78 a4bd 8628 cebc 41ec 8c3d
000001d0: ec54 823c 4cf4 663e 7639 bcbd fd37 543d
0.003984672 0.019936398 -0.038646173 0.041080482 0.0108301155 -0.032109722 -0.102851205 -0.12753579
-0.036934335 0.0041981786 -0.15579274 0.0015292221 0.037213843 -0.006264272 0.13663012 -0.041627426
0.008037746 0.08919914 0.07880122 0.0435116 0.05286505 0.04382745 0.08269429 -0.092686154
0.104975015 -0.01659732 -0.17552751 -0.004671686 0.028005954 0.054262247 -0.1061063 -0.04653784
-0.09393181 -0.069065 0.0404132 -0.05549356 0.19159454 -0.11738501 0.06624452 -0.15290193
-0.039199084 -0.0700948 -0.18799901 -0.13284598 0.02230828 -0.18370675 0.031131871 -0.04860426
-0.110506654 -0.009407407 -0.10508453 -0.10406724 0.10350783 -0.10559954 0.061375674 -0.108473726
0.078748375 -0.14621268 -0.065406196 -0.02912491 0.034231484 -0.030234443 0.04697103 -0.23442736
0.039099995 -0.08372137 0.036946375 -0.16046995 0.11122823 -0.13233596 0.018424282 -0.15866436
-0.09841805 -0.007161678 0.010522888 -0.18639266 0.06784553 0.00017218759 0.055292495 0.03179324
0.03467541 0.11643639 -0.0039501423 -0.09766038 -0.014354501 0.009402186 0.011397938 0.012754331
-0.060806196 0.007897658 0.1371936 -0.032463547 0.037033893 0.14173388 -0.03243833 0.00053010095
-0.005032912 -0.09592162 -0.1156944 -0.09721355 -0.156635 0.014076935 0.08848691 0.080769785
-0.17589277 0.04580672 0.07436289 -0.07945838 0.018591413 -0.049651638 -0.11848487 0.04320924
-0.060724735 -0.080307335 -0.025165807 0.06880999 0.015909635 0.2255413 -0.09190647 0.051811207

fc2.0.weight f4 [84, 120]
00000000: e265 8dbd 4a87 103f 8a34 ec3e eae2 d1bd
00000010: 05c9 18be 9be2 463f e2a5 e5be 3701 2b3b
00000020: 6ba7 52be b94d da3e d163 fdbe 4cce 40be
00000030: 206d 2cbf 338d 373e 491f 3fbe e23b 15bf
00000040: 5096 943e f8a5 e8bd b7ed cb3d d315 403d
00000050: f21a b03e 39c1 91be 8f72 1d3d 1936 6abf
00000060: 0645 09bf 74ee 503f a0ac cd3e 0149 b93d
00000070: a496 72bd 5120 233f 1d85 81bd dbf3 0e3e
00000080: 49a2 fabd 4438 833d a756 0bbf 7131 323f
00000090: 5531 063e 2b4b e93d 253a babe 90e9 07be
000000a0: 9768 88be a694 c3bb 50fe e0be 929b d2bd
000000b0: 727a f3be 232b 9dbe 3bbf c53e bae6 e53e
000000c0: 59e9 683d 142e 74be f56e 30be 3bf2 25bf
000000d0: b71d 613e c7ed 95bf a6d6 c4be 04e3 97be
000000e0: d3e6 893c cfd8 e6be d3ea 373e febc 043e
000000f0: 3357 fa3e aeac 32bd 1fea 283f 37ec 32bf
00000100: acd0 823e f5f1 53be e44a a63e dbbe 8dbd
00000110: e77f 293e 1151 e2be 343f 913b f725 183f
00000120: bc3c 79bd 8caf dcbd 7508 933e 9f15 80bf
00000130: 1c47 dcbe b188 ff3e 3e7c c23e 55b4 e73e
00000140: e376 1e3e e7af a4be 40a8 ddbd bfa6 2c3e
00000150: 6c83 013f f12a 893d 2dc7 37bf f35c d03e
00000160: 196a 8dbe 59db d73e ec94 0c3f 7dbe 8b3e
00000170: 0c9a 6c3e 24d7 82be a21a e2bd e9a7 893e
00000180: e87a b9be b770 08bf ce06 86be 52ef 4f3e
00000190: f295 5abf 3d5e 673f 34cc d83d 0d45 2ebf
000001a0: 7dee 33bf 8986 dfbe cd1c e6bd ac0b 003c
000001b0: b210 bb3e 1f17 fb3e 9701 0b3f c69c 11be
000001c0: 1808 c7be bb1c e43e bac5 813e d4a6 4b3c
000001d0: 7657 4dbe c5df 5ebd 387b 463e e60f 3d3e
000001e0: 4187 f4bd 0048 21bb cf19 79be f114 febd
000001f0: 6d77 0bbf e46e cabe a947 9fbc 5869 673d
00000200: 48b9 3f3e 65c9 1bbf 00a0 183e a548 9c3e
00000210: 7da6 98be 9f61 09bf 6002 dcbd be79 cfbe
00000220: b462 da3e b060 9cbe 360e 9d3e 95de 593e
00000230: 55dc 89be 669e 1a3f 9809 eebe 13a7 773e
00000240: 2fbf 96be fa3e 7e3d 4b49 c33d 0126 873f
00000250: 5321 8a3c f5c8 37be dc60 08bf 7553 7dbf
00000260: 9016 cfbe 65a0 8e3d ec97 823c 39f7 cd3e
00000270: 29ae e73e 1728 8d3d 0814 2d3e 2f8b aabe
00000280: 0c13 e83d 1227 323f c18d 38be 1a68 2a3f
00000290: a584 8bbc c028 113f 2809 8abc 577e 7bbe
000002a0: 0540 00be d29b 32be 0f61 a63e 2b25 be3e
000002b0: edb2 73bd 112d 903f 48a5 043f 3a2b f83d
000002c0: c0ff c1be b3c9 8b3e 617c f0be 05f7 c73d
000002d0: 8f8e 6c3d 8dc3 e93e eb35 f53e a1d3 1abf
000002e0: 9eaa 983e a1a4 67be 9ae6 90be fa94 88bd
000002f0: cbc0 af3d 147d 03bd b7d4 063f 355f f6be
00000300: 7aa8 2ebe 0cf4 1ebe ca9c c1be 9610 46be
00000310: f714 19bf 68a6 9ebc fb61 c13c 6fa4 1b3f
00000320: 2df0 1fbf 0793 183e be51 4a3d 1314 b2be
00000330: 6b74 03bf 5220 6d3d ea09 bd3d b9a8 08bf
00000340: ac9f bc3e 6229 0fbf 8421 593d cc76 8cbe
00000350: f91a bb3e 2f28 0a3f a23c 9cbe da64 803e
00000360: 86fc 323f a8d6 423f a4d8 8dbd 464e 45bf
00000370: 64a9 243e 80a5 3ebe 50fe 353e 81d6 163f
00000380: 5590 3f3e 2af8 22bf f864 4dbe ca7b 3bbf
00000390: 8be1 fa3e 6302 483f e9f0 3fbe e908 b2be
000003a0: 54bf 103f b8ae 58be e0f1 e13e 0744 0a3f
000003b0: dc25 843d 37d1 a63e 2179 81bf 09e9 19be
000003c0: c894 8c3f a046 f1bb d0c7 6e3e 92db a53e
000003d0: d69f cd3e ded2 b03e 182c 97be 16d9 19bf
000003e0: 9dd0 b0bc d777 fd3e 805b 8a3e 6ae4 9bbd
000003f0: a24c 70be 51fb 96bc 869e 34be 7633 98be
-0.06904198 0.56456435 0.46133834 -0.102483585 -0.14920433 0.7768952 -0.4485312 0.0026093253
-0.20571677 0.42637423 -0.49490216 -0.18828696 -0.6735401 0.17924957 -0.18664278 -0.582945
0.2902093 -0.11359781 0.0995745 0.046895813 0.34395558 -0.2846773 0.03843933 -0.91488796
-0.53620946 0.8161385 0.40170765 0.090471275 -0.059225693 0.63721186 -0.063242175 0.13960211
-0.12237985 0.06407216 -0.54429096 0.6960669 0.13104756 0.1139129 -0.36372486 -0.13272691
-0.26642296 -0.005968648 -0.43944025 -0.10283579 -0.47554356 -0.30696973 0.3862246 0.44902593
0.056863163 -0.23845702 -0.17229827 -0.6482274 0.21983992 -1.1713189 -0.38445014 -0.29665387
0.016833698 -0.45087287 0.17960672 0.1296272 0.48894653 -0.04362171 0.6598224 -0.69891685
0.2554983 -0.20697768 0.32479012 -0.069211684 0.16552697 -0.44202474 0.004432583 0.5943293
-0.060848936 -0.107756704 0.2871739 -1.0006598 -0.43023002 0.49908975 0.37985414 0.4525477
0.15475039 -0.32165453 -0.10823107 0.16860484 0.5059116 0.066976435 -0.71788293 0.40695915
-0.2762001 0.42159536 0.54914737 0.2729377 0.23105639 -0.25554764 -0.11040236 0.26885918
-0.36226583 -0.5329699 -0.26177067 0.20306137 -0.8538505 0.9037817 0.10585824 -0.68074113
-0.7028578 -0.4365733 -0.11235962 0.007815283 0.36536175 0.49041077 0.542993 -0.1421996
-0.38873363 0.4455317 0.25346166 0.012429912 -0.20052895 -0.054412622 0.19382942 0.18463096
-0.1193986 -0.0024609566 -0.24326251 -0.12406338 -0.54479104 -0.39537728 -0.01944335 0.056496948
0.18723023 -0.6085418 0.14904785 0.30524173 -0.2981452 -0.5366458 -0.107426405 -0.4052257
0.4265343 -0.30542517 0.30674905 0.21276315 -0.26925912 0.60397947 -0.46491694 0.24184828
-0.29442737 0.062071778 0.09535464 1.0558473 0.016861593 -0.17947753 -0.53272796 -0.9895547
-0.404469 0.069641866 0.015941583 0.40227678 0.4525006 0.06892412 0.16902173 -0.33309314
0.11331758 0.69590867 -0.18022825 0.66565096 -0.017031023 0.56702805 -0.01685007 -0.24559914
-0.12524422 -0.17442253 0.32495925 0.37137732 -0.05949681 1.1263753 0.518147 0.1211762
-0.37890434 0.27302322 -0.46969894 0.09763912 0.057753142 0.45657006 0.478927 -0.6047917
0.2981767 -0.22621395 -0.28300935 -0.0666904 0.08581694 -0.032101706 0.5266833 -0.48119512
-0.17056456 -0.15522784 -0.37814933 -0.19342265 -0.59797615 -0.019366458 0.023606291 0.6079778
-0.62475854 0.14899836 0.04939436 -0.3478094 -0.51349515 0.05789215 0.092304066 -0.5338245
0.3684057 -0.5592252 0.05301048 -0.27434385 0.36544016 0.53967565 -0.3051501 0.25076944
0.6991657 0.7610879 -0.069260865 -0.7707256 0.16080242 -0.1861782 0.17772794 0.58921057
0.18707402 -0.6365992 -0.20058048 -0.7323576 0.490002 0.7812864 -0.18744244 -0.34772423
0.56541944 -0.211604 0.44129848 0.5401005 0.064525336 0.32581493 -1.0115091 -0.15030302
1.0982904 -0.0073631555 0.2331841 0.3239408 0.40161008 0.3453588 -0.29525828 -0.6009687
-0.02158385 0.49505493 0.27022934 -0.07611926 -0.23466733 -0.018430384 -0.17638597 -0.29726762

fc2.0.bias f4 [84]
00000000: 30f1 893d 1fca 873d 7d84 b7b9 7be2 873d
00000010: 2d68 8cbc 25c8 44bc a750 f5b8 6966 49bd
00000020: 8de4 913d ce08 babd 00f7 033c b55b b13c
00000030: d9cc bcbd 3a37 5cbb 7a4b 3abd d067 6fbd
00000040: 358c 8abd 1f25 3d3d b273 d4bd ff61 4a3d
00000050: 84ae eb3d f148 d6bb 22b6 623d 17ad b3bc
00000060: a35c 623d 0a8a 053d 544a b33c 395a 65bd
00000070: af3d 1b3d 7a1e 9e3c 1a75 bbbd 2317 25bd
00000080: ceca a0bd 297f cfbc 262e 6d3d 1dad d0bd
00000090: 39e9 27bd 62d2 f63d a06d b4bd f2d4 9ebd
000000a0: 97c1 6a3d 5324 5abd 97cb 01bd 2dd1 d7bc
000000b0: 3d71 fdbc 4b14 3b3d 0103 0a3d 5acd 7f3c
000000c0: b7f3 c53c 2b66 8abd 391b be3c f2c5 f4bc
000000d0: d785 18bd 3014 5bbd 8bed 0fbe 93ae 2f3d
000000e0: 72b8 92bd b95d 2ebd f4d7 b13c 2006 803c
000000f0: ca3e 3c3d cc02 603d 4129 a5bd 9f3e 453d
00000100: 1dcd a4bc 5dfb dd3d 24b7 cfbd 3688 0abd
00000110: 5fad efbc e193 8f3d 4eed 013d 3d11 9b3c
00000120: a896 89bd 29ba 1fbd 5b9b e73d 9555 873c
00000130: fde0 903c 2580 c43d a03d 3a3d 7657 083d
00000140: 5758 1fbd 4f9d a53c 7c56 853d 0597 bebc
0.06735456 0.066303484 -0.0003500319 0.066349946 -0.017139519 -0.012010609 -0.00011697533 -0.04916993
0.07123671 -0.090837106 0.008054495 0.021650175 -0.09218759 -0.0033602254 -0.045482136 -0.058448613
-0.067650236 0.04617798 -0.1037363 0.049409863 0.115078956 -0.006539457 0.055349477 -0.021933122
0.055264127 0.032602347 0.021886028 -0.055994246 0.037900623 0.019301642 -0.09153195 -0.040305268
-0.07851182 -0.02532919 0.05790534 -0.10189269 -0.040993903 0.12051846 -0.08809972 -0.0775546
0.057313528 -0.053257298 -0.0316883 -0.02634486 -0.030937785 0.04567365 0.03369427 0.0156129245
0.024164064 -0.06757768 0.02320634 -0.029879544 -0.037237015 -0.05348605 -0.14055459 0.042891096
-0.071640864 -0.04256985 0.02170942 0.01562792 0.045958318 0.054690167 -0.08064509 0.048155423
-0.020117337 0.10838959 -0.10142353 -0.033821307 -0.029257474 0.070106275 0.031720452 0.018929118
-0.067181885 -0.038995896 0.113089286 0.0165203 0.017685408 0.09594754 0.045468926 0.033286534
-0.038902607 0.020216612 0.06510636 -0.023265371

fc3.weight f4 [10, 84]
00000000: 06d2 953e 2225 093e e1d4 a73e 3026 76bf
00000010: 14d4 08bf e4fd 68bc 714b 64bf 2182 35bf
00000020: 40b0 35be 0fb8 873e 5d0e ed3c f3c2 b6be
00000030: ba6a d83e 0201 97bf a40f 7bbf 4448 25bf
00000040: f1a5 843e 9a93 473e 9132 f5be cd4c 1e3e
00000050: cf67 83bc c0f5 34bf 9ac1 a53e bc52 4e3e
00000060: 82a6 34bf b5b5 94bf 43aa 73be 5c69 76bf
00000070: 8032 08bf 2b0b 9c3e fba4 e83e d7df 7bbf
00000080: 1090 b43e 002f fb3e 912a a9bf 9fba 5dbf
00000090: a4b5 e93e 4825 45bf 8ace a33e 17f2 3abe
000000a0: 45fd aabf 0cdd f33e df89 ba3e 49e5 b43e
000000b0: db11 85bf 24a8 75bf bbfd 2cbf c595 283e
000000c0: 0429 2e3f 787f 9b3e d08b 72be bba3 5dbe
000000d0: e6ab af3c b25f 48bf 6867 8ebe f40f 423f
000000e0: 3490 20bf 069d 8c3e 6dca 2bbf 45e9 20bf
000000f0: ad2a b0be c5e0 ddbe 4991 2a3f b894 1dbf
00000100: 3652 4b3d cfdd 62bf ace2 93bf 7365 f13e
00000110: 988d ff3e 789e 95bc 6f9b 6d3e e73a 2e3f
00000120: c29f 523c c9c4 b73e 4f89 ca3e deee 1f3e
00000130: 12e6 0e3f 74e0 c7be ff98 9b3c eeb1 d73e
00000140: e8bc a83e c596 8abf 0e59 83bf 8e6e 94bf
00000150: fc9c 7fbf 7381 b83e f390 22bf 28fc 1ebf
00000160: d657 833e 051a fe3e 5ca7 e83e 1c7e 46bf
00000170: aa72 003f 6199 49bf 2608 ffbe 94c2 083f
00000180: 88c7 8b3e 076e ac3e 7336 b93e 1387 0bbe
00000190: 9ed6 0fbf 3c21 0e3e 4e25 4cbe 461b b13d
000001a0: dcb4 de3e 0934 d73e 581d a23e 34aa 2cbf
000001b0: 31da bf3e cd80 b83e b97a ee3e 5384 b33e
000001c0: 4ae2 4c3e c375 3cbf fb6e 813e 17b5 40bf
000001d0: aea0 e1be ecad 883e e6e0 293e 1c5b ea3d
000001e0: 0e79 1cbf ed98 473e ce32 8abf 5bfa 0c3f
000001f0: 1d6c f2be f276 633e 679a 62bf dfd8 cb3c
00000200: 3076 e5be ed63 99bb 6fb0 c33e db44 29bf
00000210: bc6e e83e 518d 283f 340b 5cbf baae 023f
00000220: d7a9 adbf 0e04 973e fd8d a5be 3c1a f23d
00000230: 8d37 e73e e8a9 14bf be4b 64bf 72b5 273f
00000240: 757e a5be 8767 63bf f08f 0fbf 2a34 ff3e
00000250: 6f66 ea3e a967 cd3e 34fc 2cbf c9c2 08bf
00000260: 82e9 b2be 21bf 2bbf 1845 2bbf df39 c8be
00000270: 9e90 c3bf bd85 bf3e f42b 943e 6b5e 47bf
00000280: 8735 1ebf a674 2f3f 2af1 61bf 9ccf d4bd
00000290: 4b21 eebe 86c8 be3d 2dca 9a3b 2046 f8bb
000002a0: 0aa8 85bf 4577 403e c5ce 553e f60c fcbe
000002b0: 89c7 1b3f f4f4 823e 474f 66bf 74ed 26bf
000002c0: 43dc 303e d5a9 563e e5ca 153f 4834 10bf
000002d0: cee2 13bf 554b ecbc 5eac c23e 0eee 6ebf
000002e0: 7f86 223f 89ae 113e f970 cf3e e5a7 8b3e
000002f0: ac5b 02bf a868 243f 660a d43e ac21 18bf
00000300: de30 643e d418 d43d 6fd4 59bf 822b df3e
00000310: a870 75be 48ea 40bf 6d93 20bd 3cf7 81be
00000320: 5090 7dbf 314f 69be 0bfd 6cbf ffd5 e53e
00000330: c203 a43e 3623 613e 8c48 703f b43e d1bd
00000340: 2292 d4be c392 b63e e149 733e 0ccf 7bbf
00000350: df43 9c3f d601 dabd 9cc8 48bf 994c 09bf
00000360: 56c4 153f 4287 5cbe 9f0c aabe 815f 1dbf
00000370: d1c8 33be 3d9f 063f c338 00bf 5f0d 063f
00000380: e2ca 2bbe f8cc 933e e9c5 4abf ecc5 4d3e
00000390: ab01 39be b996 e53e b9a5 4d3e 1968 a2bf
000003a0: f661 e3be b620 afbd 348a d13e ae69 853e
000003b0: 8894 2c3f 381e 643e a479 56be f959 1d3f
000003c0: d466 303e 8d2e 003f 1f8f 9cbf a092 a9bf
000003d0: 2e8e 833e 5872 63bf b27a 89bf 934f 54bf
000003e0: c7c1 b4be 1813 c43e 850d 1c3d a3f8 2ebf
000003f0: 4f97 0cbf a9d6 27bd 0f74 e53e 0133 86bd
0.29261798 0.13393071 0.327796 -0.9615202 -0.53448606 -0.0142206885 -0.89177614 -0.70901686
-0.17743015 0.26507613 0.028937513 -0.3569561 0.42268926 -1.1797183 -0.9807074 -0.64563394
0.25907853 0.194899 -0.47890142 0.15458985 -0.01604071 -0.70687485 0.3237427 0.20148748
-0.7056657 -1.1617953 -0.23795418 -0.96254516 -0.53202057 0.3047727 0.4543837 -0.9838843
0.3526616 0.49059296 -1.3216115 -0.86612886 0.45646393 -0.7701001 0.31993514 -0.18256412
-1.3358542 0.47629583 0.36433312 0.3533118 -1.0396074 -0.9595969 -0.6757466 0.16463383
0.68031335 0.30370688 -0.23686147 -0.2164449 0.021444272 -0.7827102 -0.27813268 0.7580559
-0.62720037 0.2746355 -0.6710575 -0.6285594 -0.3440756 -0.43335548 0.6662794 -0.6155505
0.04963895 -0.88619703 -1.155355 0.47147712 0.49912715 -0.01826404 0.23203824 0.6805863
0.012855472 0.35892323 0.39557883 0.15618464 0.5581981 -0.39038432 0.018993853 0.42127937
0.32956624 -1.0827261 -1.0261552 -1.1596239 -0.99848914 0.36036262 -0.63502425 -0.6210351
0.2565295 0.49629226 0.45440185 -0.7753618 0.50174963 -0.7874966 -0.49810904 0.534219
0.27300668 0.33677694 0.36174354 -0.13625745 -0.56186855 0.13879865 -0.19936106 0.0864778
0.4349736 0.42031887 0.31663013 -0.6744721 0.37471154 0.36035767 0.46578005 0.35061893
0.20008197 -0.7361719 0.25279984 -0.7527632 -0.440679 0.26695192 0.16589698 0.11443159
-0.61122215 0.1949193 -1.0796754 0.5506951 -0.4734811 0.22213343 -0.8851685 0.024883686
-0.44816732 -0.0046811015 0.38220546 -0.6612069 0.45396984 0.6584063 -0.85954595 0.5104786
-1.3567456 0.2949528 -0.3233489 0.1182141 0.4515957 -0.58071756 -0.89178073 0.6551124
-0.32323042 -0.88829845 -0.56079006 0.49844486 0.45781276 0.4011815 -0.6757233 -0.5342222
-0.34943777 -0.67088515 -0.66902304 -0.39106652 -1.5278509 0.37406722 0.28939784 -0.77878445
-0.61800426 0.68537366 -0.8825861 -0.10391161 -0.46509776 0.093155906 0.0047238083 -0.007576719
-1.0441906 0.18795498 0.20879658 -0.49228638 0.6085134 0.2557751 -0.8996472 -0.65206075
0.17271523 0.20963223 0.5851272 -0.56329775 -0.5776795 -0.028844515 0.3802213 -0.9333199
0.63486475 0.14226736 0.4051588 0.2727653 -0.5092113 0.6422219 0.41414183 -0.5942638
0.22284266 0.10356298 -0.8508977 0.4358788 -0.23968756 -0.75357485 -0.039203096 -0.25383937
-0.9904833 -0.22784115 -0.9257361 0.4488983 0.32034117 0.21986088 0.938607 -0.10217038
-0.4151774 0.35658845 0.23758651 -0.98362803 1.2208213 -0.106448814 -0.78431106 -0.53632504
0.5850271 -0.21535972 -0.33212754 -0.6147385 -0.17557074 0.5258673 -0.5008661 0.5236415
-0.16776612 0.28867316 -0.79208237 0.20095032 -0.18067043 0.44841555 0.2008275 -1.2688018
-0.44410676 -0.08551161 0.40925753 0.2605719 0.6741414 0.22277153 -0.2094484 0.6146541
0.17226726 0.5007103 -1.2231177 -1.3247871 0.25694412 -0.8884635 -1.0740569 -0.8293392
-0.3530409 0.38295817 0.03809883 -0.6834814 -0.5491838 -0.0409762 0.44815108 -0.06552697

fc3.bias f4 [10]
00000000: 1c64 84bd b495 1cbb 7f3e b0bc 6299 023c
00000010: 882d 90bd f98e 0fbe df95 c13d 6f4a a03d
00000020: 4f05 103d 4880 9f3d
-0.06464407 -0.002389294 -0.021514175 0.00797114 -0.070399344 -0.14019383 0.09452414 0.07826697
0.035161313 0.077881396
