6_ConvolutionalNeuralNetwork/LeNet/model12.pth (torch, 250424 bytes, 10 tensors)

conv1.0.weight f4 [6, 1, 5, 5]
0	0xbe727b43	-0.23679833
1	0x3e8aa030	0.27075338
2	0xbc0ef9c4	-0.008726541
3	0x3f252be8	0.6452012
4	0x3e60f093	0.21966772
5	0x3e6959d3	0.22788171
6	0x3f5ca316	0.8618635
7	0x3f844054	1.0332131
8	0x3fa5eb3b	1.2962412
9	0x3ed98628	0.42485166
10	0xbe885897	-0.2663009
11	0x3f238dfe	0.6388854
12	0x3f460ef8	0.7736659
13	0x3f186dd9	0.59542614
14	0xbf19d9e2	-0.6009809
15	0xbed9810a	-0.42481261
16	0x3e9c4c74	0.3052708
17	0xbe4a45ba	-0.19753161
18	0xbd6111f1	-0.05494875
19	0xbf84a365	-1.0362364
20	0xbf179a6b	-0.5922
21	0xbf2246ad	-0.6338909
22	0xbf5ef354	-0.8709004
23	0xbec1f19f	-0.37879655
24	0xbf3ff212	-0.74978745
25	0xbf50cab1	-0.8155928
26	0xbeb3fc19	-0.35153273
27	0xbde9cb1b	-0.114156924
28	0xbe985372	-0.29751164
29	0x3dbfc716	0.093641445
30	0xbe934409	-0.28762844
31	0x3f0282e1	0.50980955
32	0x3f401509	0.750321
33	0x3f1b5ab1	0.6068526
34	0x3f3d9d56	0.740682
35	0xbe3029d4	-0.17203456
36	0x3fa08859	1.254161
37	0x3fea7099	1.8315612
38	0x3f2fc3c8	0.68658113
39	0x3f06ff55	0.52733356
40	0xbefb412f	-0.4907317
41	0x3f54c01f	0.83105654
42	0x3e40ee15	0.18840821
43	0x3e266447	0.1624919
44	0xbe29a9b8	-0.16568649
45	0xbfaa5f84	-1.3310399
46	0xbf31570f	-0.69273466
47	0xbf4b19f4	-0.79336476
48	0xbf0e6c2f	-0.55633825
49	0xbee36b41	-0.44417766
50	0xbf1084f4	-0.5645287
51	0xbe861157	-0.26185104
52	0xbeb5f1ad	-0.35535946
53	0xbde82b00	-0.113363266
54	0xbf641784	-0.8909838
55	0x3f4a8a8f	0.79117674
56	0x3f44801a	0.7675797
57	0x3f8332d4	1.0249887
58	0x3f993f23	1.1972393
59	0xbf1bdfb1	-0.608882
60	0x3efc32de	0.4925756
61	0x3f5062c1	0.81400687
62	0x3f991757	1.1960248
63	0x3f48a632	0.78378594
64	0xbf3bff85	-0.73436767
65	0xbd0f7d2c	-0.035031483
66	0x3f4b0c0d	0.79315263
67	0x3ed87c44	0.42282307
68	0x3ea10982	0.31452566
69	0xbf302b26	-0.6881584
70	0xbf07aded	-0.52999765
71	0xbe5c3949	-0.21506228
72	0xbedf8ec2	-0.43663603
73	0xbec87b05	-0.39156356
74	0xbf40619a	-0.7514893
75	0x3ed3b1fa	0.41346723
76	0x3f1807d9	0.59386975
77	0x3f2ea437	0.6821932
78	0x3f07ae26	0.53000104
79	0x3f148a71	0.58023745
80	0x3e2ea71c	0.17055935
81	0x3d3f6e24	0.046735898
82	0xbec1201c	-0.3771981
83	0xbe439a1b	-0.19101755
84	0xbe11eb86	-0.14250001
85	0xbf156351	-0.5835467
86	0xbfc48109	-1.5351878
87	0xbf986fd3	-1.1909126
88	0xbf84b912	-1.0368979
89	0xbf359d31	-0.7094298
90	0xbf6fe499	-0.9370819
91	0xbf3d3517	-0.73909134
92	0xbe3d76d1	-0.18502356
93	0xbdeac5fe	-0.11463545
94	0xbf233a2b	-0.6376063
95	0x3d22b1de	0.03972041
96	0x3f5b587f	0.8568191
97	0x3f5b2be9	0.85613877
98	0x3ea02c0e	0.3128361
99	0xbe3b8c1c	-0.18315166
100	0x3f36c551	0.7139483
101	0x3f98c49f	1.1935004
102	0x3f0d93ad	0.5530346
103	0x3f2c1fbe	0.67235935
104	0x3f512712	0.8170024
105	0x3e8f43b1	0.27981332
106	0xbec2f52f	-0.38077685
107	0xbf24ea22	-0.6441976
108	0xbf430d91	-0.76192576
109	0xbeca8a02	-0.39558417
110	0xbdf56ef2	-0.11984052
111	0xbf0a5d9c	-0.54049087
112	0xbf13c95e	-0.57729137
113	0xbf00ee24	-0.50363374
114	0xbed9f552	-0.42569977
115	0x3ee72bd6	0.45150632
116	0xbee6dba3	-0.45089445
117	0xbf7acaa5	-0.9796546
118	0xbedee6fe	-0.43535608
119	0xbeac5b67	-0.33663484
120	0x3f663ba0	0.8993473
121	0x3bfa6836	0.0076418174
122	0xbeaef3f8	-0.34170508
123	0x3e8461f5	0.25855985
124	0x3f06cac1	0.5265313
125	0x3ebb0fe3	0.36535558
126	0x3f05d650	0.5228014
127	0xbdf211a5	-0.11819772
128	0xbf5c3ed8	-0.8603339
129	0xbf180dd8	-0.59396124
130	0x3e5ec38a	0.2175428
131	0x3ca41d45	0.020033488
132	0xbefce94d	-0.49396744
133	0xbf9fe492	-1.2491629
134	0x3e3632f8	0.1779288
135	0xbde53485	-0.11191658
136	0xbdb438f5	-0.08799926
137	0xbf42e4b8	-0.7613025
138	0xbf4e35fa	-0.8055111
139	0x3f248c13	0.64276236
140	0x3e89f7ea	0.26946956
141	0xbebe9796	-0.37225026
142	0xbf9b0d1a	-1.2113373
143	0xbe1d6d59	-0.15373744
144	0x3e08212d	0.13293906
145	0x3f4ec185	0.8076404
146	0xbea38eba	-0.3194483
147	0xbfa129d5	-1.2590891
148	0xbee7ba9e	-0.45259565
149	0x3ec6c554	0.38822424

conv1.0.bias f4 [6]
0	0xbf579743	-0.8421518
1	0xbf65c4ac	-0.8975322
2	0xbf5148bf	-0.81751627
3	0xbd80ae69	-0.06283266
4	0xbe4e9b98	-0.20176542
5	0xbf1aa0dc	-0.604017

conv2.0.weight f4 [16, 6, 5, 5]
0	0x3de5a4e9	0.11213095
1	0x3e78af74	0.2428568
2	0x3f061d18	0.52388144
3	0x3e983377	0.29726765
4	0xbe8e76ec	-0.27825105
5	0x3ee9de36	0.45677346
6	0x3f237b25	0.6385978
7	0x3e628300	0.22120285
8	0xbe6cbde0	-0.23119307
9	0xbf111e35	-0.5668672
10	0x3ef4498a	0.47712356
11	0x3e5a4e10	0.21318841
12	0xbf10c1c0	-0.5654564
13	0xbf5364bf	-0.825756
14	0x3da47d41	0.08031703
15	0x3e51d3d0	0.20490956
16	0x3dbff626	0.09373121
17	0xbf704c0e	-0.9386605
18	0xbe6e83c9	-0.2329246
19	0x3f2a52de	0.66532695
20	0xbc8a0319	-0.01684718
21	0xbe973e61	-0.2953978
22	0xbf607ac3	-0.8768732
23	0x3d41a37a	0.047275044
24	0x3ee2f12a	0.4432462
25	0x3c8f98bd	0.017528886
26	0x3ebaf0a6	0.36511725
27	0x3eed4d09	0.46347836
28	0x3db85951	0.09001411
29	0xbe9827eb	-0.29717955
30	0x3e8fac81	0.28061298
31	0x3ec6b939	0.3881319
32	0xbd04be83	-0.03240825
33	0xbf0ddb1c	-0.5541246
34	0xbe730f76	-0.23736367
35	0x3e9b7294	0.30360854
36	0xbda894c6	-0.08231501
37	0xbf4a565d	-0.7903803
38	0xbef84586	-0.48490542
39	0x3eeffcf6	0.4687268
40	0x3d3eeb8c	0.046611354
41	0x3dc7715e	0.0973842
42	0xbf575b54	-0.8412373
43	0x3d5102e4	0.051028147
44	0x3f1e9d3f	0.6195869
45	0x3d0266c6	0.031836294
46	0xbeaa5d77	-0.33274433
47	0xbef2b4d3	-0.47403583
48	0x3e9f28b7	0.3108575
49	0x3ee440b8	0.44580626
50	0x3ea06f92	0.3133512
51	0x3ea978ba	0.3309992
52	0x3f01b68a	0.5066916
53	0x3e9456df	0.28972527
54	0xbe318f27	-0.17339765
55	0x3f05a076	0.5219797
56	0x3f16f298	0.5896392
57	0x3e1d2391	0.15345599
58	0xbefb683a	-0.49102956
59	0xbec170f8	-0.377815
60	0x3eb498b6	0.3527276
61	0x3b111883	0.0022139854
62	0xbf418292	-0.7558986
63	0xbf700f41	-0.93773276
64	0x3e621f97	0.22082363
65	0x3e3e4be2	0.18583634
66	0x3e46101a	0.1934208
67	0xbf464ef5	-0.7746423
68	0xbee23d8b	-0.4418758
69	0x3ef5a0e8	0.47974324
70	0xbd961748	-0.07328659
71	0xbd6372d6	-0.055529438
72	0xbf3db43a	-0.7410313
73	0x3da4f878	0.08055204
74	0x3f0e074e	0.55479896
75	0xbe8a0207	-0.26954672
76	0xbedc61ae	-0.43043274
77	0xbee80217	-0.45314094
78	0x3c3b9d2a	0.011451045
79	0x3e3b967f	0.18319128
80	0xbecad5a1	-0.3961611
81	0xbe810fc8	-0.25207353
82	0x3e290a18	0.16507757
83	0x3eba3b1a	0.36373216
84	0x3cf4bcfd	0.029875273
85	0xbe967611	-0.29386953
86	0x3e0e0bc9	0.13871683
87	0x3e872ab6	0.26399773
88	0xbd0b2973	-0.033975076
89	0xbf47aec0	-0.7800102
90	0xbe7a3f49	-0.24438204
91	0xbd22224a	-0.03958348
92	0xbd0827e4	-0.033241168
93	0xbef2d002	-0.47424322
94	0xbf8841b6	-1.0645053
95	0xbe841bd4	-0.2580248
96	0x3c85fa83	0.016354805
97	0xbe7afb74	-0.24509984
98	0xbf42daee	-0.7611531
99	0xbf8d4381	-1.1036226
100	0xbeb94d79	-0.3619192
101	0xbeb67ea7	-0.35643503
102	0xbe8815e7	-0.2657921
103	0xbd79d9d8	-0.060998768
104	0x3d8d7b12	0.069082394
105	0xbed205f5	-0.4102017
106	0xbe0936e1	-0.13399841
107	0x3e89978e	0.2687344
108	0x3eb17658	0.34660602
109	0xbe21e09e	-0.15808341
110	0xbe6740f1	-0.22583367
111	0x3cab455c	0.020907097
112	0x3f16cf65	0.5891021
113	0x3e539fc2	0.20666412
114	0xbf1b10fa	-0.6057278
115	0xbe0fcc5c	-0.140428
116	0x3dc7949a	0.097451404
117	0x3eddb650	0.43303156
118	0xbe19c3bd	-0.15016074
119	0xbeb55dd4	-0.35423148
120	0xbe116282	-0.14197734
121	0x3e0fa10f	0.14026283
122	0x3e97b3b6	0.29629296
123	0xbf0d50a0	-0.5520115
124	0xbeb536c4	-0.35393345
125	0xbe7c309f	-0.24627922
126	0xbeb32c97	-0.34994957
127	0xbed8804a	-0.42285377
128	0xbe7033f1	-0.23457314
129	0xbe1dc3b2	-0.15406683
130	0xbe33827d	-0.17530246
131	0xbdbf6af1	-0.09346569
132	0x3e07db81	0.13267328
133	0x3e483149	0.19550051
134	0xbe7d181a	-0.24716225
135	0xbd1bcc02	-0.038036354
136	0x3e06b713	0.13155775
137	0x3f33e75c	0.702749
138	0x3ea28759	0.31743887
139	0xbe5bf1d6	-0.21478972
140	0x3db7509e	0.089509234
141	0x3e77de7a	0.24205962
142	0x3f02f052	0.5114795
143	0xbd5b01b4	-0.05346842
144	0xbe63a55c	-0.22231048
145	0xbe023708	-0.12716305
146	0x3e26bc2b	0.16282718
147	0x3eaeb6d9	0.34123877
148	0xbe1ece4f	-0.15508388
149	0x3e11c66c	0.14235848
150	0x3eadedf9	0.3397062
151	0x3e82d70c	0.25554693
152	0xbe4c625d	-0.19959398
153	0xbeac8696	-0.3369643
154	0xbeb2e1d7	-0.34937927
155	0x3f016462	0.50543797
156	0x3eb9e879	0.36310175
157	0x3e881312	0.2657705
158	0x3ec7b64f	0.39006278
159	0x3eb6c7ce	0.35699314
160	0x3dd6aac4	0.1048179
161	0xbf0e5e36	-0.55612504
162	0xbf304555	-0.6885579
163	0xbde75eda	-0.112973884
164	0x3eb0848e	0.3447613
165	0xbf332053	-0.699712
166	0xbfc04263	-1.502026
167	0xbfb73358	-1.4312544
168	0xbf7c931f	-0.9866199
169	0xbecc23f6	-0.39871186
170	0x3e1a5307	0.15070735
171	0x3f2614cc	0.64875484
172	0x3e576f46	0.21038541
173	0xbe3c193d	-0.18369003
174	0xbdb1faad	-0.08690391
175	0x3e7f3ae3	0.24924807
176	0x3d152bc9	0.03641871
177	0xbe1a0777	-0.1504191
178	0xbddc365c	-0.10752556
179	0xbdf38075	-0.118897356
180	0x3e65ab61	0.22428657
181	0x3d82482a	0.063614205
182	0x3d941970	0.07231414
183	0x3ee0906f	0.43860194
184	0x3f035529	0.5130182
185	0xbe91af15	-0.2845389
186	0xbf8e0d0d	-1.1097733
187	0xbf421ff8	-0.7583003
188	0xbe07b974	-0.13254339
189	0x3e4b4bd8	0.19853151
190	0xbed67703	-0.41887674
191	0xbef99b49	-0.48751286
192	0xbf2052df	-0.6262645
193	0xbf651f20	-0.8950062
194	0xbf00eff5	-0.50366145
195	0x3eeb4725	0.45952716
196	0x3f415491	0.75519663
197	0x3e97a9cf	0.2962174
198	0xbd8480c0	-0.064698696
199	0xbde13ecf	-0.10998308
200	0x3ea8da9b	0.32979283
201	0x3e520527	0.20509778
202	0x3ccba67a	0.024859656
203	0xbdc240ad	-0.09484992
204	0xbdd9571c	-0.10612318
205	0x3edde53e	0.4333896
206	0x3e72a00a	0.23693863
207	0xbd3548f0	-0.04425901
208	0x3e535a92	0.20640019
209	0x3ed24eab	0.41075644
210	0xbda2399b	-0.079211436
211	0xbf19ad48	-0.6003003
212	0xbf9afcf2	-1.2108443
213	0xbf147410	-0.579896
214	0xbd463650	-0.04839164
215	0xbf278ca6	-0.6544899
216	0xbf471201	-0.77761847
217	0xbf60436d	-0.87602884
218	0xbf7e5a08	-0.99356127
219	0xbf331489	-0.6995321
220	0x3dafc166	0.0858181
221	0x3eddb154	0.43299353
222	0x3e8ac94b	0.271067
223	0xbe12b39d	-0.1432633
224	0xbd9323eb	-0.07184585
225	0xbe9b2544	-0.3030187
226	0xbe8f57fd	-0.27996817
227	0xbe7f271c	-0.24917263
228	0xbe319991	-0.17343737
229	0xbe43a954	-0.19107562
230	0x3daed5a7	0.08536845
231	0x3db529ab	0.08845838
232	0x3dcf9d94	0.101374775
233	0xbe17f740	-0.14840412
234	0xbead1242	-0.33802992
235	0x3f4671e3	0.7751753
236	0x3f7fe039	0.9995151
237	0x3f794a83	0.9737932
238	0x3f554264	0.8330443
239	0x3ecaf6d7	0.3964145
240	0x3edeb2e9	0.43495873
241	0x3e9b56d6	0.30339688
242	0x3ed836c6	0.4222929
243	0x3f3d2e79	0.73899037
244	0x3f3f93b2	0.7483474
245	0xbe900e21	-0.2813578
246	0xbf074ad3	-0.5284855
247	0xbef3fbb1	-0.47652963
248	0x3cfb8195	0.030701438
249	0x3e965839	0.29364184
250	0xbe0c56ca	-0.13704982
251	0xbe620e6b	-0.22075813
252	0xbe3a20cb	-0.18176572
253	0xbea5447a	-0.32278806
254	0xbec40ecc	-0.3829254
255	0xbe643067	-0.22284089

conv2.0.bias f4 [16]
0	0xbdd691a5	-0.10476998
1	0x3d0243ed	0.03180306
2	0xbcdad615	-0.02671341
3	0x3ce50a93	0.027959144
4	0xbdbcf9e9	-0.09227354
5	0xbd4eddd7	-0.05050453
6	0xbd9e8647	-0.07740455
7	0x3e0c0b76	0.13676247
8	0xbdd306ba	-0.10304017
9	0x3d0515c3	0.032491457
10	0x3d4f7c70	0.050655782
11	0x3d7520bd	0.059845675
12	0xbb0ec3b1	-0.0021784122
13	0xbd286425	-0.04111113
14	0xbc096aea	-0.008387307
15	0x3dd70122	0.10498263

fc1.0.weight f4 [120, 400]
0	0x3e5fa4e4	0.21840245
1	0x3e902f3d	0.2816104
2	0xbf76e2af	-0.9643964
3	0xbfaf29c3	-1.368462
4	0xbed74a68	-0.42048955
5	0x3eadd7a0	0.3395357
6	0x3e8cf2ac	0.27528894
7	0xbead337f	-0.3382835
8	0xbec84cc6	-0.39121073
9	0xbd5a1aef	-0.053248342
10	0x3cb071ad	0.02153858
11	0xbee36850	-0.44415522
12	0xbd050e44	-0.032484308
13	0x3d4eeabe	0.050516836
14	0x3dcb10c2	0.09915306
15	0xbf141f13	-0.57859915
16	0xbf288950	-0.6583452
17	0x3cf72a32	0.030171487
18	0x3e8ada01	0.2711945
19	0x3ec185de	0.37797445
20	0xbcb99514	-0.022654094
21	0xbdcdc96c	-0.10048184
22	0x3db88fe3	0.09011819
23	0x3e91128c	0.28334463
24	0x3d67d381	0.05659819
25	0xbda402d2	-0.080083504
26	0x3e3481a6	0.17627582
27	0x3ed95ff1	0.4245601
28	0x3dc04cde	0.09389661
29	0xbe1c269c	-0.15249103
30	0xbea327f9	-0.31866434
31	0xbf4c71f3	-0.7986137
32	0xbd57e244	-0.052706018
33	0x3efada39	0.48994616
34	0x3e02d9b5	0.12778361
35	0xbe023def	-0.12718938
36	0x3ea1f198	0.31629634
37	0xbe5d2b06	-0.21598443
38	0xbebdd4f7	-0.37076542
39	0xbf2782b8	-0.65433836
40	0x3da9c46e	0.08289419
41	0xbd46b372	-0.048510976
42	0xbe92d6af	-0.28679416
43	0xbf51f4f1	-0.82014376
44	0x3d9a5b17	0.07536905
45	0x3e788e9d	0.24273153
46	0x3d91fd43	0.07128384
47	0xbd538f55	-0.051650364
48	0x3df6f6b4	0.12058774
49	0x3caa79d0	0.020810038
50	0x3e88370f	0.26604506
51	0x3e9a0daa	0.3008855
52	0xbccbb7cd	-0.024867916
53	0xbf09a6a1	-0.5376988
54	0xbe8f98f1	-0.28046373
55	0xbdeaa809	-0.114578314
56	0xbeb362e1	-0.35036376
57	0xbda78f6a	-0.08181651
58	0xbe688c59	-0.22709788
59	0x3eb25407	0.34829733
60	0xbd88cb38	-0.06679386
61	0xbdf0af74	-0.11752215
62	0xbe8a0692	-0.26958138
63	0x3e29eff2	0.16595438
64	0x3eb0286b	0.34405836
65	0x3e9f9aa6	0.31172675
66	0xbe6af7ed	-0.22946139
67	0x3e8f6c9d	0.28012553
68	0xbe9eaacb	-0.3098968
69	0x3e161801	0.14657594
70	0x3e157c33	0.1459816
71	0x3d9568a4	0.07295349
72	0x3e66e34a	0.22547641
73	0x3ea74b65	0.3267471
74	0x3e783100	0.24237442
75	0xbec79869	-0.38983467
76	0xbdc796d9	-0.09745569
77	0x3e178aab	0.14798991
78	0x3e67dc1f	0.22642563
79	0x3ebceaae	0.36897796
80	0xbeadb1c2	-0.3392468
81	0xbe789d80	-0.24278831
82	0x3cd5aea8	0.02608426
83	0x3da0f895	0.07859913
84	0x3e0e335d	0.13886781
85	0xbeb815a9	-0.35954025
86	0xbe523175	-0.20526679
87	0x3c6706e0	0.01410076
88	0x3d3bc2c7	0.04584005
89	0xbf01ad1a	-0.5065476
90	0x3e7627d8	0.24038637
91	0x3dbcd056	0.092194244
92	0xbe2d9ca3	-0.16954283
93	0xbf522045	-0.8208049
94	0xbfa5321b	-1.2905916
95	0x3ea28d86	0.317486
96	0x3ee28b81	0.44247058
97	0xbdd1545e	-0.1022117
98	0xbebd640d	-0.36990395
99	0xbeecf30d	-0.46279183
100	0xbf1a7022	-0.6032735
101	0xbe43e7d5	-0.19131406
102	0x3eb1e4b8	0.3474481
103	0x3eb356a8	0.3502705
104	0x3ea9c25d	0.331561
105	0xbeffb395	-0.49941698
106	0xbef90619	-0.48637465
107	0x3d8b401e	0.06799339
108	0x3da89450	0.08231413
109	0xbd65b595	-0.056081373
110	0x3dfbb0bd	0.122895695
111	0xbe8c7a19	-0.27436903
112	0x3d9bbf85	0.07604889
113	0x3bdf785b	0.0068197674
114	0xbe0e09be	-0.13870904
115	0x3e9861d5	0.2976214
116	0xbd50264a	-0.050817765
117	0xbd34972e	-0.04408949
118	0xbdafd066	-0.08584671
119	0xbecfe646	-0.40605372
120	0x3e11a58f	0.14223312
121	0xbd4661e0	-0.048433185
122	0x3ca5af73	0.020225262
123	0xbe7380dd	-0.23779626
124	0xbef43d48	-0.47703004
125	0xbf37902c	-0.71704364
126	0xbe845655	-0.25847116
127	0x3e4def86	0.20110902
128	0x3e5d6d8d	0.21623822
129	0x3eb7c568	0.35892797
130	0xbf271c28	-0.6527734
131	0xbdb3e65c	-0.08784172
132	0x3d3a627c	0.04550408
133	0x3f0feb2a	0.56218207
134	0xbe5ecc63	-0.21757655
135	0xbd55d19a	-0.052201845
136	0xbd0b9b34	-0.03408356
137	0x3e71d815	0.23617585
138	0xbdb97732	-0.09055938
139	0xbec13b3a	-0.377405
140	0xbd26ee8d	-0.040754844
141	0x3d90a642	0.07062961
142	0xbd97ca1b	-0.074115954
143	0xbde7ab65	-0.11311988
144	0xbea48329	-0.32131317
145	0x3dbafd6c	0.09130368
146	0x3c633cdf	0.013869493
147	0xbe48c96c	-0.19608086
148	0xbf29aa69	-0.6627565
149	0xbf879233	-1.0591491
150	0x3c82be20	0.0159598
151	0xbaaa113a	-0.0012975105
152	0x3cd587a7	0.02606566
153	0xbd519b5e	-0.05117356
154	0xbd111a06	-0.03542521
155	0xbeed4331	-0.46340325
156	0xbe971e94	-0.29515517
157	0xbef7916a	-0.4835313
158	0x3ddc2d53	0.107508324
159	0xbd4fd200	-0.05073738
160	0xbea06822	-0.31329447
161	0xbdce312b	-0.10067972
162	0x3d290a8e	0.04126983
163	0xbe3edae3	-0.18638186
164	0xbe9d391d	-0.30707636
165	0xbe9d1b6a	-0.30684978
166	0x3ec3ea34	0.3826462
167	0x3f1cd002	0.61254895
168	0xbd37ff25	-0.04492106
169	0x3e1db157	0.15399681
170	0x3e5bad54	0.21452838
171	0x3f182820	0.59436226
172	0x3de66745	0.11250166
173	0x3ea1fbe1	0.3163748
174	0x3ef6a285	0.48170868
175	0xbee0388f	-0.4379315
176	0xbeb09c5d	-0.34494296
177	0xbdaf98fe	-0.08574103
178	0x3eabbe98	0.3354385
179	0x3ea33d93	0.31882915
180	0xbe2292ed	-0.1587636
181	0xbdde3daa	-0.10851605
182	0x3e72bc60	0.23704672
183	0x3f05125c	0.5198114
184	0x3f81a957	1.0129803
185	0x3d0abe0c	0.03387265
186	0x3e502c4b	0.20329396
187	0x3f00fa32	0.5038177
188	0x3f240446	0.6406902
189	0x3ebb5774	0.3659016
190	0xbd73294a	-0.05936555
191	0xbc60b5d5	-0.013715227
192	0xbd9628b6	-0.07331984
193	0xbf1fb9ba	-0.6239277
194	0xbd859c32	-0.065239325
195	0x3e23de21	0.16002704
196	0x3c3f5186	0.011677152
197	0xbe8c40f7	-0.27393314
198	0xbf7af1b9	-0.9802509
199	0xbec10246	-0.37697047
200	0x3e7361ae	0.2376773
201	0x3eb16d62	0.34653765
202	0xbf67af6d	-0.90502053
203	0xbf547790	-0.8299494
204	0x3e0073b5	0.12544139
205	0x3de6d60c	0.11271295
206	0xbde93a62	-0.11388089
207	0xbedd11d9	-0.4317768
208	0xbe3f025f	-0.18653248
209	0x3e0b008e	0.1357443
210	0x3e793bbe	0.24339196
211	0x3e0e21b3	0.13880043
212	0xbd8c9c76	-0.0686578
213	0x3e658f58	0.22417963
214	0x3e728364	0.23682934
215	0xbbc8f264	-0.006132411
216	0xbe1c2ae6	-0.1525074
217	0x3ef30701	0.4746628
218	0xbeae4ee4	-0.34044564
219	0x3f147bdf	0.5800151
220	0xbe19ddc1	-0.15025999
221	0x3c221121	0.009891779
222	0x3d004a40	0.03132081
223	0x3ca9ad12	0.02071241
224	0x3f14973a	0.58043253
225	0xbecf5f7a	-0.4050253
226	0xbe2432d4	-0.16035014
227	0x3ebc0600	0.36723328
228	0x3ee46139	0.44605425
229	0x3ec51c35	0.38498083
230	0xbf3b773e	-0.73228824
231	0xbe6ad8d3	-0.22934274
232	0x3c795209	0.015217313
233	0x3dcac0c0	0.099000454
234	0x3c2ac8c1	0.01042384
235	0xbed5bd7c	-0.41746128
236	0x3d9bacae	0.076012954
237	0xbe888968	-0.26667333
238	0xbf417da2	-0.75582325
239	0xbeefdcc0	-0.46848106
240	0x3e34ec25	0.17668207
241	0x3e66abe4	0.22526509
242	0xbe8fa252	-0.28053528
243	0xbf67e70a	-0.9058691
244	0xbf9a7896	-1.206805
245	0x3e2ddb11	0.16978098
246	0x3e4b4e1a	0.19854012
247	0xbe589507	-0.211506
248	0xbf3bc4c0	-0.7334709
249	0xbf68774f	-0.9080705
250	0xbd94e8e8	-0.07270986
251	0x3e046740	0.12930012
252	0x3ed9ed4b	0.42563853
253	0x3d33c2c7	0.043886926
254	0x3d269456	0.040668808
255	0xbf171324	-0.5901358

fc1.0.bias f4 [120]
0	0x3c09c7b7	0.008409432
1	0x3a6e6021	0.0009093304
2	0xbd971f23	-0.07378986
3	0x3d3e6a79	0.04648826
4	0x3be371dd	0.006941064
5	0xbd5e3f1c	-0.054259405
6	0xbdc597d6	-0.09648101
7	0xbdd41e99	-0.103573985
8	0xbd57f574	-0.052724317
9	0x3c9ad7cc	0.018901728
10	0xbe07fd96	-0.13280329
11	0xbbda5ad8	-0.0066636615
12	0x3d6b9071	0.057510797
13	0x3bbd971d	0.0057858364
14	0x3e18bb56	0.14915213
15	0xbd27dda5	-0.04098286
16	0x3b78646a	0.0037901648
17	0x3da396eb	0.0798777
18	0x3d8a9573	0.067667864
19	0x3d67dc22	0.05660642
20	0x3d2eb47d	0.042652596
21	0x3d0b1a31	0.033960525
22	0x3da7e34b	0.081976496
23	0xbdd1a7bc	-0.10237071
24	0x3dc76d11	0.097376
25	0xbc847485	-0.016168842
26	0xbe2a3928	-0.16623366
27	0xbc2ab65b	-0.0104194535
28	0x3d2d23bc	0.042270407
29	0x3d170eed	0.03687947
30	0xbdbfffcf	-0.093749635
31	0xbd2a5330	-0.04158324
32	0xbd7ab1eb	-0.061204832
33	0xbd904642	-0.070446506
34	0x3ca11b2f	0.019666282
35	0xbd3ffc80	-0.046871662
36	0x3e2dac3e	0.16960236
37	0xbdc23a99	-0.09483833
38	0x3d6ce3d4	0.05783446
39	0xbe139264	-0.14411312
40	0xbd579aaf	-0.052637752
41	0xbd8ae5ad	-0.067820884
42	0xbe1f871c	-0.15578884
43	0xbe077891	-0.13229586
44	0x3cb08998	0.021549985
45	0xbe272afb	-0.1632499
46	0x3cad157e	0.021128412
47	0xbd0dcdb1	-0.03461999
48	0xbdae0aec	-0.08498177
49	0x3ace0a85	0.0015719688
50	0xbddaac74	-0.10677424
51	0xbde7c5dc	-0.113170356
52	0x3da9a09b	0.08282586
53	0xbdbb5f4f	-0.09149038
54	0x3d574dad	0.05256431
55	0xbdbe14e7	-0.092813306
56	0x3da6388a	0.08116253
57	0xbe134c81	-0.14384653
58	0xbd61cda6	-0.055127762
59	0xbcee9bbf	-0.029127
60	0x3cffced1	0.031226547
61	0xbce5de1f	-0.028060017
62	0x3d2616c5	0.04054906
63	0xbe4fda24	-0.20298058
64	0x3d13170d	0.035910655
65	0xbdc1eaf6	-0.09468643
66	0x3c8b9b50	0.017041832
67	0xbe06c64f	-0.13161586
68	0x3de502e0	0.11182189
69	0xbdd62364	-0.10455969
70	0xbbf4bcf9	-0.0074688164
71	0xbe13ff73	-0.14452915
72	0xbd982ecf	-0.07430803
73	0xbc4456db	-0.011983599
74	0xbc85a595	-0.016314307
75	0xbe3c2895	-0.18374856
76	0x3d05cead	0.032667805
77	0xbc959d8c	-0.0182636
78	0x3d49b1b4	0.049241737
79	0x3c8a2a80	0.016865969
80	0x3c851d12	0.016249213
81	0x3ddaca48	0.10683113
82	0xbb7e3c44	-0.0038793245
83	0xbdcf5eaa	-0.101254776
84	0xbc2ef3c4	-0.010678235
85	0x3d225abf	0.039637323
86	0x3c7ff6b1	0.015622781
87	0x3c8eb3d3	0.017419731
88	0xbd3be2e8	-0.04587069
89	0x3c9e3cb6	0.019316059
90	0x3dfc0a8d	0.123067
91	0xbcafd5dc	-0.02146428
92	0x3d136fd9	0.035995338
93	0x3dffbf27	0.12487631
94	0xbca7b7a6	-0.020473313
95	0xbaae2f83	-0.0013289306
96	0xbbdfbf89	-0.0068282527
97	0xbdd6c900	-0.104875565
98	0xbd945cc1	-0.07244254
99	0xbd8a977d	-0.06767175
100	0xbe1532ac	-0.14570111
101	0x3cdce0cf	0.026962666
102	0x3da9b2d6	0.082860634
103	0x3d909f6e	0.07061659
104	0xbe3883a6	-0.1801897
105	0x3d0a99f9	0.033838246
106	0x3d729aef	0.059229787
107	0xbd915ae8	-0.07097417
108	0x3d0097d1	0.031394783
109	0xbd62256c	-0.05521147
110	0xbdd378cd	-0.10325775
111	0x3d207e69	0.039183054
112	0xbcf6e7eb	-0.030139884
113	0xbdab057e	-0.08350657
114	0xbcae6cea	-0.021292169
115	0x3d59c9f4	0.053171113
116	0x3ca4fe19	0.020140694
117	0x3e49cc6b	0.19706886
118	0xbda5c5da	-0.08094378
119	0x3d064cb2	0.032787986

fc2.0.weight f4 [84, 120]
0	0xbd35be35	-0.04437085
1	0x3f08f6db	0.5350167
2	0x3ecbbe0e	0.39793438
3	0xbdba906d	-0.09109578
4	0xbe0b1ffe	-0.13586423
5	0x3f3fab4f	0.7487077
6	0xbed9f2f3	-0.42568168
7	0x39a5b292	0.00031604298
8	0xbe5bc81f	-0.21463059
9	0x3ed0e9ec	0.40803468
10	0xbf001773	-0.5003578
11	0xbe4d22e6	-0.20032844
12	0xbf291be3	-0.66058177
13	0x3e47889a	0.19485703
14	0xbe54deca	-0.20788112
15	0xbf1119c5	-0.56679946
16	0x3e776d60	0.24162817
17	0xbdf9ec93	-0.12203326
18	0x3da12059	0.07867498
19	0x3d4c573e	0.049887888
20	0x3eaa5abf	0.3327236
21	0xbe9acefc	-0.30236042
22	0x3d53d20e	0.051713996
23	0xbf6a2353	-0.9146015
24	0xbefcea3b	-0.49397454
25	0x3f4639a7	0.7743172
26	0x3ec9574f	0.39324424
27	0x3da2d0ff	0.07950019
28	0xbd754ace	-0.059885792
29	0x3f1915f1	0.59799105
30	0xbd1ff122	-0.03904832
31	0x3e54400c	0.20727557
32	0xbe030b08	-0.12797177
33	0x3b10ead8	0.0022112634
34	0xbf09a80a	-0.5377203
35	0x3f1e826c	0.6191776
36	0x3dfed26a	0.12442477
37	0x3da7d008	0.08193976
38	0xbe850e8f	-0.2598767
39	0xbe241835	-0.16024859
40	0xbe891f68	-0.26781774
41	0xba6cd7a5	-0.0009034819
42	0xbed9aa31	-0.42512658
43	0xbdd97cc2	-0.10619499
44	0xbee56342	-0.4480229
45	0xbeb02a87	-0.34407446
46	0x3ec37ac1	0.3817959
47	0x3ee3b835	0.44476476
48	0x3d895589	0.06705768
49	0xbe646098	-0.22302473
50	0xbe135b69	-0.14390339
51	0xbf171355	-0.59013873
52	0x3e7e42e8	0.2483021
53	0xbf8d0a64	-1.1018796
54	0xbec346d9	-0.3813999
55	0xbe9c23cd	-0.30496064
56	0x3b76cd09	0.0037658832
57	0xbee78996	-0.45222157
58	0x3e23952d	0.15974875
59	0x3dfa3e4e	0.12218915
60	0x3ed444d9	0.41458777
61	0xbd7e8231	-0.06213588
62	0x3f1d20d7	0.61378235
63	0xbf21d3fa	-0.63214076
64	0x3e6ba895	0.23013528
65	0xbe5bd849	-0.21469225
66	0x3e8b1eb2	0.27171856
67	0xbda13f43	-0.07873394
68	0x3e32173a	0.17391673
69	0xbec6a47a	-0.3879736
70	0xbbdc34b6	-0.006720151
71	0x3f065fad	0.5248974
72	0xbdfaf140	-0.12253046
73	0xbcfaae30	-0.030600637
74	0x3e82ebd3	0.25570545
75	0xbf704c72	-0.93866646
76	0xbebff6b2	-0.374929
77	0x3ef1bcd3	0.47214374
78	0x3ea68ca1	0.32529166
79	0x3ed3d9af	0.41377017
80	0x3e3d104b	0.18463247
81	0xbeb33f37	-0.35009167
82	0xbdac7c55	-0.08422152
83	0x3e44ab8d	0.19206066
84	0x3ef53ba9	0.4789708
85	0x3d8d9358	0.06912869
86	0xbf397800	-0.7244873
87	0x3ef021e0	0.46900845
88	0xbe7c4acb	-0.24637906
89	0x3ed3677b	0.41289887
90	0x3f0637a1	0.5242863
91	0x3e8d79fc	0.2763213
92	0x3e4ee322	0.20203832
93	0xbe6e127b	-0.23249237
94	0xbdea7221	-0.114475496
95	0x3e7bd983	0.24594693
96	0xbec6ce0e	-0.38829082
97	0xbf045024	-0.51684785
98	0xbe8c198c	-0.2736324
99	0x3e6c14f7	0.23054872
100	0xbf4d0c84	-0.8009722
101	0x3f60d6f3	0.87827986
102	0x3dc66aef	0.09688365
103	0xbf2311f4	-0.6369927
104	0xbf2a4a2d	-0.66519433
105	0xbed102b3	-0.40822372
106	0xbda856f8	-0.08219713
107	0xbd1c9ee4	-0.038237467
108	0x3e9c33d4	0.30508292
109	0x3ede1325	0.4337398
110	0x3efac6b8	0.48979735
111	0xbd86a6c0	-0.06574774
112	0xbeba64d9	-0.36405066
113	0x3ef20905	0.47272506
114	0x3e7615a6	0.24031696
115	0xbc1dccc1	-0.009631337
116	0xbe2eb5ea	-0.17061582
117	0xbd6a9ffd	-0.057281483
118	0x3e51e00d	0.20495625
119	0x3de7ac62	0.11312176
120	0xbde5ae06	-0.11214833
121	0x3cfe9c23	0.031080311
122	0xbe868339	-0.2627199
123	0xbdeaec93	-0.11470904
124	0xbf02f35d	-0.5115259
125	0xbed24981	-0.41071704
126	0xbd0acdde	-0.033887736
127	0x3d7e96af	0.06215542
128	0x3e427468	0.18989718
129	0xbf1600ae	-0.5859479
130	0x3dfef2b5	0.124486364
131	0x3e97ad63	0.2962447
132	0xbe958a53	-0.29207096
133	0xbf02e024	-0.5112326
134	0xbdba9c83	-0.091118835
135	0xbeb8b897	-0.3607833
136	0x3ec3c3f9	0.38235453
137	0xbe9429be	-0.28938097
138	0x3ea2b7a6	0.31780738
139	0x3e3a0775	0.18166907
140	0xbe7b88c6	-0.24563894
141	0x3f1666e4	0.5875075
142	0xbee8b92e	-0.4545378
143	0x3e605346	0.21906766
144	0xbe87a15c	-0.26490295
145	0x3d92773c	0.071516484
146	0x3dc502cf	0.09619676
147	0x3f6e99e8	0.9320359
148	0x3d112740	0.035437822
149	0xbe26e250	-0.16297269
150	0xbef95e69	-0.48704842
151	0xbf74ddab	-0.9565074
152	0xbebdc71a	-0.37065965
153	0x3cf09c41	0.029371383
154	0x3b7c045b	0.0038454744
155	0x3ed6ccb4	0.4195305
156	0x3ed91ca6	0.4240467
157	0x3dfde53d	0.12397239
158	0x3e14997c	0.14511675
159	0xbeb0b544	-0.34513295
160	0x3dfccb86	0.123435065
161	0x3f2236c6	0.6336483
162	0xbe32e949	-0.17471804
163	0x3f28adb0	0.65890026
164	0xbc443294	-0.011974949
165	0x3f0929b1	0.5357924
166	0x3b3c92c5	0.0028774005
167	0xbe8dacbb	-0.27670845
168	0xbdfb1c01	-0.12261201
169	0xbe37ce8c	-0.17949885
170	0x3e8ffa1d	0.2812051
171	0x3ed08ee5	0.4073402
172	0xbd5c574f	-0.0537942
173	0x3f7f10e0	0.99635124
174	0x3f00c3d5	0.50298816
175	0x3df6d2ee	0.120519504
176	0xbeab7b6b	-0.33492598
177	0x3e9524f5	0.29129758
178	0xbedf53d5	-0.43618646
179	0x3dd83e78	0.1055879
180	0x3d849bd0	0.064750314
181	0x3ec905b0	0.39262152
182	0x3ed26351	0.41091397
183	0xbf15f42c	-0.585757
184	0x3e9a21bc	0.30103862
185	0xbe598619	-0.2124256
186	0xbe875c1d	-0.26437464
187	0xbd9b85f3	-0.07593908
188	0x3d90cb4b	0.07070025
189	0xbd4d65a3	-0.050145756
190	0x3f020b8a	0.5079886
191	0xbeeb8685	-0.46001068
192	0xbe1e124b	-0.15436666
193	0xbe4a92c3	-0.19782548
194	0xbeb7dcb1	-0.35910562
195	0xbe0b150d	-0.13582249
196	0xbf1618a8	-0.5863137
197	0xbcfdf994	-0.031002797
198	0x3ca7b367	0.020471288
199	0x3f122a74	0.5709603
200	0xbf18abca	-0.5963713
201	0x3ddffbc5	0.10936693
202	0x3d7ba80e	0.061439566
203	0xbea6fea2	-0.32616144
204	0xbeeddc1f	-0.46457002
205	0x3cda52f1	0.026650878
206	0x3d9a8ea0	0.07546735
207	0xbefe86af	-0.4971213
208	0x3eb33e74	0.35008585
209	0xbf0e081d	-0.5548113
210	0x3e0831a5	0.13300188
211	0xbe868db2	-0.2627998
212	0x3ebc1fe8	0.36743093
213	0x3f001a4a	0.50040114
214	0xbeaea59b	-0.34110722
215	0x3e6f2845	0.23355205
216	0x3f34b5e2	0.7059003
217	0x3f41cf13	0.75706595
218	0xbd2b0334	-0.0417511
219	0xbf431045	-0.761967
220	0x3dbdf12e	0.09274517
221	0xbe1011a4	-0.1406923
222	0x3e4fd84e	0.20297357
223	0x3f002127	0.50050586
224	0x3e7bb6d6	0.24581465
225	0xbf107906	-0.5643467
226	0xbe2159ec	-0.15756959
227	0xbf39aa7c	-0.72525764
228	0x3ee0e913	0.43927822
229	0x3f48af45	0.7839244
230	0xbe1b7fc2	-0.15185454
231	0xbeb59723	-0.3546687
232	0x3f0e6038	0.5561557
233	0xbe69d027	-0.2283331
234	0x3ee0f3d8	0.43936038
235	0x3f0d2ea9	0.5514932
236	0x3d89b1ff	0.06723403
237	0x3e94c6cb	0.29057917
238	0xbf66cf35	-0.9015992
239	0xbe065f9c	-0.1312241
240	0x3f83c498	1.0294371
241	0x3ca1c67d	0.019747967
242	0x3e64af73	0.22332554
243	0x3ea4c1aa	0.32179004
244	0x3ec899e9	0.39179924
245	0x3e9b9af7	0.30391666
246	0xbe975ffd	-0.2956542
247	0xbf0eedff	-0.55831903
248	0xbc218084	-0.009857301
249	0x3ef6d7c8	0.48211503
250	0x3e8f51bd	0.2799205
251	0xbce0d323	-0.027444428
252	0xbe5b66b4	-0.21425897
253	0x3d230f5f	0.03980958
254	0xbe35ed25	-0.17766245
255	0xbe8b400a	-0.27197295

fc2.0.bias f4 [84]
0	0x3d8577d2	0.065169945
1	0x3d866f73	0.06564226
2	0x3be05e54	0.0068471823
3	0x3d658183	0.056031715
4	0xbc885ad4	-0.016644873
5	0xbcce8861	-0.025211515
6	0xbba3df6d	-0.0050009997
7	0xbcc341ec	-0.023835145
8	0x3d98f9eb	0.07469543
9	0xbdc8b387	-0.09799867
10	0xbc174b10	-0.009234205
11	0x3cf93af0	0.030423611
12	0xbdc54cce	-0.0963379
13	0xbc319e93	-0.01084103
14	0xbd36dafc	-0.044642434
15	0xbd83d34e	-0.064367875
16	0xbda8d57c	-0.08243844
17	0x3cda9fe9	0.02668758
18	0xbdd3e0a5	-0.10345582
19	0x3d064adc	0.032786235
20	0x3e01bd93	0.12669973
21	0x3b4ad4f7	0.003094969
22	0x3d792ba4	0.060832635
23	0xbc151a5a	-0.009100521
24	0x3c3dacf6	0.011576882
25	0x3d1284d4	0.035771206
26	0x3ca7ac3c	0.02046787
27	0xbd83fa14	-0.06444183
28	0x3d027815	0.0318528
29	0x3cb9ce74	0.022681452
30	0xbdbdebe3	-0.092735074
31	0xbcc474de	-0.023981508
32	0xbd852d9e	-0.065028414
33	0xbc5f5863	-0.013631913
34	0x3d9f62bb	0.07782503
35	0xbdeb41aa	-0.11487134
36	0xbd0fe3cd	-0.035129357
37	0x3dc71170	0.09720123
38	0xbda94fdf	-0.08267187
39	0xbd7aaaef	-0.06119817
40	0x3d8b92ab	0.06815084
41	0xbd8551b8	-0.06509727
42	0xbcc4e0c7	-0.024032963
43	0xbcf78ed6	-0.030219477
44	0xbce69ce4	-0.028150983
45	0x3d485706	0.048911117
46	0x3d820706	0.06348996
47	0xbc542afa	-0.0129497
48	0x3cc49cca	0.024000544
49	0xbdb8ff1a	-0.09033032
50	0x3d383ca0	0.04497969
51	0xbd295e30	-0.04134959
52	0xbd0388ee	-0.03211301
53	0xbd553bb0	-0.052058876
54	0xbe073220	-0.13202715
55	0x3cdec051	0.027191313
56	0xbdaae7c1	-0.08344985
57	0xbd2e0fcf	-0.042495545
58	0x3d0770c7	0.033066537
59	0x3cab9f14	0.020949878
60	0x3d4fc1b0	0.050721824
61	0x3d603d8a	0.05474619
62	0xbd9dbfe9	-0.077026196
63	0x3d511e36	0.051054202
64	0xbc8cbf6b	-0.017181119
65	0x3dda68ba	0.10664506
66	0xbdbdcb5c	-0.09267303
67	0xbb897c60	-0.004195735
68	0xbd1e4c73	-0.038647126
69	0x3d989d6b	0.074519
70	0x3cdcf3ea	0.026971776
71	0x3b94802d	0.0045318813
72	0xbd26b0da	-0.040696003
73	0xbd213804	-0.03936006
74	0x3e04618f	0.1292784
75	0x3ae2eae0	0.001731243
76	0x3c6c64fc	0.014428373
77	0x3da5adf9	0.08089823
78	0x3d616e63	0.055036914
79	0x3d1fd935	0.039025504
80	0xbceab7c2	-0.028652076
81	0x3c4f39f1	0.012648092
82	0x3d610d24	0.054944173
83	0xbca5c742	-0.020236615

fc3.weight f4 [10, 84]
0	0x3e950a7d	0.29109564
1	0x3df70752	0.12061943
2	0x3eadbce2	0.3393317
3	0xbf71a859	-0.94397503
4	0xbefe62ac	-0.49684656
5	0x3b8c9d95	0.004291246
6	0xbf698b6e	-0.9122838
7	0xbf33a542	-0.7017404
8	0xbe6d4542	-0.23170951
9	0x3e8ccbfb	0.27499375
10	0x3d4db0ce	0.050217442
11	0xbec51168	-0.38489842
12	0x3edaffc4	0.4277326
13	0xbf915bda	-1.1356156
14	0xbf639811	-0.8890391
15	0xbf0c42e8	-0.5478959
16	0x3e8cdb0f	0.27510878
17	0x3e5c68c5	0.21524341
18	0xbef145ff	-0.47123715
19	0x3e19fa3f	0.15036868
20	0xbc80ebd0	-0.015737444
21	0xbf2a57cc	-0.6654022
22	0x3ead886a	0.33893138
23	0x3e59a600	0.2125473
24	0xbf289deb	-0.65865964
25	0xbf8d1232	-1.1021178
26	0xbe6ff8c7	-0.23434745
27	0xbf65a3b5	-0.8970292
28	0xbf0bea40	-0.5465431
29	0x3e8ebad3	0.2787691
30	0x3ee4938f	0.44643828
31	0xbf6c5620	-0.92318916
32	0x3eb991c4	0.36244023
33	0x3eff6baa	0.4988683
34	0xbfa6b336	-1.3023441
35	0xbf4ccbdf	-0.7999858
36	0x3ee55b25	0.447961
37	0xbf3a68f7	-0.72816414
38	0x3eb0dea7	0.3454487
39	0xbe369a43	-0.17832284
40	0xbfa2537f	-1.2681731
41	0x3ef68042	0.48144728
42	0x3eb8c62d	0.36088696
43	0x3eaf7126	0.34266013
44	0xbf74d272	-0.95633614
45	0xbf61243b	-0.8794591
46	0xbf26b3da	-0.6511818
47	0x3e307473	0.17231922
48	0x3f34ec7f	0.70673364
49	0x3e900cd5	0.2813479
50	0xbe4b4f9f	-0.19854592
51	0xbe35814e	-0.17725107
52	0x3cf7e3b8	0.030259952
53	0xbf34549e	-0.70441616
54	0xbe95d28c	-0.29262197
55	0x3f489715	0.7835553
56	0xbf182003	-0.59423846
57	0x3e8ab1bc	0.27088726
58	0xbf26f0d1	-0.65211207
59	0xbf1e08a0	-0.6173191
60	0xbeaded43	-0.3397008
61	0xbec3f7eb	-0.38275084
62	0x3f2a82de	0.6660594
63	0xbf1b5c2b	-0.6068751
64	0x3d49cc50	0.049267113
65	0xbf553bf9	-0.83294636
66	0xbf8fc9e9	-1.1233493
67	0x3ef2500c	0.47326696
68	0x3f03add7	0.51437134
69	0xbc97c90d	-0.018528486
70	0x3e6e9ea6	0.23302707
71	0x3f32ab60	0.6979275
72	0x3d0af823	0.033928048
73	0x3ec4c809	0.38433865
74	0x3ec8555f	0.39127633
75	0x3e2ad268	0.16681826
76	0x3f0982c0	0.53715134
77	0xbeb2217b	-0.3479117
78	0x3b785e2c	0.0037897928
79	0x3ed6ab4c	0.41927564
80	0x3eafe07f	0.34350964
81	0xbf8666f1	-1.0500165
82	0xbf7678dc	-0.96278167
83	0xbf94e647	-1.1632775
84	0xbf6e740b	-0.9314582
85	0x3eaf9639	0.34294298
86	0xbf1c5bae	-0.6107739
87	0xbf204b4e	-0.62614906
88	0x3e84cc69	0.25937203
89	0x3ef3c076	0.47607774
90	0x3edd6258	0.43239093
91	0xbf461675	-0.77378017
92	0x3efe7f36	0.4970643
93	0xbf3b3524	-0.7312796
94	0xbf0510ad	-0.5197857
95	0x3f06ec99	0.5270477
96	0x3e78e8e9	0.24307598
97	0x3ea4a6e5	0.3215858
98	0x3eb795da	0.35856515
99	0xbe1ee1df	-0.1551585
100	0xbf13936c	-0.5764682
101	0x3df1d8e3	0.11808946
102	0xbe5016e4	-0.20321232
103	0x3da08de3	0.07839563
104	0x3ecd3f61	0.40087417
105	0x3ed25889	0.41083172
106	0x3ea07f64	0.3134719
107	0xbf2d835a	-0.6777855
108	0x3eb5a309	0.35475948
109	0x3eab9ce6	0.33518142
110	0x3edb820e	0.4287266
111	0x3ea2fdb1	0.31834176
112	0x3e58797f	0.21140097
113	0xbf3a2116	-0.72706735
114	0x3e61dab9	0.22056092
115	0xbf468ddb	-0.77560204
116	0xbee9746e	-0.4559664
117	0x3e6439fa	0.22287741
118	0x3e2575b4	0.16158181
119	0x3dd9fab0	0.10643518
120	0xbf1daebe	-0.6159476
121	0x3e310172	0.17285708
122	0xbf8e68e0	-1.1125755
123	0x3f0df9e2	0.55459416
124	0xbef38cc6	-0.4756834
125	0x3e5ec148	0.21753418
126	0xbf5b29ae	-0.85610473
127	0x3c4cc206	0.012497431
128	0xbeeeb6a7	-0.46623728
129	0xbd173a4d	-0.036920834
130	0x3eb46562	0.352336
131	0xbf2c467d	-0.67295057
132	0x3edcb570	0.43107176
133	0x3f1ff60e	0.62484825
134	0xbf51564b	-0.817723
135	0x3ef6a6f1	0.4817424
136	0xbfa5d5ae	-1.2955835
137	0x3e8c23b0	0.27370977
138	0xbea0adf0	-0.31382704
139	0x3dd2e40d	0.102974035
140	0x3edc37f3	0.43011436
141	0xbf07fafa	-0.53117335
142	0xbf5349cf	-0.825345
143	0x3f236f17	0.63841385
144	0xbec84294	-0.39113295
145	0xbf6c07b3	-0.9219925
146	0xbf147fde	-0.5800761
147	0x3eed5a05	0.46357742
148	0x3ee1c917	0.44098732
149	0x3ec8432d	0.3911375
150	0xbf241042	-0.6408731
151	0xbf0242eb	-0.5088336
152	0xbec720ec	-0.38892305
153	0xbf201086	-0.6252521
154	0xbf30fbdc	-0.69134307
155	0xbec9a165	-0.39380947
156	0xbfb58605	-1.4181525
157	0x3eba8fdf	0.3643789
158	0x3e7c6476	0.24647698
159	0xbf3fbfab	-0.7490184
160	0xbf22fabd	-0.63663846
161	0x3f2a9097	0.66626877
162	0xbf598e71	-0.84982973
163	0xbe1571c9	-0.14594187
164	0xbeef087d	-0.46686164
165	0x3df84cf0	0.1212405
166	0xbc608b55	-0.013705094
167	0xbccbc4b2	-0.024874065
168	0xbf74980c	-0.95544505
169	0x3e383249	0.17987932
170	0x3e31cd1c	0.173634
171	0xbef2c61c	-0.4741677
172	0x3f0fcec5	0.5617488
173	0x3e7d56d1	0.24740149
174	0xbf5145e1	-0.8174725
175	0xbf14141c	-0.57843184
176	0x3e3a5c26	0.18199214
177	0x3e32bc30	0.174546
178	0x3f09b67f	0.5379409
179	0xbf05b2c4	-0.522259
180	0xbf09302c	-0.5358913
181	0xbce193cb	-0.027536293
182	0x3eb08318	0.34475017
183	0xbf62d8b3	-0.88611907
184	0x3f13f05b	0.5778863
185	0x3e09525e	0.13410327
186	0x3ebd929f	0.37025926
187	0x3e827c64	0.25485528
188	0xbef9ab9a	-0.48763734
189	0x3f18b7e6	0.59655607
190	0x3ec3ba80	0.38228226
191	0xbf10d867	-0.56580204
192	0x3e5b80c2	0.21435836
193	0x3ddea05e	0.10870431
194	0xbf4a09d9	-0.78921276
195	0x3ed0d6c8	0.40788865
196	0xbe54968d	-0.20760556
197	0xbf33d2e9	-0.702437
198	0xbd55d0c0	-0.052201033
199	0xbe67a9d1	-0.22623374
200	0xbf6dcff6	-0.9289545
201	0xbe76ef66	-0.24114761
202	0xbf619e14	-0.88131833
203	0x3ed99701	0.4249802
204	0x3e9a4cd0	0.30136728
205	0x3e56d9a4	0.20981461
206	0x3f628371	0.88481814
207	0xbda6d43d	-0.0814595
208	0xbec0dddb	-0.37669262
209	0x3ea99b4e	0.331263
210	0x3e57b2e7	0.2106434
211	0xbf664919	-0.8995529
212	0x3f90e5cc	1.1320128
213	0xbdb7b16e	-0.08969389
214	0xbf3e07b4	-0.74230504
215	0xbf05e362	-0.52300084
216	0x3f0afff2	0.5429679
217	0xbe54b157	-0.20770775
218	0xbea5531b	-0.32289967
219	0xbf19a5db	-0.600187
220	0xbe218b5d	-0.15775819
221	0x3f03edbf	0.51534647
222	0xbef262ec	-0.47341096
223	0x3efde5fa	0.4958952
224	0xbe23667d	-0.15957065
225	0x3e8b85db	0.2725056
226	0xbf36749f	-0.712717
227	0x3e46d33a	0.19416514
228	0xbdf41b1c	-0.11919233
229	0x3ecd9fdf	0.40161034
230	0x3e358b51	0.17728926
231	0xbf969a82	-1.1765902
232	0xbed2e43e	-0.4118976
233	0xbdb7899d	-0.089617945
234	0x3ec4e98b	0.3845943
235	0x3e707907	0.23483668
236	0x3f1fac7c	0.62372565
237	0x3e57f451	0.21089293
238	0xbe5f6e8c	-0.21819514
239	0x3f0dbde2	0.55367863
240	0x3e18447c	0.14869875
241	0x3ef2cb67	0.4742081
242	0xbf92714b	-1.1440824
243	0xbf9eb312	-1.2398398
244	0x3e724cee	0.23662159
245	0xbf5ce0b6	-0.8628038
246	0xbf7e9414	-0.994447
247	0xbf44eb17	-0.7692122
248	0xbeb60833	-0.3555313
249	0x3eb9eb78	0.3631246
250	0x3d326d98	0.043561548
251	0xbf226cd4	-0.6344731
252	0xbef29339	-0.47377947
253	0xbd1f820a	-0.038942374
254	0x3eddd358	0.43325305
255	0xbd73e9e4	-0.059549227

fc3.bias f4 [10]
0	0xbd5e4667	-0.05426636
1	0xbca0d0fb	-0.0196309
2	0xbd0238a9	-0.031792317
3	0x3c180f5d	0.009281007
4	0xbd69d7c0	-0.05709052
5	0xbe102a33	-0.14078598
6	0x3de15b9c	0.11003801
7	0x3db73512	0.08945669
8	0x3cf551ae	0.029946174
9	0x3d940eb8	0.0722937
