6_ConvolutionalNeuralNetwork/LeNet/model5.pth (torch, 250410 bytes, 10 tensors)

conv1.0.weight f4 [6, 1, 5, 5]
000000 c4 5f b1 be 3b ad 5f 3e ce b2 c9 3d 50 d1 0b 3f
       -0.34643376 0.21843426 0.098485574 0.5461626
000010 9d 14 01 3e e9 58 45 3e 86 e2 3d 3f 6d 48 4b 3f
       0.1260552 0.19272198 0.7417377 0.7940739
000020 13 59 75 3f eb 13 b0 3e da f8 1c be 12 61 12 3f
       0.9583904 0.34390196 -0.15329304 0.5717937
000030 2c 93 26 3f 18 fd 1b 3f a4 fb 9f be 52 85 a6 be
       0.65068316 0.60933065 -0.31246674 -0.3252359
000040 e6 72 b7 3e 79 8b fd bc 18 db 46 3e 44 dd 46 bf
       0.35829848 -0.030950295 0.19419515 -0.77681375
000050 e7 1c 1d bf 36 f8 10 bf f6 02 3a bf ba 6c b6 be
       -0.61372226 -0.5662874 -0.7266077 -0.35629827
000060 12 74 62 bf f6 b6 47 bf 0d bd b7 be 72 4f d0 bd
       -0.8845836 -0.7801355 -0.35886422 -0.10171403
000070 1f 15 1c be 56 dd 46 3e b1 b7 f1 bd bb fe d3 3e
       -0.15242432 0.1942037 -0.118026145 0.4140528
000080 20 b6 03 3f d5 56 02 3f ed 74 13 3f 18 97 35 bd
       0.51449776 0.50913745 0.5760029 -0.044333547
000090 df a1 7c 3f 02 f2 b8 3f af 60 29 3f 49 b3 04 3f
       0.98684496 1.4448855 0.6616315 0.5183607
0000a0 3b 74 d0 be d1 6d 1b 3f 2a d2 26 3e f0 94 79 3e
       -0.40713677 0.6071444 0.16291109 0.24373221
0000b0 a3 9a 0e be 54 ae 90 bf 13 eb 13 bf b8 cd 15 bf
       -0.13926177 -1.1303201 -0.5778057 -0.58517027
0000c0 5b a7 01 bf f9 e1 18 bf 9a b9 f1 be ea e4 d0 bd
       -0.5064599 -0.59719807 -0.47211915 -0.10199912
0000d0 ed bd f2 bd 9b 3a c5 3a 31 74 1f bf b4 5b 1b 3f
       -0.11852632 0.0015047373 -0.6228667 0.606868
0000e0 d4 1d 35 3f a2 c7 64 3f 62 ae 7b 3f 7d 04 af be
       0.7074864 0.89367115 0.9831296 -0.34183112
0000f0 3a 00 f0 3e 9c a1 4b 3f 86 9e 80 3f c8 f3 27 3f
       0.46875173 0.7954347 1.0048378 0.65606356
000100 b8 f3 db be 8e 9c e0 bd 20 40 28 3f e6 69 c7 3e
       -0.4295938 -0.109673604 0.65722847 0.38947982
000110 95 61 a9 3e d9 cc 01 bf c6 f8 f5 be 55 ad 66 be
       0.33082262 -0.507032 -0.48041362 -0.22527058
000120 a1 c9 e2 be 5e b5 00 bf 0e 7b 6e bf 43 49 0a 3f
       -0.44294456 -0.50276744 -0.93156517 0.5401804
000130 36 ae f8 3e ba 01 1a 3f be d3 00 3f 82 6a 0b 3f
       0.48570412 0.60158885 0.5032309 0.54459393
000140 3b 47 50 3e 9e 6a 99 3c 18 60 a2 be b6 58 52 be
       0.20339672 0.018727597 -0.3171394 -0.20541653
000150 8c 0d 56 be 98 66 05 bf 5d 52 a4 bf cd 58 6e bf
       -0.20903605 -0.5210967 -1.2837635 -0.9310425
000160 63 2a 74 bf 03 5d 42 bf a4 00 4e bf c9 3b 2f bf
       -0.95377177 -0.75923175 -0.8046973 -0.684506
000170 00 64 80 be 84 9b a8 bd 98 48 0f bf f8 07 aa bd
       -0.25076294 -0.08232787 -0.55970144 -0.08302301
000180 95 b7 f8 3e 5f 06 16 3f f0 2b 79 3e b8 4a 1a be
       0.48577562 0.5860347 0.24333167 -0.15067565
000190 7e cf 29 3f dd 14 73 3f 4d ec de 3e fe 1e 08 3f
       0.6633223 0.9495371 0.43539658 0.5317229
0001a0 d6 36 27 3f 22 c1 61 3e f4 a7 d9 be 62 f3 07 bf
       0.6531805 0.2204633 -0.4251095 -0.5310575
0001b0 1f 7a 2b bf cb ca a5 be b0 94 34 be 71 73 0c bf
       -0.66983217 -0.3238128 -0.17634845 -0.5486365
0001c0 3d f2 0e bf bd ea 01 bf e0 50 8b be 2b 72 c8 3e
       -0.55838376 -0.5074881 -0.2721014 0.39149603
0001d0 34 41 91 be 5f fc 5a bf f2 dd cc be 17 2a 67 be
       -0.2837006 -0.8554134 -0.4001308 -0.2257465
0001e0 b7 ce 42 3f ab 03 d5 3d e0 bd b3 be 47 9a a0 3d
       0.7609667 0.1040109 -0.351058 0.07841926
0001f0 a9 c8 e0 3e e3 e2 93 3e 84 49 e2 3e ff 22 c5 bd
       0.43903092 0.28884038 0.44196713 -0.096258156
000200 55 db 40 bf ed d6 12 bf 8b 4c 4e 3e 62 57 1e bc
       -0.75334674 -0.573592 0.20146386 -0.009664388
000210 4c 4e 05 bf 74 fb 89 bf 1b 8a 89 3d 56 ad 0f bc
       -0.52072597 -1.0779862 0.06715795 -0.008769354
000220 95 04 09 be d7 ce 41 bf 15 ca 2d bf 92 40 0a 3f
       -0.13380654 -0.7570624 -0.6788648 0.54004776
000230 1b 18 a8 3e 46 e6 bf be 54 6e 85 bf f8 ba 21 be
       0.3283089 -0.37480372 -1.0424294 -0.15793979
000240 71 4f 40 3d 7b 30 2a 3f 5f 77 c6 be c1 03 98 bf
       0.04695076 0.66480225 -0.38762948 -1.1876146
000250 d6 38 ff be 31 05 a3 3e
       -0.4984805 0.31839898

conv1.0.bias f4 [6]
000000 1d 93 21 bf 61 37 43 bf 97 18 34 bf f2 e3 af 3d
       -0.631151 -0.76256377 -0.7035002 0.08588399
000010 19 34 b1 3d 97 d6 b5 be
       0.08652515 -0.35515282

conv2.0.weight f4 [16, 6, 5, 5]
000000 ac ea 70 3e 3d da 97 3e 12 b7 d9 3e 69 00 04 3e
       0.2352702 0.2965869 0.42522484 0.12890781
000010 5a c0 6a be 10 a0 b7 3e 4c 76 09 3f 02 67 03 3e
       -0.22924939 0.35864305 0.5369613 0.12832263
000020 59 aa 4b be 28 ab c5 be d2 0f cf 3e c9 70 7d 3e
       -0.19889201 -0.38607144 0.40441757 0.24750055
000030 b2 ee c9 be f3 65 28 bf e1 ca 71 3a 82 b3 64 3e
       -0.39439923 -0.6578056 0.0009223652 0.22334102
000040 95 d6 a2 3d d9 52 48 bf 7d 02 88 be 9b 7a 04 3f
       0.079510845 -0.78251415 -0.26564398 0.5174958
000050 fa 0f 86 3d 68 74 64 be 34 ff 24 bf ee 3c 82 3b
       0.06546016 -0.2231003 -0.6445191 0.0039745485
000060 bd ee c2 3e bc 09 48 3e 69 d3 af 3e 58 39 ba 3e
       0.38072768 0.19534963 0.3434098 0.36371875
000070 6f 60 16 3d ce dd 1e be 76 f7 4b 3e da b1 a8 3e
       0.03671306 -0.155143 0.19918618 0.3294819
000080 22 15 3c 3d 70 27 b2 be 3f 0d 19 be 1b 26 a4 3e
       0.04591859 -0.34795713 -0.14946459 0.32060322
000090 0e 89 22 3d 63 de 18 bf b4 db b7 be 5b b6 a8 3e
       0.039681487 -0.59714335 -0.35909808 0.32951626
0000a0 79 b2 b3 3d c5 d0 52 38 ea 29 1b bf 03 f7 3d 3d
       0.08774275 5.0262333e-05 -0.6061083 0.046378147
0000b0 d8 0e 04 3f d9 cf e9 3d 9e 80 4e be 7f 49 b6 be
       0.5158515 0.11416597 -0.20166251 -0.35602948
0000c0 7a a7 60 3e c8 03 ca 3e e3 d4 ad 3e a7 c6 a4 3e
       0.21938887 0.3945601 0.33951482 0.3218281
0000d0 8d 90 d9 3e 60 8b 31 3e 70 8a 07 be b3 68 b7 3e
       0.42493096 0.17338324 -0.13236403 0.35822067
0000e0 ff be fa 3e dd ee 2f 3e e3 e6 97 be 1d 80 4e be
       0.48973843 0.17180963 -0.2966834 -0.20166059
0000f0 b8 57 6f 3e 6b 2b c0 3d ca ae 00 bf f3 22 2f bf
       0.23373306 0.09383281 -0.50266707 -0.68412703
000100 88 15 60 3e 5b 3e 41 3e cc d8 fb 3d 6a 77 0b bf
       0.21883214 0.18871443 0.1229721 -0.54479086
000110 ad d2 9d be 4d c3 d2 3e 8a 99 75 3d 3d 6f 10 bc
       -0.30824795 0.41164628 0.05996088 -0.008815584
000120 62 73 06 bf 10 b1 7f 3d f5 54 f4 3e 70 b7 91 be
       -0.5251981 0.06242472 0.47721067 -0.28460264
000130 b5 1e ac be f9 28 bf be e4 9e cf 3c b6 61 ce 3d
       -0.33617178 -0.37335947 0.02534432 0.10077231
000140 ea cf 99 be 6e 53 41 be bb 11 01 3e 5a 79 97 3e
       -0.30041438 -0.18879482 0.1260442 0.2958477
000150 6a a2 42 3d b5 39 7d be cb 3a 78 3d a1 d5 64 3e
       0.04751817 -0.24729045 0.060602944 0.22347118
000160 e9 bd 62 3c 75 e5 16 bf 22 e0 55 be 2c b2 7e bd
       0.013839223 -0.58943874 -0.20886281 -0.062181637
000170 39 cd 8c 3c 79 44 b3 be ec d7 48 bf 83 65 99 be
       0.017187702 -0.35013178 -0.7845447 -0.2996026
000180 db ff 86 bc e9 c1 1d be 90 e1 17 bf 61 a7 66 bf
       -0.016479423 -0.15406002 -0.59328556 -0.9009915
000190 ae f8 93 be 3c bd a4 be 22 fa 58 be 01 2a 84 bd
       -0.28900665 -0.32175624 -0.21189168 -0.06453324
0001a0 bc f0 a8 bb dd 7e 71 be 27 68 05 be c5 4e 52 3e
       -0.005155651 -0.23583551 -0.13028012 0.2053786
0001b0 86 d1 64 3e e2 fb e8 bd 2c 4f 42 be 5b bd ab bc
       0.22345552 -0.11376168 -0.18975514 -0.020964315
0001c0 28 5f 05 3f 08 cb 4c 3e 40 a2 d0 be c7 73 02 be
       0.5209832 0.19999325 -0.40748787 -0.12739478
0001d0 bd b7 1d 3e b1 93 d0 3e 53 f0 9c bd 14 2f 9b be
       0.15402122 0.4073768 -0.07663026 -0.30309355
0001e0 05 b3 29 be 9e 71 15 3e 47 85 8d 3e 58 5b 9a be
       -0.16572197 0.14594123 0.27640745 -0.30147815
0001f0 30 24 9b be fa fa 60 be 54 fb a0 be 04 57 9f be
       -0.30301046 -0.2197074 -0.31441748 -0.31121075
000200 45 d5 dc bd 9f ae 0a be 7c 10 2e be fd e2 fe bd
       -0.107828654 -0.13543175 -0.16998476 -0.12445638
000210 af da 37 3e 30 6e 35 3e bb 24 62 be f5 7a 92 bd
       0.17954515 0.17717814 -0.22084324 -0.071523584
000220 bd 14 c8 3d df 2a 1f 3f 5d 6b 74 3e f7 26 2b be
       0.097695805 0.6217479 0.23869081 -0.16714083
000230 05 e1 44 3d 8e 5b 96 3e 6f 9a 07 3f 87 de b4 3c
       0.048066158 0.29366726 0.5297002 0.022078766
000240 e0 07 52 be e6 46 ac bd 0b 5f 4d 3e f3 5b 97 3e
       -0.20510817 -0.0841196 0.20055787 0.2956234
000250 6f a0 d7 bd 3b 31 27 3d a1 cd 51 3e a9 a1 b4 3d
       -0.10528647 0.040818434 0.20488597 0.08819897
000260 f3 9e 59 be 3a 09 88 be 75 de 4f be f9 7a d7 3e
       -0.2125204 -0.2656954 -0.20299704 0.42086008
000270 69 f3 76 3e 42 78 8a 3e 0b 43 99 3e fa 26 ad 3e
       0.24116291 0.27044874 0.29933962 0.338188
000280 77 8c e1 3c 11 c2 f8 be 1e 2f 1a bf 4d fc 8c be
       0.0275328 -0.4858556 -0.60228145 -0.2753624
000290 88 20 2b 3e 32 46 19 bf 00 e2 8f bf f6 97 85 bf
       0.16711628 -0.59872735 -1.1240845 -1.0437
0002a0 4f ab 2d bf 6e 32 a1 be d9 f3 0f 3d ea e9 c4 3e
       -0.6783952 -0.31483787 0.03514466 0.38459712
0002b0 93 4f ef 3d 9a ba f3 bd 57 47 b5 bd ce 71 dd 3d
       0.116850995 -0.11900826 -0.088514976 0.10812722
0002c0 4c c0 53 bd c5 df c6 bd fd 70 7f bd 09 dc 31 bd
       -0.05169706 -0.097106494 -0.062363613 -0.043422733
0002d0 a7 b8 36 3e 1e c7 6b 3d e6 d7 b6 3d a6 2a 91 3e
       0.17843877 0.05756294 0.08927898 0.2835285
0002e0 a8 ac d4 3e 24 bc 94 be 5b 41 48 bf 46 b0 29 bf
       0.41537976 -0.2904979 -0.78224725 -0.66284597
0002f0 b9 04 4c be a4 2d 8b 3d c3 13 f7 be 1b 6b 0b bf
       -0.19923677 0.06795815 -0.48257264 -0.54460305
000300 e4 7a 01 bf 38 11 1b bf 0c 93 c7 be b7 47 a3 3e
       -0.5057814 -0.6057315 -0.38979375 0.31890652
000310 6d 43 0b 3f 25 61 7c 3e 9b cd c2 bd e5 08 18 be
       0.5439976 0.24646433 -0.095118724 -0.14847143
000320 bd 97 7b 3e 2f 17 b1 3d 03 32 55 bd a6 0b f0 bd
       0.24569602 0.08647 -0.052049648 -0.11720972
000330 bc 2d aa bd c7 7c aa 3e 3b 7e 23 3e b0 12 35 3b
       -0.083095044 0.33298323 0.15966122 0.0027629547
000340 4e a4 18 3e f5 97 9e 3e 8a bd e2 bd fa 62 d3 be
       0.14906427 0.3097531 -0.11071308 -0.4128645
000350 76 2b 4b bf b2 a2 db be 38 09 4a bd db af 13 bf
       -0.7936319 -0.42897564 -0.049325198 -0.5769021
000360 b3 3d 22 bf 97 09 2a bf 4a 81 2a bf d4 b0 e6 be
       -0.63375396 -0.6642088 -0.6660353 -0.45056784
000370 d0 17 76 3d 72 f6 a9 3e 57 35 7a 3e 9d ab d8 bd
       0.060081303 0.33195835 0.2443441 -0.10579608
000380 1e 18 00 be 00 8a 72 be ec fd 71 be b1 1c 62 be
       -0.125092 -0.23685455 -0.2363202 -0.22081257
000390 c8 d2 60 be c6 82 4c be 18 22 30 3b 98 1a 13 3d
       -0.21955407 -0.19971761 0.002687579 0.035914034
0003a0 db c0 9b 3d 20 da c9 bd 8e 4d 6c be 0b 70 1a 3f
       0.07605144 -0.09856057 -0.2307646 0.60327214
0003b0 5b 0b 50 3f e5 16 4c 3f a5 b9 3b 3f 5d 0c a4 3e
       0.8126733 0.79722434 0.73330146 0.32040682
0003c0 17 43 c0 3e 56 04 9a 3e 9c 5f c7 3e 3d 22 14 3f
       0.37551185 0.30081433 0.38940132 0.57864743
0003d0 b0 c1 11 3f 95 d4 5c be f8 04 d8 be b4 d4 cc be
       0.5693617 -0.21565469 -0.4219129 -0.4000603
0003e0 25 fc 64 bc 25 2d 64 3e 9e 87 ed bd 1b f4 6b be
       -0.013976132 0.22282846 -0.115981326 -0.23042338
0003f0 b0 f4 58 be fe 5e 99 be 44 a5 b7 be 43 c9 5d be
       -0.21187091 -0.29955286 -0.35868275 -0.21658807

conv2.0.bias f4 [16]
000000 ae 0e 92 bd 81 da bf 3c a4 98 8e bc 3b 8c 5c 3d
       -0.07131706 0.02341962 -0.01740677 0.05384467
000010 c1 06 8e bd bd 02 17 bd 82 c9 93 bd 08 7c 07 3e
       -0.06934882 -0.036867846 -0.07216169 0.13230908
000020 20 e8 cb bd 11 47 f1 3c e2 6d 88 3d 54 be 95 3d
       -0.09956384 0.029452832 0.066615835 0.07311693
000030 26 ad c3 3a a2 a2 af bc b3 3c 66 bc 46 31 bc 3d
       0.0014928922 -0.021439854 -0.014052558 0.09189086

fc1.0.weight f4 [120, 400]
000000 f1 32 72 3e e2 9b 19 3e de ee 6c bf 26 a8 97 bf
       0.23652245 0.15000871 -0.9255198 -1.184819
000010 a1 0a 78 be c6 77 61 3e 3c de 3d 3e 75 76 7d be
       -0.24222805 0.22018346 0.18541807 -0.24752219
000020 7d 88 7b be 78 a8 63 bd 20 50 0c bd 9e c6 69 be
       -0.24563785 -0.055580586 -0.0342561 -0.22829673
000030 2f 7a 74 3d 31 32 cb 3d 09 b8 e0 3d 32 20 dd be
       0.059686836 0.099216826 0.10972602 -0.43188626
000040 92 db 03 bf 4a 9e 0c 3d 3b a8 54 3e b1 42 53 3e
       -0.5150691 0.034330644 0.207673 0.2063091
000050 8f 0b 41 bd 4b 87 a6 bd fe e0 b0 3d 23 7e 47 3e
       -0.047130164 -0.08131274 0.08636664 0.19481711
000060 6d 76 68 3b 07 e9 1b bb ae d3 7b 3e 31 64 d4 3e
       0.0035470978 -0.0023790018 0.24592468 0.4148269
000070 f3 6b 86 3e a5 8b 61 bd 86 5c 85 be c9 d6 0c bf
       0.26254234 -0.055064816 -0.26047152 -0.55015236
000080 51 5d ac 3d 0a fb bc 3e 3e b2 f7 bc eb 4b d2 bc
       0.08416236 0.36910278 -0.03023636 -0.025670966
000090 1a a2 1d 3e 0a 50 da 3c e4 09 16 bd cd 62 c8 be
       0.15393868 0.026649494 -0.036630526 -0.3913788
0000a0 5e 7d 62 3b ef d3 2b bc 1a 22 e3 bd 54 6c 27 bf
       0.0034559588 -0.010487541 -0.11090489 -0.6539967
0000b0 7e 3a d3 bc 4c ed 2b 3e a2 2b ab 3d a9 08 81 3d
       -0.025784727 0.1678974 0.08357932 0.0630048
0000c0 af c4 11 3e 1a 1c 22 3c 2e 46 37 3e 62 07 19 3e
       0.14235185 0.009894395 0.17897865 0.14944223
0000d0 11 78 9d bd 15 5e d6 be 6d d4 e2 bd 96 9b 47 bd
       -0.076889165 -0.41868654 -0.11075673 -0.048732363
0000e0 b9 4b 91 be 85 90 0c be d4 1c 36 be 0d 09 32 3e
       -0.28378084 -0.13727005 -0.17784435 0.17386265
0000f0 37 95 1a bd 31 f6 e4 bd 52 1a 7a be cf 33 2a 3e
       -0.03773996 -0.1117977 -0.24424103 0.16621326
000100 40 a8 1f 3e 95 23 d2 3d d9 81 dc bd 1b b8 57 3e
       0.15591526 0.10260693 -0.10766954 0.21066324
000110 07 aa 02 be b9 9f 79 3d 85 de ff 3d 1e 8c dd 3c
       -0.12760173 0.06094334 0.12493614 0.027044352
000120 d4 56 0d 3e a5 f1 4e 3e 49 13 b4 3d 22 33 72 be
       0.13802654 0.20209368 0.08792741 -0.23652318
000130 2d 09 f9 3c 9e 7f 2e 3e 71 e6 23 3e 7e f5 83 3e
       0.030399883 0.1704087 0.16005875 0.25773233
000140 cd f4 c0 bd 1d 61 e0 bd 07 14 ad 3c e7 c1 89 3d
       -0.09421692 -0.10956023 0.021127714 0.06726437
000150 20 da 5a 3e cf 67 87 be 23 34 08 be af 93 6e bd
       0.2137227 -0.26446387 -0.13301139 -0.05824631
000160 09 ec 8d bd 27 e6 94 be 47 4b e1 3d e0 33 88 3d
       -0.06929786 -0.29081842 0.11000686 0.06650519
000170 26 a3 f6 bd 5e 6b e7 be aa bc 30 bf 5a 81 8c 3e
       -0.12042837 -0.45199102 -0.6903788 0.27442437
000180 f9 32 ac 3e 5e ea f2 bd 17 7c 68 be 68 e9 56 be
       0.3363264 -0.11861108 -0.22703587 -0.20987475
000190 e6 c2 9b be d4 59 45 bd e6 f9 94 3e 05 45 92 3e
       -0.30422133 -0.04818137 0.29096907 0.28568283
0001a0 a2 03 0c 3e 50 44 75 be f5 ce 79 be 82 c3 77 3d
       0.13673261 -0.2395184 -0.24395354 0.060489185
0001b0 6b be 9c 3d df 60 3b bd 15 44 0d 3e a4 9e 16 be
       0.07653507 -0.04574668 0.13795502 -0.14708954
0001c0 d8 6a 39 3d c6 2f 28 bd 13 52 07 be 01 4d a4 3e
       0.04526791 -0.041061185 -0.13214903 0.3209
0001d0 a4 f4 3c bd fc 0a 02 3d 8e 0b cd bd 44 b2 7d be
       -0.046131745 0.031748757 -0.100119695 -0.24775034
0001e0 5b d5 51 3e c1 79 83 3c db 01 9f bc 81 67 50 be
       0.20491545 0.016049268 -0.019410064 -0.20351984
0001f0 d9 cd 60 be 4e 82 a4 be 4a 77 2d be f2 d9 66 3e
       -0.21953525 -0.32130665 -0.16940036 0.22544077
000200 50 44 82 3e 30 1e 8d 3e 6e 65 f3 be c7 73 51 3c
       0.25442743 0.27562094 -0.47538322 0.012783951
000210 0c d9 fe 3d 0e 63 ea 3e a6 7d 36 bd 41 bf b8 bc
       0.12443742 0.45778698 -0.04455342 -0.022552134
000220 9b bb 52 3d 58 fd 39 3e 14 71 4d 3d c4 fb 1f be
       0.051448446 0.18163049 0.050156668 -0.15623385
000230 6d 4d 08 39 7e 70 00 3d d0 21 17 be dc 10 32 be
       0.00012998814 0.03135728 -0.14758992 -0.17389244
000240 a1 bf ec be bb 8e 74 3d fe 7a ed bc ba f5 ac bd
       -0.4623995 0.05970643 -0.028989311 -0.08445306
000250 be 16 eb be 5c 55 38 bf f0 a0 9a 3c 28 1a 90 3c
       -0.45915788 -0.7200525 0.01887557 0.017590597
000260 59 45 af bc ad 18 6f bd 30 c3 4f 3d 40 f3 84 be
       -0.021395372 -0.058373142 0.050723255 -0.25966835
000270 c1 e7 2d be 9b 7c df be ab ff ae bd 0c 4a 59 bd
       -0.16982938 -0.43649754 -0.085448585 -0.053049132
000280 ad ca 9b be 87 87 af bd 53 30 93 bc a6 87 00 be
       -0.30428067 -0.08570772 -0.017967379 -0.12551746
000290 e3 9c 7e be 28 fc 11 be 08 37 96 3e 7c a7 f6 3e
       -0.24864535 -0.14256346 0.2933886 0.48174655
0002a0 ab 90 a2 bd af 5c 90 3d 24 a2 2b 3e 33 42 cc 3e
       -0.079377495 0.07048928 0.1676107 0.39894256
0002b0 21 34 be 3d 22 17 49 3e 2b dc a8 3e 7a a2 4b be
       0.092872865 0.1963773 0.32980475 -0.19886199
0002c0 3e 58 89 be 40 3e ef bd 21 b6 ff 3d 58 ec 82 3e
       -0.26825136 -0.11681795 0.1248591 0.2557094
0002d0 28 83 c6 bd 15 72 d5 bd b5 f8 30 3e db 4e 00 3f
       -0.09692985 -0.1042215 0.17282374 0.50120324
0002e0 f5 f0 55 3f c0 fb 7f 3d 31 1c 7b 3e 66 e7 c6 3e
       0.83570796 0.062495947 0.24522473 0.38848418
0002f0 7d 4b 36 3f 74 9e ab 3e aa f2 9d bc 73 18 c8 bb
       0.71208936 0.33519328 -0.01928075 -0.00610643
000300 83 5c 7f bd 24 36 9e be 09 3f 1d be 39 c6 12 3e
       -0.062344085 -0.3090068 -0.15356077 0.14333428
000310 da 81 3d 3c f2 35 75 be 33 e9 1b bf 57 f3 76 be
       0.011566604 -0.2394636 -0.6090271 -0.24116264
000320 8f 18 65 3e 20 8a ec 3d d1 9a 1c bf 57 db 31 bf
       0.2237265 0.11549783 -0.6117373 -0.6947531
000330 18 e4 05 3e b9 a6 10 3c db dd 00 be 2c 56 cc be
       0.13075292 0.008828812 -0.12584631 -0.39909494
000340 2f 80 95 be 9b c3 c2 bc 61 b1 c0 3d 36 e4 92 3d
       -0.2919936 -0.023774913 0.09408832 0.07172434
000350 2e 0d d8 bc 20 ce 5d 3e 4c e6 b0 3d 56 55 8b 3c
       -0.026373472 0.21660662 0.08637676 0.017008465
000360 a3 ff d7 bd b0 08 cc 3e 51 7e 4b be 70 0f b3 3e
       -0.10546806 0.39850378 -0.19872405 0.34972715
000370 f5 67 55 bd 77 1a f2 bc 67 19 f4 3c 3d f8 fe 3c
       -0.052101094 -0.029553635 0.029797269 0.031124229
000380 ff 68 97 3e b1 7a 80 be 92 71 7e bd 07 64 bb 3e
       0.29572293 -0.25093606 -0.062120028 0.36599752
000390 27 09 c0 3e 2b 7f 72 3e 90 3f fe be ad bf a7 bd
       0.37506983 0.23681323 -0.4965787 -0.08190856
0003a0 05 eb 45 3d 26 50 20 3e af 2a 2d 3e 77 00 87 be
       0.048319835 0.15655574 0.16910814 -0.26367542
0003b0 4d e3 1e 3e 3a 74 a8 bc 7a 8d b7 be 9e 54 a4 be
       0.15516396 -0.020563234 -0.35850126 -0.32095808
0003c0 eb 33 0e 3e a6 c6 e4 3d 16 24 6e be 00 8c 24 bf
       0.13886993 0.11170702 -0.23255953 -0.64276123
0003d0 49 fd 7d bf f4 6f 3d 3e e1 75 09 3e 7d b5 2c be
       -0.9921461 0.18499738 0.13423873 -0.16866107
0003e0 51 77 14 bf 6e 52 4a bf 88 84 01 3c 2c a3 4d 3e
       -0.5799456 -0.7903203 0.007905133 0.20081776
0003f0 1c 80 bd 3e bc 4c 4a 3d 51 82 51 bd b7 a6 ea be
       0.37011802 0.049389586 -0.05114967 -0.45830318

fc1.0.bias f4 [120]
000000 4b a3 1e 3d 12 07 58 3b 79 8d 2e bd 61 65 2b 3d
       0.038729947 0.0032963199 -0.042615388 0.04184473
000010 9f 13 a7 3c 2c 0a 5f bc 93 9b ab bd 5a 6c c8 bd
       0.020395098 -0.013613265 -0.08379283 -0.097862914
000020 2e b7 a8 bc 90 53 a4 3c f4 a1 b4 bd fe 04 d0 bb
       -0.02059516 0.020059377 -0.088199526 -0.0063482514
000030 da cd 20 3d aa 55 de bb a3 1c e5 3d a4 29 27 bc
       0.039258815 -0.0067851143 0.11187103 -0.010202799
000040 bd 29 78 bc 25 5e 95 3d f7 11 a1 3d 10 3d 75 3c
       -0.01514667 0.07293347 0.07864755 0.014968172
000050 2f d6 e0 3c b0 68 77 3d c6 db ab 3d 1f 55 ca bd
       0.02744588 0.060402572 0.08391528 -0.09879517
000060 7a 82 ad 3d ff d1 15 bd 4a e9 b6 bd ac aa 83 3b
       0.08472152 -0.03657722 -0.08931215 0.0040181484
000070 6e 6e cd 3b 6e aa 2e 3d 1c f3 64 bd 52 62 ae bc
       0.0062692678 0.042643003 -0.05589591 -0.021287117
000080 e4 42 e0 bc 4a 1e c2 bd c0 0f 0a 3d 06 ea cd bc
       -0.027375646 -0.094784334 0.033706427 -0.025136005
000090 a6 46 c1 3d 87 2d 69 bd bd d4 b2 3d 20 10 fd bd
       0.09437303 -0.056928184 0.08731983 -0.12356591
0000a0 a9 1c 36 bd f2 ee 33 bd 97 fd cb bd 1b ae c5 bd
       -0.044460926 -0.043929048 -0.09960478 -0.096523486
0000b0 99 83 ac 3c 3b 37 ce bd 31 fe 4d 3c 9d 58 10 bd
       0.021058844 -0.10069128 0.012572811 -0.03524076
0000c0 f9 eb 85 bd 52 f7 0d 3d e0 bc a7 bd 59 82 b6 bd
       -0.06539149 0.03465969 -0.08190322 -0.089115806
0000d0 75 65 24 3d 46 e7 3d bd a0 c6 69 3d fe 83 a2 bd
       0.04013582 -0.046363138 0.05707419 -0.07935332
0000e0 ce c2 92 3d 52 f4 eb bd a1 2e 18 bd e4 c8 8c bc
       0.07166062 -0.1152121 -0.037153844 -0.017185636
0000f0 3b 7f 00 3d 1c 0d 2d bd df 13 3f 3d c6 dd ce bd
       0.031371336 -0.04224883 0.04664981 -0.10100894
000100 63 ea ee 3c ac 49 84 bd 6b 5a 7e 3c 38 87 bf bd
       0.029164499 -0.06459364 0.015524487 -0.09351963
000110 61 f5 ad 3d a8 d3 a4 bd 08 72 94 bc f8 11 b8 bd
       0.08494068 -0.08048183 -0.01812078 -0.08987802
000120 5f 0e 64 bc fc 0d bf bc 9d c7 d0 bc fe 48 b5 bd
       -0.013919442 -0.023322098 -0.025485808 -0.08851813
000130 8e 4b 3c 3c 8d 87 58 bb 36 5a 75 3d b9 4a a4 bc
       0.011492623 -0.003303978 0.059900485 -0.020055162
000140 c8 aa 3e bc d6 99 9f 3d 3e 9e d2 bc 17 e4 31 bd
       -0.011637397 0.07793014 -0.025710221 -0.043430414
000150 ed 2d ad bc d8 63 10 bc b6 e5 ca bc 90 bd f5 3b
       -0.021140063 -0.008812867 -0.024767738 0.0074994043
000160 c3 52 66 bc 3d 29 10 3c 34 a1 59 3d 28 f8 40 bd
       -0.014057818 0.0087988945 0.05313225 -0.04711166
000170 22 ea 03 3d cb b0 bd 3d 5d 87 a5 3b a7 d8 0e 3c
       0.03220571 0.09262236 0.005051537 0.008718646
000180 2a 6e 51 3b 34 17 98 bd de 1a 2a bd 4a a4 42 bd
       0.0031956532 -0.07426301 -0.04152953 -0.04751996
000190 7e 23 bb bd 06 64 a0 3c 56 cb 78 3d da 3b 21 3d
       -0.09137629 0.019578945 0.06074079 0.03936372
0001a0 7e 33 f8 bd 35 40 02 3d 71 cd 5c 3d d2 cb 3d bd
       -0.12119196 0.031799514 0.05390686 -0.046336956
0001b0 63 cb 1b 3d ba 39 96 bc b6 4e 9e bd fd 87 84 3b
       0.03803576 -0.018338073 -0.07729857 0.0040445314
0001c0 09 1b d9 bc 0d 6a bd bc 90 96 d5 bc 2d c3 5f 3c
       -0.02650215 -0.023121858 -0.02607277 0.013657373
0001d0 41 bc 2d 3d a4 28 0c 3e b3 29 ac bd 52 d5 cd 3c
       0.04241586 0.13687378 -0.08406391 0.025126133

fc2.0.weight f4 [84, 120]
000000 90 b8 f3 3c c2 0a dd 3e b2 2b d5 3e e0 49 85 bd
       0.029751092 0.4317227 0.416349 -0.06508231
000010 9d c1 b2 bc 61 43 28 3f 59 7f 8b be 86 1a d9 3d
       -0.021820838 0.6572781 -0.27245596 0.10600762
000020 6c 8c 49 be d1 be 87 3e 23 d2 f3 be 6d 0b 39 be
       -0.19682473 0.2651277 -0.4762126 -0.18070765
000030 c8 16 11 bf 05 d9 84 3e 07 45 57 be f7 eb f2 be
       -0.56675386 0.25946823 -0.21022426 -0.47445652
000040 d2 6b 88 3d 5f 54 58 bd 8e b2 43 3d 07 72 57 3d
       0.0666119 -0.052814838 0.047777705 0.05259898
000050 a0 a5 8e 3e 75 4b 9f be 09 64 6c 3d aa 95 31 bf
       0.27860737 -0.31112257 0.05771259 -0.69368994
000060 f4 3c b2 be 2d 6f 1e 3f d6 c2 9b 3e 5d a3 9e bb
       -0.3481213 0.6188839 0.30422086 -0.0048412518
000070 4e 02 97 3c fd bf e6 3e 8e d9 65 3d c7 bc cc 3e
       0.018433716 0.4506835 0.05611568 0.39987776
000080 ce 3e 81 bd 2e 32 1a bd 92 67 ce be ee 28 cd 3e
       -0.06310807 -0.03764551 -0.40313393 0.4007029
000090 c6 d6 e8 3d 94 79 d8 bb 5d 24 2b bd bf ad 70 be
       0.1136909 -0.00660629 -0.041782726 -0.23503779
0000a0 af e4 3f be dd bb a0 3a 09 22 89 be a9 a9 12 be
       -0.1873958 0.0012263019 -0.2678378 -0.14322533
0000b0 7e ee b0 be f3 e1 84 be 6c d5 b0 3e 8b d0 a9 3e
       -0.34556955 -0.25953636 0.34537828 0.33166918
0000c0 31 9b 9f 3d 51 ea d0 bd ff b0 0f be 2a 98 f5 be
       0.07793272 -0.10200942 -0.14032362 -0.47967654
0000d0 5c cd 79 3e 46 5f 6b bf 6a c6 c3 be 98 b5 aa be
       0.24394745 -0.9194225 -0.38237315 -0.3334167
0000e0 df e3 0b bc ed c2 b3 be 0b 28 75 3e d7 49 3a 3d
       -0.008538215 -0.35109654 0.23941056 0.045480575
0000f0 22 07 86 3e 96 62 9e be 86 9f c0 3e 3f 5f ea be
       0.26177317 -0.3093459 0.37621707 -0.45775792
000100 32 63 23 3e 07 eb ca bd 34 53 91 3e 65 07 aa bd
       0.15955809 -0.09908109 0.2838379 -0.08302192
000110 cc be 18 3e 26 20 52 be 3e 77 3f bd e8 1e e9 3e
       0.14916533 -0.20520076 -0.046744578 0.45531392
000120 86 f0 2b be b8 2f 92 3c 49 56 64 3d 5c 03 2f bf
       -0.16790971 0.01784502 0.05574635 -0.683645
000130 7d 95 48 be 5d d7 cd 3e 7c 1c 95 3e 91 9a 75 3e
       -0.19588275 0.40203372 0.29123294 0.23984744
000140 40 ab 71 3e 81 3c 2a be 29 d7 0b be 9b 8f d5 3e
       0.23600483 -0.16624643 -0.13656296 0.41711125
000150 69 76 83 3e fc ba 43 3d 94 ef 14 bf 78 2b fd 3e
       0.25676277 0.047785744 -0.5817807 0.49447227
000160 67 9a 6d be c4 cb d8 3e 53 42 e6 3e d4 22 39 3e
       -0.23203431 0.4234296 0.44972476 0.18079692
000170 2e a8 50 3e ff 5d 99 be 4e f6 12 be 7d 54 21 3e
       0.20376655 -0.29954526 -0.1435177 0.15754886
000180 66 df a2 be 41 62 bf be ab 3e 85 be 5c 63 4d 3e
       -0.31811064 -0.3737965 -0.26024374 0.20057434
000190 0b 5c e4 be 35 a7 2f 3f 0b 4c ac 3d bc 5c c2 be
       -0.44601473 0.6861451 0.084129415 -0.37961376
0001a0 39 b9 0f bf e4 b6 ca be 26 89 ea bc 9c 78 0c be
       -0.56142 -0.3959266 -0.02862985 -0.13717884
0001b0 08 8d 5b 3e 62 a5 84 3e 6d c8 c3 3e 42 13 33 3c
       0.21440518 0.25907427 0.3823885 0.010929884
0001c0 39 f1 9b be 8b 07 07 3f 30 b0 63 3e 99 e2 39 3d
       -0.30457476 0.52745885 0.22235179 0.045382116
0001d0 54 b7 60 bd 79 f4 36 bd 64 d0 26 3e 80 cb 84 3d
       -0.054862335 -0.04466674 0.16290432 0.06484127
0001e0 66 8d 3e be f1 ed 11 be 1d bf 54 be 97 10 ab bd
       -0.18608627 -0.14250924 -0.20776029 -0.08352774
0001f0 fb be f4 be 55 6b d2 be be 61 29 bd d6 94 bb 3d
       -0.47801957 -0.41097513 -0.04135298 0.091592476
000200 b1 88 32 3e eb d3 f9 be f0 11 e9 3d 4f 60 9b 3e
       0.17434956 -0.48794493 0.113803744 0.30346915
000210 21 cb a4 be f6 9f ce be 01 b8 97 bd d0 f8 24 be
       -0.32186225 -0.40356416 -0.07408143 -0.1611054
000220 26 29 88 3e 7d 10 3d be f7 b6 8c 3e 38 06 20 3e
       0.26593894 -0.18463321 0.2748334 0.15627372
000230 87 4b 48 be 93 09 f6 3e 93 d6 d8 be 38 77 ad 3e
       -0.19560061 0.4805418 -0.42351207 0.3388002
000240 e2 6c 85 be 54 07 f1 bc 15 ec 02 3e 88 10 33 3f
       -0.26059633 -0.02942244 0.1278537 0.699471
000250 87 b7 91 3d 28 57 02 be 15 32 b3 be c9 ab 35 bf
       0.07115083 -0.1272856 -0.34999147 -0.7096525
000260 17 b8 97 be 04 0f be bc 23 9f 2c bd 0b b8 c7 3e
       -0.29632637 -0.02320052 -0.042143952 0.390076
000270 67 00 a9 3e 77 f4 da 3d 66 8b 8a 3d e3 ad ab be
       0.3300812 0.10691159 0.067648694 -0.33531103
000280 9b 60 14 3e 85 06 d5 3e 91 b2 05 be 03 f8 06 3f
       0.14489977 0.41606537 -0.13056399 0.52722186
000290 6a 8b 19 bc ad 27 a8 3e 49 ad ae bd c2 7f ce be
       -0.009371618 0.3284277 -0.08529145 -0.40331846
0002a0 9e b7 6a be 33 42 15 be ed e3 70 3d 23 14 73 3e
       -0.22921607 -0.14576034 0.058811117 0.2373815
0002b0 c8 88 2a 3b 42 08 2a 3f 24 88 bd 3e 12 4a 2d 3e
       0.002602147 0.6641885 0.3701793 0.16922787
0002c0 59 c7 58 be 13 65 b3 3e 65 69 b0 be 8e c9 fa 3d
       -0.21169795 0.3503805 -0.3445541 0.12245475
0002d0 74 82 50 3c dc 72 8c 3e 25 9c b3 3e d6 6f a9 be
       0.012726415 0.2743138 0.35080066 -0.33093137
0002e0 7b 9b 75 3e 0c e9 5b be 35 f8 5e be 5b d3 ee bd
       0.23985092 -0.21475619 -0.21774371 -0.116614066
0002f0 36 ac 84 3d 19 16 28 bd 19 05 d8 3e 5b 86 cd be
       0.06478159 -0.0410367 0.4219139 -0.40141568
000300 a5 c4 1a be 9f 24 03 be 04 05 91 be 6e 59 df bb
       -0.15114076 -0.12806939 -0.2832414 -0.006816081
000310 a8 bc 0b bf 87 03 ec ba 33 df 87 bd 4f 65 e2 3e
       -0.5458474 -0.0018006422 -0.06634369 0.44217917
000320 aa b3 23 bf 19 b0 40 3d 7e c8 48 3d 3e 95 8f be
       -0.6394602 0.04704294 0.04901933 -0.2804355
000330 3e 06 dc be 53 d3 8b bd ec 35 20 3e af d0 e1 be
       -0.42973512 -0.06827416 0.1564557 -0.44104525
000340 94 f0 d6 3d 31 c2 d8 be 7a d3 53 3e 5c 69 3f be
       0.104951054 -0.42335656 0.2068614 -0.18692535
000350 55 92 65 3e 58 a7 ae 3e ae da 00 bf 43 44 4a 3e
       0.22419102 0.34112048 -0.5033368 0.19752602
000360 6d 65 25 3f fd 26 1e 3f 19 6d c7 3a 3a 0c 3d bf
       0.6460789 0.6177824 0.0015215009 -0.7384678
000370 94 3b e8 3d 56 1d ab bd 89 e0 3e 3e 82 5d ae 3e
       0.113394886 -0.08355205 0.18640341 0.34055716
000380 0e 1d 60 3e e9 01 f0 be ff 17 f3 bd f6 92 2b bf
       0.21886083 -0.46876457 -0.11869811 -0.6702112
000390 f3 d7 ad 3e 49 ed 1b 3f e6 04 1f be 04 13 8a be
       0.3395382 0.60908943 -0.15529212 -0.26967633
0003a0 2c cc d5 3e ce 9a 5b be 44 77 b3 3e 5f 28 8b 3e
       0.41757333 -0.21445772 0.3505193 0.27179238
0003b0 f7 48 de bc 68 c0 3d 3e b3 0d 51 bf de 8f 94 bd
       -0.027134402 0.18530428 -0.8166153 -0.07254003
0003c0 34 fc 44 3f 00 13 dc bc 4b 10 45 3e f5 a5 a7 3e
       0.7694733 -0.026864529 0.19244497 0.32743803
0003d0 0a 91 c0 3e 7d b6 93 3e 8e c5 79 be 62 cf d5 be
       0.37610656 0.28850165 -0.24391767 -0.41759783
0003e0 22 5a 1a 3c 0f 17 91 3e 8c cd 43 3e 33 19 fb 3c
       0.009420903 0.28337905 0.19121379 0.030651664
0003f0 e2 37 34 be ca ef 5c 3b 98 db 06 be cf f2 6d be
       -0.17599443 0.0033712261 -0.13169706 -0.23237155

fc2.0.bias f4 [84]
000000 a1 d4 93 3d 01 91 0e 3d 69 a2 2b 3c 1d 84 5b 3d
       0.0721829 0.034806255 0.010475733 0.05359279
000010 66 43 7c bb 30 75 9f bc 19 59 04 bd b7 7b f3 bc
       -0.003849232 -0.019465059 -0.032311533 -0.029722078
000020 f1 fe 3f 3d d6 ba ab bd 54 43 83 3c ff 9c 13 3a
       0.04687399 -0.083852455 0.016023315 0.0005630999
000030 6b 1f b1 bd 6d ab b1 bc 84 8a 07 bd 4c 93 75 bd
       -0.086485706 -0.021688187 -0.033091083 -0.059954926
000040 bb de ac bc e8 cb 72 3c 31 7c 89 bd 2a 5c 5f 3d
       -0.0211023 0.014819123 -0.06713141 0.054531254
000050 bd bc fd 3d 5f 43 13 3c 63 40 b3 3d 1e 4e db bc
       0.123895146 0.0089882305 0.08752515 -0.026770648
000060 97 90 d7 3c 5e a3 97 3d 7d 73 dc 3b ca 04 26 bd
       0.026314063 0.07404207 0.0067276345 -0.04053191
000070 a9 b1 68 3d 64 e0 3a 3d df 2b c3 bd cf a8 0f bd
       0.056810055 0.04562415 -0.09529852 -0.035073098
000080 ac d3 29 bd 82 f3 31 bb 98 16 42 3d 26 6d ac bd
       -0.04146163 -0.0027153199 0.04738483 -0.08419256
000090 fb 00 41 bd 38 89 c8 3d 6d 81 95 bd 6d a1 5c bd
       -0.047120076 0.097917974 -0.07300077 -0.053864885
0000a0 b8 b9 63 3d df e6 43 bd 85 99 56 3c 77 f1 e0 bc
       0.055597037 -0.047827598 0.013098125 -0.02745889
0000b0 ba 2a a2 bc 0b 56 57 3d 59 8f 50 3d 76 a5 45 bb
       -0.019795764 0.05257229 0.050917957 -0.0030158437
0000c0 16 f5 39 3d 6a 25 be bd be 38 0f 3d eb 4c 4e bd
       0.045399748 -0.0928448 0.034966223 -0.050366323
0000d0 6c a8 ee bc 26 5c 44 bd 78 08 02 be 57 f0 2f 3d
       -0.029133044 -0.047939442 -0.12698543 0.042953815
0000e0 19 bc 8e bd 1b 04 13 bd 75 79 f8 3c 9a b4 0b 3c
       -0.069694705 -0.035892587 0.030331353 0.0085269455
0000f0 cc 08 8d 3d 52 ec 95 3d 58 9c 77 bd b9 0d e9 3c
       0.068864435 0.07320465 -0.060451835 0.028448926
000100 67 a5 41 bd e6 29 dc 3d 12 f0 85 bd b8 5f 64 3c
       -0.04727688 0.10750179 -0.065399304 0.013938837
000110 ba 57 54 3b 4d 26 57 3d e3 4e c1 ba 76 86 39 3d
       0.0032400922 0.05252676 -0.0014748242 0.045294248
000120 b6 fb e3 bc 1b ff d4 bc f1 f3 ed 3d fc af 67 3b
       -0.027829986 -0.02600055 0.11618794 0.0035352698
000130 f3 85 00 3d ec ea bb 3d ff a9 44 3d 40 9b 3e 3d
       0.031377744 0.09175667 0.048013683 0.046534777
000140 0c 4d 91 bc b5 91 b8 3a d1 36 62 3d 68 01 18 bd
       -0.017736934 0.001408151 0.05522806 -0.037110716

fc3.weight f4 [10, 84]
000000 0b a6 8d 3e 9e 4b 05 3d 52 81 92 3e 44 bd 26 bf
       0.27665743 0.032542817 0.2861429 -0.65132546
000010 a4 0a c4 be 85 77 6b bc 50 d9 56 bf 52 0e 0b bf
       -0.38289368 -0.014371757 -0.8392534 -0.54318726
000020 6d b2 89 be 48 d6 6a 3e cf 76 07 bb e2 1a ab be
       -0.2689394 0.22933304 -0.002067018 -0.33418947
000030 bf 8b a4 3e d2 c9 4a bf 34 11 21 bf 77 d1 4b be
       0.32137868 -0.79214203 -0.62916875 -0.19904123
000040 da b7 8f 3e 99 79 55 3e 81 b2 e0 be b8 1a 2b 3d
       0.28069955 0.20847167 -0.43886188 0.041773528
000050 0f 16 61 bd e2 6a ff be b6 f4 92 3e 0e 1e 30 3e
       -0.054952677 -0.49886233 0.28702325 0.17198965
000060 96 af 0f bf 34 30 53 bf 1d 4f 33 be 15 07 34 bf
       -0.561273 -0.8249543 -0.17510648 -0.70323306
000070 95 37 fb be 0a ab 4e 3e 2c 58 b7 3e b0 aa 0e bf
       -0.49065843 0.20182434 0.35809457 -0.557292
000080 ac 1e af 3e 93 de dd 3e c1 cd 7c bf 39 69 14 bf
       0.34203088 0.43333873 -0.98751456 -0.5797306
000090 91 5f c1 3e 4e 78 13 bf 12 d4 ac 3e 38 70 52 be
       0.37768224 -0.57605445 0.33755547 -0.2055062
0000a0 d5 84 59 bf 44 e9 d2 3e c7 f8 a3 3e c2 20 a7 3e
       -0.8496831 0.41193593 0.3202574 0.3264218
0000b0 dd 53 19 bf e9 4f 16 bf 11 05 06 bf 03 2a 0f 3e
       -0.5989359 -0.58715683 -0.5235148 0.1398087
0000c0 45 0a 13 3f 93 61 13 3e 98 bf db bd 99 60 88 bd
       0.57437545 0.1439269 -0.10729903 -0.066590495
0000d0 13 b4 8c 3d 74 34 fd be fb 22 5a be 65 55 27 3f
       0.06870284 -0.4945408 -0.21302406 0.65364677
0000e0 d1 bb f1 be 45 71 5e 3e d6 e9 09 bf ee a4 f6 be
       -0.47213605 0.21722896 -0.5387243 -0.48172706
0000f0 cb 6f 0c be 93 8c 9a be 81 de 0b 3f 0b 1a 06 bf
       -0.1371452 -0.30185375 0.5463639 -0.5238349
000100 a0 7e cc 3d ac 1f 23 bf 49 66 5e bf 7b 25 bc 3e
       0.09985089 -0.637202 -0.86874825 0.36747345
000110 09 c9 dc 3e 8f a9 65 bd c5 94 4e 3e d4 0d 0e 3f
       0.43122128 -0.056069907 0.20173939 0.5548985
000120 12 79 8b 3d 1e 5c a7 3e f5 7f a6 3e a7 47 2f 3e
       0.06810202 0.32687467 0.32519498 0.17117177
000130 bd 47 da 3e 49 11 a4 be 82 ff 31 bd 7c 8e b5 3e
       0.42632857 -0.32044438 -0.043456562 0.3546027
000140 c2 fe ac 3e bf 96 63 bf 36 12 32 bf 40 0b 72 bf
       0.33788115 -0.88901895 -0.6955904 -0.94548416
000150 57 2a 11 bf 0b 22 96 3e 50 92 d5 be 7a 57 10 bf
       -0.5670523 0.29322848 -0.4171319 -0.5638348
000160 c6 c9 a0 3e 0c cd da 3e b3 02 b1 3e b5 f5 ff be
       0.3140394 0.42734563 0.34572372 -0.49992147
000170 99 3c e6 3e 89 9a f8 be 1c 62 ea be 3d 86 ed 3e
       0.44968107 -0.485554 -0.45777977 0.46391478
000180 b9 2a 4c 3e 0e 18 90 3e 33 79 c0 3e 25 3d 01 be
       0.19938172 0.28143352 0.37592468 -0.12620981
000190 b2 a7 de be fb 3d e9 3d 9e db 00 be 89 4d 9b 3d
       -0.43487316 0.11388775 -0.12583777 0.07583148
0001a0 7d bf c0 3e 6e 52 cf 3e d6 75 ab 3e e8 85 08 bf
       0.37646094 0.40492576 0.3348834 -0.53329325
0001b0 95 a6 aa 3e c1 e2 a3 3e a0 d0 da 3e 88 54 8e 3e
       0.33330217 0.32008937 0.42737293 0.27798867
0001c0 57 2a 56 3e 56 18 21 bf 92 c3 56 3e 25 ba 2d bf
       0.20914589 -0.6292776 0.20973042 -0.6786216
0001d0 b8 d3 cd be 35 ce 63 3e e5 25 07 3e 1b 7e d3 3d
       -0.4020059 0.2224663 0.1319805 0.10326787
0001e0 9c a4 1e bf c5 d1 26 3e 31 77 55 bf 1e 5d fc 3e
       -0.61969924 0.16290958 -0.83384997 0.49289793
0001f0 b7 3a ea be 3a 4a 24 3e 0e be 32 bf e3 9c 6d 3d
       -0.4574792 0.1604394 -0.6982125 0.058010947
000200 dc 84 ae be 40 68 49 bd e6 18 93 3e 6b 15 1a bf
       -0.3408574 -0.049171686 0.28729934 -0.6018893
000210 40 9d ca 3e 3b ca 0b 3f e4 e8 1e bf be be e6 3e
       0.39573097 0.54605454 -0.6207411 0.450674
000220 8f e1 64 bf 4d 58 61 3e 78 8c 77 be e5 5c a6 3d
       -0.89406675 0.2200634 -0.24174678 0.08123187
000230 07 21 cc 3e 3f ad d8 be 0f 22 fb be a4 18 10 3f
       0.39868948 -0.42319676 -0.49049422 0.562876
000240 e0 40 bc be dc f6 29 bf b3 57 f4 be 69 a4 b7 3e
       -0.36768246 -0.663923 -0.4772316 0.35867622
000250 9d 71 c6 3e fa a4 c1 3e eb 79 00 bf 24 eb ee be
       0.38758555 0.3782118 -0.5018603 -0.46663773
000260 e7 a3 96 be 8d 2d 12 bf f2 a9 20 bf dc a6 86 be
       -0.29421923 -0.57100755 -0.62759316 -0.2629918
000270 b6 0c 82 bf 68 ca ca 3e 7f 3c 7e 3e f2 22 f7 be
       -1.0160129 0.3960755 0.24827765 -0.4826885
000280 80 e6 15 bf aa a6 25 3f a8 90 14 bf 4f b1 3d be
       -0.5855484 0.64707434 -0.5803323 -0.18524669
000290 f6 ac a5 be 89 ea dc 3d 1b f3 3d bd c8 9d b4 3c
       -0.3235852 0.107869215 -0.04637442 0.022047892
0002a0 c2 97 2b bf 08 67 64 3e d3 89 21 3e 0e ec ce be
       -0.6702844 0.22304928 0.15775232 -0.4041447
0002b0 3d 87 de 3e 33 a2 56 3e 0d f3 16 bf 3d dd a1 be
       0.43462554 0.20960312 -0.58964616 -0.31614104
0002c0 c6 e1 3d 3e 59 8f 29 3e 79 0e f5 3e a9 13 cf be
       0.18543157 0.16558589 0.47862604 -0.40444687
0002d0 a0 88 ba be 77 26 9a bd f9 46 99 3e 63 42 1b bf
       -0.36432362 -0.07526868 0.2993696 -0.60648173
0002e0 a1 ce e5 3e 2e 7e 19 3e 64 d1 89 3e 67 41 5a 3e
       0.44884208 0.1498954 0.26917565 0.21314012
0002f0 7d 55 ba be 76 92 f4 3e 22 6f a9 3e f1 c5 e7 be
       -0.36393347 0.4776799 0.330926 -0.45268205
000300 29 52 6e 3e 15 f0 d9 3d 43 50 10 bf 43 9e b0 3e
       0.23273529 0.10641495 -0.5637247 0.34495744
000310 65 c1 00 be 0c d4 02 bf 93 a9 89 bd 82 23 5d be
       -0.12573774 -0.5110481 -0.06721797 -0.21595576
000320 8f f5 43 bf 91 e6 31 be 25 76 37 bf c4 97 ac 3e
       -0.7654657 -0.1737311 -0.7166465 0.33709538
000330 4a 35 8e 3e e5 71 4b 3e a8 0b 3a 3f 6f 6e 91 bb
       0.2777503 0.19867666 0.72674036 -0.0044382135
000340 26 64 8f be 72 69 a9 3e c3 5f 48 3e 4e 40 46 bf
       -0.28006095 0.3308826 0.1956778 -0.7744187
000350 83 e7 53 3f 52 1a 81 bc 4e de 1a bf 43 c0 d1 be
       0.82775134 -0.01575962 -0.6049546 -0.40966997
000360 e3 f9 fa 3e 05 d9 0e be e4 25 b1 be 47 58 ec be
       0.49018773 -0.13949974 -0.3459922 -0.461611
000370 34 39 38 be a7 af fb 3e c8 09 d0 be 82 6b ef 3e
       -0.17990571 0.4915745 -0.40632463 0.4676171
000380 50 24 10 be a4 db 88 3e fc 46 ef be 2a 1e 2a 3e
       -0.14076352 0.26730072 -0.46733844 0.16613069
000390 33 13 5e bd cf dc 96 3e c7 7e 28 3e ff 21 68 bf
       -0.05421753 0.2946534 0.16454612 -0.90676874
0003a0 7a f3 93 be a8 2a ba bd 34 41 ae 3e 11 7e 72 3e
       -0.28896695 -0.09090167 0.3403412 0.23680903
0003b0 7f 40 f7 3e cf aa 4a 3e 08 22 5e be ec 7f f2 3e
       0.48291394 0.19791721 -0.2169267 0.47363222
0003c0 a8 fe 95 3d 08 9b c9 3e 2e 85 6f bf 72 e6 71 bf
       0.073239625 0.39376092 -0.9356259 -0.94492257
0003d0 14 89 66 3e 1f 4d 3b bf 07 1d 27 bf de 4d 03 bf
       0.22513229 -0.7316455 -0.6527867 -0.5129069
0003e0 d6 da cc be b4 83 ae 3e 39 6f e7 3c 09 01 d3 be
       -0.4001071 0.34084857 0.028251277 -0.41211727
0003f0 d3 33 d3 be f2 55 c2 bc 67 38 b4 3e aa d9 36 bd
       -0.41250476 -0.023722623 0.35199282 -0.044641174

fc3.bias f4 [10]
000000 a8 22 93 bd 1b d0 38 bb 5a 16 be bc d3 5f 08 3c
       -0.071843445 -0.0028200212 -0.023204017 0.0083236275
000010 fc 39 a0 bd 02 e3 fc bd 61 66 c5 3d b1 fe a0 3d
       -0.0782356 -0.12347986 0.09638668 0.078610785
000020 ef 5a 52 3d f4 af 97 3d
       0.051356252 0.07406607
