6_ConvolutionalNeuralNetwork/LeNet/model3.pth (torch, 250410 bytes, 10 tensors)

conv1.0.weight f4 [6, 1, 5, 5]
00000000: 76ee a4be 74ea 6d3e d56b 133e 3c9c eb3e
00000010: af04 8f3d bd43 603e a618 333f 4a04 363f
00000020: 22d9 463f 7aa1 a13e ca15 d4bd ee75 053f
00000030: 2cfa 173f 13fd 123f 7e50 44be 78d5 8fbe
00000040: d835 af3e 1e0a 20bc 5d11 623e 908f 2fbf
00000050: 4b46 14bf 6123 0bbf ce89 33bf 5ba0 cbbe
00000060: e121 70bf d007 3dbf a135 b6be bc70 abbd
00000070: 3862 c2bd 4c55 643e e937 13bc 4345 ca3e
00000080: 14f5 ee3e f11a f03e f618 003f eb59 913d
00000090: d5d8 663f f2df a63f 7ee8 213f 6182 013f
000000a0: 0e51 98be 0988 033f 10f5 003e 4c35 783e
000000b0: 88f4 2abe 60d4 80bf d754 07bf bb02 04bf
000000c0: 6b83 ffbe 1c10 2fbf ce89 eebe 74b6 65bd
000000d0: cf4d 77bd a96e 403d 059c d5be ff70 fe3e
000000e0: e8ee 2b3f fc06 5d3f 4fab 643f 8223 37be
000000f0: a9bf d43e d102 4c3f ee70 6f3f 776f 153f
00000100: a356 93be 2129 30be afbf 1d3f e750 b23e
00000110: 43dc 953e 0e2d d3be 9739 f1be 69f1 64be
00000120: 87c3 ecbe d4ad 0abf 1f81 72bf 486e 143f
00000130: 1bb0 e23e 6603 113f efc4 043f 4ef2 083f
00000140: f90d 5b3e 2a31 c9ba b7e3 92be 8abb 3dbe
00000150: 18ba 78be d89d f5be 9d74 97bf e112 4fbf
00000160: e41e 65bf cf9e 40bf f8fe 3dbf 4f20 2bbf
00000170: 223a 89be ab60 5abd 2e5c f8be 84d3 0cbe
00000180: a778 a63e 5f14 003f 5510 7d3e a561 b6bd
00000190: 9b9e 253f 7f68 623f fe6a c53e d489 d63e
000001a0: 54cd fb3e d63b 753e 1e54 cabe ad71 f1be
000001b0: 54dd 25bf 8827 a8be 901a 24be 5a2f 0bbf
000001c0: 75f6 12bf 6ce7 f9be a643 2dbe 98a7 b93e
000001d0: 6200 6bbe 8b0d 56bf 5e95 bfbe 8530 11be
000001e0: 5adb 2b3f 664c 0e3e a504 b4be 61b4 ee3c
000001f0: da14 d83e b238 883e bd25 d23e 91bd abbd
00000200: 64c4 2cbf f6d7 0dbf 27e7 303e 9c0b 1ebd
00000210: 5429 0ebf a3ef 7dbf 4184 953b d98d 0a3c
00000220: a1c6 1ebe d835 38bf 0aa3 1cbf 15ca f83e
00000230: 3ef7 ae3e 4af7 b6be f26c 75bf b331 3abe
00000240: 638c 0fbc 7578 173f 893a cebe ada1 8ebf
00000250: 8925 04bf d40c 8c3e
-0.3221318 0.23233968 0.14396603 0.46017635 0.06983315 0.2190084 0.69959486 0.71100295
0.7767507 0.3156851 -0.103557184 0.5213307 0.59366107 0.5741741 -0.1917133 -0.2809255
0.34220767 -0.009768037 0.22076936 -0.68578434 -0.5791976 -0.5435086 -0.7013215 -0.3977078
-0.93801695 -0.73840046 -0.3558779 -0.08371112 -0.0949139 0.22298163 -0.008985498 0.39505967
0.46671355 0.46895555 0.5003809 0.070972286 0.9017461 1.3037093 0.6324538 0.5058957
-0.2974934 0.5137945 0.12593484 0.24239081 -0.16694844 -1.0064812 -0.5286383 -0.51566666
-0.4990495 -0.68383956 -0.46589512 -0.056082204 -0.06037694 0.046980534 -0.41720596 0.49695584
0.67161417 0.8633878 0.89323896 -0.17884639 0.41552475 0.796918 0.9353169 0.58373207
-0.28777036 -0.1720319 0.6162061 0.3482735 0.2926961 -0.41245311 -0.4711425 -0.22357716
-0.46242926 -0.5417149 -0.94728273 0.57980776 0.44274983 0.5664581 0.51862997 0.5349473
0.21392049 -0.0015349735 -0.28689358 -0.18528572 -0.24289739 -0.47971988 -1.1832463 -0.8088818
-0.8950026 -0.7524232 -0.74217176 -0.66846174 -0.26802164 -0.053314846 -0.48507828 -0.13752562
0.32513925 0.50031084 0.24713261 -0.08905343 0.6469514 0.884407 0.3855819 0.4190203
0.4918009 0.23948607 -0.395173 -0.4715704 -0.64790845 -0.3284266 -0.16025758 -0.5436913
-0.57407314 -0.48809373 -0.16920337 0.36260676 -0.22949365 -0.83614415 -0.37418646 -0.14178665
0.6713158 0.13896331 -0.35159793 0.029138746 0.42203408 0.26605755 0.41044417 -0.08385766
-0.6748717 -0.55407655 0.17275678 -0.03858529 -0.5553181 -0.9919378 0.004562885 0.008456671
-0.15505458 -0.7195716 -0.6118628 0.48591676 0.34173006 -0.35735542 -0.9586936 -0.18183021
-0.008761498 0.5916818 -0.40279034 -1.114309 -0.51619774 0.27353537

conv1.0.bias f4 [6]
00000000: aa68 15bf f1b8 36bf 744f 28bf 23a1 253e
00000010: 6a8d 513e 6061 80be
-0.5836283 -0.7137595 -0.65746236 0.1617475 0.20464101 -0.2507429

conv2.0.weight f4 [16, 6, 5, 5]
00000000: 4c77 843e 34c1 973e 4e64 bf3e 8fa1 8a3d
00000010: 679a 70be 706c a73e d46b fe3e d0d5 d43d
00000020: e374 48be 9a89 b4be 5acd be3e 9b2a 7d3e
00000030: 9adc a4be 6fb7 1bbf ac17 4cbd fc74 723e
00000040: 9174 913d 8927 3abf e671 9dbe 43f5 e03e
00000050: 0ebd a53d bb66 51be 13c5 17bf 5fad 3abd
00000060: c005 b03e 1fea 603e e1fe a93e 876e a13e
00000070: 3b22 0a3a 5c55 0dbe b170 353e 15f7 9b3e
00000080: 732e 803d d40a 9abe bafd 03be f63e 9a3e
00000090: 8099 7f3d 0bf5 01bf 99bf b7be 05e3 7f3e
000000a0: 9e75 a93d dd84 09bd e0ff 0fbf 5ddf babb
000000b0: 72a2 e63e cb07 cc3d fee6 26be 807d adbe
000000c0: ab4a 1a3e a4c4 b23e 10ad a43e 5615 9e3e
000000d0: 5352 c13e cb03 f73d deb6 0cbe 4884 973e
000000e0: ad58 e23e 892c 353e dfef 74be 5148 23be
000000f0: 734c 503e 3c31 d33d cf04 cdbe e54d 1abf
00000100: 079d 2b3e f701 533e 15f4 c83d 95e1 ffbe
00000110: c755 a2be 17dd b03e 1856 8e3d bf62 d63b
00000120: 47e6 ecbe 4325 963c bfef da3e 3d59 96be
00000130: 79fa a4be 0416 b9be a513 ac3c e7fe a33d
00000140: 9379 8ebe 3425 3ebe a381 ca3d f940 853e
00000150: e876 2f3d 3a7d 74be f4c4 f33c 961e 563e
00000160: d216 7d3d 853f f3be 513e 51be 0d54 95bd
00000170: 8398 413d 02c4 84be 8605 28bf 3552 96be
00000180: bac6 0abd 1e58 00be e15e f9be 5172 49bf
00000190: 5e0f 8dbe 777d a1be e53c 49be fa28 80bd
000001a0: 80b2 bcbc 6c73 43be 0c00 0bbe fae7 203e
000001b0: d339 343e 83aa f5bd feff 39be 47c8 16bd
000001c0: 1276 f53e 0f89 543e 5b19 acbe dfea f8bd
000001d0: c45d 283e 52e4 c83e 0d35 34bd 6e64 9cbe
000001e0: cb14 16be aea1 063e 6884 853e 4532 63be
000001f0: 8b6a 95be 9537 71be a74e a4be 09fa 90be
00000200: 3be5 92bd 798e 0dbe 63ed 3fbe 4be2 12be
00000210: 50dc 333e 20e9 313e d50b 54be a42a c9bd
00000220: e2c1 823d 80ae 133f 7940 5e3e d1ea 23be
00000230: b05f d73c e861 913e 1bde 073f 62a7 7d3d
00000240: ea04 54be 4e60 7ebd 3684 5b3e 7384 983e
00000250: cb82 90bd bd99 353b d5cc 113e 62a5 7f3d
00000260: 96ad 1cbe d386 3abe 862d c0bd 5301 c03e
00000270: 22ba 603e 9e34 933e 94b4 873e bddc a13e
00000280: 6c7e 8c3c 4925 d3be 5eff 08bf 0bf2 97be
00000290: 0d04 f63d 4333 11bf b4a4 7ebf eb5b 6dbf
000002a0: 5dcd 13bf 2914 94be 4722 c3bc 6180 913e
000002b0: a70d cc3d 202c cbbd 124c 94bd 87b1 503d
000002c0: 8acf 37bd 0d7b fcbc cb24 bdbc 37e3 923c
000002d0: d6bd 173e 6dbb b63d 5b37 cc3d 4806 623e
000002e0: db3f ba3e 8774 85be b735 22bf 45aa 19bf
000002f0: c274 4fbe c94e 4b3d d602 04bf 0750 0ebf
00000300: d082 ebbe c9a4 03bf 37be a5be 8005 823e
00000310: 9553 f43e 513e 833e f6b0 a6bd 9f26 edbd
00000320: 5133 473e 8481 603d f398 97bc d79c 88bd
00000330: 3318 11bd d973 993e 0325 173e eb3c 633d
00000340: 5eea 0d3e 8f2f 893e 5e43 dabd 8424 a4be
00000350: 6bf5 1cbf 8c64 b8be 0ad9 3fbd 92cc 0dbf
00000360: b087 17bf d572 12bf e70c 10bf f698 cbbe
00000370: c5e1 493d fa2b 8c3e f7da 763e 69c6 a3bd
00000380: ad4c 02be df74 56be fad9 52be 8465 50be
00000390: cc4c 58be 9b40 38be 565a 8dbc 2cf9 2b3d
000003a0: 0587 b83d 5f33 6bbd 6bd1 2fbe 7143 0b3f
000003b0: cd98 433f 4ed8 3e3f e54b 333f 2268 903e
000003c0: 77a0 be3e 4a48 a03e 8028 c33e f313 0a3f
000003d0: 91c7 013f 3799 36be 7765 bdbe 92d8 c2be
000003e0: a292 17bd 0f25 3f3e 4760 c1bd 80cb 6cbe
000003f0: 8157 5bbe e75d 86be f124 a4be 2b8f 44be
0.25872266 0.2963959 0.37381214 0.06769096 -0.234964 0.3269992 0.4969164 0.10392344
-0.19575839 -0.35261232 0.37266046 0.24723284 -0.32199556 -0.6082677 -0.049827263 0.23677438
0.071023114 -0.72716576 -0.3075096 0.4393712 0.080927 -0.20449345 -0.59285086 -0.045575496
0.34379387 0.2196431 0.3320227 0.31529638 0.0005269383 -0.13802093 0.1771877 0.30461946
0.062588595 -0.30086386 -0.12889758 0.3012616 0.06240225 -0.5076453 -0.35888365 0.24988945
0.08274387 -0.033573974 -0.5624981 -0.0057028965 0.4504581 0.09962424 -0.16299054 -0.3388481
0.15067546 0.3491565 0.32163286 0.30875653 0.3775812 0.1206127 -0.13741633 0.2959311
0.4420828 0.1769277 -0.23919629 -0.15945555 0.20341663 0.10312125 -0.4004273 -0.6027511
0.1675912 0.20606218 0.0981218 -0.49976793 -0.31706068 0.34543678 0.06950015 0.006542533
-0.46269438 0.018328315 0.42761037 -0.29364958 -0.32222345 -0.3614961 0.021005461 0.08007603
-0.2782713 -0.1856888 0.098880075 0.26026133 0.042838007 -0.23875895 0.029757 0.20910105
0.06178934 -0.475094 -0.20433928 -0.07291422 0.047264587 -0.25930792 -0.6563343 -0.29359594
-0.033880927 -0.12533614 -0.487052 -0.7869006 -0.27550787 -0.31541035 -0.19652136 -0.06257816
-0.023034334 -0.19086999 -0.13574237 0.15713492 0.17600183 -0.11995413 -0.1816406 -0.036812093
0.47941643 0.20755409 -0.33613095 -0.12154173 0.16442019 0.39236695 -0.043995906 -0.30545372
-0.1465637 0.13147613 0.2607758 -0.22187145 -0.29182848 -0.23556359 -0.32091257 -0.28315762
-0.071726285 -0.1382388 -0.187429 -0.14344136 0.17564511 0.17374086 -0.20707639 -0.09822586
0.063846365 0.5768814 0.21704282 -0.16007544 0.026290745 0.2839501 0.5307328 0.061927207
-0.20705 -0.062103562 0.21437153 0.2978855 -0.07056197 0.0027710043 0.14238293 0.06241358
-0.15300593 -0.18215494 -0.09383683 0.3750101 0.21946004 0.2875108 0.26504958 0.31613722
0.017150126 -0.41239384 -0.5351466 -0.29676852 0.120124914 -0.56718844 -0.9947007 -0.9271838
-0.57735234 -0.2892163 -0.023820056 0.28418258 0.099635415 -0.099205256 -0.07241072 0.050950553
-0.04487566 -0.030820394 -0.023088833 0.01793061 0.1481851 0.089224674 0.09971496 0.22072709
0.36376843 -0.26065466 -0.6336321 -0.60025436 -0.20259383 0.049635682 -0.5156683 -0.5559086
-0.4599824 -0.5142332 -0.32371685 0.2539482 0.47720018 0.2563348 -0.08139221 -0.11579632
0.1945317 0.054811016 -0.018505549 -0.0667054 -0.03542347 0.29971197 0.14760213 0.055478018
0.13858935 0.26794097 -0.106573805 -0.3205911 -0.6131198 -0.3601421 -0.046837844 -0.55390275
-0.5919142 -0.5720647 -0.5626969 -0.39765137 0.049287576 0.273773 0.24106966 -0.07996828
-0.12724562 -0.2094302 -0.20590964 -0.20351225 -0.21123046 -0.17993395 -0.01725499 0.041985676
0.09010128 -0.05742204 -0.1716973 0.5439978 0.7640503 0.74548805 0.7003768 0.28204447
0.372318 0.31305152 0.38116837 0.5393669 0.5069514 -0.17831884 -0.36991474 -0.38055855
-0.037005074 0.1866648 -0.094421916 -0.23124504 -0.21420099 -0.26243517 -0.32059434 -0.19195239

conv2.0.bias f4 [16]
00000000: b8d1 9dbd d0d0 0a3d 3fd6 68bc ff8d 9b3d
00000010: 6cc3 71bd 4b87 4cbd d5d6 aabd ceb4 fe3d
00000020: dfb2 debd d89c 073d 29af 9e3d 5d42 9d3d
00000030: 1315 98bb 7b29 49bc 24cb 07bc fb3c a03d
-0.07706016 0.033890545 -0.0142112365 0.07595443 -0.05902426 -0.049933713 -0.08341757 0.124368295
-0.10873961 0.033108562 0.07748253 0.076786734 -0.004641184 -0.012277956 -0.008288179 0.07824131

fc1.0.weight f4 [120, 400]
00000000: 1f2a 713e 059d dc3d 0266 5cbf a105 8ebf
00000010: 8cd9 63be 329b 283e 0beb 123e 98b7 4ebe
00000020: c6d6 64be 9c43 88bd c6fb 5bbd d327 f9bd
00000030: aad3 a23d 4eff c63d f35e cf3d a1aa b5be
00000040: 95f3 e2be 9ecc 53bb 65b7 373e d084 093e
00000050: bc1b 4cbd a41e 44bd e4cf c53d 24aa 303e
00000060: ed8e 80bd ee56 153d c3ba 853e 1d51 b53e
00000070: e35f 9b3e 8049 46bb b0b2 5bbe 728b dfbe
00000080: d3a0 063e dfde aa3e 8b71 83bd 2230 c13c
00000090: 2f08 b73d 9a15 ba3d 0ff1 363d 3c90 70be
000000a0: 85ce 25bb 5e15 75bc a470 bdbd f53e 0fbf
000000b0: f728 32bc 40c9 273e f456 cc3d f26f 9f3d
000000c0: 347b be3d ad0b 04bd 2bd4 1c3e 1d1b c43d
000000d0: 879d 61bd 3a3c adbe 7691 35bc a844 f9bc
000000e0: abe2 72be 8fff 08be a7ea 11be 0221 af3d
000000f0: b32b 07bd 4c02 0fbd 6858 2dbe ac3b f53d
00000100: 0b4a 06bc 16de 5a3d 733e 8ebd 8767 f73d
00000110: fb56 0ebe ad1c 353d df82 363e bcc5 843d
00000120: 27dc fd3d 4863 503e 4a7e 363d e686 0ebe
00000130: a87e af3d 3d7c 433e 3a0f 293e 464d 443e
00000140: ab86 78bb c143 aebd 951a 0f3c bc95 873d
00000150: 5344 833e a59c 82be e036 d8bd c669 89bd
00000160: 5d4c d2bd fd93 9fbe d479 553d 83be cf3d
00000170: 19cf 97bd 9e64 a8be e53f 0cbf 76cc 773e
00000180: ea4b 7e3e a4e5 16be b36f 4cbe 8581 08be
00000190: a61f 4dbe 8d7b 0f3d a398 953e 3951 853e
000001a0: db93 703d 52db 3fbe a24e 00be 901b 663d
000001b0: 290b 923d 9050 2abd a9d0 a93d 4ddb dabd
000001c0: 8368 243d 3823 60bd ac04 2cbe 01f5 823e
000001d0: cef0 c5bb 9752 8f3d 4658 bbbd e3a3 87be
000001e0: 1216 063e d360 2c3c 9f9e 51bb 2132 2dbe
000001f0: 6558 fabd 0478 4ebe 4840 e3bd 6bc8 4e3e
00000200: e1f6 663e df94 5a3e b00c b8be 106a 753d
00000210: 3e8a 383e 5aef d03e 3d2b 283d a795 d63c
00000220: e5cc 893d d1a5 053e d638 aa3d a37d 94bd
00000230: 98bc f03c 8675 223d 8138 0abe e7ca 32be
00000240: ca71 09bf b319 cfbb ca54 5fbd f840 91bd
00000250: a21a dcbe 0601 28bf 5092 163d 87d1 2c3c
00000260: 532f 3bbc 8c2b d6bc dfa3 933d bb37 3abe
00000270: 1e78 40be d483 cebe 337f 00be de2c 81bd
00000280: cd07 81be 2085 843b 67ac 3cbc c984 b2bd
00000290: 4b39 4dbe b0c9 c3bd e268 523e 174a c23e
000002a0: cb56 49bd eb02 443d 2a04 103e dcd6 9e3e
000002b0: 9f68 1d3e 12c9 543e 25af 873e e48b d7bd
000002c0: 9363 58be a316 15be 4a9a ef3c ea8b 623e
000002d0: 4738 4abd 6830 dbbd bd9f 423e 7522 de3e
000002e0: b4b8 293f ab62 c33d 145b 6c3e c2e6 b53e
000002f0: 367b 273f 22ca af3e 2a7f 303a df26 ba3c
00000300: 9e46 a4bd d94f a1be f4b6 4fbe 0abb 003e
00000310: f662 153d 6b05 54be 2e8a eabe f8ea 99be
00000320: 3534 513e daa5 a53d 81f4 d1be d4d0 12bf
00000330: dfe6 c83d 57cf 8abc 4193 aabd abe2 babe
00000340: aa84 96be 8fac c0bd 3342 353d e314 ef3d
00000350: e586 ae3c e635 4c3e 31ee ce3c 3fb6 1a3d
00000360: 8c25 d0bd 7b53 9d3e 34eb 15be fa54 813e
00000370: 3ce0 183d 62b8 b7bb 2e59 093d c11d 633d
00000380: 1ee3 493e e963 36be e39c 14bb 0adf b03e
00000390: d24f 9e3e cf8e 1d3e bf5e c4be 9acd 96bc
000003a0: 9f1b b53d e395 473e dfc1 513e 91f0 5ebe
000003b0: eda3 103e c8d5 d6b9 88a1 7dbe ea73 67be
000003c0: b452 1f3e 4952 ff3d ccbc 19be 86a9 07bf
000003d0: fb86 6cbf 5770 f43d 9cd8 1f3d 2bc0 3abe
000003e0: 62bc 06bf 0d4d 35bf 60e3 0f3d cb87 5e3e
000003f0: 9b4b ac3e dba1 c63d 7990 b1bd 15b6 c7be
0.23551224 0.107721366 -0.8609315 -1.1095468 -0.22250956 0.16465452 0.14347474 -0.20187223
-0.22347555 -0.066535205 -0.053706907 -0.12165799 0.07950528 0.09716664 0.10125532 -0.35481742
-0.44326463 -0.0032318006 0.17941053 0.1342957 -0.049831137 -0.047880784 0.096587926 0.17252403
-0.06277261 0.036459856 0.2611905 0.35413447 0.30346593 -0.0030256212 -0.21454883 -0.43661076
0.13147287 0.33373162 -0.06418141 0.023582522 0.08937108 0.090861514 0.044663485 -0.23492521
-0.0025300097 -0.014958708 -0.0925 -0.5595544 -0.010874025 0.16385365 0.099775225 0.07785024
0.09300843 -0.032237697 0.1531531 0.09575484 -0.05508187 -0.33835012 -0.011082044 -0.030428246
-0.2371928 -0.13378738 -0.14249669 0.085512176 -0.03300066 -0.0349143 -0.16928256 0.11974272
-0.008196364 0.053434454 -0.06945505 0.12080293 -0.13900368 0.0442168 0.17823361 0.06483027
0.12395506 0.20350373 0.044554032 -0.13918647 0.0856908 0.19090362 0.16509715 0.19170102
-0.0037922065 -0.08509017 0.008734365 0.066203564 0.25638065 -0.25510135 -0.105573416 -0.06709628
-0.102684714 -0.31167594 0.052118137 0.10143759 -0.074125476 -0.32889265 -0.54784995 0.2419909
0.24833646 -0.14736038 -0.19964485 -0.13330658 -0.20031604 0.035029937 0.29218015 0.2603853
0.058734756 -0.18736008 -0.12529996 0.05617863 0.07131035 -0.041580737 0.08291752 -0.106863596
0.040138733 -0.054721087 -0.16798657 0.25577548 -0.006040669 0.06998175 -0.09147696 -0.26492223
0.13094357 0.010521132 -0.0031985415 -0.16913654 -0.12223891 -0.2016297 -0.11096245 0.20193641
0.22555114 0.21345852 -0.3594718 0.059915602 0.18021485 0.4080761 0.04105686 0.026194407
0.06728534 0.13051535 0.08311622 -0.07250526 0.029386804 0.03966286 -0.13498117 -0.17460214
-0.53689253 -0.0063202023 -0.05452422 -0.0709247 -0.4298907 -0.6562656 0.03676063 0.010548002
-0.011424857 -0.026143812 0.0720899 -0.18185322 -0.18795821 -0.40334952 -0.12548523 -0.06307386
-0.25201264 0.00404419 -0.011515713 -0.08716733 -0.20041387 -0.09559953 0.20547822 0.3794715
-0.049155038 0.047854345 0.14064088 0.310233 0.15371941 0.20779827 0.26500812 -0.10524729
-0.21131735 -0.14559416 0.029248375 0.22123685 -0.049370077 -0.10702592 0.19006248 0.43385664
0.6629746 0.09540304 0.23081619 0.35527617 0.6542238 0.34333903 0.0006732816 0.022723613
-0.08021282 -0.3150623 -0.20284635 0.1257135 0.03647133 -0.20705192 -0.45808548 -0.3006208
0.20430072 0.08088274 -0.41006854 -0.57349896 0.0980966 -0.01694457 -0.08328868 -0.3650106
-0.2939809 -0.09407913 0.044252586 0.11673906 0.021304557 0.19942436 0.025260063 0.03777146
-0.101634115 0.30727753 -0.14640504 0.25260144 0.03732322 -0.005606697 0.033532314 0.055448297
0.19715545 -0.1781155 -0.002267652 0.34545165 0.30920273 0.15386508 -0.38353536 -0.018408585
0.08843159 0.19490771 0.20484112 -0.21771456 0.14125033 -0.0004097654 -0.2476865 -0.22602811
0.15558892 0.124668665 -0.15013427 -0.5299305 -0.92393464 0.119354896 0.039024934 -0.18237369
-0.526312 -0.70820695 0.03512895 0.21731488 0.33651432 0.0969884 -0.08670134 -0.39006105

fc1.0.bias f4 [120]
00000000: bd1c 493d 1af2 acbb 9091 24bd 55c2 2e3d
00000010: e4f6 353c 8449 84bc 9244 58bd 7ca5 bdbd
00000020: 15a6 96bc 8ef4 d83c 7ad5 b1bd 05c9 163c
00000030: adb2 183d 23d7 433c efa2 c43d 6554 dc3a
00000040: 18d5 0ebc 50d3 803d 0ec7 a93d d52d a83c
00000050: d3d9 193d e7f8 7a3d f675 9c3d 8cae bebd
00000060: 4f5e 863d 7815 0dbd 90a1 a6bd 69a9 a63c
00000070: 4097 e3bb 8951 013d d25d 58bd 7d83 2cbc
00000080: d2c3 7cbc f909 c1bd 64cd d73c 510b e7bc
00000090: 4c3a 683d 8f55 6ebd 5df8 b43d 453c b9bd
000000a0: 562f f8bc 11b0 11bd ca0a b0bd 08bc 9fbd
000000b0: b10d f13c 015a aebd 0614 04bb 131b 0dbd
000000c0: b405 5bbd df46 203d aaf0 bbbd 1a62 77bd
000000d0: 97a6 e03c cda7 0cbd bdee 883d fe9b 54bd
000000e0: b91a 8b3d dfa8 d5bd 1428 1ebd b796 a6bc
000000f0: 1f59 f13c 9005 78bc eb6f 403d e9bc 94bd
00000100: feeb 003d 9516 35bd 1b3f ec3b 5368 a2bd
00000110: 93fe 7c3d 0c36 a1bd 2c62 86bc 1ab6 b4bd
00000120: 4da0 d2bb d303 c4bc d332 87bc 6031 85bd
00000130: 5893 97bb e64e c43a ab8f 813d beb2 61bc
00000140: f2b2 a0bc e615 8d3d 426c f0bc 9553 7dbc
00000150: ced1 e9bc e781 d6bc f376 af39 efd2 a4bb
00000160: 98e1 803b c3de 54ba cd61 353d dd3e 5fbd
00000170: 9fe5 f53c a345 a53d cc8d 903c a19b 4bb4
00000180: 488e 96bb 5f84 69bd 5e63 d7bc 7dbb 41bd
00000190: 34fa c3bd b095 b63c fccc 933d 8b3d f63c
000001a0: 642b e0bd d08e 143d 676b 0e3d 0f78 9ebd
000001b0: a136 093d 5525 e7ba 69d2 84bd 36e5 9e3b
000001c0: 7972 293c 424f a1bc 46c5 86bc 9ffb 43bb
000001d0: 1616 563d f5ee cf3d edd5 acbd f040 293d
0.049099673 -0.005277884 -0.04017788 0.0426658 0.011106227 -0.016148336 -0.05279977 -0.09260079
-0.018389741 0.0264838 -0.086832955 0.0092032 0.037279774 0.011953148 0.096013896 0.001680982
-0.008717798 0.06290305 0.0828992 0.020529667 0.03756125 0.061272528 0.07639687 -0.09310636
0.06560957 -0.034444302 -0.08136284 0.020344453 -0.0069455206 0.0315719 -0.05282385 -0.010529396
-0.015427547 -0.0942573 0.026343055 -0.028203638 0.05669622 -0.058187064 0.08836434 -0.090446986
-0.030296009 -0.0355683 -0.08595808 -0.07799536 0.029425474 -0.08513261 -0.0020153536 -0.034449648
-0.053472236 0.039130088 -0.091767624 -0.06039629 0.027423186 -0.034339715 0.06686161 -0.05190658
0.06792206 -0.104326 -0.03861244 -0.020335538 0.029461442 -0.015138045 0.046981733 -0.07262594
0.03147506 -0.04421099 0.007209671 -0.079300545 0.06176622 -0.07871637 -0.016404234 -0.088237956
-0.0064278007 -0.023927605 -0.016503727 -0.06503558 -0.004625719 0.0014977127 0.063262306 -0.013775526
-0.019616578 0.068889424 -0.029348496 -0.015461822 -0.028542425 -0.02618499 0.00033467225 -0.005030028
0.003933143 -0.0008120352 0.044282723 -0.05450331 0.030016718 0.08069923 0.017645739 -1.8962466e-07
-0.004594598 -0.057011005 -0.0262925 -0.047297943 -0.09569207 0.022288173 0.07216832 0.030058643
-0.10945776 0.03626901 0.034770396 -0.07737743 0.033499364 -0.0017635027 -0.06485445 0.0048491014
0.010342234 -0.019691113 -0.01645149 -0.0029904617 0.052267157 0.10152999 -0.084392406 0.041321695

fc2.0.weight f4 [84, 120]
00000000: d05a 883d 4d5d c23e ddce e03e 421d 39bd
00000010: c7e3 c03c ea11 143f a224 71be cbe3 c33d
00000020: 57aa 34be 8a10 8a3e 18d5 d3be 34b4 2bbe
00000030: 0921 09bf eb71 603e 0138 49be 4251 d4be
00000040: 1c9d 063d a051 38bd 85c4 4b3d 9a44 953d
00000050: 694f 903e 71fc 98be b6fb 743d c38e 1fbf
00000060: b729 a1be e58e 0b3f 9870 8b3e d185 e2bc
00000070: bd84 8e3d 7dbf df3e 7c6c 833d eaff d73e
00000080: b23c bfbc 6d8d 13bd 0f9b bbbe 0f2e c13e
00000090: cbc9 063e 8a33 14bd 41c8 c53c ead4 6dbe
000000a0: d7b8 40be 600b 82bc 6f59 57be 787c 07be
000000b0: a453 a4be f678 67be 3d77 a53e dc35 913e
000000c0: 06b3 b43d 644b 49bd 90de cebd 4b32 d5be
000000d0: 5098 783e 5732 54bf e53c b7be 644b 8fbe
000000e0: 314d 603b 062c 8bbe 271e 4e3e 8b45 483d
000000f0: d027 573e 79c0 a6be 25f8 9d3e 0b96 bdbe
00000100: 219a 1b3e c71b a7bd 2ed2 9e3e 655c 97bd
00000110: 0c29 233e 6765 1fbe f6ae 0bbd 50b0 d43e
00000120: 3740 37be 926d 3d3d b8b2 d1bc 9535 17bf
00000130: 54ef 46be 3a47 db3e 4713 983e 4293 503e
00000140: 8202 803e 38d2 2dbe 88d2 22be 626e e63e
00000150: 2190 4d3e df29 863d d250 09bf 94c6 e03e
00000160: 655b 74be e042 bf3e 7caf ea3e e88b 0b3e
00000170: a669 553e 4903 7fbe ce6e eebd 2e90 db3d
00000180: 9420 93be cca0 8fbe 958d 67be 8e4b 3a3e
00000190: 7f51 a0be 94a3 1f3f 434d a23d d5ee a7be
000001a0: 683c 03bf e346 b8be 8ce9 673c a08f 20be
000001b0: 8ade 253e f74c 753e a7da ce3e 3a67 543d
000001c0: f56a 91be 397a 043f 6774 6d3e dd84 673d
000001d0: d8bd ddbb 672b b9bc 2cb4 2d3e 4034 c53d
000001e0: b715 48be 54f0 07be aff4 44be 9ab3 47bd
000001f0: 4c59 e3be 233d c4be 6bdd 10bd 4849 d23d
00000200: a9e9 3b3e 3c44 dcbe 0776 153e 6dae a63e
00000210: 78ff 8fbe f084 9cbe a06a 96bd 668b 92bd
00000220: cb79 7f3e 92fb 13be 8df3 933e a939 3a3e
00000230: 8e1e 35be 1253 eb3e c554 d3be 931a a83e
00000240: 9026 6fbe 3ced a2bd ef9e ff3d 4a05 153f
00000250: 5667 943d 7bf9 e6bd 2059 98be 4fe6 1abf
00000260: b00c 85be 6651 ed3b 1e3e 41bd 3c75 c53e
00000270: 0c1a a43e 9db0 fa3d f977 193d b7ac b3be
00000280: 557d f13d 44a7 b03e 27d5 9fbd bf05 f93e
00000290: c56c 5ebc fc2c 963e 0800 b1bd 7fd3 e8be
000002a0: a38e 72be 661c f4bd ea01 a43a da57 773e
000002b0: 02ff 07bc 6125 0f3f 6e4e ae3e 3145 ef3d
000002c0: 0250 1abe 990b a13e 7885 9abe 04b4 003e
000002d0: 5b6b bf3a 1ae2 863e 6f52 b43e 99e9 84be
000002e0: 608c 643e d65b 4fbe 87ed 32be a84f dbbd
000002f0: 929a 8d3d 1ebe 55bd be07 cf3e aab7 a2be
00000300: b68a 16be c36a d1bd 6a2b 74be 51cb 713c
00000310: a17e 05bf 141d d3bc a536 c8bd 6ac4 dc3e
00000320: 44e7 25bf 3951 58bc f1fd 203d dfa5 70be
00000330: 3d8b d4be 1776 84bd 1e39 5f3e 2bd3 e0be
00000340: 889d b03c 0b7e b5be 8b20 423e cefe 1abe
00000350: 3f71 423e c046 953e 615a 07bf 3ddc 3c3e
00000360: ffa0 213f 1834 143f 4811 d0bb 2966 33bf
00000370: 4f95 143e da21 96bd d90d 533e 5cb3 923e
00000380: ef2f 8e3e 827a d4be 7322 b7bd d535 19bf
00000390: 6b10 963e 0589 043f 419c 06be 1cbd 65be
000003a0: d87f bf3e a70e 5dbe 43f6 ab3e 4417 083e
000003b0: cb27 4fbd 9498 293e 1005 46bf d666 16bd
000003c0: 5150 293f 1c16 b9bb cdd7 433e 8e6d a53e
000003d0: 6d4a b23e b0c7 8a3e a618 85be fa75 d3be
000003e0: caf9 753c 8d58 653e 384c 3d3e 87a2 c73c
000003f0: efda 13be e38f e03b 392f 0fbe dce1 52be
0.06657946 0.37961808 0.43907824 -0.045193918 0.023546113 0.57839835 -0.2354913 0.095649324
-0.17643104 0.26965743 -0.41373515 -0.16767961 -0.5356603 0.21918456 -0.1965027 -0.41468245
0.032864675 -0.04499972 0.049747963 0.07288475 0.28185585 -0.29880098 0.059810363 -0.6232721
-0.31477138 0.54514915 0.2723434 -0.0276517 0.069589116 0.4370078 0.06417176 0.42187434
-0.023344371 -0.036023546 -0.36641738 0.37730452 0.13162915 -0.036181964 0.02414334 -0.23225752
-0.18820511 -0.015874565 -0.2103021 -0.13231075 -0.32095063 -0.22604737 0.32317534 0.28361404
0.088232085 -0.049144164 -0.10101044 -0.41639933 0.24276853 -0.8288931 -0.35788646 -0.27987206
0.0034225697 -0.27182025 0.2012869 0.048894446 0.21011281 -0.3256872 0.30853382 -0.37028536
0.15195514 -0.08159595 0.3101973 -0.0739067 0.15933627 -0.15566026 -0.034102403 0.41540766
-0.1789559 0.046247073 -0.025597915 -0.59066135 -0.19427234 0.4282778 0.29702207 0.20368674
0.25001913 -0.16974723 -0.15900624 0.4500609 0.20074512 0.06550955 -0.53638947 0.43901503
-0.23862989 0.3735571 0.4583701 0.13627589 0.20841083 -0.24903597 -0.11642228 0.107208595
-0.28735793 -0.28052366 -0.22612603 0.18192884 -0.31312177 0.62358975 0.07924893 -0.32799402
-0.5126405 -0.35991582 0.014154803 -0.15679789 0.16198173 0.23955141 0.40401193 0.051856257
-0.28401914 0.51748997 0.23188935 0.056523193 -0.006767016 -0.022603704 0.16963261 0.096291065
-0.19539534 -0.13275272 -0.19233964 -0.048755266 -0.44404066 -0.38327894 -0.03536741 0.102678835
0.18350853 -0.4302081 0.14595805 0.3255495 -0.28124595 -0.30570173 -0.07344556 -0.071554944
0.24948804 -0.14451435 0.28896752 0.18186058 -0.17687437 0.45961815 -0.41275612 0.32832775
-0.23354554 -0.07955405 0.12481486 0.58211195 0.07246272 -0.112780534 -0.29755497 -0.60507673
-0.25986242 0.0072423695 -0.04717838 0.38566005 0.32051122 0.122407176 0.03746793 -0.35092708
0.11791483 0.34502614 -0.078043275 0.48637196 -0.013575737 0.29331195 -0.08642584 -0.4547386
-0.23687224 -0.11919479 0.0012512777 0.24154606 -0.008300545 0.5591641 0.34044212 0.11683119
-0.15069583 0.3145416 -0.30179954 0.1256867 0.0014604138 0.26344377 0.35219142 -0.2595947
0.22319174 -0.20249876 -0.17473422 -0.107085526 0.069142476 -0.052183263 0.40435594 -0.3178075
-0.14701352 -0.10225441 -0.23844686 0.014757947 -0.52146345 -0.025770701 -0.097760476 0.43118602
-0.6480601 -0.013202959 0.039304677 -0.23500775 -0.4151248 -0.06467836 0.21799132 -0.43911108
0.021559492 -0.35447726 0.18957727 -0.15136263 0.18988512 0.2915554 -0.5287228 0.18443389
0.63136286 0.5789199 -0.0063497163 -0.7007776 0.14510082 -0.073306754 0.20610751 0.28652465
0.27770945 -0.41499716 -0.089421175 -0.59847766 0.293094 0.51771575 -0.13145544 -0.22435421
0.37402225 -0.2158762 0.3358632 0.13290125 -0.05057506 0.1656211 -0.77351475 -0.036719166
0.6613818 -0.0056483876 0.1912529 0.32310146 0.34822407 0.27105474 -0.25995368 -0.41300946
0.015013168 0.2239706 0.18486106 0.024369491 -0.14438985 0.00685309 -0.13982858 -0.20593971

fc2.0.bias f4 [84]
00000000: f248 b33d a487 1e3d 4f14 513c 13ab 773d
00000010: f6d7 053c 1a30 11bb 034b 0dbd 142f 00bd
00000020: 7c24 ca3c 29b9 afbd 7d2c 8e3c a4cd 273c
00000030: abaf b5bd 1a78 40bc 54bd dcbc 550a 6dbd
00000040: 64e2 bdbc 92f5 323c 04de 93bd b30b 653d
00000050: 35f0 ee3d 5978 d93c 0282 ab3d 528a 90bc
00000060: 6709 093d 02af a83d 7a40 b13c 868b 1abd
00000070: 961f 533d c1cf 803d a163 acbd 4243 40bd
00000080: 28fa 04bd eb0e 5d3c e8fe 403d 644b 95bd
00000090: ae10 52bd f4de c33d 7d53 78bd fd6c 4cbd
000000a0: b092 ae3d a7f3 50bd 6674 953c 40d4 7dbc
000000b0: 0bc5 b2bc 19e9 573d ffef 4c3d 6429 563c
000000c0: b559 6c3d 6c65 97bd e2c6 373d 2cfc 13bd
000000d0: d15a b4bc ea37 24bd e5ff e6bd a0ee 1f3d
000000e0: 1217 93bd 758c 42bd 9633 263d 75c3 bdbb
000000f0: 8c1d a93d e37b 983d a2e2 36bd 21c7 f63c
00000100: 8bd1 76bd 3eed f93d 18cc 7abd d3f0 a33c
00000110: 10c6 963c 3021 5d3d db08 bbba 1bff 3b3d
00000120: 5b82 fab9 0f00 31bc ec63 e23d dee8 01ba
00000130: 8346 013d 5265 c03d a858 733d aff2 383d
00000140: e96a 22bc 4d1e 85ba 6d61 3f3d 3967 3ebd
0.087541476 0.038703576 0.01276119 0.060465883 0.008169165 -0.0022153915 -0.034495365 -0.031294897
0.0246756 -0.08580238 0.017355198 0.0102419 -0.08871397 -0.011747384 -0.026945747 -0.05787118
-0.02317924 0.010922806 -0.072200805 0.05591936 0.116669096 0.026546644 0.083744064 -0.017644081
0.033456232 0.08236505 0.02163719 -0.037730716 0.051543795 0.06289626 -0.0841744 -0.046939142
-0.03246513 0.013492326 0.047118098 -0.0728977 -0.05128544 0.09564009 -0.060626496 -0.049908627
0.08524072 -0.051013615 0.01824398 -0.015492499 -0.021822473 0.052712534 0.050033566 0.013071392
0.05770274 -0.073923916 0.044867404 -0.03612916 -0.02201596 -0.040092386 -0.11279277 0.03904593
-0.07182135 -0.04749723 0.04057654 -0.0057911226 0.08257589 0.074455045 -0.044649728 0.030124249
-0.06025843 0.122034535 -0.061229795 0.020012295 0.01840499 0.05398673 -0.0014269607 0.045897584
-0.00047780838 -0.010803237 0.11054215 -0.00049556594 0.031561386 0.09394325 0.05941072 0.045153316
-0.009913185 -0.0010156125 0.04672377 -0.04648516

fc3.weight f4 [10, 84]
00000000: e611 8e3e b352 9b3c 2f75 843e ccd6 0fbf
00000010: 11c1 a3be ca23 c0bc ab84 47bf 76c5 e6be
00000020: b1f2 98be 8ff7 553e c2b4 70b9 f12a bbbe
00000030: e391 933e dcb6 2bbf 0903 01bf 5b59 24be
00000040: 99d0 933e 25c9 4e3e d527 d8be 68d9 ab3c
00000050: 8eb8 91bd 03ee c5be 6af3 923e a16a 2b3e
00000060: 00b2 05bf 499b 35bf 700f fabd f420 1fbf
00000070: 4b19 f7be 41a1 323e 6579 ab3e e207 ebbe
00000080: f4a8 ac3e 051a d93e 8cf1 67bf ac04 f9be
00000090: 94e5 b33e 9e19 05bf ecc2 af3e bce7 60be
000000a0: bb50 45bf 8eb8 cb3e 4ce1 a63e a59b a53e
000000b0: e2dd e1be a132 04bf 64b4 e9be 5b8e 0b3e
000000c0: 9cec 073f ee6c fc3d 3ec2 86bd f491 19bd
000000d0: c246 793d 0791 e2be 2cb3 13be 137d 1a3f
000000e0: 8520 cdbe 596a 553e d191 0abf a6cc d7be
000000f0: 86fe 18be 7e1f 7bbe 149e fa3e 54e0 01bf
00000100: 3d6e fb3d 4bc2 13bf 8d9c 3fbf 77c8 a43e
00000110: e211 d53e e595 44bd b1a0 423e b847 053f
00000120: 9ece b63d 904a a43e f764 9d3e beab 263e
00000130: 065c d23e 9638 9abe 76c6 08bd a7f9 a83e
00000140: 378d b03e e7e5 4fbf a8fd 1cbf 544e 4dbf
00000150: 9dec 02bf 410c 863e 38f6 b6be 5f42 03bf
00000160: 7a59 ac3e c93d cd3e 51c0 a83e c26e d1be
00000170: d720 cf3e b699 d3be cf4f cbbe 39ac dc3e
00000180: d498 1e3e 8d6d 823e 3498 c33e 775e c4bd
00000190: 1d19 bfbe d9d8 053e 52e1 a7bd ff60 a53d
000001a0: c425 b53e 64f0 d53e 4c32 ad3e f360 dfbe
000001b0: 2ec1 a73e b8cf ad3e 0bda ca3e f933 8d3e
000001c0: 1ee2 573e 40dd 1ebf d336 3c3e 2bda 20bf
000001d0: bdd6 c5be 3fd6 583e a4c0 ff3d 5ed9 d73d
000001e0: aa93 1bbf 431d 323e ebbf 36bf 1447 ec3e
000001f0: 5e5a dbbe 4eba ed3d 8510 22bf b742 393d
00000200: f412 81be ae23 70bd 18ec 853e a80a 0fbf
00000210: bed9 b33e 28ae 043f 7ab7 00bf 2fc3 e03e
00000220: b7e3 43bf 3ddc 523e b90f 72be c380 d53c
00000230: 4cff c83e 5707 b1be 2bfb c3be 2a7e fa3e
00000240: 29fa aabe 4c19 07bf ca5c ebbe 11a6 9d3e
00000250: fdfd a03e fb73 b73e 418d d4be 3a6e d8be
00000260: 7ced 81be 07d1 08bf 6256 1cbf 0504 64be
00000270: 70f6 63bf b601 d03e 2f68 693e 61b0 c5be
00000280: 3229 0cbf 4cae 243f d07f 03bf 9365 72be
00000290: d80c 8abe 5ea6 fd3d 0bc3 b2bd a340 813d
000002a0: f0b6 18bf 6b44 5e3e b4c4 0a3e 17e5 c2be
000002b0: a50c c23e 80d4 423e fc57 00bf 7e31 80be
000002c0: 0471 3f3e 7989 133e fef7 dc3e d1ff b6be
000002d0: 7fa6 a6be ed79 96bd 17a4 6f3e a317 04bf
000002e0: 2cec bf3e fb50 e33d 547c 5e3e 82ee 343e
000002f0: b84d b3be 618c d63e 1f86 983e dcb1 dbbe
00000300: 99e7 553e 2226 cb3d 1a6d ffbe b2b3 9c3e
00000310: 63fd bebd e0cf ecbe ab4d a5bd 6ea5 49be
00000320: 3b09 39bf 16fa 26be f8a4 24bf 25e1 923e
00000330: ae76 823e 3409 2e3e 68d6 1e3f f404 86bc
00000340: 0adb 86be bb66 9e3e 458c 413e 1a40 3dbf
00000350: 0a00 343f 3013 2fba ba93 0ebf 4c4f c6be
00000360: f4c6 e13e 7d9f 04be 3bfa b8be 926c edbe
00000370: be17 27be 1c9a e83e 6b42 b6be 500d dc3e
00000380: 192b 04be 4cc8 623e 1f4b b9be 6dba 283e
00000390: aa59 67bd e7ae 773e 70be 023e 308e 52bf
000003a0: 627e 86be c913 d4bd 130a a03e 5a07 5f3e
000003b0: 389f d03e e66e 403e 92fa 52be 8d20 d23e
000003c0: 03e4 183d 26c0 a83e 06b8 58bf 2da4 50bf
000003d0: c255 563e 70d7 31bf 74a6 17bf 2a08 debe
000003e0: 8ac2 dbbe f379 a13e 7ec8 1d3d a4d6 a9be
000003f0: c0fb d0be f998 f4bb c38c a33e 1f95 25bd
0.2774803 0.018960332 0.25870654 -0.5618713 -0.31983235 -0.023454566 -0.7793681 -0.45072526
-0.2987266 0.20895217 -0.00022955521 -0.365562 0.2882224 -0.67075896 -0.50395256 -0.16049711
0.28870085 0.20193918 -0.4221789 0.02097769 -0.07115279 -0.3865815 0.28701335 0.16739894
-0.5222473 -0.7094007 -0.12209976 -0.6215966 -0.48261485 0.17444326 0.33491054 -0.45904452
0.3372265 0.42402664 -0.90602946 -0.48636377 0.35136092 -0.51992214 0.343284 -0.219634
-0.7707631 0.39789242 0.32593763 0.3234531 -0.44114596 -0.51639754 -0.4564544 0.13628523
0.5309541 0.12325464 -0.065800175 -0.037492707 0.060858496 -0.44251272 -0.14423817 0.603471
-0.40063873 0.2084135 -0.5412875 -0.42148322 -0.14940843 -0.24523732 0.4894873 -0.5073292
0.12276886 -0.5771834 -0.7484825 0.32184193 0.41615206 -0.047994513 0.19006611 0.5206256
0.08926128 0.32088137 0.30741093 0.16276452 0.41085833 -0.30121297 -0.033392392 0.3300297
0.34482738 -0.8121018 -0.6132455 -0.80197644 -0.51142293 0.26181224 -0.35734725 -0.5127315
0.33662015 0.400862 0.32959226 -0.40904814 0.40454742 -0.4132821 -0.39709327 0.43100145
0.15487987 0.25474206 0.3820206 -0.0958833 -0.37323847 0.13071002 -0.08197273 0.08075141
0.35380375 0.41784966 0.33827436 -0.43628654 0.32764572 0.3394754 0.3961948 0.27578714
0.2108235 -0.6205635 0.18380289 -0.628329 -0.38640395 0.21175478 0.12487915 0.105395064
-0.6077219 0.17393975 -0.71386594 0.46147978 -0.42842382 0.116078004 -0.63306457 0.04522964
-0.25209773 -0.058627777 0.26156688 -0.55875635 0.35127062 0.5182824 -0.50279963 0.43898913
-0.7651934 0.20591827 -0.2363881 0.026062375 0.39257276 -0.34575912 -0.38277563 0.4892438
-0.33393982 -0.52772975 -0.4596923 0.3079076 0.31443778 0.35830674 -0.41514018 -0.42271596
-0.253765 -0.5344395 -0.6106931 -0.22267158 -0.8904791 0.40626305 0.22793649 -0.3861113
-0.5475036 0.64328456 -0.513669 -0.2367156 -0.26962924 0.12385248 -0.08728608 0.063111566
-0.5965414 0.21705787 0.13551599 -0.38065407 0.37900272 0.19026375 -0.50134254 -0.2503776
0.18695456 0.1440791 0.43157953 -0.35742047 -0.325489 -0.07347474 0.23402439 -0.51598567
0.37484872 0.1109943 0.21727115 0.17669109 -0.35020232 0.41903976 0.29789826 -0.42909133
0.20889129 0.09919383 -0.49887925 0.30605847 -0.093256734 -0.46252346 -0.080714546 -0.19692013
-0.7227971 -0.16306338 -0.6431422 0.28687397 0.2548117 0.16995698 0.6204591 -0.016359784
-0.2633899 0.30937752 0.18901165 -0.73925936 0.7031256 -0.00066785794 -0.5569416 -0.38732374
0.44097102 -0.12951465 -0.3612841 -0.46371895 -0.1631765 0.45430076 -0.35597548 0.42978907
-0.12907065 0.2214672 -0.36190125 0.16477366 -0.056481995 0.24187814 0.12767959 -0.8224821
-0.26268297 -0.10355336 0.31257686 0.21780148 0.40746474 0.18792304 -0.20603397 0.4104046
0.037326824 0.32959098 -0.846558 -0.8150051 0.20931152 -0.69469357 -0.5923836 -0.43365604
-0.4292186 0.31538352 0.038521282 -0.3317157 -0.4081707 -0.007464525 0.3194333 -0.040425416

fc3.bias f4 [10]
00000000: 25da 89bd b5f7 8a3b 7b12 19bd 5486 343c
00000010: fa7a abbd 5df6 05be 8a68 c93d 67d0 a03d
00000020: c3ee 503d f604 b13d
-0.06731061 0.0042409548 -0.03737114 0.011018354 -0.08373065 -0.13082261 0.09834392 0.078522496
0.05100895 0.08643524
